checkpoint/Wikipedia/20231105_160009611406.pth (torch, 339335 bytes, 18 tensors)

convs.0.weight f4 [72, 138]
0	0x3d08987d	0.03334855
1	0x3d21d356	0.039508186
2	0x3dfeb009	0.1243592
3	0x3da6854d	0.08130894
4	0x3d4f39e0	0.050592303
5	0x3d18d88a	0.037315883
6	0x3dd1d4a2	0.102456346
7	0x3d3a0ba1	0.045421246
8	0x3d49c456	0.049259506
9	0x3d9eadad	0.0774797
10	0x3db45e63	0.08807065
11	0x3b894f4d	0.0041903616
12	0x3d3d84ab	0.0462691
13	0x3d67c621	0.056585435
14	0x3d38df00	0.045134544
15	0x3c45bd51	0.012069062
16	0x3da0afb6	0.07846014
17	0xbcca4e4d	-0.02469554
18	0x3dd68db3	0.10476246
19	0x3d24cc3d	0.04023384
20	0x3d9e90f0	0.077424884
21	0x3d9f8b9a	0.07790299
22	0x3db40e25	0.0879176
23	0x3d2b111f	0.041764375
24	0x3d2801dd	0.041017402
25	0x3d7739e4	0.060357943
26	0x3d0b0520	0.033940434
27	0xbd5abd96	-0.05340346
28	0x3d92fdc8	0.07177311
29	0x3dabeb04	0.08394435
30	0x3d957c3e	0.07299088
31	0x3d77de18	0.06051454
32	0x3d504976	0.050851308
33	0x3d696003	0.05697633
34	0x3d8c6776	0.06855671
35	0x3cc43836	0.023952585
36	0x3de1f498	0.11032981
37	0x3dfee9af	0.12446915
38	0x3d0ca7f9	0.03433988
39	0x3d96575d	0.07340882
40	0x3dd0b866	0.10191421
41	0x3d11d8c0	0.0356071
42	0x3da02af6	0.07820694
43	0x3cf546bf	0.02994096
44	0x3d2b9a20	0.041895032
45	0xbce895f0	-0.028391808
46	0x3d76c313	0.06024463
47	0x3cfcc9fb	0.03085803
48	0x3d44d1af	0.048051532
49	0xbb4e1bef	-0.0031449755
50	0x3df4ab03	0.119466804
51	0x3d8eec38	0.06978649
52	0x3d7a0850	0.061043084
53	0x3d8575ff	0.065166466
54	0x3cf44c11	0.029821428
55	0x3d81c033	0.06335487
56	0x3da42f98	0.0801689
57	0x3ca1bfa8	0.01974471
58	0x3d0e1361	0.03468645
59	0x3da00b1d	0.0781462
60	0x3db00e64	0.08596495
61	0x3ce4f204	0.027947433
62	0x3cfbabdd	0.0307216
63	0x3ca77e24	0.02044589
64	0x3d118b01	0.035532955
65	0x3b9d3d0c	0.004798537
66	0x3da38312	0.07983984
67	0x3dbce82c	0.09223971
68	0x3db58818	0.088638484
69	0x3c9259ef	0.01786515
70	0x3da31fd9	0.07965059
71	0x3d605293	0.05476625
72	0x3d085e75	0.033293206
73	0x3d65af40	0.056075335
74	0x3d8235a7	0.063578896
75	0xbc8fb177	-0.017540677
76	0x3dadead3	0.08492055
77	0x3d58553d	0.052815665
78	0x3d7851c5	0.060624857
79	0x3c580568	0.013184883
80	0x3d9a58d5	0.075364746
81	0xbc713993	-0.014723199
82	0x3da7faf5	0.08202163
83	0x3d16c186	0.036805652
84	0x3d02a5b8	0.031896323
85	0x3d04718c	0.03233485
86	0x3db7ebae	0.08980499
87	0x3d6dddd1	0.05807287
88	0x3d59a992	0.05314023
89	0x3c23c680	0.009996057
90	0x3d9c9f66	0.0764759
91	0x3ba06a83	0.0048955097
92	0x3d3b5d2f	0.045743164
93	0x3bd881fa	0.0066072913
94	0x3d8229f3	0.063556574
95	0x3cb14acd	0.021642113
96	0x3da5d007	0.08096319
97	0x3d233fe1	0.03985584
98	0x3d0c7dc0	0.034299612
99	0x3c291119	0.010319018
100	0x3de97f84	0.11401275
101	0x3d6d5f7e	0.057952397
102	0xbc064a55	-0.008196433
103	0x3d3ce63a	0.046118
104	0x3d92403c	0.07141158
105	0x3d1f1f9f	0.038848516
106	0x3da520de	0.080629095
107	0x3cd16946	0.025562894
108	0x3cb666b2	0.022265766
109	0xbad8297d	-0.0016491857
110	0xba61deb0	-0.0008616252
111	0x3c9258c6	0.017864596
112	0x3dac422b	0.08411058
113	0xbd6908f1	-0.056893293
114	0x3dc62480	0.096749306
115	0x3d3255fb	0.04353903
116	0x3c5984de	0.013276307
117	0xbc0fca4e	-0.008776261
118	0x3cea1a37	0.028576953
119	0x3d836584	0.06415847
120	0x3d83b449	0.06430871
121	0x3c36f85a	0.01116761
122	0x3c808438	0.015688047
123	0x3d07ed03	0.033185016
124	0x3da66c51	0.081261285
125	0xbc14258c	-0.009042155
126	0x3c9d71e6	0.01921935
127	0xbd5f233c	-0.05447696
128	0x3dd3a9e4	0.103351384
129	0x3d3a1749	0.045432363
130	0x3c98ad60	0.01863736
131	0x3dd9c82c	0.10633883
132	0x3cf2ebc0	0.02965343
133	0xbd0ccadf	-0.03437316
134	0x3d47ccf9	0.04877946
135	0x3e83167d	0.25603095
136	0x3d48cdb4	0.0490243
137	0x3ae8eb3d	0.0017770302
138	0x3d843a66	0.06456451
139	0x3e2614fe	0.16218945
140	0x3e1c60ca	0.15271297
141	0x3e045a1c	0.12924999
142	0x3d0a81b5	0.033815105
143	0x3d058b5f	0.032603618
144	0x3defe53b	0.11713644
145	0x3dd2b89d	0.102891184
146	0x3d888d33	0.066675566
147	0x3d9f50fc	0.077791184
148	0x3db457ae	0.08805786
149	0x3aa704f8	0.001274257
150	0x3d08f47c	0.033436283
151	0x3e021cb6	0.12706265
152	0x3dec53f5	0.11539451
153	0x3a699dfe	0.00089117873
154	0x3d8da5b0	0.06916368
155	0xbd5c02ac	-0.053713486
156	0x3e2c0dc1	0.16802122
157	0x3c63f630	0.013913676
158	0x3dd493d6	0.1037976
159	0x3da35ba9	0.07976467
160	0x3d8bb85b	0.068222724
161	0x3d691889	0.056908164
162	0x3dece5f0	0.115672946
163	0x3da9691e	0.08272003
164	0x3d85f529	0.06540901
165	0xbc73f628	-0.014890231
166	0x3d8c711e	0.06857513
167	0x3d91e0de	0.07122968
168	0x3da160f7	0.07879823
169	0x3d7b3a51	0.06133491
170	0x3e033037	0.12811361
171	0x3d7f670f	0.062354144
172	0x3de43362	0.11142613
173	0x3cc76524	0.02434022
174	0x3e312bc0	0.17301846
175	0x3e10f9ad	0.14157744
176	0x3dbb35f9	0.09141154
177	0x3d219660	0.03945005
178	0x3e5840f9	0.21118535
179	0x3dcee57c	0.101023644
180	0x3d6f81be	0.05847334
181	0xbbe246d9	-0.0069054184
182	0x3d606243	0.05478121
183	0xbd870052	-0.06591858
184	0x3dc4c280	0.096074104
185	0x3c8bb587	0.017054332
186	0x3cf246d9	0.029574798
187	0xbca24f31	-0.019813152
188	0x3e4424dd	0.19154687
189	0x3d91724c	0.071018785
190	0x3c47aaae	0.012186689
191	0x3cde045b	0.027101686
192	0x3bdb1839	0.006686237
193	0x3dddd6a5	0.10831956
194	0x3dd2c285	0.10291008
195	0x3cb6c730	0.022311777
196	0x3c6fcc5c	0.014636125
197	0x3dbf74a1	0.09348417
198	0x3d9e0995	0.077166714
199	0x3aee7300	0.0018192232
200	0x3cd8d1e7	0.026467277
201	0xbd694a91	-0.056955878
202	0x3dc26e15	0.09493653
203	0x3d306407	0.043064144
204	0x3dcb69a4	0.09932259
205	0x3d640470	0.055668294
206	0x3d89974f	0.06718313
207	0x3c8103c0	0.015748858
208	0x3dd00fb4	0.10159245
209	0x3cd0777f	0.025447605
210	0x3db7694a	0.08955629
211	0x3de1deba	0.1102881
212	0x3ccf14a0	0.02527839
213	0xbd10b990	-0.035333216
214	0x3db06e24	0.08614758
215	0x3d09171d	0.03346931
216	0x3d27f7f9	0.04100797
217	0xbbe6c0f7	-0.007042046
218	0x3da132bf	0.07871007
219	0xbd35a322	-0.04434503
220	0x3e352242	0.1768885
221	0x3cb54b58	0.022130653
222	0x3d8af549	0.06785066
223	0x3c449eac	0.012000721
224	0x3d6c9f85	0.057769317
225	0x3dfb6b23	0.12276294
226	0x3ddbd4a2	0.10733916
227	0x3cc73133	0.024315452
228	0x3cad707e	0.021171805
229	0xbd1e4aa9	-0.03864542
230	0x3cb4d4c5	0.022074113
231	0xbd439842	-0.047752626
232	0x3d5c52cc	0.0537899
233	0x3a422053	0.00074053294
234	0x3dc469f6	0.09590523
235	0xbc174d79	-0.0092347795
236	0x3d94d4f9	0.07267184
237	0xbc93002e	-0.017944422
238	0x3e0e4d69	0.13896717
239	0x3dc93c5e	0.09825967
240	0x3cbff93c	0.023434274
241	0x3c407ff8	0.01174926
242	0x3dc1f733	0.09470978
243	0x3cd176a0	0.02556926
244	0x3da7be6d	0.08190618
245	0xbb8536fc	-0.0040653925
246	0xbc409f04	-0.011756662
247	0x3ca299b0	0.019848675
248	0xbaa0d509	-0.0012270521
249	0xbbb5e347	-0.005550775
250	0x3e12c3a2	0.1433244
251	0xbda64501	-0.0811863
252	0x3dee4151	0.11633552
253	0x3d7bba9c	0.06145726
254	0xbc18df6d	-0.009330613
255	0xbc920ef0	-0.017829388

convs.0.bias f4 [72]
0	0x3d4f003d	0.050537337
1	0x3e342092	0.1759055
2	0xbdafadef	-0.08578097
3	0xbcf3467a	-0.029696692
4	0xbcef2b90	-0.029195577
5	0xbdaafc3b	-0.083488904
6	0x3d7123fa	0.0588722
7	0xbd4c4e68	-0.04987946
8	0x3d84a13c	0.064760655
9	0x3d01fc46	0.031734727
10	0xbd14ad58	-0.036298126
11	0x3d4d6e39	0.050153945
12	0xbd887beb	-0.066642605
13	0x3e25ea85	0.16202743
14	0x3d6af371	0.05736107
15	0x3cf6bd98	0.030119702
16	0x3d797f2b	0.060912292
17	0x3c6490ce	0.01395054
18	0xbd127696	-0.035757624
19	0x3df1b24a	0.11801584
20	0x3d87a72e	0.06623684
21	0x3d9e3580	0.07725048
22	0x3df08059	0.117432304
23	0x3e12946d	0.14314432
24	0x3dea580e	0.11442576
25	0x3c50ed11	0.012751834
26	0x3c76b020	0.01505664
27	0x3ca28d77	0.019842846
28	0xbcf01a4a	-0.02930941
29	0x3b151057	0.0022745335
30	0xbcf643ba	-0.030061591
31	0x3d1798b2	0.037010856
32	0x3da69afd	0.081350304
33	0x3ddb6b19	0.10713787
34	0x3d8d2d08	0.06893355
35	0x3d221eae	0.03958004
36	0x3d8edf03	0.0697613
37	0xbd1f1743	-0.038840543
38	0x3d22121b	0.039568048
39	0x3cf64a58	0.030064747
40	0x3daa0a3f	0.083027355
41	0x3c97d77d	0.01853537
42	0x3c8ecddb	0.017432144
43	0x3dd475a5	0.103740014
44	0x3e08025d	0.13282152
45	0x3dacd99f	0.084399454
46	0x3d90be44	0.0706754
47	0xbdd0355d	-0.10166428
48	0xbd47a9eb	-0.04874603
49	0xbae537ca	-0.001748794
50	0x3cbf53a8	0.02335532
51	0x3cd8be76	0.026458006
52	0x3d1c591f	0.03817093
53	0x3e29334c	0.16523474
54	0x3db05109	0.08609206
55	0xb9cd1414	-0.00039115606
56	0x3cb87d86	0.022520792
57	0x3e1c0d2c	0.152394
58	0x3d7a509a	0.061112024
59	0xbd6ebe6f	-0.05828708
60	0xbdbf6b23	-0.093466066
61	0x3dff7fe6	0.124755666
62	0x3df1cd2d	0.11806712
63	0x3db38f99	0.087676235
64	0xbc17a744	-0.009256188
65	0xbca4d2fb	-0.020120135
66	0xbd9890f4	-0.074495226
67	0xbd9d61d2	-0.07684673
68	0x3e158dfa	0.14604941
69	0xbced2e20	-0.028952658
70	0x3c2bf76d	0.010496003
71	0x3dedd31e	0.11612533

convs.1.weight f4 [72, 72]
0	0xbc1b33f1	-0.009472833
1	0x3c283c5d	0.010268298
2	0xbc31a400	-0.010842323
3	0x3b30d86d	0.0026984469
4	0xbc90f3c7	-0.017694367
5	0xbb084f76	-0.0020799316
6	0x3aa00ab1	0.0012210218
7	0xbcb3bfbc	-0.021942012
8	0xbb74b48d	-0.0037339062
9	0x3ab68ed4	0.0013928064
10	0xbad9f54d	-0.0016628891
11	0xbc9ef555	-0.019404093
12	0xbbcaa68a	-0.006184404
13	0xbc31fd0a	-0.010863552
14	0x3b8b54a5	0.004252034
15	0xbc0e3b3b	-0.008681114
16	0xbc819b57	-0.015821142
17	0x3b473d57	0.0030401552
18	0x3b123883	0.0022311516
19	0xbb990ae5	-0.004670488
20	0x3c252294	0.010079045
21	0xba1e7be1	-0.0006045681
22	0xbcc3d66c	-0.023905955
23	0x3acddf6e	0.0015706846
24	0xbc4e2be6	-0.012583708
25	0x3aa9aebe	0.0012945754
26	0xbbac24f7	-0.00525343
27	0xbb80cdf1	-0.0039308
28	0xbba7c1e1	-0.0051195477
29	0xbc23d927	-0.010000504
30	0x3c9b5803	0.018962866
31	0x3b45569d	0.003011144
32	0xbc7fd540	-0.015614808
33	0x3b4da07f	0.003137618
34	0x3bafdb11	0.005366691
35	0x3c2253b0	0.009907648
36	0xbbef58c1	-0.0073042815
37	0x3cceb07e	0.025230642
38	0x3bb84eba	0.0056246193
39	0xbc74d2c8	-0.014942832
40	0xbb68681c	-0.0035462445
41	0x3ae9ed60	0.0017847233
42	0xbbf025d8	-0.00732873
43	0x3b906578	0.0044066273
44	0xbc597f6d	-0.01327501
45	0xbbc3a105	-0.0059701228
46	0xbba64145	-0.0050736987
47	0xbb8e69c7	-0.0043461057
48	0xbc11b6c3	-0.008893671
49	0xba729086	-0.0009253103
50	0xbb4c6c39	-0.0031192435
51	0x3b0dc91a	0.0021634758
52	0x3ca1bb61	0.01974267
53	0xbb9a61b4	-0.004711354
54	0x390d595a	0.00013480094
55	0xbc149953	-0.0090697585
56	0x3c0caa1b	0.008585478
57	0xbc06e596	-0.0082334485
58	0xbc81cadb	-0.0158438
59	0xbc6e00cd	-0.014526558
60	0xbc2621d9	-0.010139906
61	0x3ca2766a	0.019831855
62	0x3b043398	0.0020172354
63	0xbc87d249	-0.016579764
64	0xbca642b4	-0.020295478
65	0xbba39867	-0.004992533
66	0xb9c477b6	-0.00037473225
67	0x3a80a342	0.000981428
68	0xbbedbe1c	-0.007255329
69	0x3b794988	0.0038038213
70	0xbc5c222e	-0.013435883
71	0xbc1a9055	-0.0094338255
72	0x3c83907c	0.016060106
73	0x3ba697a5	0.0050839954
74	0xbc19fa49	-0.009398052
75	0xbb176fb3	-0.002310735
76	0x3b424005	0.002964021
77	0xbb1ef453	-0.0024254515
78	0x3bb26198	0.005443763
79	0x3c789fba	0.0151748005
80	0xbc249c5f	-0.010047047
81	0xbbd32008	-0.0064430274
82	0xbbdd696d	-0.0067569525
83	0xbcb51371	-0.022103997
84	0xbbe7c671	-0.0070732166
85	0xbbef9ab6	-0.007312144
86	0x3a0e6971	0.0005432582
87	0xbb80f0bc	-0.003934948
88	0xbcdb9e1c	-0.02680879
89	0xbc105e3b	-0.008811529
90	0x3c450edb	0.012027468
91	0xbc04fef3	-0.008117425
92	0xbc5c8049	-0.01345832
93	0x3c87becb	0.01657047
94	0x3ccdc377	0.025117619
95	0x3a114809	0.0005542045
96	0xbcbd59f2	-0.023114178
97	0x39c67a65	0.00037856694
98	0xbc86df64	-0.016463943
99	0xbbabfec8	-0.005248878
100	0x3bf8028d	0.0075686635
101	0xbb300c22	-0.00268627
102	0x3c81b02a	0.015831072
103	0x3be830a3	0.007085876
104	0x3ab6b985	0.0013940787
105	0xbc2d25f9	-0.010568135
106	0x3cab1bae	0.020887222
107	0xbb74905e	-0.0037317495
108	0x3cb1ac00	0.021688461
109	0xbacfcc54	-0.0015853741
110	0xbb5fcab8	-0.003414793
111	0x3bd3bc9d	0.0064616934
112	0x3c904e93	0.017615592
113	0xbb063d05	-0.0020483148
114	0xbbb93fb9	-0.0056533483
115	0x3c8eb1c2	0.017418746
116	0xba11a4a9	-0.00055558473
117	0x3c9f3791	0.019435676
118	0x3bca5954	0.0061751995
119	0xbc2b27c2	-0.010446491
120	0xbcbc4bbe	-0.022985335
121	0x3ac7ee4d	0.0015253514
122	0x3cbbd693	0.022929465
123	0xbbdac299	-0.00667603
124	0xba9265fd	-0.0011169311
125	0x3b833bcf	0.0040049325
126	0xbc55897b	-0.013033266
127	0xbb15de39	-0.002286805
128	0x39cfd526	0.00039640925
129	0xbbbc3b11	-0.005744346
130	0xbc2b25ea	-0.010446051
131	0xbbcb692a	-0.006207605
132	0x3c6a5478	0.0143023655
133	0xbc4a21ca	-0.0123371575
134	0x3a7ce6bb	0.00096474186
135	0x3a86c7a3	0.0010282885
136	0x3ca88be1	0.020574512
137	0x3b8e5e0b	0.004344707
138	0x3cabde60	0.02098006
139	0xbbc0baa0	-0.0058816224
140	0x3ca9d15f	0.020729719
141	0xbcbd4971	-0.023106309
142	0xbc4b08fd	-0.01239228
143	0x3cfd975a	0.03095596
144	0x3c826e9a	0.01592188
145	0x39c2614b	0.00037075052
146	0x3cae0f4d	0.02124753
147	0xbb90ca9a	-0.0044186832
148	0xbb654adf	-0.0034987254
149	0x3cc122d7	0.023576183
150	0xbcacfbdb	-0.021116188
151	0xbc42966b	-0.011876683
152	0xbbafbe31	-0.0053632488
153	0x3bf395cf	0.00743363
154	0xbc85099c	-0.016239934
155	0x39e57d23	0.00043771518
156	0x3a8cbada	0.0010736838
157	0xbb79ee59	-0.003813645
158	0xba7218bb	-0.00092352525
159	0x3ccab087	0.024742378
160	0xbc0a535c	-0.008442726
161	0xbc8725a7	-0.016497446
162	0xbcc699a8	-0.02424319
163	0xbb87494a	-0.00412861
164	0xb96bf034	-0.00022500829
165	0xb9918654	-0.00027756637
166	0xbc15afd5	-0.00913616
167	0x3cc8bed5	0.024505058
168	0xbc0ce7eb	-0.008600215
169	0xbc25eb17	-0.010126851
170	0x3be10527	0.0068670693
171	0x3c0385bf	0.008027493
172	0x3a490a5a	0.0007669084
173	0x3a3ae1da	0.00071289914
174	0x3a632ac8	0.00086657377
175	0xb9c3a985	-0.000373196
176	0xb99c129a	-0.00029768498
177	0x3cc835cb	0.024439713
178	0x3be4cd13	0.0069824546
179	0x3b737392	0.0037147743
180	0xbccef6dc	-0.025264196
181	0x3c4b181d	0.012395886
182	0x3c1900a7	0.009338534
183	0x3c0cee26	0.008601701
184	0x3c1fc91e	0.00975254
185	0xbc86d9c3	-0.016461259
186	0xbabfd34e	-0.0014635117
187	0xbb0fc370	-0.0021936558
188	0x3c8d600b	0.01725771
189	0x391bc93f	0.00014856922
190	0xbb92ea17	-0.004483472
191	0x3c39ad81	0.01133287
192	0x3b4f857f	0.0031665263
193	0x3baccb0d	0.005273229
194	0xbab75c69	-0.0013989332
195	0x3ca43f4e	0.020049717
196	0xbca82fc1	-0.020530583
197	0xbb924597	-0.004463862
198	0xbc2aeb5e	-0.0104320925
199	0x3b802c51	0.003911533
200	0x3c65cb3a	0.014025504
201	0x3bb97f95	0.005660961
202	0x3c0dd89a	0.008657599
203	0x3bc78928	0.0060893483
204	0x3c3c3f83	0.011489752
205	0xbc2f6832	-0.010705994
206	0xbbcbeb61	-0.0062231277
207	0xbc91bcb2	-0.017790172
208	0xbbd1ec38	-0.0064063333
209	0xba940b1c	-0.0011294815
210	0xbcc28206	-0.02374364
211	0x3b27874b	0.0025562819
212	0x3a5faa01	0.00085321075
213	0x3c28c25a	0.010300243
214	0xbba6866a	-0.0050819414
215	0xbb326e11	-0.002722625
216	0x3bc7e5ea	0.006100406
217	0x3bc1e529	0.0059172106
218	0x3c29e8da	0.010370458
219	0x3c2b1b69	0.010443547
220	0x3ae339d2	0.0017335957
221	0x3764674f	1.3613912e-05
222	0xbbd1dc73	-0.0064044534
223	0xbb8faf40	-0.004384905
224	0x3c3b5e0f	0.011436
225	0xbc066ebb	-0.008205111
226	0xbc26752c	-0.010159772
227	0x3c992f98	0.018699452
228	0x3c2c2e10	0.010509029
229	0xbc2d209f	-0.0105668595
230	0xb9379d4e	-0.0001751084
231	0x3c611201	0.013737203
232	0xbcafd484	-0.02146364
233	0xbba61d80	-0.0050694346
234	0xbad3bb92	-0.0016153923
235	0xbccf775b	-0.025325468
236	0xbbda300a	-0.0066585587
237	0xbb123bfc	-0.0022313586
238	0xbc28d144	-0.010303799
239	0xbca6d0f3	-0.020363307
240	0x3c28eb93	0.0103100715
241	0xbbd935e7	-0.00662874
242	0xbbac0219	-0.0052492735
243	0xbb7fb822	-0.0039019664
244	0xbbd53b56	-0.0065073175
245	0x3c2865a9	0.010278144
246	0x3a1300d1	0.00056077266
247	0xbb8a61e5	-0.0042230957
248	0xbcb74589	-0.022372024
249	0xbb361d0c	-0.002778831
250	0xba815008	-0.000986577
251	0xbc2ed266	-0.01067028
252	0x3baa3a8a	0.0051949667
253	0x3ba22a05	0.004948857
254	0x3bfcadeb	0.0077111623
255	0xba1a0de1	-0.0005876702

convs.2.weight f4 [72, 72]
0	0xba9fd970	-0.0012195539
1	0x3bcf19e3	0.0063202246
2	0x3cc71129	0.024300175
3	0xbc162179	-0.009163254
4	0x3c0c6dd3	0.008571106
5	0x3aa74ebd	0.0012764555
6	0x3c50f097	0.012752674
7	0xbc99a1b1	-0.018753858
8	0x3b758f45	0.0037469428
9	0x38ee7064	0.00011369659
10	0xbc9a2d74	-0.018820502
11	0xbae71818	-0.0017631082
12	0x3a1018a5	0.00054968364
13	0xbca065d3	-0.019579804
14	0xbbdd56f2	-0.0067547495
15	0xbc9b9c3d	-0.018995399
16	0xbc607737	-0.013700298
17	0xbbe4ef31	-0.0069865217
18	0x3bbd3e7b	0.0057752705
19	0xbc0f8711	-0.00876023
20	0xbc1bd6cf	-0.009511664
21	0xbc460eb0	-0.012088463
22	0x3b2dd29a	0.0026523233
23	0xbbedefb2	-0.00726124
24	0xbc810737	-0.01575051
25	0x3a31cf1b	0.0006782875
26	0x3cb5b1d0	0.022179514
27	0xbb6beef1	-0.0036000574
28	0x3c10c56e	0.008836133
29	0xbb7b5a99	-0.003835356
30	0x3b2538ac	0.002521078
31	0xbb634445	-0.0034678143
32	0xbc9581a7	-0.0182503
33	0x3aae75da	0.0013310269
34	0xbac4b214	-0.0015006685
35	0x3b74ead1	0.0037371407
36	0xbcb1e620	-0.021716177
37	0x3b1b9825	0.0023741808
38	0x3beb6991	0.0071842154
39	0x3bd56001	0.0065116887
40	0xbbc319a2	-0.0059539834
41	0x3c1f5b1d	0.009726313
42	0x3c004256	0.007828316
43	0x3bc5990b	0.006030207
44	0xbcb0b2b7	-0.021569593
45	0xb91bd42e	-0.00014860995
46	0xbcbae38a	-0.022813577
47	0x3b7b321d	0.003832943
48	0x3c25da2d	0.010122818
49	0xb9f9f8be	-0.00047678308
50	0xbc8da828	-0.017292097
51	0xbb86e617	-0.0041167843
52	0x3b6258a0	0.0034537688
53	0xbbbb25c5	-0.0057112896
54	0x3c648b86	0.013949281
55	0x3c89f3a9	0.016839819
56	0x3ca43974	0.020046927
57	0x3c266b7c	0.010157462
58	0xb9f1d578	-0.0004612615
59	0xbba4cc1f	-0.005029216
60	0x3b413dc4	0.0029486278
61	0x3a061922	0.00051154394
62	0x3c8d7f2a	0.01727255
63	0xbc2d133c	-0.010563668
64	0xbc250307	-0.010071523
65	0xba4d5263	-0.0007832406
66	0xbad6cd50	-0.0016388092
67	0xbb3a988b	-0.002847227
68	0x3ca6baf6	0.020352822
69	0x3bc16014	0.005901346
70	0xbc8f1857	-0.01746766
71	0x3bbea0cd	0.005817509
72	0x3c1a6419	0.009423279
73	0xbc450407	-0.012024886
74	0x38fcef44	0.00012060863
75	0x3ab9db62	0.0014179761
76	0x3b82fa22	0.0039971033
77	0x3cb4de39	0.02207862
78	0x3c1e06b6	0.009645155
79	0xbc092527	-0.008370674
80	0x39240a94	0.000156442
81	0xbc8876ab	-0.016658148
82	0xbbbe6b56	-0.0058111353
83	0xbc69cb35	-0.01426964
84	0x3c113a5b	0.008864011
85	0x3aa5e287	0.0012656011
86	0x3a6c05dd	0.0009003559
87	0x3c1adcc2	0.009452047
88	0xbc3bc299	-0.01145997
89	0x3b661b0d	0.0035111338
90	0xbc098067	-0.00839243
91	0x3bbd7f79	0.005783018
92	0xbc0402ff	-0.008057355
93	0xbc4d4a23	-0.012529883
94	0x3bd1f869	0.0064077866
95	0x3ba066dc	0.0048950743
96	0xbc799702	-0.015233757
97	0x3b29f3bf	0.0025932638
98	0x3bbaf136	0.005705024
99	0xbc28ce5d	-0.010303107
100	0x3bf41786	0.0074490933
101	0xbb019f75	-0.0019778882
102	0x3b627354	0.0034553604
103	0x39d39e0d	0.00040362813
104	0xbb7ca33e	-0.0038549448
105	0xbc5039e1	-0.012709112
106	0x3a8b7e68	0.001064253
107	0xbba8749c	-0.005140854
108	0xbc064e17	-0.008197329
109	0x3a58a3aa	0.0008264134
110	0x3c0c243c	0.008553561
111	0x3cb50a1b	0.022099545
112	0x3c3e4aec	0.011614542
113	0xbc5c5cf8	-0.0134499
114	0x3aa5b09a	0.0012641132
115	0x3c8542a3	0.016267126
116	0xbc19e064	-0.009391878
117	0xbc78c916	-0.015184661
118	0xbcb59af3	-0.022168612
119	0x39e9d915	0.00044602962
120	0xba663691	-0.0008781935
121	0xbb4a80c4	-0.0030899504
122	0xbca2f0ad	-0.019890154
123	0xbabcdcf1	-0.0014409107
124	0xbb602424	-0.003420123
125	0x3c0019d6	0.00781866
126	0xbaa7cc1c	-0.0012801918
127	0xbca06337	-0.01957856
128	0x3c0c9bd8	0.008582078
129	0x3c1fe677	0.009759537
130	0xba7f623e	-0.0009742117
131	0xbb4a0203	-0.0030823953
132	0xbaa226d4	-0.0012371191
133	0x3c1d3896	0.009596011
134	0x3c1e1178	0.00964772
135	0xbc17466e	-0.0092331
136	0xbbf500ea	-0.0074769156
137	0xbbfa2384	-0.0076336283
138	0x3c2f4f6d	0.010700089
139	0x3bd9918b	0.0066396645
140	0xbc11eb72	-0.008906232
141	0xba12b110	-0.00055958424
142	0xbb2e853d	-0.002662971
143	0xbc089a80	-0.008337617
144	0xbcce8365	-0.025209138
145	0x3c72a75c	0.014810409
146	0x3c77fa33	0.015135336
147	0xbcc9b347	-0.024621619
148	0x3cacd890	0.021099359
149	0x3c2bc5e5	0.010484193
150	0x3c0cfa19	0.00860455
151	0xbcbb64d8	-0.022875234
152	0x3cbd25fa	0.023089398
153	0x3c25c8ef	0.010118707
154	0x3b157493	0.002280508
155	0x3be51c50	0.0069919005
156	0x3bcee293	0.006313631
157	0x3c139497	0.009007595
158	0xbba1af93	-0.00493426
159	0x3b3013c6	0.0026867255
160	0x3c600e5c	0.013675299
161	0x3a266a48	0.00063482346
162	0xbc28d277	-0.010304085
163	0x3b3f44f7	0.0029185393
164	0x3bf53176	0.007482703
165	0x3c194ec3	0.009357157
166	0x39b20361	0.00033953323
167	0x3c97e0d5	0.018539825
168	0xbb062d35	-0.0020473723
169	0xbbabc77d	-0.0052422867
170	0x3bdc2d25	0.006719249
171	0x3b4d1d64	0.0031298036
172	0xbb8f3e2b	-0.0043714247
173	0x3c247a5d	0.010038939
174	0x3cc097ed	0.023509944
175	0xbbec873f	-0.007218271
176	0x3b02500f	0.0019884144
177	0xbcceb32e	-0.025231924
178	0x3c94d271	0.018166753
179	0x3b65dd82	0.0035074656
180	0x3b14b99b	0.0022693637
181	0x3a8940e8	0.0010471614
182	0x3c9a1520	0.018808901
183	0x3c1021f3	0.008797157
184	0x3ca290ae	0.01984438
185	0x3b3c8b6c	0.0028769625
186	0xbccbe81f	-0.024890957
187	0xbab6341d	-0.0013901029
188	0xbadf0450	-0.0017014835
189	0xb9836801	-0.00025063756
190	0x3b4fcd24	0.0031707967
191	0x3aa7ed12	0.0012811741
192	0x3cc79bb3	0.024366235
193	0x3a55eb0e	0.0008160331
194	0x3c0ca56e	0.008584363
195	0xb818a734	-3.6395344e-05
196	0x3a50def7	0.00079677947
197	0x3af29673	0.0018507972
198	0xbc56a164	-0.013100002
199	0xbb1f53f5	-0.0024311517
200	0x3c54c675	0.012986769
201	0xbbf5fa0f	-0.007506616
202	0x3c8a60bf	0.016891835
203	0xbb24728e	-0.0025092694
204	0xbb886b22	-0.004163162
205	0x3c2bc4eb	0.010483961
206	0xbc54af64	-0.0129812695
207	0x3b8c2259	0.0042765555
208	0x3c35e328	0.011101522
209	0xbbd126df	-0.0063828076
210	0xbc22e6b6	-0.009942701
211	0x3b9f1791	0.0048551043
212	0x3c04b1d2	0.008099036
213	0xbc2a7f90	-0.01040639
214	0x3bbd4325	0.0057758265
215	0x3cc88af7	0.024480326
216	0xbc1fc870	-0.009752378
217	0x3c8e1c99	0.01734762
218	0xbc2ada85	-0.010428076
219	0x3c027a24	0.007963691
220	0x39ab658e	0.00032691326
221	0x39f567cd	0.0004680738
222	0xbc265e2e	-0.01015429
223	0xbb119ebd	-0.002221986
224	0xbc933f8d	-0.01797464
225	0x3cb9afa6	0.022666764
226	0x3a9fca5f	0.0012191049
227	0x3bf43301	0.007452369
228	0xbb9ae08e	-0.004726476
229	0x3a31fa15	0.0006789279
230	0x3c9599fb	0.0182619
231	0x3cb55992	0.022137437
232	0x3ab84dd7	0.0014061284
233	0xbba47c9d	-0.005019738
234	0xbb9506d1	-0.0045479317
235	0xbb2204ea	-0.0024722167
236	0x3c7f042f	0.015564962
237	0xbc2c6bda	-0.010523761
238	0x3b235a84	0.0024925778
239	0x3ba28d98	0.004960727
240	0x3ab354ab	0.0013681849
241	0xba3cd7a5	-0.00072037644
242	0x3bebd340	0.007196814
243	0x37b627c5	2.171461e-05
244	0x3c287bf7	0.010283462
245	0x3b304480	0.0026896298
246	0xbbe7863a	-0.0070655616
247	0xbb5d6ea2	-0.0033787866
248	0x3cb44451	0.022005232
249	0xbc050740	-0.008119404
250	0x3c22c3ad	0.009934348
251	0xb995a0df	-0.00028539353
252	0xbb7fe22d	-0.0039044723
253	0x3c49736d	0.012295586
254	0x3bb2f306	0.0054610996
255	0xbcb79512	-0.02240995

convs.3.weight f4 [72, 72]
0	0xbc0c4f56	-0.008563837
1	0x3a8765d1	0.0010330026
2	0xbc4b1f61	-0.012397618
3	0x3bd950d6	0.006631951
4	0x3c041083	0.008060577
5	0x3c231404	0.009953503
6	0xbab5176c	-0.0013816184
7	0x3c1a7522	0.009427341
8	0xbc3071d9	-0.010769331
9	0xba0eb0b4	-0.0005443201
10	0x3c45aa85	0.012064581
11	0x3c2021d5	0.009773691
12	0xbcaf34ec	-0.02138754
13	0xbc99533c	-0.018716447
14	0xbccaba22	-0.024746958
15	0xbc90f7d9	-0.017696308
16	0xbaead328	-0.0017915713
17	0x3b4cb353	0.0031234815
18	0xba579cd7	-0.000822497
19	0xbccc7547	-0.024958266
20	0xbc1e3ea1	-0.009658487
21	0xbc40620d	-0.011742127
22	0x3c3c97af	0.011510774
23	0xbb6fe280	-0.003660351
24	0xbcc0429e	-0.023469266
25	0x3b920126	0.0044557033
26	0x3c0f6707	0.008752591
27	0x3bb0a529	0.0053907824
28	0xbb04f39f	-0.002028681
29	0x3c00ff3b	0.007873352
30	0x3ac5712d	0.0015063636
31	0x3b0b7fdc	0.0021285927
32	0x3c19749b	0.00936618
33	0xbc03c822	-0.008043321
34	0xb9e57eda	-0.00043772795
35	0xbb836d4f	-0.0040108333
36	0x3b1319b1	0.0022445733
37	0x3ba23308	0.004949931
38	0x3a159c21	0.0005707164
39	0x37c0df62	2.2992204e-05
40	0xba10de98	-0.0005526333
41	0x3cbae4e9	0.022814231
42	0xbbc90919	-0.0061351177
43	0x3be254e7	0.006907094
44	0x3bfb21c4	0.0076639373
45	0x3a8fd271	0.0010972751
46	0x3c815af2	0.015790436
47	0xbc69a22f	-0.014259859
48	0xbb0ccd81	-0.0021484795
49	0x3c005a41	0.007834018
50	0x3c5dac8e	0.01352991
51	0x3b14bc4a	0.0022695237
52	0xbb508deb	-0.003182287
53	0xbbc0944a	-0.0058770524
54	0xbc15d55b	-0.009145106
55	0xba5c08e8	-0.0008393661
56	0x3b89f1bf	0.0042097266
57	0xbb03e127	-0.0020123215
58	0xbbc6e95a	-0.006070298
59	0xbab24588	-0.0013601044
60	0x39a056d0	0.00030582258
61	0x3cd1a35b	0.02559059
62	0x3b45562f	0.0030111184
63	0xba820356	-0.0009919207
64	0xbb56c0d0	-0.0032768734
65	0xbc3a05fe	-0.011353968
66	0xbb893266	-0.004186916
67	0x3b98a52e	0.004658363
68	0x3ca576d2	0.02019826
69	0xbbc7233f	-0.0060771997
70	0xbc40f725	-0.011777674
71	0x3c089bf7	0.008337966
72	0xba342b1a	-0.0006872878
73	0x3c95f525	0.01830537
74	0x3cd1b6fc	0.025599949
75	0x3c8ccc96	0.017187398
76	0x3ccf428a	0.025300283
77	0xbb52859c	-0.0032123094
78	0xbb922ab2	-0.004460656
79	0x3c2d3c86	0.010573512
80	0x3bbbcc6c	0.005731156
81	0xbb05b90c	-0.0020404486
82	0xbbbf6b26	-0.0058416305
83	0x3b27cdfd	0.0025604956
84	0xb8eba6ca	-0.0001123674
85	0xba25a544	-0.0006318877
86	0x3bea6572	0.0071532065
87	0x3cb205a6	0.021731209
88	0xbc2c7e96	-0.010528227
89	0xbb9b31c1	-0.0047361557
90	0x3c947ccc	0.018125914
91	0x3af99e99	0.0019044458
92	0x3b290693	0.0025791272
93	0xbcc3d9de	-0.023907598
94	0x3c2b362a	0.010449925
95	0x3ca097e0	0.01960367
96	0xbc289cb2	-0.010291265
97	0xbcad67be	-0.021167632
98	0xbb569fe6	-0.0032749115
99	0x3bcf6cec	0.006330123
100	0xbc84b86e	-0.016201224
101	0xbcc360f9	-0.023849951
102	0xbbf915e5	-0.007601487
103	0x3bff968f	0.0077999304
104	0x3c64734e	0.013943506
105	0x3bf79e33	0.0075567006
106	0x3c7f90a2	0.015598448
107	0x3cd79c03	0.02631951
108	0xbb9dd4b0	-0.004816614
109	0x3c1ee8bc	0.009699043
110	0x3c2391d7	0.009983501
111	0x3c57b170	0.013164863
112	0xbbd1c5da	-0.0064017596
113	0x3b2c39b4	0.002627951
114	0xbbb9b41a	-0.0056672217
115	0xbbb24a53	-0.005440989
116	0xbbe681ee	-0.007034532
117	0xbba13391	-0.0049194773
118	0x3a923049	0.0011153306
119	0xba8a8f89	-0.0010571341
120	0xbc46806e	-0.012115581
121	0xbb61637d	-0.0034391575
122	0x3b2b8187	0.0026169734
123	0x3bc6b620	0.0060641915
124	0xbcc0ef47	-0.023551596
125	0xbba2b138	-0.004964974
126	0x3c5d9403	0.013524058
127	0x3cc19b9d	0.023633773
128	0xbbd1b660	-0.0063999146
129	0xbb067072	-0.00205138
130	0xbcccaec9	-0.024985688
131	0xbba9a074	-0.005176598
132	0xba4d0231	-0.0007820456
133	0xbc8f828c	-0.017518304
134	0x3c64ab74	0.013956893
135	0xbba36c51	-0.0049872776
136	0x3929803f	0.00016164871
137	0x3ca3d728	0.020000055
138	0xbca290a3	-0.019844359
139	0x3aa03711	0.0012223442
140	0x3b86ef76	0.0041179014
141	0xbbcaa885	-0.00618464
142	0xbbd7af00	-0.006582141
143	0x3c939721	0.0180164
144	0x3b92ad69	0.0044762385
145	0xbbad2a4c	-0.005284583
146	0x3c110008	0.008850105
147	0xbbb03214	-0.0053770635
148	0x3ccfc041	0.025360228
149	0x3b49d6f6	0.0030798293
150	0x3ba160f9	0.00492489
151	0x3b07e645	0.0020736617
152	0x3c29b285	0.010357504
153	0xbc256b24	-0.010096345
154	0xbcc2c72e	-0.023776617
155	0x3bec85ba	0.00721809
156	0xbc21dd13	-0.009879368
157	0xbca2f9ad	-0.019894445
158	0x3aee4be4	0.0018180576
159	0x3c71b5e8	0.0147528425
160	0xbbdcf205	-0.006742718
161	0xbb8e999d	-0.004351808
162	0x3b1d91ea	0.002404327
163	0x3c272d1d	0.010203627
164	0xbb92ceef	-0.004480235
165	0xbbab567f	-0.005228817
166	0x3cd169b8	0.025563106
167	0xbb65ef63	-0.0035085313
168	0xbc8c9176	-0.017159205
169	0x3ca82b95	0.020528594
170	0xbbfb3318	-0.007666003
171	0x3a10c313	0.00055222324
172	0x3c40ddbe	0.011771617
173	0x3c8766e0	0.016528547
174	0x3c02527d	0.007954237
175	0xbb72cfb4	-0.003705007
176	0xbbc93cb5	-0.00614127
177	0x3b828afa	0.0039838525
178	0x3cb6464d	0.022250319
179	0x39a72db0	0.00031886762
180	0xbacb2cc6	-0.0015501014
181	0xbb1cbbdb	-0.0023915682
182	0xbb966869	-0.0045900834
183	0x3c975f7f	0.018478153
184	0xbc1b10c8	-0.00946445
185	0x3ae2fa32	0.0017316996
186	0x39e6af55	0.0004399965
187	0x3c1d5afa	0.00960421
188	0x3b96e0c9	0.004604433
189	0xbc28cc80	-0.010302663
190	0x3ba23619	0.0049502966
191	0xb91b7458	-0.00014825293
192	0x3ae88836	0.0017740789
193	0x3c94a2b6	0.018143993
194	0x3b518126	0.0031967848
195	0x3cb42064	0.021988101
196	0xbba59ac1	-0.0050538485
197	0x3bc2129c	0.0059226286
198	0x3b8296c8	0.0039852597
199	0xbb4fb434	-0.0031693103
200	0xbb449402	-0.0029995446
201	0xbc4d83db	-0.012543644
202	0xbc0ba679	-0.008523577
203	0xbb806f00	-0.003919482
204	0x3aca0c73	0.0015415087
205	0x3ba08a65	0.0048993104
206	0xbbc391a8	-0.0059682913
207	0xbb525c92	-0.0032098633
208	0xb9886565	-0.00026015486
209	0xbc23658c	-0.009972941
210	0x3a61a242	0.0008607247
211	0xbba6f431	-0.005095028
212	0xbc00b135	-0.007854749
213	0xbc2a325b	-0.010387982
214	0xbc22c292	-0.0099340845
215	0x3b00cad1	0.0019652138
216	0x3b46f417	0.0030357891
217	0xbcced094	-0.025245942
218	0x3b15f763	0.002288305
219	0xb846749e	-4.7315487e-05
220	0x3c254d64	0.010089252
221	0x3c0a68a4	0.0084478
222	0xbb771f8a	-0.0037708008
223	0x3a931e68	0.0011224272
224	0x3c0dbeef	0.008651479
225	0xb8b73073	-8.7351444e-05
226	0xbc8076dd	-0.015681678
227	0x3ad02829	0.0015881109
228	0xb831ee9a	-4.2422304e-05
229	0xbc72897c	-0.014803287
230	0x3c1eead4	0.009699542
231	0x3a9fdd0e	0.0012196617
232	0xbcb1f375	-0.021722535
233	0x3ca51543	0.02015174
234	0xbbfde524	-0.007748263
235	0xbca42390	-0.020036489
236	0x3b44b2ec	0.0030013872
237	0xbc112f11	-0.008861319
238	0x3a7c5be2	0.0009626729
239	0xbc2898df	-0.010290354
240	0xbccc5cd5	-0.02494661
241	0xbc6b34fe	-0.014355896
242	0xbb0b5005	-0.0021257412
243	0xb96d0c8a	-0.00022606752
244	0xbc81153c	-0.015757196
245	0xbc2839ca	-0.010267684
246	0x3a21f6c3	0.0006178433
247	0x3c0cf349	0.008602926
248	0xbc0ee8ef	-0.008722528
249	0xbcd3a68a	-0.025836248
250	0x3bee77a0	0.007277444
251	0xbb2437c1	-0.0025057646
252	0x3ccd9bb1	0.025098654
253	0xbb74d41d	-0.0037357875
254	0x3b84e9fe	0.0040562144
255	0xbc875ac1	-0.016522767

convs.4.weight f4 [72, 72]
0	0x3cd4cf09	0.025977628
1	0xbca5c75a	-0.02023666
2	0x3cb4c2f6	0.02206562
3	0xbabeca36	-0.0014556113
4	0x3cb53cdf	0.022123752
5	0xbc292534	-0.010323811
6	0x3c3bccee	0.011462433
7	0x39a1e828	0.00030881283
8	0x3b4806bd	0.0030521594
9	0xb9290c0a	-0.00016121581
10	0x3b2bd053	0.00262167
11	0x3bd9d737	0.00664797
12	0x3cc6c4ec	0.024263822
13	0x3a62a1d3	0.00086453295
14	0x3c17a280	0.009255052
15	0x3acecc8c	0.0015777512
16	0xbc9de785	-0.019275436
17	0xbc7758a5	-0.015096818
18	0x3aad52c2	0.0013223516
19	0xbb2c6e33	-0.00263108
20	0x3c02ceed	0.007983905
21	0x3b8dab69	0.004323412
22	0xbb40c81d	-0.0029416152
23	0x3b55657a	0.0032561705
24	0xbb486019	-0.0030574857
25	0xbc133421	-0.0089845965
26	0xbcc544f7	-0.024080737
27	0xbc8c3763	-0.017116254
28	0xbaf9f86c	-0.0019071228
29	0xbbe79535	-0.0070673474
30	0x3aa20385	0.0012360668
31	0xbaa0274d	-0.0012218744
32	0xbb89d6f7	-0.004206534
33	0xbbdde8e7	-0.006772149
34	0xbac29288	-0.0014844695
35	0x3c1e372a	0.009656707
36	0x3caf3b1f	0.021390496
37	0xbcb7ded6	-0.022445124
38	0x3a428472	0.00074202486
39	0xbb30e563	-0.0026992194
40	0x3b6172ac	0.0034400625
41	0x3b9c8e82	0.0047777304
42	0x3c4ded96	0.012568852
43	0xbcbbc004	-0.022918709
44	0x3b12224b	0.0022298272
45	0x3c0642e8	0.008194663
46	0xbb97a4a4	-0.004627781
47	0x3c1cd62f	0.00957255
48	0xbca5b941	-0.020229938
49	0x3c1972f4	0.009365786
50	0x3c233c7b	0.00996315
51	0x3b3c7f5f	0.0028762443
52	0x3cbee969	0.023304658
53	0xbcb709a0	-0.022343457
54	0xbaadd799	-0.0013263106
55	0xbc217fa4	-0.009857092
56	0x3a7b84fb	0.0009594706
57	0xbaff7819	-0.0019490748
58	0x3c21d17a	0.009876603
59	0x3b45e0ad	0.0030193732
60	0x3b190e0a	0.0023354315
61	0xbc33d30a	-0.010975609
62	0x3b7d7656	0.003867527
63	0x3c01d955	0.007925351
64	0x3c15b3df	0.009137123
65	0x3b03c4d7	0.002010634
66	0xbba8c5a6	-0.0051505147
67	0x3a9a8751	0.0011789595
68	0x3cba820f	0.022767095
69	0xbb881026	-0.0041523157
70	0xbc94b27b	-0.018151512
71	0xbb1354e9	-0.002248103
72	0x3c6a3b5d	0.01429638
73	0x3cc5aa23	0.02412898
74	0x3c1fa7c2	0.009744586
75	0xbcc78f39	-0.024360286
76	0xbb91ed37	-0.004453327
77	0xbbad9693	-0.005297491
78	0xbbcd79e8	-0.006270636
79	0x3c0bede9	0.008540609
80	0xbb6a7a1d	-0.0035778352
81	0x3c679bae	0.014136238
82	0x3ac9fbe0	0.0015410148
83	0xbc46cb1a	-0.012133384
84	0x3caba46a	0.020952422
85	0xbc1fa72e	-0.009744449
86	0xbcaf76c7	-0.021418942
87	0xbb809f3b	-0.0039252318
88	0xbacf05f5	-0.0015794622
89	0x3c089dca	0.008338401
90	0x3bdc65d0	0.006726004
91	0x3a138167	0.00056268874
92	0x3c35dfc9	0.011100718
93	0x3c6aa68a	0.014321933
94	0xbc0eab53	-0.008707839
95	0xbb335459	-0.0027363508
96	0xbcbc268f	-0.022967605
97	0xbcc3597c	-0.02384638
98	0xbc03b7db	-0.00803944
99	0xbb99840c	-0.0046849307
100	0x3b2c1aab	0.0026261013
101	0xbb630fb6	-0.0034646816
102	0xbb2f6098	-0.0026760455
103	0xbc15c464	-0.009141061
104	0xbc1ae993	-0.0094551025
105	0xbb4cfe73	-0.0031279593
106	0xbb331b14	-0.0027329372
107	0xbb756c84	-0.0037448714
108	0xbc1e6442	-0.009667458
109	0x3b974b0a	0.0046170997
110	0x3c3345b3	0.010941911
111	0x3b20adc3	0.0024517633
112	0xbb48c3c2	-0.003063426
113	0x3cc9a5c6	0.02461518
114	0xbc436c00	-0.011927605
115	0xbc7e6a5a	-0.015528286
116	0xba7cadc5	-0.0009638931
117	0xbc514938	-0.012773804
118	0x3c0d461d	0.008622673
119	0x3a318a25	0.00067725993
120	0xbc50e33d	-0.01274949
121	0xbb62ccb0	-0.0034606867
122	0x3c36c7d3	0.01115604
123	0x3bc17c83	0.0059047355
124	0xbc73aa2b	-0.014872114
125	0xbb2d7ba5	-0.0026471403
126	0xbb207226	-0.00244821
127	0xbc1c9ccd	-0.009558869
128	0xbbec5526	-0.007212299
129	0xb931423a	-0.00016904707
130	0x3cb87239	0.022515403
131	0xbcb117dd	-0.021617824
132	0x3c26ef21	0.010188849
133	0x3c186b18	0.009302877
134	0x3a326836	0.000680569
135	0xbc244fc6	-0.010028785
136	0xbb90c90b	-0.0044184974
137	0xbcaa1d86	-0.020766031
138	0xbb4f09c8	-0.0031591523
139	0xbbc5c5ca	-0.006035541
140	0x3b1a9099	0.0023584722
141	0x3cafc3a2	0.02145559
142	0x3bee2ff7	0.0072689014
143	0x3b98bf9f	0.004661515
144	0x3c7483f3	0.014924037
145	0x3b07a844	0.002069966
146	0xbcb05b08	-0.021527782
147	0x3988c4b4	0.00026086497
148	0xb9355a3f	-0.00017295124
149	0x3c2f1eaa	0.010688463
150	0xbb89b7a5	-0.0042028003
151	0xbc04a410	-0.008095756
152	0x3c0877ae	0.008329315
153	0xbb51b4eb	-0.0031998705
154	0x3cd341ba	0.025788177
155	0xbc89d92f	-0.016827194
156	0x3c2c0668	0.010499574
157	0x3b4834d9	0.0030549078
158	0xbc662804	-0.014047626
159	0x3b497d23	0.0030744753
160	0x3c04fa42	0.008116307
161	0x3cd45727	0.025920464
162	0xbc1223f2	-0.008919703
163	0x3af87a43	0.0018957335
164	0x3c563a6e	0.013075454
165	0xbc270051	-0.0101929465
166	0xbbe76620	-0.007061735
167	0xbbe6a714	-0.0070389602
168	0xba84833d	-0.0010109913
169	0x3ab9e210	0.0014181752
170	0x3b962e60	0.004583165
171	0x3c0db8ad	0.008649987
172	0xbc07d513	-0.008290547
173	0xbc7cd3a1	-0.015431316
174	0xbbf81c57	-0.0075717377
175	0x3b6534db	0.0034974131
176	0xbbcb8202	-0.0062105665
177	0x394fe9e4	0.0001982819
178	0x3ae6ac4f	0.0017598959
179	0xbbe2e5aa	-0.0069243507
180	0xbc20d5c4	-0.009816591
181	0xba98e954	-0.0011666217
182	0x3b361506	0.0027783527
183	0xbc2aac5e	-0.010417072
184	0x3c29ee13	0.010371703
185	0xbc6dcfd8	-0.014514886
186	0xba1e6467	-0.0006042183
187	0xbbac615c	-0.0052606296
188	0x3b410509	0.0029452464
189	0x3b0457d2	0.0020193947
190	0x3b51222c	0.0031911237
191	0xbbdcce8b	-0.006738489
192	0xbaae452e	-0.0013295764
193	0xb9789577	-0.00023706803
194	0xbb4dbf06	-0.0031394376
195	0x3b933d50	0.004493393
196	0xbbbf0fca	-0.0058307396
197	0x3c978586	0.018496286
198	0xbb4b4e20	-0.0031021908
199	0xbcd17376	-0.025567751
200	0xbb3a06be	-0.0028385366
201	0xbb3e7a61	-0.0029064643
202	0x3c2734bc	0.010205444
203	0x3ad1657b	0.0015975678
204	0xbbd7c75c	-0.006585045
205	0xbb9e898b	-0.0048381737
206	0xbcaa7b42	-0.020810727
207	0x3a388c3e	0.00070399407
208	0xbc344506	-0.011002785
209	0xbb154e20	-0.0022782162
210	0xbc89aa10	-0.016804725
211	0xba912539	-0.0011073715
212	0x3b9eae21	0.004842535
213	0xbc2bc425	-0.010483776
214	0x3b24c6fa	0.0025143013
215	0xbbef198e	-0.0072967475
216	0x39b7c635	0.00035052156
217	0xbac279ed	-0.0014837362
218	0x3cc9306d	0.024559224
219	0x39a74e6d	0.00031911154
220	0x3aefb1de	0.0018287261
221	0xbc249a22	-0.010046514
222	0xbb6b7d8f	-0.0035932993
223	0xbc192215	-0.009346505
224	0x3c8b787e	0.017025229
225	0x3b4b2039	0.0030994548
226	0x3c8c9a89	0.017163532
227	0xbcd4c269	-0.025971608
228	0x39798073	0.00023794342
229	0x3c0d2ee5	0.008617138
230	0x3a601a00	0.0008548796
231	0xbb80a165	-0.0039254897
232	0x3c211f70	0.009834155
233	0x3bc8610b	0.006115084
234	0x3c28fe3a	0.010314519
235	0xbba040d4	-0.0048905406
236	0x3c841b22	0.01612622
237	0xbc5e3ab1	-0.013563798
238	0xbba7f98b	-0.0051261834
239	0x3bf2e1de	0.0074121794
240	0xb9d094c1	-0.00039783682
241	0xbae3113c	-0.0017323862
242	0xbb8c7e74	-0.0042875353
243	0xbbac71fd	-0.005262612
244	0x3be11b90	0.006869741
245	0x3b8de543	0.0043303086
246	0x3c1ea001	0.009681703
247	0x3c07be56	0.008285126
248	0xbcca6f8c	-0.024711393
249	0x3c3eacee	0.011637909
250	0x3c136101	0.0089952955
251	0x3abdc40b	0.0014477981
252	0xba98c64b	-0.0011655776
253	0xbb418f31	-0.0029534812
254	0xbafc1efc	-0.0019235308
255	0xbc2339d0	-0.009962514

convs.5.weight f4 [72, 72]
0	0xba7778ab	-0.0009440283
1	0x3cbd514f	0.02311006
2	0x3bd51017	0.006502162
3	0x3b1a3b7b	0.0023533988
4	0x3c1bd786	0.009511834
5	0xbc826db1	-0.015921446
6	0xbc0d00da	-0.00860616
7	0x3abd709c	0.0014453116
8	0xbb00a141	-0.0019627365
9	0xbc1283ed	-0.008942586
10	0x3b706f72	0.003668752
11	0x3b59762a	0.0033182004
12	0xbc425dfb	-0.011863227
13	0x3bc3a08e	0.0059700673
14	0x3bf2ffe2	0.0074157575
15	0x3bcca47a	0.006245193
16	0x3b01f74b	0.0019831236
17	0x3b39b6e3	0.0028337769
18	0x3c2f6581	0.010705353
19	0x3b35409f	0.0027656925
20	0xbb97b8cc	-0.004630184
21	0x3cc0a743	0.023517257
22	0xbca5b48d	-0.020227695
23	0xbc05dba5	-0.008170043
24	0xbbe6ad4b	-0.007039701
25	0xba10f9a1	-0.00055303617
26	0x3c9eb5b9	0.019373761
27	0xbbfac39c	-0.007652713
28	0x3ca8cf0b	0.020606538
29	0x3b6fccb1	0.0036590511
30	0xbc982b95	-0.018575469
31	0xbc25a1ce	-0.010109378
32	0x3c9d9a36	0.019238573
33	0xbbb8c23c	-0.005638389
34	0xbc96e7df	-0.018421112
35	0x3cadf9cc	0.021237276
36	0xbb861e2a	-0.0040929513
37	0xbb41999c	-0.0029541021
38	0xbc003170	-0.007824287
39	0x3b724210	0.0036965646
40	0x3c8ccce8	0.01718755
41	0xbb84970a	-0.0040463256
42	0xbc922273	-0.017838692
43	0x3c188d51	0.009311036
44	0xbb596000	-0.0033168793
45	0x3c235f35	0.00997143
46	0x3b338d0f	0.002739731
47	0xbcae49b8	-0.021275386
48	0xbbac3e0e	-0.005256421
49	0x37c81125	2.3849841e-05
50	0x3c228a25	0.009920632
51	0xbb5698f5	-0.0032744978
52	0xbc2a4ae1	-0.010393829
53	0x3c60350c	0.013684522
54	0xbadee926	-0.001700674
55	0x3ac1702f	0.0014758165
56	0xbb958fbc	-0.0045642536
57	0xbc0d5e9e	-0.0086285155
58	0xbb7a78b8	-0.0038218927
59	0x3a8f13de	0.0010915955
60	0x3a6010e6	0.000854744
61	0x3b913756	0.0044316454
62	0xbbb3632c	-0.0054744687
63	0xbc4dc23e	-0.012558518
64	0x3cadbb0c	0.021207355
65	0x3bdc657d	0.0067259655
66	0xbc27999d	-0.010229495
67	0x3ca7acc1	0.020468118
68	0xbc9f2e76	-0.019431334
69	0xbca05e99	-0.019576358
70	0x3ca1a2ed	0.01973101
71	0xbb3e06d1	-0.0028995762
72	0x3c6d1ecf	0.014472677
73	0xbc0be464	-0.008538339
74	0xbb06b341	-0.002055362
75	0xbc0f23ac	-0.008736532
76	0x3b51fb29	0.0032040572
77	0xbaac5c2c	-0.0013150028
78	0x3cbeec22	0.023305956
79	0xbc3e8882	-0.011629226
80	0xba1f9106	-0.0006086979
81	0xbb81d674	-0.0039623324
82	0xbc2fd958	-0.010732971
83	0x3bbde133	0.005794668
84	0xbb6a07e9	-0.0035710281
85	0xbc5288e2	-0.012850018
86	0xbbdc7d49	-0.0067288023
87	0xbc05188a	-0.008123526
88	0xbaaae65f	-0.0013038627
89	0xbc9a1a0b	-0.018811246
90	0xbcbcdb1f	-0.023053704
91	0x3a8521df	0.0010157189
92	0x3c3ee851	0.011652068
93	0x3cc31c16	0.023817103
94	0xbbd69948	-0.0065490343
95	0x3cd16aa4	0.025563546
96	0xbb923e31	-0.00446298
97	0x3cc82e38	0.024436101
98	0x3b7273e6	0.003699535
99	0xbc5b9d2a	-0.01340417
100	0x3b42a8d3	0.0029702678
101	0x3c623fcf	0.0138091585
102	0x3b7eb7c6	0.0038866862
103	0x3bb7f14b	0.005613481
104	0x3c171f01	0.0092237005
105	0xbc0e5610	-0.008687511
106	0x3c077038	0.008266501
107	0xbbc99e2f	-0.00615289
108	0xbab6472c	-0.0013906709
109	0xbb8380a4	-0.004013138
110	0xbb777136	-0.0037756688
111	0x3accc523	0.0015622716
112	0xbbf4adc5	-0.007467004
113	0xbb61b0cb	-0.0034437652
114	0xbae43791	-0.001741158
115	0x3c0aed55	0.008479436
116	0xbc74137d	-0.0148972245
117	0x3b3e850f	0.0029071008
118	0x3b43a93d	0.0029855513
119	0xbb9fc38b	-0.0048756055
120	0xbb5fe7ae	-0.0034165191
121	0xbaf486e3	-0.0018655922
122	0x3c684d69	0.014178612
123	0xbcc3a9a3	-0.0238846
124	0xbcb3b50c	-0.021936916
125	0x3cd460a6	0.025924992
126	0x3cae15d1	0.021250637
127	0x3b6e96f5	0.0036405895
128	0x3b95a24e	0.0045664674
129	0xbb6b0182	-0.0035859053
130	0x3b3d1126	0.0028849333
131	0x3c6e0653	0.014527875
132	0x3cca17fd	0.024669642
133	0xbcc18763	-0.023624128
134	0x3a01b996	0.0004948614
135	0xbb5855f2	-0.0033010212
136	0xbad97ee8	-0.0016593607
137	0x3a86cefb	0.0010285074
138	0x3c7bce65	0.0153690325
139	0x3b669f30	0.0035190098
140	0x3bc2bd5a	0.0059429826
141	0xbc958d7f	-0.018255947
142	0xbc680897	-0.014162204
143	0x3a54f049	0.00081229635
144	0xbc33fe72	-0.010985957
145	0x3c21c5c9	0.009873816
146	0xbccccc1c	-0.02499967
147	0xbccf3193	-0.025292194
148	0xbc2bf236	-0.010494759
149	0x3ba941da	0.005165321
150	0x3a816266	0.0009871244
151	0xbbcd48ad	-0.006264767
152	0xbae48f94	-0.0017437809
153	0xbbed0621	-0.0072333966
154	0xbb936a3d	-0.0044987486
155	0xbbaa34e7	-0.0051942947
156	0xbc25aed3	-0.010112482
157	0xbb530740	-0.0032200366
158	0x3c921236	0.01783095
159	0x3cd3e636	0.025866609
160	0x3a2164d7	0.0006156689
161	0xbbe8a3f3	-0.0070996224
162	0xbc87e8ce	-0.016590502
163	0x3cd1b588	0.025599256
164	0xbb97c742	-0.0046319077
165	0xbc41131d	-0.011784342
166	0x3aa4aafb	0.0012563163
167	0xbc299f1c	-0.010352876
168	0xbcb95637	-0.022624118
169	0xbba00c25	-0.0048842602
170	0xbc4fad09	-0.012675532
171	0xbcac3482	-0.021021131
172	0x3b2fd4f0	0.0026829801
173	0xbba715b1	-0.0050990214
174	0x3bc42595	0.0059859254
175	0xbc669e75	-0.014075865
176	0x3a536935	0.00080646883
177	0x3c23e56d	0.01000343
178	0xbc210584	-0.009827975
179	0x3b7547c8	0.0037426818
180	0xbc2c8901	-0.010530711
181	0x3ba92645	0.005162033
182	0xbc2a6dcb	-0.010402153
183	0x3bf5066c	0.007477572
184	0xbc8e0478	-0.017336115
185	0x39ccaa54	0.00039036816
186	0x3b985fd3	0.004650095
187	0x3b7a8e2d	0.0038231716
188	0xbc2c53eb	-0.0105180545
189	0x3ca8d02e	0.02060708
190	0x3aae5b82	0.0013302418
191	0xbcc8379b	-0.024440577
192	0xbc7b49ac	-0.015337389
193	0x3ad8eb95	0.0016549701
194	0xbc2b7650	-0.01046522
195	0xbb4af067	-0.0030966045
196	0x3c45490f	0.012041344
197	0xbcc70b98	-0.02429752
198	0x3cc20feb	0.02368923
199	0x3b2880c9	0.0025711528
200	0xbcc9fa59	-0.024655508
201	0x3c90f94c	0.017696999
202	0xbb16ffcb	-0.0023040648
203	0xbbd44450	-0.00647787
204	0x3bbc669b	0.005749536
205	0xbcc6ba28	-0.024258688
206	0x3c1a9198	0.009434126
207	0xbc691f5b	-0.014228667
208	0x3c47186b	0.012151818
209	0x39486aaa	0.00019113222
210	0xbb6a59e4	-0.0035759145
211	0x3aa4de4b	0.0012578455
212	0xbb52e5c4	-0.0032180408
213	0xbc287f01	-0.010284186
214	0xbc27a30f	-0.010231747
215	0xbb0d13ef	-0.0021526774
216	0xbc06ddbb	-0.008231576
217	0x3cad523b	0.021157375
218	0x3c7d7e08	0.015471943
219	0xbc14bf36	-0.009078791
220	0xb9d899f5	-0.00041313437
221	0x3b3d404e	0.002887744
222	0x3c211967	0.009832717
223	0xbc8e5800	-0.017375946
224	0xbbaefe76	-0.0053403927
225	0xbb829322	-0.0039848248
226	0x3b89d421	0.004206196
227	0x3cbda126	0.02314813
228	0x3bb37b0e	0.0054773157
229	0xbb153639	-0.0022767915
230	0xb9e493fb	-0.00043597803
231	0x3b5b22a6	0.00334374
232	0xbb509588	-0.0031827409
233	0x3ae3c1e9	0.0017376515
234	0xbb9351fc	-0.0044958573
235	0x3c173d79	0.009230965
236	0x3be8b588	0.0071017183
237	0x3bf09ad5	0.007342676
238	0xbcb95772	-0.022624705
239	0x3c890b15	0.016728917
240	0xbc2abfc7	-0.0104217
241	0xbcafada9	-0.021445112
242	0xbc055cc0	-0.008139789
243	0xbc004d28	-0.0078308955
244	0xbc28382e	-0.0102673005
245	0xbc8d1467	-0.017221643
246	0x3bc8e01a	0.0061302306
247	0x3bd5d69f	0.006525829
248	0x3ccd14ef	0.025034396
249	0xbc2cd79b	-0.010549451
250	0x3bbeb161	0.005819485
251	0xbb253528	-0.0025208686
252	0x3c260f71	0.010135517
253	0x3cc56dac	0.024100147
254	0xbacf956a	-0.0015837376
255	0x3c2b8003	0.010467532
