checkpoint/Wikipedia/20231105_160013336231.pth (torch, 339335 bytes, 18 tensors)

convs.0.weight f4 [72, 138]
0	0xbd08e019	-0.03341684
1	0xbe17f98a	-0.14841285
2	0x3e9a20f6	0.30103272
3	0x3bd97698	0.006636452
4	0xbd3cf557	-0.04613241
5	0xbdab5007	-0.083648734
6	0x3e919606	0.2843477
7	0xbcbdf28f	-0.02318695
8	0x3ce4bedb	0.027923038
9	0x3d138376	0.036014043
10	0x3d383f13	0.044982027
11	0xbdce5256	-0.10074298
12	0xbd77fa98	-0.06054172
13	0x3d41a6cd	0.047278214
14	0x3d0ff89f	0.035149213
15	0xbe1d5a0a	-0.15366378
16	0xbc93dd83	-0.018049961
17	0xbea5f736	-0.3241517
18	0x3eab2cea	0.33432704
19	0xbdb2f83e	-0.08738755
20	0x3d2ccd48	0.04218796
21	0x3ddcd288	0.10782343
22	0xbcc8b66b	-0.024501046
23	0xbd0e4320	-0.034731984
24	0x3cd9da99	0.026593493
25	0xbd5bae18	-0.053632826
26	0x3c9816f5	0.018565634
27	0xbe22f703	-0.1591454
28	0x3d427edd	0.047484268
29	0x3dac3e28	0.08410293
30	0xbc3cdfae	-0.011527939
31	0xbd21bac4	-0.039484754
32	0x3cf8c76a	0.030368526
33	0xbd447414	-0.047962263
34	0x3db585f8	0.08863443
35	0xbdf3b2dc	-0.11899349
36	0x3ebf92c0	0.3741665
37	0x3eb4df34	0.3532654
38	0x3b9ed7b6	0.004847492
39	0x3dbef4f3	0.09324064
40	0x3e2fc42e	0.1716468
41	0x3d48bc05	0.049007434
42	0x3d96958d	0.07352743
43	0xbcc0f788	-0.023555532
44	0xbd31f5a0	-0.043447137
45	0xbe917008	-0.28405786
46	0x3de22b80	0.11043453
47	0x3d0686cd	0.0328434
48	0xbd27ea93	-0.04099519
49	0xbe16f9f5	-0.14743789
50	0x3e9694f5	0.2941052
51	0x3d8c3801	0.068466194
52	0xbd821d46	-0.0635324
53	0xbd390d7e	-0.045178883
54	0x3c593b5b	0.01325878
55	0x3d5314dd	0.05153357
56	0x3deaa97f	0.1145811
57	0x3c93d6d1	0.018046768
58	0xbda7a5b0	-0.08185899
59	0x3e309cfe	0.17247388
60	0x3da43b18	0.08019084
61	0xbc8172f0	-0.015801877
62	0x3d45c0d1	0.048279587
63	0xbdba82dd	-0.091069914
64	0xbdff39e5	-0.124622144
65	0xbe3f5c6d	-0.18687601
66	0x3c41ef61	0.011836858
67	0x3e14c9dc	0.14530128
68	0x3db27ced	0.08715234
69	0xbe4fce4a	-0.20293537
70	0x3deba69d	0.11506388
71	0x3d05f12c	0.032700703
72	0x3d8c5d83	0.068537734
73	0x3e5be4c3	0.21473984
74	0x3cc91f42	0.024551038
75	0xbdfa2e0a	-0.122158125
76	0x3d731cf9	0.059353802
77	0xbb220db0	-0.0024727397
78	0x3d7526b3	0.05985136
79	0x3cf37d2f	0.029722778
80	0xbd9f8a6f	-0.07790076
81	0xbe27f5e6	-0.16402397
82	0x3eb6a3ec	0.35671937
83	0x3c6a3046	0.014293736
84	0xbdeeb170	-0.11654937
85	0xbbb37dac	-0.0054776277
86	0x3d250c15	0.040294725
87	0x3d7fd524	0.062459126
88	0x3dd7c5ad	0.105357505
89	0xbe3098cf	-0.17245792
90	0x3d91d9b6	0.07121603
91	0xbd56b77e	-0.052421086
92	0x3b98f8b5	0.00466832
93	0xbe0cfe8c	-0.13768977
94	0x3c522368	0.012825824
95	0xbccbf483	-0.024896866
96	0x3c95cff5	0.018287638
97	0xbe03309c	-0.12811512
98	0xbdf47584	-0.11936477
99	0xbdb8aee8	-0.09017736
100	0x3e4956fc	0.19662088
101	0x3de854a2	0.113442674
102	0xbc455798	-0.01204481
103	0x3d2441f4	0.04010196
104	0x3d9ab301	0.075536735
105	0xbb373adc	-0.0027958667
106	0x3e00f1bb	0.12592213
107	0x3ce00c27	0.027349545
108	0x3ce34909	0.027744787
109	0xbe35b2d5	-0.17744
110	0xbd7dedfb	-0.061994534
111	0x3d427efd	0.047484387
112	0x3e8ec26a	0.278827
113	0xbe705380	-0.23469353
114	0x3e124f47	0.14288054
115	0x3d6856f5	0.056723554
116	0x3c2a3348	0.010388203
117	0xbd635bb9	-0.055507395
118	0x3cd93b83	0.026517635
119	0x3de643b8	0.11243385
120	0x3d80940d	0.062782384
121	0xbd997dec	-0.07494721
122	0x3c6a4293	0.014298099
123	0xbc31ae5f	-0.010844796
124	0x3d6d3db0	0.057920158
125	0xbe4a7858	-0.1977247
126	0x3c87208b	0.01649501
127	0xbe5c1033	-0.21490555
128	0x3e2aab8e	0.16667005
129	0x3e8275b9	0.2548044
130	0xbe0eac91	-0.13933016
131	0xbe1fadc7	-0.15593635
132	0xbe5fe9fd	-0.21866603
133	0xbe7e48d4	-0.24832469
134	0xbdfe07cd	-0.12403832
135	0x3f864a01	1.0491334
136	0xbe06982d	-0.13143988
137	0x3cd02302	0.025407318
138	0xbde2f4f9	-0.11081881
139	0xbd14f696	-0.036367975
140	0x3da7f64b	0.082012735
141	0x3d29203b	0.041290503
142	0xbd8d57e0	-0.069015265
143	0xbdbdab3b	-0.09261175
144	0x3e63f594	0.2226165
145	0x3d66d665	0.056356806
146	0x3cf009fe	0.02930164
147	0x3e0d0574	0.13771611
148	0xbc59f914	-0.013304014
149	0xbd39d6bf	-0.045370813
150	0xbc6e3002	-0.014537813
151	0x3d15ce4c	0.036573693
152	0x3da637ca	0.0811611
153	0xbe08747f	-0.1332569
154	0x3c10280e	0.008798612
155	0xbe3cbd77	-0.1843165
156	0x3de8256d	0.113352634
157	0xbd351c89	-0.044216666
158	0x3d0535d0	0.032522023
159	0x3cd4f3e0	0.025995195
160	0xbd1650a4	-0.036698
161	0x3cc8057d	0.02441668
162	0x3d3c4950	0.045968354
163	0x3d101574	0.03517671
164	0x3d24a602	0.04019738
165	0xbdc5804b	-0.096436106
166	0x3c97178c	0.018443845
167	0x3d6cf984	0.057855144
168	0xbcd6c1c4	-0.026215442
169	0x3cb4915c	0.022041969
170	0x3db11dfc	0.08648297
171	0xbcfdcc40	-0.030981183
172	0xbd60cdac	-0.054883644
173	0xbd59602a	-0.053070225
174	0x3e8b6b89	0.2723048
175	0x3e8964f6	0.2683484
176	0xbc05ebd5	-0.0081739025
177	0x3d6456fc	0.055747017
178	0x3e8041b2	0.25050122
179	0x3de46fd2	0.111541405
180	0xbc8c465d	-0.017123396
181	0xbc8a5805	-0.016887674
182	0x3ce4f3e2	0.027948324
183	0xbe5da89a	-0.21646348
184	0x3d6cda5b	0.057825428
185	0x3c781a8e	0.01514305
186	0xbdfab24f	-0.12241041
187	0xbda7b2da	-0.0818841
188	0x3e6cd861	0.23129417
189	0x3cfbe85a	0.030750442
190	0xbd963a80	-0.07335377
191	0xbbac8955	-0.0052653947
192	0xbba3be45	-0.004997047
193	0x3c63b710	0.013898626
194	0xbb903f75	-0.004402096
195	0xbc845f0e	-0.016158607
196	0xbd9486eb	-0.07252296
197	0x3de9ad6b	0.1141003
198	0xbb1c1ac0	-0.0023819655
199	0x3c81e695	0.01585702
200	0x3cb9b34b	0.022668501
201	0xbdb659d4	-0.08903852
202	0xbdd881d7	-0.1057164
203	0xbce7a89c	-0.028278641
204	0xbdce30e5	-0.1006792
205	0x3d5416ba	0.051779486
206	0xbc88351d	-0.016626889
207	0xbe0752fc	-0.1321525
208	0x3dc1aa6c	0.094563335
209	0xbadf0a10	-0.0017016549
210	0x3d45ec73	0.0483212
211	0x3ea8460a	0.32865936
212	0x3c6d47b0	0.014482424
213	0xbdbb7a3e	-0.09154175
214	0x3b8f5b38	0.004374888
215	0xbd6931f4	-0.056932405
216	0x3c1a63b2	0.009423183
217	0x3b195bd4	0.002340068
218	0xbd8541e3	-0.065067075
219	0xbd9d95ed	-0.07694612
220	0x3e6a7494	0.22896034
221	0x3c50a50e	0.012734665
222	0xbd4ec9af	-0.05048531
223	0xbd2687fe	-0.040657036
224	0x3d39e122	0.04538072
225	0x3dd0416d	0.10168729
226	0xbcf3f84a	-0.02978148
227	0xbd1202eb	-0.035647314
228	0xbba3e300	-0.0050014257
229	0xbdaed176	-0.08536045
230	0x3c3e0d40	0.011599839
231	0xbdfb4582	-0.12269117
232	0x3cdd5823	0.027019566
233	0xbcd6917f	-0.026192425
234	0x3d2d91fd	0.042375553
235	0xbd759b52	-0.059962578
236	0xbe77ff5f	-0.2421851
237	0xbdb87ac6	-0.09007792
238	0x3e3a1698	0.18172681
239	0x3e06dd03	0.13170247
240	0x3b05a2b3	0.0020391166
241	0xbbd5fb8c	-0.006530231
242	0x3e0600e0	0.13086271
243	0x3ba68741	0.0050820415
244	0x3d5d2728	0.05399242
245	0x3c829ff6	0.015945416
246	0x3bec4282	0.007210077
247	0xbdac9039	-0.08425946
248	0xbcb659f1	-0.022259684
249	0x3bb65fd5	0.0055656233
250	0x3ec1e998	0.3787353
251	0xbe37c9d0	-0.17948079
252	0x3d325719	0.043540094
253	0x3d5c136f	0.05372947
254	0xbbf8c849	-0.007592235
255	0xbd835527	-0.06412726

convs.0.bias f4 [72]
0	0x3d92b7b5	0.071639456
1	0x3dfdb1da	0.12387438
2	0x3d5d995a	0.054101326
3	0x3d8561e0	0.06512809
4	0x3de0c1fb	0.10974499
5	0xbca2d9dd	-0.019879276
6	0x3df3d929	0.119066544
7	0x3cbce008	0.023056045
8	0x3e15ac92	0.14616612
9	0x3d9c8822	0.07643153
10	0xbce0cee4	-0.027442403
11	0x3dc3a2fa	0.0955257
12	0xbb3aa2cb	-0.002847838
13	0x3e690351	0.22755171
14	0x3e0dcb89	0.13847174
15	0x3cd0df2e	0.025497045
16	0x3d116729	0.03549877
17	0x3e1fe742	0.15615562
18	0x3db7fc2e	0.08983646
19	0x3e3c997a	0.18417922
20	0x3e16d807	0.14730845
21	0x3e00d8b1	0.12582661
22	0x3e203b6b	0.15647666
23	0x3e1b4026	0.1516119
24	0x3d6e6b27	0.058207657
25	0x3d8b48c8	0.06800991
26	0x3dfcd24e	0.123448
27	0x3e0696f0	0.13143516
28	0x3daf2a91	0.08553041
29	0x3dcac634	0.099010855
30	0x3dd8eb9c	0.10591814
31	0x3e1b018a	0.15137306
32	0x3e34e007	0.17663585
33	0x3d591651	0.0529998
34	0x3df7b0ba	0.12094255
35	0x3dd1c639	0.10242886
36	0x3d976265	0.07391814
37	0xbd6e9d32	-0.058255382
38	0x3df17956	0.11790721
39	0x3dc39674	0.09550181
40	0x3e02022d	0.12696142
41	0x3dd7468d	0.10511503
42	0x3de2ddc1	0.110774525
43	0x3e1f1630	0.15535808
44	0x3e15b8d3	0.14621286
45	0x3de47fd4	0.11157194
46	0x3dace804	0.08442691
47	0xb7a060ab	-1.91185e-05
48	0xbad44ac3	-0.0016196597
49	0x3d83b072	0.06430139
50	0x3db0f3df	0.08640265
51	0x3ce3885b	0.02777498
52	0x3e0e2cd3	0.13884287
53	0x3dcf10a4	0.10110596
54	0x3da8be17	0.08239382
55	0x3ddde843	0.10835316
56	0x3e0dfc65	0.13865812
57	0x3e3e9066	0.18609771
58	0x3de3d473	0.11124506
59	0xbbaddb32	-0.005305671
60	0xbc9fac7f	-0.019491432
61	0x3e0ad4ab	0.13557689
62	0x3e0bf8d6	0.13669142
63	0x3dea06cc	0.11427078
64	0x3d53e059	0.051727626
65	0x3dd99281	0.106236465
66	0xbc6b9b93	-0.0143803535
67	0xbbf7a3ef	-0.007557384
68	0x3e4ebd6b	0.20189445
69	0x3e0007d2	0.12502983
70	0x3dc0a24f	0.09405958
71	0x3e1872bb	0.14887516

convs.1.weight f4 [72, 72]
0	0x3bcdd9bb	0.006282059
1	0xbb7798c3	-0.0037780262
2	0x3afbed09	0.0019220422
3	0xbc3a7f4b	-0.011382888
4	0x3ae45048	0.0017418945
5	0x3a55bef7	0.0008153761
6	0xbc0a3705	-0.008435969
7	0xbb46a2d0	-0.0030309446
8	0xbc2c9074	-0.010532487
9	0xbc2eb08d	-0.01066221
10	0x3a1ff9d7	0.00061025977
11	0xbcbe430f	-0.023225335
12	0xb8c65a27	-9.458168e-05
13	0x3a1c302d	0.00059581065
14	0x3a35f8e9	0.00069416926
15	0xbaccc032	-0.0015621244
16	0xbc4f5d5c	-0.012656536
17	0xbb07f9e6	-0.0020748316
18	0x3b6f44d1	0.0036509524
19	0xbc696022	-0.014244111
20	0xbc1a79f1	-0.009428487
21	0xbcca56f9	-0.024699675
22	0xbc5accd2	-0.013354497
23	0xbc1fbcab	-0.009749572
24	0xbbfc4ee9	-0.0076998365
25	0xbccd7452	-0.02507988
26	0x3ab030e2	0.0013442303
27	0x3afc2e1d	0.0019239817
28	0xbb6b8167	-0.0035935284
29	0xbb80a272	-0.003925615
30	0x3bf77f7f	0.0075530405
31	0xbc829329	-0.015939312
32	0x3b27244a	0.0025503808
33	0xbbb33f0e	-0.005470163
34	0xbabf5c3b	-0.001459963
35	0xbbf13865	-0.007361459
36	0xb9dffd04	-0.00042722386
37	0x39224888	0.00015476544
38	0xbc9d8af3	-0.019231295
39	0xbbfb0dc3	-0.0076615526
40	0x3c540927	0.012941635
41	0x3b5f7c02	0.0034101014
42	0x3b7ca5a2	0.0038550873
43	0xb8a4788f	-7.842585e-05
44	0x3c0038a3	0.007826003
45	0x3b15c1c2	0.0022851084
46	0xbc9bf1f3	-0.019036269
47	0x37aa8a42	2.032996e-05
48	0x3b3100e7	0.0027008594
49	0xbbe0c0d6	-0.0068589253
50	0x3b676dec	0.0035313321
51	0xbbbcc9a4	-0.005761342
52	0xbb98c426	-0.0046620546
53	0xbba53e31	-0.005042814
54	0xbbec0720	-0.007202998
55	0xb94609d9	-0.0001888642
56	0xbc126502	-0.008935215
57	0xbb5dcb3f	-0.0033843068
58	0xbc1b070c	-0.009462129
59	0x39326e0c	0.00017016398
60	0x3a0fb08b	0.0005481324
61	0x3a1195c7	0.00055536296
62	0xbc75e094	-0.015007157
63	0xbc5d21b8	-0.013496809
64	0x3c8dddb5	0.017317632
65	0xbcc81d4b	-0.02442803
66	0x37cfc38a	2.4767378e-05
67	0x380c7815	3.3490436e-05
68	0xbc994ac5	-0.01871241
69	0xba3f2b61	-0.0007292536
70	0xbb00e7e4	-0.0019669468
71	0xbb4979d7	-0.0030742788
72	0x3c10bb54	0.008833725
73	0xbb88ef91	-0.004178949
74	0x3b868248	0.004104886
75	0xbbdd37ed	-0.0067510516
76	0xbb8370f6	-0.0040112687
77	0xb8a116c0	-7.681316e-05
78	0xbba85200	-0.0051367283
79	0xbb9b5bf3	-0.004741186
80	0xbc6205c9	-0.013795325
81	0xbc839ff4	-0.016067483
82	0x3a52305d	0.0008018071
83	0xbcfb2c2b	-0.03066071
84	0xb6d5869c	-6.3635653e-06
85	0x3bed454d	0.0072409273
86	0x3b8d9117	0.0043202746
87	0xbabe4374	-0.0014515952
88	0xbc66cd2f	-0.0140870055
89	0xba192c7f	-0.0005843117
90	0x3bb74de8	0.005594004
91	0xbc914366	-0.017732333
92	0xb95a3d29	-0.00020812884
93	0xbcb57fe9	-0.022155719
94	0xbc83f0ab	-0.01610597
95	0xbc6e3431	-0.014538811
96	0xbc1134cc	-0.008862685
97	0xbca9473a	-0.020663846
98	0xbb23c683	-0.0024990148
99	0xba0c3c95	-0.00053496036
100	0xbaae3f9d	-0.0013294105
101	0xbbeecc95	-0.0072875717
102	0x3c016075	0.007896532
103	0xbcef9a96	-0.029248517
104	0x3b97664e	0.00462035
105	0xbbf730bc	-0.0075436514
106	0xbb5eb9d9	-0.0033985286
107	0xbc1d1993	-0.009588617
108	0xbc8c7e3c	-0.017150037
109	0x396de1f0	0.0002268625
110	0xbc78d860	-0.015188307
111	0xbc940837	-0.018070323
112	0x3bbad330	0.005701445
113	0xbb32b7cc	-0.0027270196
114	0x3bbe2933	0.005803251
115	0x3ae95c2e	0.0017803961
116	0x3bebded6	0.007198195
117	0xbab850d5	-0.0014062176
118	0xbcb19af2	-0.021680329
119	0x38ae097e	8.2987346e-05
120	0x3b53c207	0.0032311694
121	0xbbaa6411	-0.005199917
122	0xbc51ad86	-0.012797719
123	0xbbfdd619	-0.0077464697
124	0xbbde7b6b	-0.006789615
125	0xbbd0b728	-0.00636949
126	0xbc046d0d	-0.00808264
127	0xbb5ea6f1	-0.0033974017
128	0xbc4ffd50	-0.012694672
129	0xbb8e05b5	-0.0043341764
130	0xbc2fce39	-0.01073032
131	0x3828eb94	4.027372e-05
132	0x39e97c9e	0.0004453407
133	0xbad0fc16	-0.0015944268
134	0xbc85cdd4	-0.016333498
135	0xbcb51f42	-0.022109631
136	0x3cba141e	0.02271467
137	0xbc9e4236	-0.019318681
138	0xb805dd10	-3.191555e-05
139	0xb7eb3b6c	-2.8041854e-05
140	0xbc1b75ed	-0.009488565
141	0x3bcdbefb	0.00627887
142	0xbba9b0a2	-0.005178527
143	0xbc6f0b93	-0.014590162
144	0x38d205c3	0.000100146535
145	0xbb20ac00	-0.0024516582
146	0x38c886df	9.561865e-05
147	0x3bb4e0c8	0.00551996
148	0xbbd0e60d	-0.0063750804
149	0xb8713a2e	-5.751306e-05
150	0xbbada2be	-0.0052989414
151	0xba69f31b	-0.000892447
152	0xbb9fb01f	-0.00487329
153	0xbb8c2174	-0.004276449
154	0x395542ab	0.00020338099
155	0xbc210c47	-0.009829587
156	0x38557eb7	5.090117e-05
157	0xbb7b8006	-0.0038375868
158	0x3bc3df0f	0.0059775184
159	0xb99be2a0	-0.00029732753
160	0xbb939f80	-0.004505098
161	0xbada8ed7	-0.001667465
162	0x3a87038a	0.0010300737
163	0xbb7f2bd8	-0.0038936045
164	0xbca4dc23	-0.0201245
165	0xbc0428a5	-0.008066331
166	0xbb5e2258	-0.0033894982
167	0xbb89129a	-0.0041831257
168	0xbbdd3d7c	-0.0067517143
169	0xbbcfa33b	-0.0063365973
170	0xbbfdceb1	-0.007745587
171	0xbb1ccebb	-0.0023926932
172	0xbc8fd570	-0.01755783
173	0xbb945f46	-0.004527959
174	0x3b0ee9e5	0.0021806892
175	0xbb1c1879	-0.0023818298
176	0xba4bc253	-0.0007772792
177	0xbb7f8db3	-0.0038994371
178	0xb90d1aad	-0.00013456745
179	0xbb7f993c	-0.0039001247
180	0xb980506d	-0.00024473984
181	0xb80ec3c7	-3.403777e-05
182	0xbc4a7046	-0.01235587
183	0xbba7559a	-0.00510664
184	0x3a9aaba1	0.0011800417
185	0xbae80ab7	-0.0017703389
186	0xbc71e832	-0.014764832
187	0x3a5b6fc5	0.0008370842
188	0xb93652a4	-0.00017387659
189	0xbc2cca20	-0.010546237
190	0x3a2e8644	0.00066575804
191	0x3758bc9e	1.2918519e-05
192	0x38d9eaab	0.00010391077
193	0xbc503bf3	-0.0127096055
194	0xbb037e7e	-0.002006441
195	0xbb284a9b	-0.0025679234
196	0xbb23a041	-0.0024967345
197	0xbb520eb0	-0.0032052211
198	0xbbcd2033	-0.006259942
199	0xbaf6b2c3	-0.0018821586
200	0xbbd08375	-0.006363327
201	0xbb929014	-0.004472742
202	0x3b3b0a4d	0.0028540075
203	0x38a09742	7.6575685e-05
204	0x390c892d	0.00013402542
205	0x3a26a51b	0.0006357
206	0xbbbe4120	-0.0058061033
207	0xbbc988d3	-0.006150344
208	0x3bbb6645	0.0057189786
209	0xbc8f201b	-0.017471364
210	0xb8a928af	-8.066126e-05
211	0x37a3c0e1	1.952093e-05
212	0x3af2bc11	0.0018519183
213	0xbb51aec3	-0.0031995035
214	0x3b3f5cb7	0.002919955
215	0xbb98374e	-0.0046452647
216	0x3bdc0209	0.00671411
217	0xbbf412ce	-0.0074485308
218	0x3b112e35	0.0022152786
219	0xbc1f2300	-0.0097129345
220	0xbb18a3c8	-0.002329098
221	0x39bba4eb	0.00035790293
222	0xbb7f98db	-0.003900102
223	0xbb91a094	-0.004444191
224	0xbc365c0b	-0.011130343
225	0xbc103d2f	-0.00880365
226	0x3a15cbd9	0.00057142746
227	0xbcbac967	-0.022801114
228	0xb88d066b	-6.7245994e-05
229	0x3be6799f	0.0070335413
230	0xb95a552b	-0.00020821828
231	0xbb0761b7	-0.0020657608
232	0xbc3d478f	-0.011552705
233	0xbb213caf	-0.002460282
234	0x3b858867	0.0040750983
235	0xbc40ec7f	-0.011775135
236	0xbc261c03	-0.010138514
237	0xbca21899	-0.01978712
238	0xbc95645b	-0.01823633
239	0xbc42bc2b	-0.011885683
240	0xbbcc0338	-0.0062259696
241	0xbc799a13	-0.015234488
242	0xbb0f4522	-0.0021861275
243	0x3a96829e	0.0011483019
244	0xbb1cad5f	-0.0023907048
245	0xbc01cc23	-0.007922205
246	0x3ba58505	0.0050512576
247	0xbcc7c2a2	-0.0243848
248	0x3ba5e611	0.0050628264
249	0xbb85c30c	-0.0040820893
250	0x3b8e111f	0.004335537
251	0xbbb9ed35	-0.0056740292
252	0xbc2f0e9d	-0.010684636
253	0xb87629c1	-5.8689857e-05
254	0xbc727ac2	-0.014799776
255	0xbc3727b7	-0.011178902

convs.2.weight f4 [72, 72]
0	0x3afc28d8	0.0019238247
1	0xbb129f32	-0.002237272
2	0x3a729379	0.00092535425
3	0xbad5aa90	-0.0016301442
4	0xbba14ba2	-0.004922346
5	0xb864f34c	-5.4586024e-05
6	0xbb872528	-0.0041243024
7	0xba8d6dfd	-0.0010790225
8	0xbbb47a1f	-0.005507722
9	0xbc4cd479	-0.012501829
10	0x39833680	0.00025026873
11	0xbc10d7d3	-0.008840519
12	0xb87a31d5	-5.9651054e-05
13	0x398a6c59	0.00026402136
14	0x39cf4a2f	0.00039537388
15	0x3a5957a5	0.0008290953
16	0xbb956fa5	-0.004560428
17	0x3b01c8db	0.0019803557
18	0x3b0d4dc9	0.0021561256
19	0xbc060446	-0.00817973
20	0xbc33b7c9	-0.010969111
21	0xbc01afbf	-0.007915436
22	0xbb4a85e4	-0.003090256
23	0xbb2341aa	-0.0024910965
24	0xbbc1ccc0	-0.0059143007
25	0xba072133	-0.00051547884
26	0xbb084c34	-0.0020797374
27	0xbc0ae6e1	-0.008477897
28	0xbb804253	-0.0039141565
29	0xbc7feb68	-0.01562009
30	0x3c3e06b6	0.01159828
31	0xbcbd4ef6	-0.02310894
32	0xba0a33dc	-0.000527201
33	0xbb516d6e	-0.0031956094
34	0x3abc2ea5	0.0014357163
35	0xbb5088fc	-0.003181993
36	0xbb815e0c	-0.003947979
37	0xb6f218c4	-7.215045e-06
38	0xbbe506ad	-0.006989321
39	0xbb04e624	-0.0020278776
40	0x39cffc1a	0.00039669947
41	0xb8cce9df	-9.77104e-05
42	0xbad61f66	-0.0016336262
43	0x3af00d03	0.0018314425
44	0x3b46d304	0.0030338177
45	0xba03475b	-0.0005007886
46	0xbb6b62ff	-0.003591716
47	0x38d6fe92	0.000102517326
48	0x3aa7b1dc	0.0012794095
49	0xbc543f4a	-0.012954542
50	0xbb19ceef	-0.002346929
51	0xbaae6617	-0.0013305572
52	0xbbddec73	-0.0067725717
53	0xbb1ec11d	-0.0024223991
54	0xbb59e8b4	-0.0033250274
55	0xbad2def9	-0.001608818
56	0xbc054f91	-0.008136646
57	0xbbbd9a75	-0.005786235
58	0x3c16a867	0.009195424
59	0x381d6772	3.7528058e-05
60	0x39a4df25	0.00031446773
61	0xba38e580	-0.0007053241
62	0xbb317f65	-0.002708399
63	0xbbe92872	-0.007115417
64	0x3be22aa7	0.006902057
65	0xbc40b6ae	-0.011762304
66	0xb790dd84	-1.7269289e-05
67	0x3782e9f2	1.5606147e-05
68	0xbbae628e	-0.005321807
69	0xbad65e4d	-0.0016355008
70	0xbab6c4a2	-0.0013944099
71	0xba99f920	-0.0011747219
72	0x3c282507	0.010262734
73	0xbb737f7e	-0.0037154849
74	0x3b580843	0.0032963909
75	0xbbd152a6	-0.0063880263
76	0x38e87dc2	0.00011086046
77	0xb7c21d81	-2.3140341e-05
78	0xbbaee2a3	-0.005337076
79	0xbb4a1ef9	-0.0030841215
80	0xbc082d45	-0.008311574
81	0xbc273f11	-0.010207907
82	0x39e69924	0.00043983117
83	0xbcd76809	-0.026294725
84	0x3833cb4d	4.2866264e-05
85	0x3b5ec5b1	0.0033992345
86	0x3bc73a5e	0.006079956
87	0xbac8d32b	-0.0015321722
88	0xbc23213a	-0.009956652
89	0xbba2f7ff	-0.004973411
90	0x3b239b1b	0.0024964276
91	0xbc5f7447	-0.0136385625
92	0xbc5b13f7	-0.013371459
93	0xbc913d9b	-0.017729571
94	0xbbf66697	-0.007519554
95	0xbbc3f3d9	-0.0059799966
96	0xbc14965c	-0.009069052
97	0xbc479483	-0.012181404
98	0xbb523fa3	-0.0032081387
99	0xbacf0d64	-0.0015796837
100	0xbaf19d9f	-0.0018433816
101	0xbc80a3bc	-0.015703075
102	0x3c640391	0.013916866
103	0xbd28a20e	-0.041170172
104	0xbb43a594	-0.002985333
105	0xbc206095	-0.009788652
106	0x3b8553be	0.0040688207
107	0xbbed04fb	-0.0072332597
108	0xbaa981c9	-0.0012932356
109	0xb95ba189	-0.00020945644
110	0xbcab45ea	-0.020907361
111	0xbb9ee14f	-0.004848636
112	0x3b9e8841	0.00483802
113	0xba543f04	-0.0008096548
114	0x3a1c663c	0.0005966162
115	0x3b6ba8c7	0.0035958753
116	0x3bcb157e	0.0061976304
117	0xb9a8df5e	-0.0003220988
118	0xbc19fe44	-0.009399001
119	0x38be7743	9.08212e-05
120	0x3b6c3680	0.0036043227
121	0xbc0e09e7	-0.008669353
122	0xbc17b4c5	-0.009259407
123	0xbbe18a80	-0.0068829656
124	0xbb87ac08	-0.004140381
125	0xbb8ac128	-0.004234452
126	0xbb72c919	-0.0037046133
127	0xbb8c35c2	-0.0042788694
128	0xbc93243f	-0.01796162
129	0xbbae241c	-0.005314363
130	0x3b75d7f3	0.003751275
131	0xb791d9f3	-1.7386837e-05
132	0x39982c1c	0.00029024563
133	0xba47b53e	-0.0007618255
134	0xbbd54a5b	-0.006509108
135	0xbc4889a2	-0.0122398455
136	0x3c811d83	0.015761143
137	0xbca15f55	-0.019698778
138	0x37cd2828	2.4456604e-05
139	0xb6103a20	-2.1491505e-06
140	0xbc4167d6	-0.011804542
141	0x3be8ceb3	0.0071047186
142	0xbbead006	-0.0071659116
143	0xbc078758	-0.008272015
144	0xb9be2bf7	-0.0003627238
145	0xba8521c5	-0.0010157159
146	0xb8b489d4	-8.608741e-05
147	0xbb04a571	-0.0020240212
148	0x3a14ddd7	0.00056788087
149	0xb811f1b9	-3.4795816e-05
150	0xbbcc1dfb	-0.00622916
151	0xb9c83374	-0.00038185308
152	0xbae3f351	-0.001739124
153	0xbb4a76b3	-0.0030893504
154	0x38d65509	0.00010220154
155	0xbbc03a65	-0.005866336
156	0x37f5135b	2.9215289e-05
157	0xba2f1ccb	-0.00066800107
158	0xbaa76734	-0.0012771846
159	0x39b69fff	0.00034832951
160	0x39e76efd	0.00044142446
161	0x3b85c3f1	0.004082196
162	0x3a634ff3	0.0008671276
163	0xbbb9dfa5	-0.0056724125
164	0xbaaf99bb	-0.0013397256
165	0xbb955163	-0.004556821
166	0xbada7739	-0.0016667611
167	0xbb46e817	-0.0030350739
168	0xbbc9ec9b	-0.006162239
169	0xba833169	-0.0010009232
170	0xbbb5d695	-0.005549262
171	0xba31153a	-0.0006755177
172	0xbaf0fe13	-0.0018386267
173	0xba4aed87	-0.0007741083
174	0x3a4685a9	0.00075730175
175	0xbbf1dfc6	-0.007381412
176	0x3b94a84b	0.0045366636
177	0xbb478a16	-0.0030447296
178	0xb9966509	-0.00028685507
179	0xbb1477bb	-0.0022654373
180	0xbaee937b	-0.0018201912
181	0x38096e1d	3.2765896e-05
182	0xbbc43da5	-0.005988794
183	0xbb58e9dd	-0.0033098378
184	0x3a26b59c	0.00063594594
185	0xba8eef72	-0.00109051
186	0xbaebf294	-0.0018001371
187	0xb9685fc6	-0.00022160923
188	0x3aad84fb	0.0013238484
189	0xba24921a	-0.00062778743
190	0x39f13c5b	0.0004601207
191	0x386375d6	5.423076e-05
192	0x399b63eb	0.00029638348
193	0xbc7a4aa8	-0.0152765885
194	0xbb4f56f9	-0.0031637533
195	0xbb2a951a	-0.0026028813
196	0xbb288a9e	-0.0025717388
197	0xbba26848	-0.004956279
198	0xbae40807	-0.0017397412
199	0xba0a4a2f	-0.00052753364
200	0xbb9d8679	-0.00480729
201	0xbb337f46	-0.0027389093
202	0x3a8dca32	0.0010817705
203	0x36ce9710	6.1568644e-06
204	0x382c6ab3	4.1107367e-05
205	0x39974431	0.0002885177
206	0xbb884a3e	-0.004159241
207	0xba0ab9e4	-0.0005291982
208	0x3acfd8f8	0.0015857508
209	0xbb8a5fde	-0.004222854
210	0x3806c55c	3.2131895e-05
211	0xb7d5e14d	-2.5496493e-05
212	0xbb94b282	-0.0045378814
213	0xbb4954d6	-0.0030720732
214	0xbad957a1	-0.0016581902
215	0xbb25acfb	-0.0025280106
216	0x3b9c9c80	0.0047793984
217	0xba98b944	-0.0011651893
218	0x3a1f40a4	0.0006075001
219	0x3a1050d0	0.0005505206
220	0xbbe17a3e	-0.0068810275
221	0x39a61670	0.00031678705
222	0xbba89bff	-0.0051455493
223	0x3a214e9a	0.0006153375
224	0xbb507b0c	-0.0031811623
225	0xba39142b	-0.0007060195
226	0xb95af3cc	-0.00020880922
227	0xbc20efd3	-0.009822804
228	0xb86c004e	-5.626707e-05
229	0x3b33cd00	0.0027435422
230	0x3abb3ab3	0.0014284462
231	0xba5c348a	-0.0008400163
232	0xbb698ce4	-0.0035636956
233	0xbbb48d65	-0.0055100196
234	0x3a7779af	0.00094404345
235	0xbc176aa5	-0.009241735
236	0xbb3c7457	-0.0028755867
237	0xbc159114	-0.009128828
238	0xbb61cb39	-0.0034453406
239	0xbb84283b	-0.004033116
240	0xbbf69bf4	-0.0075259153
241	0xbb461b28	-0.0030228589
242	0xbb873315	-0.0041259625
243	0xbb691561	-0.0035565721
244	0xbafeb902	-0.0019433799
245	0xbbf8db36	-0.0075944914
246	0x3bb6205b	0.0055580563
247	0xbc839e5c	-0.016066723
248	0x3af93181	0.0019011946
249	0xbb8ae305	-0.0042384886
250	0x3b67589a	0.0035300613
251	0xba2ee58b	-0.0006671778
252	0x3b76c1ce	0.0037652138
253	0x3699d05a	4.5840106e-06
254	0xbbae6bc5	-0.0053229057
255	0x3a42d1b0	0.00074317586

convs.3.weight f4 [72, 72]
0	0x3bebf6b1	0.0072010388
1	0x395a3951	0.00020811452
2	0x3a6065f6	0.0008560115
3	0x39a6d30d	0.00031819232
4	0xbb9dd64d	-0.0048168064
5	0xb95d3367	-0.00021095351
6	0xbc2d23a1	-0.010567577
7	0xbad7748f	-0.0016437935
8	0xbb8aec51	-0.004239597
9	0xbc3ba64b	-0.011453222
10	0x3911abc2	0.00013892262
11	0xbc77dda8	-0.015128531
12	0xb5898d00	-1.0248332e-06
13	0xba085838	-0.0005201134
14	0x3ad08844	0.0015909751
15	0x3aa39df3	0.0012482986
16	0xbb3f53ac	-0.002919416
17	0x3b1d852b	0.0024035673
18	0x3b45d48b	0.00301865
19	0xbb9e1f7d	-0.004825531
20	0xbb9247ac	-0.0044641104
21	0xbb867f17	-0.0041045058
22	0xbb7d2932	-0.003862929
23	0xbae23bfb	-0.0017260307
24	0xbba008f8	-0.0048838817
25	0x3a4397b5	0.0007461266
26	0xbb5bf67c	-0.0033563664
27	0x393e6e3d	0.00018160879
28	0xbb6478e1	-0.0034862089
29	0xbc2ac373	-0.010422575
30	0x3c04565d	0.008077231
31	0xbc43ff16	-0.011962673
32	0x3acd7b03	0.0015676919
33	0xbb28ca16	-0.0025755218
34	0x3a95339f	0.0011383182
35	0xbaf091ee	-0.0018354037
36	0x3a767f44	0.00094031193
37	0x37b88c92	2.1999967e-05
38	0xbc107a53	-0.008818227
39	0xbb66c7cd	-0.0035214305
40	0x3b895049	0.004190479
41	0xba259f8c	-0.0006318025
42	0xbc345107	-0.011005647
43	0x39d3f9ec	0.00040431262
44	0x3adcbcfb	0.0016840989
45	0xb9a76ddd	-0.00031934577
46	0xbb88b8c3	-0.004172416
47	0x38b5d2a1	8.669985e-05
48	0x3a4c6afa	0.0007797923
49	0xbb8989a3	-0.004197316
50	0xbaf6c82f	-0.001882797
51	0xbb3a6227	-0.002843985
52	0xbbdd3bee	-0.006751529
53	0xbb914592	-0.0044333423
54	0xbb7cf562	-0.0038598408
55	0x3b22cc88	0.0024841148
56	0xbc8d8a6e	-0.017277922
57	0xbb8cfeba	-0.0043028267
58	0xbadd8b7c	-0.0016902531
59	0x3918d6ff	0.00014575942
60	0x3a088c38	0.00052088825
61	0x39f2961e	0.00046269683
62	0xbba87b13	-0.0051416247
63	0xbb950938	-0.004548218
64	0x3ba8f58b	0.005156224
65	0xbc3abaac	-0.011397045
66	0xb8d5249c	-0.000101634505
67	0x380a4a6a	3.2971067e-05
68	0xbb917507	-0.0044389996
69	0x3aefc8b9	0.0018294073
70	0xba877044	-0.001033314
71	0xbb28c187	-0.0025750117
72	0x3bcb43b2	0.0062031383
73	0xbb35d3c6	-0.0027744635
74	0x3a9dd482	0.0012041482
75	0xbba20174	-0.004944021
76	0x3b127458	0.0022347178
77	0x3a088867	0.0005208314
78	0xbb351edf	-0.0027636809
79	0xbb33795d	-0.002738557
80	0xbbae2141	-0.005314023
81	0xbc1df89f	-0.009641795
82	0x39c0e38a	0.00036790624
83	0xbcae0895	-0.021244327
84	0x379f1d04	1.8967788e-05
85	0x3b2b98a6	0.0026183515
86	0x3b458430	0.0030138604
87	0xbae59bd3	-0.0017517753
88	0xbc179533	-0.00925188
89	0xbb823b49	-0.0039743525
90	0x3ac851d3	0.0015283175
91	0xbc345109	-0.011005648
92	0xbc859855	-0.01630799
93	0xbc3ab0d9	-0.011394703
94	0xbbc85de8	-0.00611471
95	0xbb93c079	-0.0045090285
96	0xbbec3860	-0.007208869
97	0xbc112147	-0.008858032
98	0xbc3db574	-0.011578906
99	0xba897351	-0.0010486637
100	0xb8f738ca	-0.000117884556
101	0xbc197951	-0.009367303
102	0x3c2eb82c	0.010664027
103	0xbced3988	-0.028958097
104	0xb7da88e6	-2.6051373e-05
105	0xbc191825	-0.009344135
106	0x3a6fcbb9	0.00091474835
107	0xbae75ecd	-0.0017652154
108	0x3bd1020b	0.0063784174
109	0xb91f61d3	-0.00015199864
110	0xbc80503d	-0.01566326
111	0xbb8702d4	-0.00412021
112	0xbb926c85	-0.004468503
113	0xb65412bf	-3.1601373e-06
114	0x3ad2829c	0.0016060653
115	0x3bcf2e67	0.0063226703
116	0x3c3782d4	0.011200625
117	0x3b6032fd	0.003421008
118	0xbc63d501	-0.013905765
119	0xb88b00a2	-6.6281544e-05
120	0x3ac16cb6	0.001475713
121	0xbc028b00	-0.0079677105
122	0xbca7574e	-0.020427372
123	0xbbcb0309	-0.00619543
124	0xbb68be6d	-0.0035513893
125	0xbbe23131	-0.0069028367
126	0xbb090616	-0.0020908169
127	0xbb8f05dd	-0.0043647126
128	0xbcb40c4d	-0.021978522
129	0xbb356ac0	-0.0027682036
130	0xbb1fdcdb	-0.0024393115
131	0x3838462e	4.393438e-05
132	0x395d0b0d	0.00021080319
133	0xb8ac2e96	-8.2102764e-05
134	0xbbcb4f45	-0.006204518
135	0xbbc76298	-0.0060847513
136	0x3c281381	0.010258556
137	0xbc165a75	-0.00917684
138	0x3834b79e	4.308635e-05
139	0x36af7294	5.228745e-06
140	0xbc1df5f0	-0.009641156
141	0x3be09b7d	0.006854473
142	0xbc115de3	-0.008872482
143	0xbbc42b9a	-0.005986643
144	0xbafda059	-0.0019350155
145	0xbac69001	-0.0015149118
146	0x38309f3e	4.2109976e-05
147	0xbac33128	-0.0014891969
148	0x3a21c711	0.0006171326
149	0x392cbf07	0.00016474361
150	0xbbb3868f	-0.005478687
151	0x3aff765f	0.0019490233
152	0xbb443610	-0.002993945
153	0xbb34b8ed	-0.0027576045
154	0xb825203b	-3.9369083e-05
155	0xbba0c69f	-0.00490649
156	0xb7b0f137	-2.109316e-05
157	0x38cb331e	9.6893156e-05
158	0xbabb7311	-0.001430126
159	0x37195a7e	9.14058e-06
160	0xb8af014d	-8.3448926e-05
161	0x3b1e9127	0.0024195404
162	0x3a4ab7ec	0.0007733095
163	0xbb90bb7a	-0.00441688
164	0xbaaacc8c	-0.001303093
165	0xbb769e2f	-0.0037630906
166	0xba927a05	-0.0011175281
167	0xba811a56	-0.0009849768
168	0xbb0070bf	-0.0019598452
169	0xbb4b9076	-0.0031061447
170	0xbb7180dc	-0.0036850488
171	0xbbd3715d	-0.006452723
172	0xba3ce2f2	-0.00072054483
173	0xba689ed9	-0.0008873768
174	0x3a98976f	0.001164181
175	0xbb5a161b	-0.0033277336
176	0xba1dce5d	-0.0006019825
177	0xbb164506	-0.0022929325
178	0xb9195181	-0.0001462158
179	0xba34f7cc	-0.00069033797
180	0xbbd9bd26	-0.0066448627
181	0x37451d96	1.17490035e-05
182	0xbb9f6b6c	-0.0048651006
183	0xbb1c2a55	-0.0023828943
184	0x3a80fc49	0.0009840812
185	0xb8742e21	-5.8217094e-05
186	0xbbb778c1	-0.005599112
187	0x38c1a686	9.2339746e-05
188	0x393f5cd9	0.00018249768
189	0xba876397	-0.0010329363
190	0xbb4931a6	-0.0030699759
191	0x38332697	4.2712865e-05
192	0x390e9f8c	0.00013601611
193	0xbadc56be	-0.0016810519
194	0x3bfbe9a6	0.007687765
195	0xba98117c	-0.001160189
196	0xbbb526ba	-0.005528298
197	0xbb134b8f	-0.0022475456
198	0xbae3f0f5	-0.0017390536
199	0xb7d0d2f8	-2.4893772e-05
200	0xbbb10672	-0.0054023797
201	0xbacd909f	-0.0015683359
202	0x3aad74d6	0.0013233672
203	0xb846ba7f	-4.7380567e-05
204	0x39bdfae2	0.0003623581
205	0xba999cd1	-0.0011719709
206	0xbb295472	-0.0025837687
207	0x3b0a8195	0.0021134366
208	0xbb554321	-0.0032541233
209	0xbb7e25d0	-0.0038779862
210	0xb8833ea8	-6.2582374e-05
211	0x37803f45	1.5288251e-05
212	0xbb397ad7	-0.0028301978
213	0xbb1ccfda	-0.00239276
214	0xbb20edd2	-0.0024555814
215	0xbae0c15e	-0.0017147472
216	0x3b25bd73	0.0025289922
217	0xb991915c	-0.00027764856
218	0x3ac24a80	0.0014823228
219	0xbbc1f47e	-0.0059190383
220	0xbad43534	-0.0016190172
221	0xb941f0b2	-0.0001849558
222	0xba3a3131	-0.0007102667
223	0xb9951fd4	-0.00028443208
224	0xbb2aff0c	-0.0026091961
225	0xbbf83ed0	-0.007575847
226	0x394e5451	0.00019677101
227	0xbc2c8f45	-0.010532205
228	0x372264d1	9.679426e-06
229	0x3aff174f	0.0019461903
230	0xbab91fa9	-0.0014123815
231	0x3b6d2089	0.0036182723
232	0xbaac8200	-0.0013161302
233	0xbb2151a7	-0.002461532
234	0x3a5bee40	0.0008389689
235	0xbafa89ce	-0.0019114555
236	0xbc08f19e	-0.008358387
237	0xbb925763	-0.0044659837
238	0x3a879264	0.001034331
239	0xbb06e70e	-0.0020584497
240	0xbb420f02	-0.0029610996
241	0xbaf4896b	-0.0018656676
242	0xbb1574ab	-0.0022805135
243	0xba90ff75	-0.001106246
244	0x39740c55	0.00023274247
245	0xbc203347	-0.0097778505
246	0x3b86c08c	0.004112309
247	0xbc856d9a	-0.016287614
248	0xb9e9088b	-0.00044447588
249	0xbb6497c9	-0.003488051
250	0x3b3fc6d0	0.0029262789
251	0xbb95fb11	-0.0045770486
252	0xbb4e90e9	-0.0031519479
253	0xb7eee41c	-2.8478033e-05
254	0xbc15532d	-0.009114069
255	0x3a6df77e	0.0009077712

convs.4.weight f4 [72, 72]
0	0x3ad30b32	0.0016101359
1	0xbaa04a2c	-0.0012229136
2	0x3a382b66	0.000702551
3	0x3c0b38db	0.008497442
4	0xb93decf4	-0.00018112716
5	0xb9814abd	-0.00024660482
6	0xbb46b451	-0.003031988
7	0x3bd5b6ff	0.006522059
8	0xbb680a22	-0.003540643
9	0xbc2d7ae8	-0.010588385
10	0x3893defc	7.05104e-05
11	0xbc8a8861	-0.016910734
12	0x38a39fd3	7.802215e-05
13	0xbb50dc31	-0.0031869526
14	0x3a9422de	0.0011301895
15	0x3b549053	0.0032434657
16	0xbad9b9a5	-0.0016611113
17	0xba60c889	-0.0008574804
18	0x3afc377e	0.0019242612
19	0xbbe16970	-0.006879024
20	0xbc01274c	-0.007882904
21	0xbb33930d	-0.0027400882
22	0x3baecbc6	0.0053343503
23	0xba909ec0	-0.0011033639
24	0xbb7f56d3	-0.0038961663
25	0xbb4a9100	-0.003090918
26	0xba9e9ac6	-0.001210057
27	0xba3fdc8e	-0.0007318937
28	0xbc125c16	-0.008933088
29	0xbc4bab65	-0.012431
30	0x3bf7b571	0.0075594713
31	0xbca3bce5	-0.019987533
32	0xb9ff9795	-0.00048750328
33	0xbb6582ae	-0.0035020518
34	0x3b1908d3	0.0023351207
35	0xbb2dc73b	-0.0026516456
36	0xbb55d2f6	-0.0032626963
37	0xb6440781	-2.9210644e-06
38	0xbbf884aa	-0.007584174
39	0xbb8791ff	-0.004137277
40	0x3b9ade8b	0.004726236
41	0xba8bde5b	-0.0010671125
42	0x3997d87f	0.00028962267
43	0x37a3ae8b	1.9512392e-05
44	0x3b9bef61	0.004758761
45	0xb935ebf6	-0.00017349407
46	0xbc26845c	-0.010163393
47	0x3804b035	3.1635358e-05
48	0x3a107e62	0.00055119966
49	0xbbb91162	-0.005647824
50	0xbc0749e9	-0.008257368
51	0xbb94655d	-0.004528685
52	0xbb6564d8	-0.0035002735
53	0xbb05d2a9	-0.0020419753
54	0xbc48dcf5	-0.0122597115
55	0x39de03be	0.00042345928
56	0xbc9a2435	-0.018816093
57	0xbab92523	-0.0014125447
58	0x3afda37e	0.0019351093
59	0x381f4be5	3.7979236e-05
60	0x396a7332	0.00022358893
61	0xbab2a022	-0.0013628046
62	0x3a16f115	0.000575797
63	0xbbbf6776	-0.005841191
64	0x3c117eec	0.008880358
65	0xbc133b2d	-0.008986277
66	0xb8b554ee	-8.646572e-05
67	0x37c56b3c	2.3534165e-05
68	0xbb5eb513	-0.003398244
69	0x3bbeb112	0.0058194483
70	0xba6db232	-0.00090673857
71	0xbb080742	-0.002075628
72	0x3be2a227	0.0069163027
73	0xbb0423c7	-0.0020162927
74	0x3ab3a03f	0.0013704373
75	0xbb9717ef	-0.0046110074
76	0xbbfbc08d	-0.007682866
77	0x3a2284e5	0.00061996124
78	0xba8b9a8a	-0.0010650915
79	0xbb494eda	-0.0030717165
80	0xbba829a3	-0.0051319166
81	0xbbf31bda	-0.0074190916
82	0x39beb2aa	0.0003637274
83	0xbcb10745	-0.021609912
84	0xb85e1bd3	-5.2954838e-05
85	0x39d13d14	0.00039909093
86	0x3b6bef6f	0.0036000868
87	0x3a47b527	0.00076182414
88	0xbba9cbc5	-0.005181762
89	0xbb9e2cba	-0.004827109
90	0x3ac40beb	0.0014957165
91	0xbc2a7400	-0.010403633
92	0xbc49d245	-0.012318199
93	0xbc45f591	-0.012082473
94	0xbbab8568	-0.005234409
95	0xbb71d5dc	-0.0036901152
96	0xbbe2651d	-0.0069090263
97	0xbbf69c82	-0.0075259814
98	0xbc02c588	-0.007981665
99	0xbb9dbe76	-0.0048139645
100	0xbb058734	-0.0020374777
101	0xbc761275	-0.015019049
102	0x3c6f7b06	0.014616733
103	0xbcf55555	-0.029947916
104	0xb9d59f8c	-0.00040745398
105	0xbba9ab42	-0.005177886
106	0x3b48f5e4	0.003066414
107	0xba434212	-0.0007448505
108	0x3b4109e2	0.0029455354
109	0x392f4c7d	0.00016717795
110	0xbc67c57b	-0.014146204
111	0xbb28fcc0	-0.0025785416
112	0xbbe7a420	-0.007069126
113	0xba34d19a	-0.0006897688
114	0x3b5a0f20	0.0033273175
115	0x3b4fb47d	0.0031693273
116	0x3ba1597b	0.004923997
117	0x3a6e8b03	0.0009099694
118	0xbc2d7d34	-0.010588933
119	0xb8b6ccba	-8.7165696e-05
120	0x3a9613f0	0.0011450034
121	0xbb9f8bc2	-0.0048689554
122	0xbc383d16	-0.011245033
123	0xbb5b8a86	-0.0033499314
124	0xbb40a4ad	-0.002939503
125	0xbbb0f9c0	-0.0054008663
126	0xbba3f5c5	-0.0050036632
127	0x3983fb53	0.00025173518
128	0xbc8a95e3	-0.016917175
129	0xbbd1cd93	-0.00640268
130	0xbb145a3b	-0.002263679
131	0x385d0483	5.2694708e-05
132	0x395fa056	0.00021326667
133	0xba0330d5	-0.000500453
134	0xbbd56390	-0.006512113
135	0xbc3fe45f	-0.011712163
136	0x3bdd0d1b	0.006745947
137	0xbc0e9a64	-0.008703802
138	0x3685b9ab	3.9853235e-06
139	0xb74242f7	-1.1578893e-05
140	0xbc1335d1	-0.008984999
141	0x3b93b085	0.0045071268
142	0xbb6c733d	-0.003607943
143	0xbc0f6a68	-0.008753397
144	0xb9c07c27	-0.00036713594
145	0xba9b81ef	-0.0011864285
146	0x37b28d5c	2.128508e-05
147	0x3c1015a8	0.008794226
148	0xbb5c0930	-0.0033574812
149	0xb83c4e86	-4.4895824e-05
150	0xbb540b4e	-0.003235537
151	0xb9341d91	-0.00017177152
152	0xbb24a6fe	-0.002512395
153	0xbba07e55	-0.0048978725
154	0x3922c2a4	0.00015522033
155	0xbb95d25f	-0.0045721973
156	0x38291c8e	4.0319333e-05
157	0xbb96d3df	-0.0046028937
158	0xbaf291ac	-0.0018506548
159	0x3a4c6eba	0.0007798482
160	0xb92235fe	-0.00015469638
161	0xbab759af	-0.001398852
162	0x3a268f69	0.0006353767
163	0x3a61729c	0.0008600147
164	0xba79b467	-0.0009525478
165	0xbb6d21f3	-0.0036183565
166	0xbaa10d94	-0.0012287372
167	0xbae07bed	-0.0017126777
168	0xbba2af8e	-0.0049647754
169	0x3c146eff	0.009059667
170	0xbb216e34	-0.0024632337
171	0xbaf9613b	-0.0019026169
172	0xbad547a3	-0.001627196
173	0xba283e31	-0.00064179586
174	0x3af2b517	0.0018517104
175	0xb9df3151	-0.00042570618
176	0xb9b363f5	-0.00034216014
177	0xba043201	-0.00050428516
178	0xba85cd67	-0.0010208309
179	0xba521875	-0.00080145086
180	0xba36705f	-0.00069594936
181	0xb80bc4a1	-3.3323307e-05
182	0xbba12454	-0.0049176607
183	0xbb137ff0	-0.0022506677
184	0x3a83547e	0.0010019687
185	0xba46724e	-0.00075701333
186	0xbc4b483d	-0.01240736
187	0xbb8d8d54	-0.004319826
188	0x3af9051e	0.0018998717
189	0xbb2cdcdd	-0.0026376762
190	0xba9e3d87	-0.001207278
191	0xb6156b10	-2.2265049e-06
192	0xb9bc1647	-0.00035874752
193	0xbc1904fa	-0.009339565
194	0xb71681bb	-8.970902e-06
195	0xbb5770a0	-0.0032873526
196	0xbb0e94e3	-0.0021756224
197	0xbaa929e1	-0.0012906158
198	0xbbbfdd8e	-0.005855269
199	0xbabee635	-0.0014564457
200	0xbb9bf214	-0.0047590826
201	0xbaec6e95	-0.0018038327
202	0x3a931d6c	0.0011223978
203	0x3877d1b1	5.908468e-05
204	0x3883b8d4	6.280994e-05
205	0x39155226	0.0001424035
206	0xbb305477	-0.0026905814
207	0xbb3ad4ac	-0.002850811
208	0x3aba7ec7	0.0014228456
209	0xbbbf4062	-0.0058365325
210	0x38bb1f2e	8.9226625e-05
211	0xb80635c4	-3.1998163e-05
212	0xbb22a2eb	-0.0024816345
213	0xbb14d5e1	-0.002271049
214	0x3c0f7fbb	0.008758481
215	0xbb151d89	-0.00227532
216	0x3afc2707	0.0019237705
217	0xbafe32f7	-0.0019393851
218	0x3a09cbde	0.0005256514
219	0xbbc93794	-0.0061406586
220	0xbb8a75e1	-0.004225478
221	0xb9845df1	-0.00025246994
222	0xbbbe23a7	-0.00580259
223	0xba6c20dc	-0.0009007582
224	0xbad2f0e6	-0.0016093522
225	0xbbba4b6a	-0.0056852596
226	0x371db20a	9.399382e-06
227	0xbbc791d3	-0.0060903816
228	0x38e0ff42	0.00010728698
229	0x3b2a4542	0.0025981222
230	0xbb0f2822	-0.002184399
231	0x3a6ed05f	0.0009110029
232	0xbaa1aaa0	-0.0012334175
233	0xbbaa6fcc	-0.0052013155
234	0x3a4508a2	0.000751624
235	0xbb78c019	-0.0037956296
236	0xbac03fb7	-0.0014667426
237	0xbb918cd4	-0.004441837
238	0x39acbe2f	0.00032948094
239	0xbb1bb4ea	-0.0023758956
240	0xbbb64c7f	-0.0055633183
241	0xbc26758b	-0.01015986
242	0xbbbb5c43	-0.0057177856
243	0xb9ea8845	-0.00044733487
244	0xba5f2b9e	-0.00085132744
245	0xbc02a1c5	-0.007973139
246	0x3ba3cf05	0.004999044
247	0xbbfb25dd	-0.0076644258
248	0x3adf7f50	0.0017051492
249	0xbb1cf2cd	-0.0023948431
250	0x3b5b8725	0.00334973
251	0x3adcab69	0.0016835752
252	0x3b51f5ba	0.0032037334
253	0xb851540b	-4.9907754e-05
254	0xbba14573	-0.004921609
255	0xba339615	-0.0006850672

convs.5.weight f4 [72, 72]
0	0x3ba5bb0f	0.0050576995
1	0xba9b5591	-0.0011851062
2	0x3a67b9f5	0.00088396604
3	0x3b5334a2	0.0032227417
4	0xbb4e8661	-0.0031513202
5	0x38c82dd7	9.5452815e-05
6	0xbb5e1dde	-0.0033892314
7	0xba9f80eb	-0.0012169158
8	0xbc440c95	-0.01196589
9	0xbc0dbf04	-0.008651499
10	0x398e381b	0.00027126152
11	0xbc4dccf2	-0.01256107
12	0x37da492f	2.6021704e-05
13	0xba8fe6df	-0.0010978839
14	0xba806f6d	-0.0009798832
15	0x3ab68294	0.0013924413
16	0xbb68237c	-0.003542154
17	0x3ace657b	0.0015746796
18	0x3aadaf46	0.0013251088
19	0xbbc7fcbd	-0.006103127
20	0xbc89a98d	-0.01680448
21	0xbbbc78b0	-0.0057516918
22	0xbb6d40d6	-0.0036201975
23	0xbac2e340	-0.0014868751
24	0xbc77a0b9	-0.015114003
25	0x3b1c24e2	0.0023825695
26	0xba67866d	-0.00088319817
27	0xbab684a0	-0.0013925023
28	0xbb0eff28	-0.0021819565
29	0xbc515c84	-0.012778405
30	0x3bb010c7	0.0053730938
31	0xbc192caf	-0.009349032
32	0xba75d927	-0.00093783665
33	0xbb011994	-0.0019699084
34	0x3888477e	6.498302e-05
35	0xbb1107e5	-0.002212995
36	0x3b151e3c	0.0022753617
37	0xb80deb41	-3.3836117e-05
38	0xbbe3a394	-0.0069469903
39	0xbba4ddd3	-0.0050313263
40	0x3b1416e0	0.0022596642
41	0xb9c020c0	-0.00036645494
42	0x3a72c83d	0.0009261405
43	0x3b221fd3	0.0024738207
44	0x3b4a92c3	0.003091023
45	0x3994f53f	0.00028411482
46	0xbc507dad	-0.012725276
47	0x37cdf8fa	2.4553843e-05
48	0x3a1b213c	0.0005917733
49	0xbc3d1827	-0.011541403
50	0xbbb4eb66	-0.0055212257
51	0xbb9284d6	-0.0044714017
52	0xbb762e07	-0.0037564056
53	0xbb00096c	-0.0019536866
54	0xbc4a18b0	-0.0123349875
55	0xbba0aebd	-0.004903643
56	0xbca47f8d	-0.020080352
57	0xbac5fa75	-0.0015104549
58	0xbab19d2a	-0.0013550867
59	0x38221ef5	3.865264e-05
60	0x39594a08	0.00020722311
61	0xb9be246e	-0.00036266766
62	0xbac1374e	-0.0014741214
63	0xbb6a4989	-0.0035749397
64	0x3bb110ff	0.0054036374
65	0xbc327443	-0.010891977
66	0x363a5125	2.7763392e-06
67	0xb82fc761	-4.1908937e-05
68	0xbb765964	-0.0037589902
69	0xba494c9f	-0.0007678959
70	0xb9be3ea2	-0.0003628629
71	0xbc04b55a	-0.008099878
72	0x3be9f92f	0.0071403007
73	0xbb46c08c	-0.003032717
74	0x3b1a947a	0.0023587034
75	0xbb690051	-0.0035553167
76	0xbacf992b	-0.0015838494
77	0x39e58b5d	0.00043782117
78	0x3a6a9736	0.0008948924
79	0xbb2d3625	-0.0026429978
80	0xbba4daf4	-0.005030984
81	0xbc6e9269	-0.014561274
82	0x399027c1	0.0002749544
83	0xbcb0064e	-0.021487381
84	0xb840f1af	-4.6001453e-05
85	0x3b0144f8	0.0019724946
86	0x3b99f589	0.0046984595
87	0xb997e6ea	-0.0002897301
88	0xbb9c1eab	-0.004764398
89	0xbb9d4773	-0.004799777
90	0x3a86c9e0	0.0010283552
91	0xbc2748b2	-0.010210203
92	0xbc3e4f94	-0.011615653
93	0xbc262ad8	-0.010142051
94	0xbba33185	-0.0049802684
95	0xbb8cfbc7	-0.004302475
96	0xbba5c91a	-0.0050593736
97	0xbbd49827	-0.0064878645
98	0xbb67a9a4	-0.0035348916
99	0xbac2fcc3	-0.0014876354
100	0xbb088cf0	-0.0020835958
101	0xbc3acce9	-0.011401393
102	0x3c7dd520	0.0154927075
103	0xbcadc41a	-0.021211673
104	0xbb8e48a4	-0.0043421555
105	0xbc259ea1	-0.010108621
106	0x3b8ecd12	0.0043579424
107	0xbbd95f75	-0.006633694
108	0xba9ee7ad	-0.0012123488
109	0xb8e2212a	-0.00010782697
110	0xbc68cde1	-0.014209242
111	0xbb0aec93	-0.0021198138
112	0xbb9a0bbf	-0.0047011073
113	0xb9ad1e26	-0.00033019594
114	0xbc767d64	-0.015044544
115	0x3c0658c0	0.008199871
116	0x3b7c7390	0.003852103
117	0x3b5fb10d	0.003413263
118	0xbc17166c	-0.009221654
119	0xb838163a	-4.388972e-05
120	0x39de4dea	0.0004240119
121	0xbc392744	-0.011300866
122	0xbbd168ba	-0.006390658
123	0xbb11a9e2	-0.0022226502
124	0xbb6f2071	-0.0036487842
125	0xbb0c2d6d	-0.002138938
126	0xba9c15ea	-0.0011908386
127	0x39d77f48	0.00041102828
128	0xbcb0eb43	-0.021596557
129	0xbb09d27a	-0.0021029995
130	0x3c5bbf0b	0.013412247
131	0xb81107ca	-3.4577948e-05
132	0x3985ea8e	0.00025542494
133	0xb986b9c9	-0.00025696892
134	0xbbdd6c09	-0.0067572636
135	0xbbf7c085	-0.007560792
136	0x3c137200	0.008999348
137	0xbc49c979	-0.012316101
138	0xb8ba1b5c	-8.874267e-05
139	0xb7f12159	-2.8744967e-05
140	0xbc0bc302	-0.00853038
141	0x3bae6352	0.0053218985
142	0xbb2104aa	-0.002456943
143	0xbc3b6802	-0.011438372
144	0xb9569acc	-0.00020466297
145	0xba69496f	-0.0008899187
146	0xb8bcea23	-9.00815e-05
147	0xbab6d243	-0.0013948161
148	0xb9bbdbd1	-0.00035831195
149	0x37eaa4f9	2.7971795e-05
150	0x39b9862d	0.00035385918
151	0xb91fb793	-0.00015231808
152	0xbafef7d1	-0.0019452517
153	0xbb4d40fe	-0.0031319256
154	0xb833f477	-4.29046e-05
155	0xbb1ed73b	-0.0024237174
156	0xb81ad44b	-3.6914174e-05
157	0xbaee5ca5	-0.0018185569
158	0xbafbaef1	-0.0019201917
159	0x390aef5e	0.00013249877
160	0xbba202a2	-0.0049441615
161	0xb9dac572	-0.00041727308
162	0x3a14486b	0.0005656543
163	0xbb364d18	-0.0027816948
164	0xbbff24fa	-0.0077863904
165	0xbb57289f	-0.0032830609
166	0xbb361875	-0.0027785574
167	0xbac7f6d8	-0.001525606
168	0xbaf7950b	-0.0018889023
169	0xbb3d91a3	-0.0028925918
170	0xbb3c3b24	-0.0028721774
171	0xb90ef9db	-0.00013635254
172	0xba827462	-0.0009952898
173	0xbad1a05f	-0.0015993229
174	0x3adaccd9	0.001669313
175	0xbb971c7b	-0.0046115494
176	0x3b5bb6be	0.003352567
177	0xbb568aad	-0.0032736466
178	0xb829a14e	-4.0442967e-05
179	0xba0fe024	-0.00054884166
180	0xba28b394	-0.00064354506
181	0x371c13d0	9.3029375e-06
182	0xbbb0b26e	-0.005392364
183	0xbb42affd	-0.0029706948
184	0x3a16f114	0.00057579693
185	0xbb44541f	-0.0029957367
186	0xbbd1e2d2	-0.006405213
187	0x3a070a5c	0.0005151385
188	0x39a86983	0.0003212207
189	0xba823334	-0.0009933473
190	0xbb1fcb3d	-0.0024382614
191	0xb8be5254	-9.075241e-05
192	0x3987d4b7	0.0002590769
193	0xbc1acb90	-0.009447947
194	0xbaca1a14	-0.0015419149
195	0xbbec855d	-0.0072180466
196	0xbaaf98c2	-0.0013396966
197	0xba97ce7c	-0.0011581923
198	0xba4efab0	-0.0007895632
199	0xba134758	-0.0005618236
200	0xbb6bebf1	-0.0035998786
201	0xbabd34df	-0.0014435312
202	0x3a7e80ae	0.0009708506
203	0xb6758001	-3.6582353e-06
204	0x3917b1fd	0.00014466788
205	0x3929e20a	0.00016201302
206	0xbb49ee0a	-0.0030812048
207	0xbb2140d5	-0.0024605293
208	0x3ab3f184	0.0013728593
209	0xbc2a7436	-0.010403683
210	0xb86949fc	-5.5620432e-05
211	0x379c5daf	1.8640274e-05
212	0xbb2dbd55	-0.0026510556
213	0xbb1b2bb3	-0.002367717
214	0xbafea462	-0.0019427652
215	0x3a97a31d	0.0011568997
216	0x3b613677	0.003436474
217	0xba077ed3	-0.00051687396
218	0x39a9e5aa	0.00032405305
219	0xbba17de8	-0.0049283393
220	0xbb897c68	-0.0041957386
221	0xb8634539	-5.4185486e-05
222	0xbbd0a3de	-0.0063671907
223	0xba566f19	-0.0008180007
224	0xbaec03cb	-0.0018006501
225	0xbbd40f3d	-0.006471543
226	0x395353ea	0.00020153789
227	0xbbecee85	-0.007230582
228	0x389d8036	7.5102245e-05
229	0xbb28c5c7	-0.002575265
230	0xbb327f5c	-0.0027236557
231	0x3b08ca97	0.0020872706
232	0x39aab716	0.00032561336
233	0xb98cb302	-0.00026836252
234	0x3a0d882a	0.0005399013
235	0xbbbd113a	-0.005769876
236	0xbb724cf3	-0.0036972135
237	0xbbbdf297	-0.005796741
238	0xbb476443	-0.003042475
239	0xbb2253d5	-0.0024769206
240	0xb9767049	-0.00023502218
241	0xbb2ef4df	-0.0026696248
242	0xbb506e9b	-0.0031804207
243	0xb9220b59	-0.00015453751
244	0xba1fbd8a	-0.0006093612
245	0xbb541647	-0.003236191
246	0x3bc255d6	0.0059306426
247	0xbc988a69	-0.018620687
248	0x3b0280ad	0.0019913123
249	0xbb91a743	-0.004444988
250	0x3afd9289	0.0019346039
251	0x3b97fa57	0.004637997
252	0x3b4d32bc	0.0031310758
253	0x38cb8cc4	9.706014e-05
254	0xbc2cd8b1	-0.01054971
255	0xbb53d46f	-0.0032322665
