checkpoint/Wikipedia/20231105_160011468884.pth (torch, 339335 bytes, 18 tensors)

convs.0.weight f4 [72, 138]
0	0xbd9a866d	-0.07545171
1	0xbdef56a5	-0.11686448
2	0x3e1bdfbf	0.15222071
3	0x3d1ea54e	0.038731866
4	0xbbda32b9	-0.0066588786
5	0xbdd6219e	-0.10455631
6	0x3e49742d	0.19673224
7	0xbc2278a6	-0.00991646
8	0x3d857028	0.06515533
9	0x3d0cfc9f	0.034420606
10	0x3d311992	0.043237276
11	0xbd07f754	-0.033194855
12	0xbd50a047	-0.050934102
13	0x3bf1108f	0.0073567103
14	0x3ccdde63	0.025130456
15	0xbdb95c60	-0.09050822
16	0xbaa9fd65	-0.0012969194
17	0xbe29085a	-0.16507092
18	0x3e367203	0.1781693
19	0xbda6eaba	-0.08150239
20	0x3c33a127	0.010963715
21	0x3d1808db	0.03711782
22	0x3cfa7959	0.030575441
23	0xbcccb2c2	-0.024987582
24	0xbd128ca2	-0.03577865
25	0xbd283ac9	-0.041071687
26	0x3b3b28e7	0.0028558315
27	0xbd954b02	-0.07289697
28	0x3d5abf44	0.05340506
29	0x3d52c083	0.051453125
30	0x3d51112a	0.05104176
31	0xbc927962	-0.017880145
32	0x3d16a9f5	0.036783177
33	0xbd3f434d	-0.046695042
34	0x3d8124ad	0.063058235
35	0xbd83efd5	-0.06442229
36	0x3e67041f	0.22560166
37	0x3e6aff01	0.22948839
38	0xb9cb071b	-0.0003872447
39	0x3b6fe746	0.0036606356
40	0x3e25d777	0.16195475
41	0x3d270e63	0.040785205
42	0x3d305707	0.043051746
43	0x3a9c2189	0.001191185
44	0xbbd3f0c2	-0.0064679096
45	0xbe0f2c32	-0.13981703
46	0x3d9e813c	0.07739493
47	0x3c6b26d7	0.014352522
48	0xbd2ce89f	-0.042214032
49	0xbdde5998	-0.108569324
50	0x3e726309	0.23670591
51	0xbd045311	-0.03230578
52	0x3c5e4774	0.01356684
53	0xbbbe867e	-0.0058143726
54	0x3c0c722c	0.008572143
55	0x3d036891	0.032082144
56	0x3cedccfa	0.029028405
57	0xbccd3ecf	-0.025054364
58	0xbcb38d4a	-0.021917958
59	0x3dc1d310	0.09464085
60	0x3c8ae3fc	0.016954415
61	0x3b9ff32d	0.0048812837
62	0x3cff3809	0.03115465
63	0xbd16478a	-0.03668932
64	0xbd9f9a6f	-0.07793128
65	0xbe16a9e1	-0.14713241
66	0xbc963165	-0.0183341
67	0x3c48e231	0.0122609595
68	0x3d3fa03c	0.04678367
69	0xbde76c62	-0.11299969
70	0x3d8cabbc	0.06868693
71	0xb914080b	-0.00014117376
72	0x3cb86ff3	0.022514319
73	0x3e02cdaf	0.12773775
74	0x3cc5ff87	0.024169696
75	0xbd29490e	-0.041329436
76	0x3cc125b6	0.023577552
77	0xbcd031e9	-0.025414424
78	0x3ceb13d9	0.028695988
79	0x3c8695e3	0.016428893
80	0xbd99ba15	-0.075061955
81	0xbdf3419a	-0.11877747
82	0x3e74f1db	0.23920386
83	0xbcb4f984	-0.022091635
84	0xbd909dcb	-0.070613466
85	0xbd46ff6d	-0.048583437
86	0xbcc746ad	-0.024325693
87	0x3d87d29e	0.06631969
88	0xbc04e312	-0.008110778
89	0xbdf84753	-0.12122979
90	0x3d8a8b14	0.06764808
91	0xbd0e61df	-0.034761306
92	0x3cd69aa2	0.026196782
93	0xbd1d4aca	-0.038401403
94	0x3c1a1abe	0.00940579
95	0xbc4b4bc4	-0.012408201
96	0xbae63113	-0.0017562233
97	0xbdde8f05	-0.108671226
98	0xbe128db1	-0.14311863
99	0xbcd667bd	-0.026172513
100	0x3e49279a	0.19644013
101	0x3d13050b	0.03589348
102	0x3c824d7b	0.015906086
103	0x3cb8d976	0.022564631
104	0x3caf4c6e	0.02139875
105	0xbc1e54b8	-0.009663753
106	0x3d2705e5	0.040777106
107	0x3c9003cf	0.017579941
108	0x3c08172d	0.008306307
109	0xbddb2a69	-0.107014485
110	0xbc72e881	-0.014825941
111	0x3c7b83fd	0.015351293
112	0x3e3c96cf	0.18416904
113	0xbe22ebf5	-0.15910323
114	0x3db70b29	0.089376755
115	0x3d32d2f3	0.043658208
116	0x3cc050d8	0.02347605
117	0xbd30bd62	-0.04314936
118	0x3c3a95f6	0.011388293
119	0x3d869ce1	0.06572891
120	0x3ccefe8c	0.025267862
121	0xbc00ef3b	-0.007869537
122	0xbae3b1cb	-0.0017371712
123	0xbbd31ce4	-0.006442653
124	0x3d4c1b9e	0.049831025
125	0xbd70d045	-0.05879237
126	0x3c8b433c	0.016999833
127	0xbd829fcf	-0.06378137
128	0x3ddb2d14	0.10701957
129	0x3d78de6f	0.060759004
130	0xbd91a36f	-0.071112506
131	0xbd19d745	-0.037558813
132	0xbda24a71	-0.07924355
133	0xbe4ebfd6	-0.20190367
134	0xbd94cbb0	-0.07265413
135	0x3f23ff7f	0.6406173
136	0xbddbe442	-0.10736896
137	0xbd2a6faa	-0.041610397
138	0xbe199f20	-0.15002108
139	0xbd8127fa	-0.06306453
140	0x3d847fec	0.06469712
141	0xbc56ec84	-0.013117913
142	0xbd414d9b	-0.04719315
143	0xbddfe6aa	-0.109326676
144	0x3e25572f	0.16146539
145	0x3c1b0e32	0.009463834
146	0x3cfe5b6c	0.031049453
147	0x3d3c4c69	0.045971308
148	0xbcf222bc	-0.029557578
149	0xbce34b47	-0.027745856
150	0xbcb2eccb	-0.021841427
151	0x3cb20049	0.021728652
152	0xbba917f5	-0.0051603266
153	0xbdfd1d0a	-0.123590544
154	0xbd028a23	-0.03187002
155	0xbe3268ac	-0.17422742
156	0x3d6c3bbe	0.057674162
157	0xbdb4f163	-0.08835103
158	0xbcc0e339	-0.023545848
159	0xbd172028	-0.0368959
160	0xbcac9d3d	-0.02107107
161	0xbd393631	-0.045217697
162	0xbcf57ea1	-0.029967608
163	0xbd636392	-0.05551488
164	0xbbf01145	-0.0073262774
165	0xbd8d53be	-0.06900738
166	0xbb0dfd01	-0.0021665695
167	0x3c04cd09	0.008105525
168	0xbc30fcf5	-0.010802497
169	0xbb360557	-0.002777418
170	0x3ceee6d9	0.029162811
171	0xbd980e53	-0.07424607
172	0xbbc29a4f	-0.005938805
173	0xbd948d85	-0.07253555
174	0x3e36bd79	0.17845716
175	0x3e477d92	0.19481495
176	0xbd42fb83	-0.04760314
177	0xbb4846be	-0.0030559744
178	0x3e3d79ef	0.18503545
179	0x3d202c1e	0.039104573
180	0xbd29724f	-0.04136878
181	0xbbfe6ffb	-0.007764814
182	0x3c2951e7	0.010334468
183	0xbe2d2228	-0.16907561
184	0x3beb448e	0.007179803
185	0xbb76ca03	-0.003765703
186	0xbd921b9f	-0.071341746
187	0xbe07d039	-0.13263024
188	0x3e507d20	0.20360231
189	0x3bffc40b	0.0078053526
190	0xbd1e1302	-0.038592346
191	0x3c8a62af	0.01689276
192	0xbbd700db	-0.0065613813
193	0x3cabf16c	0.020989142
194	0xbdcbea25	-0.09956769
195	0x3aaf4c9b	0.0013374271
196	0xbd08aab2	-0.033365913
197	0x3d825d53	0.063654564
198	0xbcc5f397	-0.024164004
199	0xbb270c02	-0.0025489335
200	0x3c7447c2	0.0149096865
201	0xbd1378f1	-0.03600401
202	0xbdc02ce2	-0.09383561
203	0xbdbc18e8	-0.09184438
204	0xbd923447	-0.07138877
205	0x3d05488f	0.0325399
206	0xba3b6bf4	-0.000714957
207	0xbde32666	-0.11091308
208	0x3cf8fd83	0.030394321
209	0x3b4b3d5a	0.003101191
210	0xbc89646f	-0.016771523
211	0x3e4f6aeb	0.2025563
212	0xbc1eead1	-0.009699539
213	0xbd2c30af	-0.042038616
214	0xbc988f7d	-0.018623108
215	0xbda585e2	-0.08082177
216	0xbd0a5094	-0.03376825
217	0xbbd26d17	-0.006421696
218	0xbde0d643	-0.10978367
219	0xbde9362a	-0.11387284
220	0x3df6242f	0.1201862
221	0xbcb13903	-0.02163363
222	0xbd89cd5e	-0.06728624
223	0xbd9a9036	-0.07547037
224	0xbce83dc2	-0.02834976
225	0x3d32e0cd	0.043671418
226	0xbd2d9e4f	-0.042387303
227	0xbdec993e	-0.11552666
228	0xbba3e37e	-0.0050014844
229	0xbd0c42bc	-0.03424333
230	0xbb59664b	-0.0033172544
231	0xbd272fc0	-0.040817022
232	0x3aeb11c1	0.0017934368
233	0xbcbdcc20	-0.023168623
234	0xbd6187bb	-0.055061083
235	0xbe054890	-0.13015962
236	0xbe223fae	-0.15844604
237	0xbd6c2fd1	-0.05766279
238	0x3e2b77c8	0.16744912
239	0x3db013d9	0.08597536
240	0x3aa00602	0.0012208822
241	0x3bc56c24	0.0060248543
242	0x3ca6cbc0	0.020360827
243	0xbc8f149f	-0.017465888
244	0x3cda6f90	0.026664525
245	0x3a963720	0.001146052
246	0xbbc41e84	-0.005985083
247	0xbd8f9e60	-0.070126295
248	0xbd4d8b49	-0.05018166
249	0xb9b6cc7c	-0.00034866098
250	0x3e8fda4a	0.2809623
251	0xbe32cb76	-0.17460427
252	0x3d353c42	0.04424692
253	0x3da2b788	0.07945162
254	0xbc68d9d9	-0.014212095
255	0xbd0ff8f1	-0.03514952

convs.0.bias f4 [72]
0	0x3cfd2a0a	0.030903835
1	0x3dbb4e03	0.09145739
2	0xbc5087f5	-0.012727727
3	0x3df4686e	0.11933981
4	0x3dc7e796	0.097609684
5	0xbd478e88	-0.048719913
6	0x3e29451d	0.16530271
7	0xbc028aaf	-0.007967635
8	0x3d2c9225	0.04213156
9	0x3d803f43	0.06262066
10	0xbd13dd44	-0.036099687
11	0x3e0562e7	0.1302601
12	0xbcb516cd	-0.022105599
13	0x3e2e43fb	0.1701812
14	0x3df7fed6	0.12109153
15	0x3dc75ff9	0.09735102
16	0x3bf06772	0.0073365504
17	0x3dcbf075	0.09957973
18	0xbcc13bb2	-0.023588035
19	0x3e194060	0.14965963
20	0x3dd0c1ff	0.10193252
21	0x3dee0c97	0.11623495
22	0x3dc500f1	0.0961932
23	0x3e3760aa	0.17907968
24	0x3da3623a	0.079777196
25	0x3dc952bd	0.09830234
26	0x3dd944d9	0.10608835
27	0x3dad02a4	0.08447769
28	0xbc21827c	-0.00985777
29	0x3d88659b	0.06660005
30	0x3d9a09c3	0.07521393
31	0x3e184fba	0.14874163
32	0x3e2e58b5	0.17026027
33	0x3dd0488d	0.10170088
34	0x3d64dfbc	0.055877432
35	0x3d95fdab	0.07323774
36	0x3d9256a9	0.07145435
37	0xbc90e734	-0.017688371
38	0x3dc15d38	0.09441608
39	0x3d815b08	0.06316191
40	0x3dfe79a4	0.12425545
41	0x3db43289	0.08798701
42	0x3da9d21a	0.08292027
43	0x3e30aca8	0.17253363
44	0x3e44a9f0	0.19205451
45	0x3e11189e	0.14169547
46	0x3d190a1c	0.037363157
47	0xbcad15e1	-0.021128597
48	0xbc00e2b9	-0.007866555
49	0x3d3da25b	0.046297412
50	0x3d246bd8	0.04014191
51	0x3c8b8bb3	0.017034387
52	0x3e1072fe	0.14106366
53	0x3df92a68	0.121662915
54	0x3d9789ae	0.07399307
55	0x3e226118	0.15857351
56	0x3e29ee0b	0.16594712
57	0x3dcfc639	0.1014523
58	0x3dcf97d0	0.10136378
59	0xbcce08cf	-0.025150685
60	0xbb7c8bdc	-0.003853551
61	0x3de5a75d	0.11213563
62	0x3e44df6b	0.19225852
63	0x3e051f2c	0.13000172
64	0x3dcb2a44	0.09920171
65	0x3d6901a1	0.05688632
66	0xbbe0a610	-0.0068557337
67	0xbc2a9e54	-0.010413725
68	0x3e51b6bf	0.20479868
69	0x3daa16b3	0.08305111
70	0x3d919540	0.07108545
71	0x3e1d2d2e	0.15349266

convs.1.weight f4 [72, 72]
0	0xba1355a9	-0.00056203693
1	0xba9eee35	-0.0012125435
2	0xba2c90dc	-0.0006582865
3	0xbbb1ae1a	-0.005422366
4	0x3a3eb067	0.0007274211
5	0x3a05e97e	0.00051083404
6	0xb9e9a5f0	-0.00044564856
7	0x3ac2e16d	0.0014868208
8	0xbb868334	-0.004104996
9	0xbc2393f1	-0.009984002
10	0xb8972160	-7.206458e-05
11	0xbb7df1ae	-0.0038748789
12	0xbaa1c03f	-0.0012340619
13	0x3a75fec6	0.00093839725
14	0x3a451fc8	0.00075196894
15	0x3bdf7223	0.006819026
16	0x3b802557	0.0039107013
17	0x3a1671a1	0.0005738978
18	0x3a87c02f	0.0010356958
19	0xba886233	-0.0010405242
20	0xbc1d9955	-0.009619077
21	0xbbfc6449	-0.0077023846
22	0xba97e4c2	-0.0011588561
23	0x3ab7d9e7	0.0014026732
24	0x3a744569	0.0009318204
25	0xbb803599	-0.0039126393
26	0xbb82a8e0	-0.0039874166
27	0xbb6063d9	-0.0034239201
28	0xbb27b8e4	-0.002559238
29	0xbc1f1a9f	-0.009710937
30	0xbb2d4dc3	-0.0026444055
31	0x3acc4603	0.001558483
32	0x3b01b0d7	0.0019789243
33	0x3bf1c1e5	0.0073778504
34	0xb8cf51d5	-9.8857716e-05
35	0xba559a74	-0.00081483205
36	0xbbb3a466	-0.0054822443
37	0xbac3c306	-0.0014935441
38	0x3b92d74c	0.004481232
39	0xbb32fc69	-0.0027311093
40	0xb96cb492	-0.00022573982
41	0xbb48a50b	-0.0030615951
42	0xba2bcf8a	-0.0006554058
43	0xbc2bedf8	-0.010493748
44	0x3aa5af94	0.0012640827
45	0x3a813d94	0.0009860271
46	0xbb1952a7	-0.0023395212
47	0xb9e34028	-0.00043344614
48	0xba4a03b4	-0.000770624
49	0xbb8c30a9	-0.0042782617
50	0xbb2d8e2a	-0.0026482441
51	0xbc238536	-0.00998049
52	0xba4e2a7e	-0.0007864608
53	0xbabb7a47	-0.0014303409
54	0xba4615cc	-0.00075563486
55	0xbb3685f2	-0.0027850834
56	0x39f454d3	0.00046602506
57	0x3abbee98	0.0014338074
58	0xbaa7aa87	-0.001279191
59	0xb83ff8cd	-4.5769662e-05
60	0xb9d82598	-0.0004122674
61	0x3a75983b	0.00093686924
62	0xba9f63b3	-0.001216045
63	0x3b68db4c	0.0035531102
64	0x3b3dd03b	0.0028963226
65	0xbc52a238	-0.012856059
66	0xb9aa0fd0	-0.00032436708
67	0x3938a50a	0.00017609089
68	0x3c0307cf	0.007997467
69	0x3bc4abfe	0.0060019484
70	0x3a9c4a56	0.0011924009
71	0xbb3b6885	-0.0028596234
72	0xba6a0cc9	-0.0008928297
73	0xbbaa21f7	-0.005192037
74	0x3a161f38	0.0005726698
75	0x3b8bcb48	0.0042661764
76	0x3ad2905f	0.0016064754
77	0xb8cdaafb	-9.807009e-05
78	0x3a5bbbf8	0.00083821965
79	0xba0d2027	-0.0005383514
80	0xba114348	-0.0005541337
81	0xbb95e7da	-0.004574758
82	0x3a0228f3	0.00049652084
83	0xbbfa6ea1	-0.0076425825
84	0xb9efbf1c	-0.0004572802
85	0x3b934e65	0.0044954293
86	0xbc03e122	-0.008049281
87	0x3c4b9abe	0.01242703
88	0xbb5cb299	-0.0033675788
89	0xbc16a372	-0.009194242
90	0x3a3ddabe	0.0007242373
91	0xbbe59a12	-0.007006892
92	0xbc3b1ca9	-0.011420407
93	0xbbb33ce1	-0.005469904
94	0xbb7b3222	-0.0038329442
95	0xba08187b	-0.0005191636
96	0xb89e1d02	-7.53943e-05
97	0x3c1262a9	0.008934655
98	0xbc6bd321	-0.014393599
99	0xbbdf92e6	-0.0068229316
100	0xbb623b15	-0.003452008
101	0xbc88d44d	-0.016702795
102	0xbb9e34b7	-0.0048280614
103	0x3ba4c709	0.0050286097
104	0x3a00b2d5	0.00049094605
105	0x3c4daafc	0.012552973
106	0xbbc103b3	-0.0058903336
107	0xba9a84e7	-0.0011788876
108	0x3a2988cf	0.00064672244
109	0x3a2033de	0.00061112444
110	0x3b413804	0.002948285
111	0xbc11dd3a	-0.008902842
112	0xbb7495d5	-0.0037320752
113	0xbc60c4fa	-0.013718838
114	0x3ba940e5	0.0051652067
115	0xbc1974ef	-0.009366258
116	0x3ae1774f	0.0017201694
117	0xbb2725f7	-0.0025504807
118	0x3a3cd30e	0.00072030805
119	0xba5981c3	-0.0008297229
120	0x3ab33b8f	0.0013674366
121	0xbb68554e	-0.0035451236
122	0xbbc2bb1d	-0.005942716
123	0xbc147ea3	-0.009063396
124	0xbb271951	-0.0025497267
125	0x3bb5ec34	0.0055518392
126	0xbc0fb70f	-0.008771672
127	0xbbacd6dd	-0.005274637
128	0x3a9c4e3f	0.0011925175
129	0x3beed377	0.007288392
130	0xbb10d37e	-0.0022098715
131	0xb9344d8d	-0.00017195028
132	0xb91ea055	-0.00015127783
133	0x39fd2140	0.00048280694
134	0xbc178825	-0.009248768
135	0x3bcb03d8	0.0061955266
136	0x3aa462ce	0.0012541653
137	0xbbd8f568	-0.0066210516
138	0xbab243ca	-0.0013600525
139	0xb88eac67	-6.8032e-05
140	0x3b11f989	0.0022273979
141	0x3ac31ff3	0.0014886841
142	0xbad931ff	-0.0016570686
143	0xb9015009	-0.00012332214
144	0xb9ba3e13	-0.00035522933
145	0xba255954	-0.00063075614
146	0xbab5f13a	-0.0013881095
147	0xb9c66b5e	-0.00037845498
148	0xb617730b	-2.2567717e-06
149	0xbacf1026	-0.0015797659
150	0x3ab37f00	0.0013694465
151	0xb9f63977	-0.0004696359
152	0xba925243	-0.0011163432
153	0x3a8807dd	0.001037832
154	0x39df5926	0.00042600295
155	0xba22727e	-0.000619687
156	0x385dbdb2	5.2867174e-05
157	0xb9d21696	-0.0004007115
158	0xb9037bdd	-0.00012539276
159	0xbaca83c9	-0.0015450652
160	0x3a0942d8	0.0005236096
161	0x39fcafb9	0.0004819611
162	0x3ace520c	0.0015741005
163	0x39306f44	0.00016826118
164	0x37cdf9c8	2.4554218e-05
165	0xba40b3bd	-0.0007351002
166	0xba666420	-0.00087887235
167	0xbaccabad	-0.0015615128
168	0x3a108b96	0.0005513964
169	0xb9f87ec7	-0.00047396703
170	0xb9293f58	-0.00016140693
171	0x3a54b4cc	0.0008114099
172	0x39013c6a	0.00012324905
173	0x3a514c7d	0.0007984115
174	0x3a56e23b	0.0008197163
175	0x3858e048	5.170729e-05
176	0x3a28ae17	0.0006434633
177	0xbacd2e62	-0.0015654082
178	0xb94785f8	-0.00019028026
179	0x39cf5e91	0.00039552574
180	0x3ac3463d	0.0014898252
181	0x39c49bbf	0.00037500073
182	0xba25a76d	-0.0006319199
183	0xba10b9b0	-0.00055208337
184	0x3a521ad3	0.00080148614
185	0x39f82cd0	0.00047335634
186	0x38b5fdc2	8.678019e-05
187	0x39966abb	0.0002868975
188	0xba2996d5	-0.0006469314
189	0x38a40b65	7.822252e-05
190	0x398848eb	0.0002599427
191	0x3a13a70a	0.0005632496
192	0xb8b6e8c0	-8.721789e-05
193	0xb812dc48	-3.5014265e-05
194	0xb9f05b66	-0.00045844464
195	0xba9d85bc	-0.0012018005
196	0x3aa7fe73	0.0012816921
197	0xba915b69	-0.0011089864
198	0xb92e2988	-0.00016609405
199	0x38afcb94	8.38257e-05
200	0x3857e0f6	5.1469506e-05
201	0x39f1d117	0.00046122886
202	0x3a58195e	0.0008243526
203	0x3a0ece0f	0.0005447575
204	0x3a0ccad1	0.0005370798
205	0xba2e35b8	-0.0006645578
206	0xba9029d6	-0.0010998796
207	0x3a476d78	0.00076075597
208	0x384ab498	4.8328744e-05
209	0xb91aa21f	-0.0001474698
210	0x3acf40f3	0.0015812203
211	0x3953a248	0.00020182983
212	0x38b5625a	8.649072e-05
213	0x39b0323d	0.00033606766
214	0x39ac0615	0.00032810928
215	0x3937e1b6	0.00017536324
216	0xbbee9f0d	-0.007282144
217	0xbc599238	-0.01327949
218	0xba00f8a4	-0.0004919863
219	0x3c24b0ee	0.010051949
220	0x3a31ef03	0.00067876297
221	0xb9403e01	-0.00018333645
222	0x3b471ea4	0.0030383253
223	0xb9caeb12	-0.00038703583
224	0xbbe4497b	-0.0069667674
225	0xbc7945c2	-0.015214385
226	0xb906a080	-0.00012839027
227	0xbc61c30b	-0.013779412
228	0x385f8ef0	5.3300464e-05
229	0x3ba55e59	0.0050466475
230	0xbae7db3d	-0.001768924
231	0x3c82dabe	0.015973445
232	0xbb9de697	-0.004818748
233	0xbc98b589	-0.01864125
234	0xba69f511	-0.00089247624
235	0xbc6c4999	-0.014421844
236	0xbcc296fd	-0.023753637
237	0xbcab139d	-0.020883376
238	0xbbcaf529	-0.006193776
239	0x3b8d2e61	0.0043085073
240	0xbb663036	-0.003512395
241	0x3c30ca49	0.010790416
242	0xbc89e51a	-0.016832877
243	0xbc92c312	-0.017915282
244	0xbb93d263	-0.004511164
245	0xbcdb5c01	-0.02677727
246	0xbbc5ea43	-0.006039889
247	0x3bb18188	0.0054170527
248	0x3b65a4cf	0.003504086
249	0x3b3a543b	0.0028431553
250	0xbbae1388	-0.005312387
251	0xbbddb96c	-0.006766489
252	0xbc91edbc	-0.017813556
253	0xb9afdef1	-0.00033544705
254	0x3c3aa12b	0.0113909645
255	0xbc0b17ba	-0.008489544

convs.2.weight f4 [72, 72]
0	0xb9d20727	-0.0004005965
1	0xb9e24805	-0.00043159738
2	0xbacf6ff5	-0.0015826212
3	0xb9dbee33	-0.00041948407
4	0xba4eaaeb	-0.0007883745
5	0x3636d941	2.7246572e-06
6	0xba6157d1	-0.00085961545
7	0x3a793a0b	0.0009507245
8	0x3a929ff3	0.0011186585
9	0xbbb05ce1	-0.005382166
10	0x3a5cd650	0.0008424269
11	0xba8e3f2a	-0.0010852565
12	0x39f48bee	0.00046643562
13	0x3adf232f	0.0017024035
14	0xba80363b	-0.0009781787
15	0x3b24973d	0.002511456
16	0xbad8d434	-0.0016542734
17	0xba89bdb0	-0.0010508802
18	0x3919d844	0.00014671782
19	0xbb025f29	-0.0019893146
20	0xbb4bf996	-0.0031124107
21	0xbb82e198	-0.003994178
22	0x3acc215b	0.0015573906
23	0xbabf64ca	-0.0014602181
24	0x3660803d	3.3453246e-06
25	0xba650297	-0.00087360427
26	0xbb9b3860	-0.004736945
27	0xbb974881	-0.0046167974
28	0x3a40ab70	0.0007349765
29	0xb8fdeef2	-0.00012108487
30	0xba013969	-0.0004929514
31	0xb9e8fe15	-0.00044439794
32	0x3a5a964b	0.00083384354
33	0x3b02bd6e	0.0019949335
34	0xbb11356b	-0.0022157084
35	0xba5adf82	-0.00083493453
36	0x3b35e5e1	0.0027755427
37	0x39649aa1	0.00021801378
38	0x3aa61288	0.0012670318
39	0xba376d92	-0.0006997223
40	0x39de72df	0.00042428725
41	0x398d94b9	0.00027004423
42	0x399e524d	0.00030197427
43	0xbb388be1	-0.0028159546
44	0x3a6ee06a	0.000911242
45	0x3b0957da	0.0020956905
46	0x39961447	0.00028625337
47	0x3a8aaaaf	0.0010579432
48	0x3a026db2	0.00049754523
49	0xbb2e75ca	-0.00266205
50	0x365a8845	3.256385e-06
51	0xbb2c6bbf	-0.002630934
52	0xba7a91a9	-0.0009558448
53	0xba7435c7	-0.0009315875
54	0x3908d2af	0.00013048456
55	0x3a0423f2	0.00050407567
56	0xbab0e5ce	-0.0013496222
57	0x3a2e5dd9	0.00066515576
58	0x37704b77	1.4322685e-05
59	0xb9925bf6	-0.00027915806
60	0x39961d81	0.00028632212
61	0xb9f47da3	-0.00046632913
62	0xbb578c7a	-0.0032890127
63	0x3b10741d	0.0022041865
64	0xb9cc233a	-0.00038936158
65	0x39d23aa5	0.00040098015
66	0xb8ee738d	-0.000113702474
67	0x392085ee	0.00015308682
68	0xba366834	-0.00069582765
69	0x3a8224b0	0.0009929147
70	0xba8e380e	-0.0010850446
71	0xb93a8a8d	-0.00017789956
72	0xbb9605a8	-0.004578311
73	0xbadfdb95	-0.001707899
74	0x398e1e1a	0.00027106778
75	0x3ba0a8e6	0.0049029468
76	0x3a968f90	0.0011486877
77	0xbad12d60	-0.0015958957
78	0x3ade6f02	0.0016970339
79	0xba94b62d	-0.0011345797
80	0x3a8f4eff	0.0010933577
81	0xb9d8ab5a	-0.00041326397
82	0xb878996c	-5.9270693e-05
83	0xbb2a9403	-0.0026028163
84	0x3a501a4e	0.000793849
85	0x3b070c3b	0.0020606655
86	0x3b3069d4	0.0026918547
87	0x3b825e84	0.0039785523
88	0xba5ed197	-0.0008499859
89	0xb90a5eb1	-0.00013195981
90	0xba53e19c	-0.00080826296
91	0xbb31f857	-0.0027156079
92	0xbbd89039	-0.0066089896
93	0xbbf7b85a	-0.007559818
94	0xba7d726a	-0.0009668233
95	0x3b3d1ea9	0.0028857386
96	0xb8cbbd53	-9.715059e-05
97	0xbb944df2	-0.0045258934
98	0xbba376b7	-0.004988517
99	0xbb4973af	-0.0030739119
100	0x39df79d3	0.0004262464
101	0xbbbc991c	-0.0057555567
102	0x3a40b603	0.00073513406
103	0x3a884ca9	0.0010398823
104	0xbacf14a3	-0.0015798997
105	0x3b3d6fb9	0.0028905703
106	0x3aa3213c	0.0012445818
107	0xba702f36	-0.00091623084
108	0x3a35f2c2	0.0006940776
109	0x39858df3	0.00025473497
110	0x3b7aca13	0.0038267418
111	0xbb4df309	-0.0031425378
112	0x3b16c262	0.0023004045
113	0xbbb8e1b9	-0.0056421426
114	0x3a4d1fda	0.00078248756
115	0xbb455c12	-0.0030114693
116	0x3a67b490	0.00088388566
117	0x3a8487f2	0.0010111316
118	0xba8e7cca	-0.001087093
119	0xba36bcf2	-0.0006970904
120	0xba14f193	-0.00056817493
121	0xba650c52	-0.00087374926
122	0xb91a687d	-0.0001472551
123	0xbbd57d34	-0.0065151695
124	0xbba981d3	-0.005172947
125	0x3b165158	0.0022936668
126	0x39fb7a34	0.000479655
127	0x3b632f80	0.0034665763
128	0x38c8f9e3	9.583288e-05
129	0x3b84ad2f	0.0040489654
130	0xba900acb	-0.0010989545
131	0x398a762e	0.00026409462
132	0xba37ad1b	-0.0007006691
133	0x3a0d0313	0.0005379181
134	0xbb6bd155	-0.0035982926
135	0x3ac1acf5	0.0014776277
136	0xba78cb60	-0.00094907545
137	0xbc1c5022	-0.0095405895
138	0xb9295b45	-0.00016151096
139	0x3a1cc1d7	0.0005979812
140	0x3bc78f8f	0.0060901116
141	0x3b527bc6	0.0032117232
142	0x3be8212e	0.0070840335
143	0xbb31b816	-0.002711778
144	0x3ac3307f	0.0014891772
145	0xb8fff4e1	-0.0001220496
146	0xb94172de	-0.00018448706
147	0x3ad0575c	0.0015895176
148	0xbab2cc66	-0.0013641238
149	0xb933a5c5	-0.00017132524
150	0xba0cfc14	-0.0005378139
151	0x3acb7e4f	0.0015525314
152	0xbacf9857	-0.0015838247
153	0x39e6a75c	0.0004399371
154	0x3a809d24	0.0009812457
155	0x3a875291	0.0010324289
156	0x3a198b1e	0.0005857217
157	0x3a552825	0.0008131287
158	0x39aa8801	0.00032526258
159	0x3a8943aa	0.0010472436
160	0x38fc19e3	0.00012021118
161	0xb80da68d	-3.3772132e-05
162	0x39df0e19	0.00042544378
163	0x3a840488	0.0010072151
164	0x3a82a557	0.0009967488
165	0x3a3b77ce	0.0007151336
166	0x387806e6	5.9134232e-05
167	0xba6d1940	-0.0009044595
168	0xb96cd100	-0.00022584572
169	0xb94eb721	-0.00019713912
170	0x3a1da838	0.0006014141
171	0xb8f90722	-0.00011874574
172	0xb947043b	-0.00018979695
173	0x3a377115	0.00069977465
174	0xbacdc11f	-0.0015697813
175	0xba3bf442	-0.0007169881
176	0x39a4f399	0.00031462012
177	0x3ac58959	0.001507084
178	0xba5e5446	-0.00084811857
179	0x39bae1a5	0.00035644803
180	0x396c8936	0.00022557829
181	0x38b8fef1	8.82129e-05
182	0xba7d8259	-0.00096706074
183	0x3a6d0f01	0.0009043068
184	0xba980ab1	-0.0011599866
185	0xb92aea2c	-0.00016299699
186	0x3ac9bd59	0.0015391513
187	0xba78b90e	-0.00094880245
188	0xb87cca45	-6.026986e-05
189	0x389d8bec	7.512406e-05
190	0xb9692178	-0.0002223308
191	0xb9f556a7	-0.00046794603
192	0xbacdbcc5	-0.0015696516
193	0x38b8124d	8.7772125e-05
194	0x3a72474c	0.00092421914
195	0xba3b4212	-0.0007143329
196	0x3a51818a	0.000799202
197	0x39660a50	0.00021938351
198	0xb97b87fa	-0.0002398788
199	0xb9882f05	-0.00025974974
200	0x3989c96c	0.00026280747
201	0xba424d5c	-0.000741204
202	0xba14ce04	-0.00056764507
203	0xb959b10f	-0.00020760692
204	0xb9120d67	-0.00013928638
205	0xb9308bb9	-0.00016836719
206	0xb99aecbd	-0.00029549553
207	0x39d5f91d	0.0004081213
208	0x3a1e94a3	0.000604937
209	0xba262067	-0.0006337226
210	0xba172658	-0.00057659065
211	0xb9ab5d2d	-0.00032685083
212	0x3a5e2d83	0.00084754097
213	0xb955310c	-0.00020331534
214	0x38c98238	9.608682e-05
215	0xbacc1242	-0.0015569406
216	0xbc21f195	-0.009884258
217	0xbbe7c8d8	-0.007073503
218	0x394a5c8e	0.000192987
219	0x3c075af3	0.00826143
220	0x3b638130	0.0034714453
221	0x3a66457a	0.00087841565
222	0x39a2bfdc	0.00031041994
223	0x3787a785	1.6171261e-05
224	0xbbedef3d	-0.0072611854
225	0xbc26e54b	-0.010186504
226	0xb827f318	-4.00423e-05
227	0xbc21739c	-0.009854224
228	0xb9483ff7	-0.00019097315
229	0xbb83993d	-0.00401607
230	0xbbd36983	-0.006451787
231	0x3c1ebef3	0.0096890805
232	0xbb9bed4e	-0.0047585135
233	0xbc2eed98	-0.010676764
234	0xb9b9a0e1	-0.00035405814
235	0xbd286bde	-0.041118495
236	0xbc85e0e3	-0.016342586
237	0xbcc2e1a5	-0.023789236
238	0xbb9a8a80	-0.0047162175
239	0xbba793e3	-0.005114065
240	0xbbef936e	-0.007311276
241	0x3c013451	0.007886008
242	0xbcc7ea80	-0.02440381
243	0xbcbfc945	-0.023411402
244	0xbb67fb0b	-0.0035397436
245	0xbcccec07	-0.02501489
246	0xbbc189e8	-0.0059063323
247	0x3bcf4bd9	0.0063261804
248	0xbab6ccd8	-0.0013946546
249	0x3b49a5de	0.003076903
250	0xbb98a0f3	-0.0046578585
251	0xbc16a09f	-0.0091935685
252	0xbc82730b	-0.015923997
253	0x3a2e6081	0.00066519534
254	0x3bb98bb8	0.0056624077
255	0xbbbe4c7d	-0.005807458

convs.3.weight f4 [72, 72]
0	0xbacdeb70	-0.0015710425
1	0xba4ed068	-0.00078893313
2	0xb9ca72e4	-0.00038614043
3	0xbb16c3c1	-0.0023004862
4	0xba3aed3c	-0.00071306876
5	0x39f43149	0.00046576027
6	0xb9a4ff2a	-0.0003147063
7	0xba120cf8	-0.00055713905
8	0xb998343b	-0.00029030614
9	0xbb8f4867	-0.0043726447
10	0x39c2a587	0.0003712589
11	0x3a1a8d38	0.0005895677
12	0x3abb115a	0.0014272139
13	0x3ab2a588	0.0013629654
14	0x3a0f4004	0.0005464556
15	0x3af04f7e	0.0018334237
16	0xb8fefd14	-0.00012158803
17	0x3b35f2df	0.002776317
18	0xb983c8e8	-0.00025135954
19	0x3aa06268	0.0012236359
20	0xbb212c9c	-0.002459324
21	0xbb36be4b	-0.002788442
22	0xba16aeaa	-0.0005748073
23	0xb992b2a9	-0.00027980402
24	0x3a9f31fa	0.0012145631
25	0xbac1e853	-0.001479397
26	0xba33934b	-0.00068502565
27	0x3a228aa3	0.0006200468
28	0xba8e302f	-0.00108481
29	0xbb4c3c97	-0.0031164044
30	0xbb958386	-0.004562798
31	0x39d25efe	0.00040125096
32	0xbabacc30	-0.0014251526
33	0x3a079b24	0.0005172959
34	0x39f94016	0.0004754073
35	0xbb1e1eba	-0.0024127201
36	0xbaf0d69b	-0.0018374504
37	0xb99fd4e9	-0.00030485474
38	0x3a17a318	0.0005784496
39	0x392c0635	0.0001640551
40	0xb95804fe	-0.00020601225
41	0xbb8ba5ee	-0.0042617237
42	0x3a1dc503	0.0006018432
43	0x3a669976	0.0008796671
44	0x3aa5a9ae	0.001263907
45	0x3ae86bbd	0.0017732304
46	0xba56d380	-0.0008194968
47	0xb64cc8a6	-3.0515162e-06
48	0xba816dde	-0.0009874662
49	0x3a2488c6	0.00062764843
50	0xb9bb25ed	-0.00035695676
51	0xbaee5dce	-0.0018185915
52	0xba968899	-0.0011484801
53	0x3a54cb40	0.0008117445
54	0xbb10c076	-0.0022087372
55	0xba0f2e43	-0.00054619106
56	0xb8e4f980	-0.0001091836
57	0x3a3406f3	0.00068674906
58	0xbace5e24	-0.0015744609
59	0xb8d543f3	-0.00010169288
60	0xb99bafb8	-0.00029694824
61	0xba3155c2	-0.0006764793
62	0xbab2902f	-0.0013623292
63	0x3a9aad2c	0.0011800877
64	0x3a39437d	0.00070672465
65	0xbab35604	-0.0013682251
66	0xb923b4d6	-0.00015612258
67	0x399e0ce2	0.00030145707
68	0xba79dcb4	-0.00095314835
69	0xb96a00c7	-0.00022316269
70	0x3a0bb222	0.0005328973
71	0x398c2ca8	0.00026736152
72	0xbaa9ae7e	-0.001294568
73	0xbb2b7beb	-0.002616639
74	0xbabdd34f	-0.001448253
75	0x3b35ca69	0.0027739054
76	0xbaa428de	-0.0012524386
77	0x39613f6c	0.00021481299
78	0xb97b02cb	-0.00023938266
79	0x3a06db06	0.00051443314
80	0xba67fb8b	-0.00088494335
81	0xb90080db	-0.00012255034
82	0xb9b199ef	-0.0003387476
83	0xbae24c33	-0.0017265141
84	0x39c4e9f2	0.00037558336
85	0x3a2d01b0	0.0006599678
86	0xba8de851	-0.0010826682
87	0x3a45ffc0	0.00075530633
88	0x3b10bfe0	0.0022087023
89	0xbb2a2f94	-0.00259683
90	0xba45220f	-0.0007520029
91	0xbac3e207	-0.0014944681
92	0xbafe93cb	-0.0019422708
93	0x3a576a71	0.000821746
94	0xba1fff4e	-0.0006103412
95	0x3a8698cf	0.0010268929
96	0xb78a3400	-1.6475096e-05
97	0x3b9a1372	0.004702025
98	0xbbcd3893	-0.0062628477
99	0xba6f285f	-0.0009123142
100	0xb67e238f	-3.7869647e-06
101	0xbafd13e4	-0.0019308296
102	0xbaaefb13	-0.0013349972
103	0x383bbec8	4.4761953e-05
104	0x3a89e9a3	0.00105219
105	0x3b17b086	0.0023145988
106	0xbac822f9	-0.0015269212
107	0xba9b3148	-0.0011840248
108	0xbba82d87	-0.0051323804
109	0x3a5d6197	0.0008445023
110	0x3af94b56	0.0019019644
111	0xbad203d5	-0.001602287
112	0xbb869ce2	-0.0041080574
113	0xbb90884c	-0.004410779
114	0xb9e4963c	-0.00043599482
115	0xbb5002d5	-0.003173997
116	0xbad43388	-0.0016189674
117	0xba67096e	-0.0008813356
118	0xbb304508	-0.0026896615
119	0x382f09eb	4.1732488e-05
120	0xba07a633	-0.0005174607
121	0xba711c14	-0.00091976044
122	0x3b313e16	0.0027045063
123	0xbbc1ee4a	-0.005918299
124	0x3aadffe4	0.0013275114
125	0xbaed4adb	-0.0018103974
126	0x397f6d83	0.00024359491
127	0x39ad3730	0.0003303825
128	0x3b25c2ad	0.0025293038
129	0x3a58b989	0.0008267393
130	0x3a34e4eb	0.00069005665
131	0xb9bea9a4	-0.00036366016
132	0x3a0eea91	0.0005451823
133	0x3af2dd33	0.0018529057
134	0xbb266002	-0.0025386815
135	0x3b1127c6	0.002214895
136	0xbb225808	-0.002477171
137	0xbb566d45	-0.0032718938
138	0x3a9e6cd0	0.0012086872
139	0x3a5f9adb	0.000852985
140	0x3b662554	0.0035117464
141	0x3b167af3	0.0022961467
142	0x3bbf041d	0.0058293478
143	0xba90b428	-0.0011040019
144	0x39c5a909	0.0003770071
145	0x38eb1890	0.00011210248
146	0x3a55dd50	0.00081582833
147	0xba8f5340	-0.0010934845
148	0xbac10790	-0.0014726985
149	0x3788b88a	1.6298396e-05
150	0xb9af1c19	-0.00033399535
151	0xb90db21a	-0.00013513156
152	0x3990d1bc	0.00027622085
153	0x3a084ece	0.0005199731
154	0x3acf3b0d	0.0015810445
155	0x3a86b206	0.0010276444
156	0x3a1bee33	0.0005948275
157	0x3a9a97b3	0.0011794477
158	0x38f216db	0.000115437164
159	0xb8c1449b	-9.215736e-05
160	0xba2d1346	-0.0006602298
161	0x3974a460	0.00023330888
162	0x3a81f74b	0.0009915618
163	0xb9ff7b25	-0.0004872914
164	0xba94c830	-0.0011351164
165	0xb9cc8f53	-0.00039016697
166	0xbabdeff5	-0.0014491068
167	0xb9f9921a	-0.00047601835
168	0x3a22c83d	0.00062096474
169	0xbaa55479	-0.0012613676
170	0xba8a89c5	-0.0010569623
171	0x39267248	0.00015873567
172	0x39fef083	0.0004862585
173	0xba0c4c85	-0.00053519785
174	0x3a567d9d	0.000818217
175	0xb9d6eff1	-0.0004099603
176	0xba91a58a	-0.0011111957
177	0x39cfd6c0	0.00039642118
178	0xbac61669	-0.001511288
179	0x3a3f3058	0.00072932756
180	0xb9139b7c	-0.00014076935
181	0xb96c36aa	-0.00022527078
182	0x399e19b5	0.00030155262
183	0xba6e6c6e	-0.0009095137
184	0xba405b9b	-0.0007337869
185	0x39627b20	0.00021598907
186	0x39c0bacc	0.00036760268
187	0x3a4f2fb6	0.0007903533
188	0x397ca5ac	0.0002409431
189	0x39dde904	0.00042326015
190	0x39a254f9	0.00030962357
191	0xb9a0d2c5	-0.00030674614
192	0x395d912e	0.00021130286
193	0xba5accfb	-0.00083465845
194	0xb942ceae	-0.00018578276
195	0xbac34c5a	-0.0014900074
196	0xb96a317b	-0.00022334412
197	0x38a9b0be	8.091469e-05
198	0x3a8eb7cd	0.0010888517
199	0x3933007b	0.00017070949
200	0xb90e12d9	-0.00013549197
201	0xb9afd81b	-0.00033539612
202	0x3a0fdc3f	0.00054878363
203	0xb8b1a365	-8.470452e-05
204	0xb8db5bc9	-0.0001045983
205	0xb9affccd	-0.00033566952
206	0xb8619af2	-5.3788484e-05
207	0xb8bd8a3b	-9.03797e-05
208	0xb7c28c2d	-2.3191877e-05
209	0xba1cf375	-0.00059872057
210	0x3981b780	0.00024741516
211	0x39abb011	0.0003274684
212	0x39d7b43e	0.00041142286
213	0xb96fd7a6	-0.00022873151
214	0xba2083fa	-0.00061231817
215	0xb932ae8b	-0.00017040425
216	0xbbfb6355	-0.0076717534
217	0xbb48aa37	-0.0030619034
218	0x39276bc4	0.00015966507
219	0x3b8cbba4	0.0042948294
220	0x3ab18b71	0.0013545585
221	0x3a1074ec	0.0005510587
222	0x3a90a0b7	0.0011034225
223	0x385dd63c	5.2890027e-05
224	0xbbccff9e	-0.006256058
225	0xbcd94863	-0.026523774
226	0x392155ca	0.00015386115
227	0xbc1baf44	-0.009502236
228	0xba48e7c9	-0.0007663933
229	0x3b85b91d	0.004080905
230	0xbae1a1e9	-0.0017214391
231	0x3b83da39	0.004023817
232	0xbb86b356	-0.004110734
233	0xbbc899d2	-0.0061218524
234	0x39de89ed	0.00042445902
235	0xbc27fb7d	-0.010252831
236	0xbb96592e	-0.0045882678
237	0xbc6ef85d	-0.014585582
238	0x3b99482f	0.0046777944
239	0xbc0948d6	-0.008379182
240	0xba59004d	-0.0008277938
241	0x3badb742	0.005301387
242	0xbca81dd2	-0.020522032
243	0xbc6ee85b	-0.014581765
244	0xbabb28f7	-0.0014279176
245	0xbcbce2d0	-0.023057371
246	0xbb85aec7	-0.004079673
247	0x3b8168d3	0.0039492636
248	0xba7f6dfd	-0.00097438676
249	0x3b8bf22f	0.004270814
250	0xbb54ba6f	-0.0032459756
251	0xbbf5dac4	-0.0075028855
252	0xbb6170bf	-0.0034399477
253	0xba5482ef	-0.0008106669
254	0x3bf554b0	0.007486902
255	0xbbc39123	-0.0059682294

convs.4.weight f4 [72, 72]
0	0xbaf092d8	-0.001835431
1	0x3a260d0e	0.0006334343
2	0xbac3c97d	-0.0014937368
3	0xba25143d	-0.0006297266
4	0xbac728e5	-0.0015194683
5	0x39c6d6e2	0.00037925603
6	0x39e3022f	0.0004329844
7	0x3910cc43	0.00013809004
8	0xb974c002	-0.00023341182
9	0xbb61ee56	-0.0034474335
10	0x38bdeb13	9.056008e-05
11	0x39b3c967	0.00034291597
12	0xbacf0749	-0.0015795018
13	0xba1fab62	-0.00060909067
14	0x3a33eb34	0.0006863356
15	0x39f47e7d	0.00046633548
16	0xb9a2e937	-0.00031072806
17	0xb8950bfe	-7.1071074e-05
18	0xb88cd42d	-6.715241e-05
19	0xbbb3893d	-0.0054790066
20	0xba9c501f	-0.0011925733
21	0xba68f52f	-0.0008886633
22	0x388269ab	6.218565e-05
23	0xbb31c873	-0.0027127534
24	0x3a89d2fe	0.0010515151
25	0x398b4d5a	0.00026569777
26	0xba84d94e	-0.0010135563
27	0x3a1ba78c	0.0005937747
28	0xba39286c	-0.0007063213
29	0x3b6518fc	0.0034957519
30	0x3ac4883a	0.0014994212
31	0x38c178d7	9.225465e-05
32	0xbaa2ff82	-0.0012435766
33	0x3a9e1b80	0.0012062639
34	0xb96490dc	-0.00021797739
35	0x3a61938b	0.00086050545
36	0xb96db661	-0.00022670023
37	0x3ac986bb	0.0015375236
38	0x3acace40	0.0015472844
39	0xb96a1d29	-0.00022326842
40	0x38585cab	5.1584717e-05
41	0x386e4049	5.6803492e-05
42	0x39cb0ca2	0.0003872859
43	0x39f9d23c	0.00047649618
44	0x39dae976	0.00041754142
45	0x3af05eea	0.0018338833
46	0xba86abf7	-0.0010274638
47	0xba16d216	-0.0005753351
48	0x3a9d8621	0.0012018123
49	0xba3b77d9	-0.00071513426
50	0xbab826b8	-0.0014049625
51	0x3a90db5a	0.00110517
52	0xba9e90cc	-0.0012097596
53	0x3accfd53	0.0015639461
54	0xbae3653c	-0.0017348896
55	0xbabf8b8b	-0.0014613731
56	0xbb4a603c	-0.0030880114
57	0xba8ac3c8	-0.0010586912
58	0x3a0c9ec2	0.0005364233
59	0x38b12a33	8.447878e-05
60	0xb98c1ea5	-0.00026725713
61	0xb9372995	-0.0001746773
62	0xbadb2e52	-0.0016722179
63	0x3aad209a	0.0013208569
64	0xbb159096	-0.0022821776
65	0x3a555065	0.0008137285
66	0xb87accbc	-5.979532e-05
67	0xb8447355	-4.6837453e-05
68	0xbaa1b3ce	-0.0012336911
69	0xb832037b	-4.244175e-05
70	0xba360fa9	-0.00069450826
71	0xbab80aa3	-0.0014041256
72	0xba596d97	-0.0008294223
73	0xbb50b8c4	-0.003184841
74	0x3a1ffba0	0.00061028637
75	0x3ba44b5e	0.0050138673
76	0xb8d153fa	-9.9815385e-05
77	0x3a46a7fd	0.0007578133
78	0x38b7ab8e	8.7580745e-05
79	0xb9d039d9	-0.0003971595
80	0xbb4f0a1b	-0.0031591717
81	0xba95b723	-0.0011422377
82	0x3a82e77c	0.0009987201
83	0xbb55edb8	-0.0032642912
84	0xbaaa49ae	-0.0012991929
85	0xba1d1e0b	-0.00059935515
86	0xb938fa57	-0.00017640866
87	0x3ad37a12	0.0016134402
88	0xb9a820a2	-0.0003206777
89	0x3a8803df	0.001037713
90	0x3a952287	0.0011378088
91	0xbba10b9d	-0.0049147145
92	0xbb9e888a	-0.004838054
93	0xbb0660eb	-0.0020504545
94	0xbad2d747	-0.0016085886
95	0xbba4e508	-0.0050321855
96	0x3a7880a4	0.0009479618
97	0x3b987eac	0.0046537723
98	0xba36858b	-0.00069626485
99	0xbbbebf5f	-0.005821153
100	0x3a165348	0.0005734456
101	0xbbc25b89	-0.005931322
102	0xbb4cb911	-0.0031238238
103	0xba5ecb76	-0.0008498946
104	0x39b8d966	0.0003525719
105	0x3b30c0d8	0.0026970413
106	0x3a927370	0.0011173319
107	0xbb9db84a	-0.0048132287
108	0xbb52be92	-0.0032157046
109	0x39ef1794	0.000456032
110	0x3b0fc911	0.0021939913
111	0x39bea615	0.00036363365
112	0xbb95b86e	-0.004569105
113	0xbbb93744	-0.00565234
114	0xba110e4a	-0.000553344
115	0xbaa3acfe	-0.0012487469
116	0xb919363d	-0.00014611422
117	0x3a139448	0.00056297006
118	0xba8bdf1c	-0.001067135
119	0xb984988a	-0.00025290652
120	0xb9c8c5e1	-0.00038294404
121	0xba585687	-0.00082526397
122	0xb9eba800	-0.00044947863
123	0xbbc65f7c	-0.006053863
124	0xb9f35c71	-0.00046417446
125	0xbae96a26	-0.0017808124
126	0xbb84dfd0	-0.004055001
127	0xbb0d1d41	-0.002153233
128	0x3972fe30	0.0002317361
129	0xb9a48ab9	-0.00031383874
130	0xbb0e1805	-0.0021681797
131	0x3ab3d4e2	0.001372006
132	0x39e37d35	0.000433901
133	0x3a54a3c5	0.0008111562
134	0xba8e75a9	-0.0010868806
135	0x3b00ce10	0.0019654073
136	0x3abb6adb	0.0014298813
137	0xb9108691	-0.0001378304
138	0x399569d4	0.00028498343
139	0xb7d3df47	-2.5257132e-05
140	0x3b6c2a8d	0.0036036104
141	0xba7febfa	-0.0009762641
142	0xba41251a	-0.0007367894
143	0xba9842cc	-0.0011616587
144	0xb910aa99	-0.00013796463
145	0x3a00c20c	0.0004911728
146	0x3ababb0f	0.0014246422
147	0xb88844e7	-6.4978194e-05
148	0x381985c1	3.660261e-05
149	0x3a2ec804	0.0006667378
150	0xb91b0f5c	-0.00014787674
151	0x39edce15	0.00045357706
152	0x3a5716da	0.0008205004
153	0x390bfee6	0.0001335103
154	0xbab78ecc	-0.0014004349
155	0x3a0dba18	0.0005406453
156	0xb8bd1911	-9.016891e-05
157	0xb71d7a3c	-9.386389e-06
158	0xb864e034	-5.456824e-05
159	0xb8bb0583	-8.9178815e-05
160	0x3a552ffa	0.0008132454
161	0xbab378d5	-0.0013692627
162	0xba547730	-0.00081049185
163	0x39093f0e	0.00013088828
164	0x39742e71	0.00023286954
165	0x39ff3a39	0.0004868077
166	0xba8bd453	-0.0010668136
167	0xba39cf79	-0.0007088106
168	0xb8e1c0e9	-0.000107647684
169	0xb88dfaba	-6.7701054e-05
170	0x39accd22	0.00032959232
171	0xba179d7a	-0.00057836587
172	0xba587cee	-0.0008258362
173	0x39722c82	0.00023095499
174	0x39adab8a	0.00033124938
175	0x39ccced1	0.00039064002
176	0xba141fb9	-0.0005650479
177	0xb881fde2	-6.198489e-05
178	0xb83b6e92	-4.468725e-05
179	0xba35fc3c	-0.0006942188
180	0xba294bd3	-0.0006458137
181	0x3a005aa1	0.0004896317
182	0xb926597b	-0.00015864328
183	0xba3b0995	-0.0007134912
184	0xb9c9a62e	-0.0003846152
185	0x3811fb5a	3.4804783e-05
186	0xb8cb661e	-9.698815e-05
187	0x397029ba	0.00022903728
188	0x38b46f18	8.603762e-05
189	0x388a22d3	6.586839e-05
190	0xb91033e0	-0.00013752235
191	0xba2cd386	-0.0006592799
192	0x37ea281f	2.7913657e-05
193	0x38a59e57	7.897306e-05
194	0xba009fd7	-0.00049066305
195	0x39a95f3c	0.00032305147
196	0xba040fa4	-0.0005037731
197	0xba6ccb4b	-0.00090329786
198	0xb9b079e5	-0.00033660154
199	0x3abd55f2	0.0014445169
200	0xba871ba2	-0.0010307918
201	0xb91908e9	-0.00014594536
202	0x39de61e4	0.00042416074
203	0x376d5b5f	1.4147575e-05
204	0xba263c74	-0.00063414057
205	0xba91c587	-0.001112149
206	0x3aac51b0	0.0013146903
207	0xba152ce2	-0.0005690587
208	0xba217d3f	-0.0006160326
209	0xb960e015	-0.00021445782
210	0x3a0ffbed	0.0005492557
211	0x3891e1f2	6.9562244e-05
212	0x399954d1	0.00029245627
213	0xb7d09321	-2.4864044e-05
214	0xb87cbc2d	-6.0256734e-05
215	0xba426ef8	-0.00074170483
216	0x3b4296b6	0.0029691882
217	0xbbeff639	-0.007323053
218	0xbad209aa	-0.0016024609
219	0x3b6e85ca	0.0036395662
220	0x3acae674	0.0015480057
221	0x39bd87aa	0.00036149967
222	0xbac6b8ce	-0.0015161277
223	0xba445228	-0.0007489049
224	0xbbf80ce0	-0.007569894
225	0xbcc47842	-0.023983125
226	0xba4932da	-0.0007675119
227	0xbb79adf2	-0.0038098064
228	0xb98307bb	-0.00024992027
229	0x3a8244fd	0.0009938773
230	0xbb489837	-0.0030608305
231	0x3c04adc6	0.008098071
232	0xbba29330	-0.004961394
233	0xbb9507e0	-0.004548058
234	0x3a351874	0.0006908246
235	0xbd02ff87	-0.03198197
236	0xbc4440fa	-0.011978382
237	0xbc3622fd	-0.01111674
238	0x3ae904c6	0.0017777912
239	0x399b2a51	0.00029595432
240	0xbc06dfb0	-0.008232042
241	0xbb49d4a0	-0.00307969
242	0xbca5b7c8	-0.020229235
243	0xbc43ed60	-0.01195845
244	0xba3907b4	-0.0007058338
245	0xbca64a48	-0.020299092
246	0xbb841aab	-0.0040314994
247	0x3b50f593	0.0031884655
248	0x3aca471a	0.0015432567
249	0x3b6c6e34	0.0036076428
250	0xbb287a6e	-0.002570774
251	0xbc2a4f83	-0.010394934
252	0xbc45ce2e	-0.012073083
253	0x35964844	1.1196903e-06
254	0x3af23cf7	0.0018481304
255	0xbbe4632c	-0.00696983

convs.5.weight f4 [72, 72]
0	0x38b87c9f	8.797016e-05
1	0xbb1250ec	-0.0022326065
2	0x3a22723e	0.0006196833
3	0xba745e8e	-0.0009321951
4	0x3a033124	0.0005004576
5	0x39a6d194	0.00031818135
6	0xba2ff5c3	-0.00067123416
7	0x39e31e12	0.00043319218
8	0xb74ab154	-1.2081426e-05
9	0xbad76d55	-0.0016435782
10	0x38d8cac3	0.0001033745
11	0xb95dcf2b	-0.00021153378
12	0xb9fcdeac	-0.0004823109
13	0x3ab623dc	0.0013896185
14	0xbb09db9d	-0.002103544
15	0x3b030578	0.0019992273
16	0xb9f2bdf1	-0.00046299354
17	0x3b1039d0	0.0022007115
18	0xb9d7ee22	-0.00041185418
19	0xb90f7a7f	-0.00013683176
20	0x3b2ed9b2	0.002668005
21	0xbad1c657	-0.0016004544
22	0x399c3a4c	0.00029798073
23	0x3930607d	0.00016820613
24	0xbabef75e	-0.0014569571
25	0xbb777ad4	-0.003776242
26	0xbb80b405	-0.00392771
27	0xba7bec15	-0.0009610069
28	0xbab37d0d	-0.0013693884
29	0xbb35a762	-0.0027718176
30	0x3aa5d1d6	0.0012651037
31	0xba36b676	-0.0006969938
32	0xba86ea27	-0.0010293172
33	0x3a1122c9	0.00055364944
34	0x399aae2a	0.0002950293
35	0xba9d6512	-0.0012008271
36	0xbaeaee4f	-0.0017923805
37	0xb90850b6	-0.00013000038
38	0x39c16d21	0.00036893136
39	0xba9f41b2	-0.0012150316
40	0x388b3a37	6.63888e-05
41	0xba1e4e03	-0.00060388463
42	0x3a738804	0.0009289982
43	0xbac8f497	-0.0015331683
44	0xba8687b6	-0.0010263834
45	0x3ab3ee60	0.0013727657
46	0xbba577a7	-0.005049664
47	0x3ab87d32	0.0014075397
48	0x399e01a0	0.0003013732
49	0xb910d64f	-0.00013812746
50	0x39dd8268	0.00042249565
51	0xbb1eae74	-0.002421287
52	0xbaaa8fd5	-0.0013012836
53	0x398dfe4e	0.00027083087
54	0xbac176f4	-0.0014760182
55	0xb9838a38	-0.00025089248
56	0xba5fc778	-0.0008536498
57	0xb95d6fe5	-0.00021117886
58	0xbab9373d	-0.0014130842
59	0x39cd3e88	0.00039147236
60	0x39b2c14c	0.00034094823
61	0x3aa5bc7a	0.0012644671
62	0xb9ede171	-0.0004537213
63	0x395cbb42	0.00021050594
64	0xba506859	-0.00079501193
65	0xbb4258e5	-0.0029655036
66	0xb9df7e7a	-0.00042628107
67	0xbaa82063	-0.0012827035
68	0x3ab6618d	0.001391457
69	0x3a7ca28f	0.000963726
70	0xbb3a9204	-0.002846838
71	0x3a0e79e6	0.00054350344
72	0xbb4840c6	-0.0030556186
73	0xbae2371c	-0.0017258856
74	0x36c7cb7a	5.95435e-06
75	0x3b22f168	0.0024863128
76	0xb9180a11	-0.000144996
77	0x39bccfdb	0.0003601302
78	0xb92d55a2	-0.00016530466
79	0x39afdaed	0.00033541713
80	0xba064e54	-0.0005123366
81	0xbb925037	-0.0044651288
82	0xba391321	-0.00070600404
83	0xba629504	-0.0008643421
84	0x39ca9173	0.0003863681
85	0x3ac4a98c	0.0015004142
86	0x3a6c70e3	0.0009019507
87	0x3acb2267	0.0015497924
88	0xb9a4476f	-0.0003133374
89	0x39ed55c2	0.00045268057
90	0x3ac5e7a2	0.0015098939
91	0xbbb5b4ed	-0.0055452497
92	0xbb9947fd	-0.004677771
93	0xbaff274c	-0.0019466667
94	0xbb07c1f3	-0.0020714968
95	0x3a2bd303	0.00065545755
96	0xba30d338	-0.0006745341
97	0x3ad75669	0.001642895
98	0xbb54d00e	-0.0032472643
99	0xbaa850cc	-0.0012841462
100	0x3a186ab9	0.0005814243
101	0xbb98a705	-0.004658582
102	0xbab92922	-0.0014126638
103	0x3acef488	0.0015789429
104	0xbac50066	-0.0015030026
105	0xbb65ca9a	-0.0035063387
106	0x3a6e4728	0.00090895826
107	0xbaa70b35	-0.0012744429
108	0x3b066a4e	0.002051014
109	0xb7e87d42	-2.7714883e-05
110	0x3b57f0cf	0.003294993
111	0xbb0dd395	-0.0021641005
112	0xbb7744ea	-0.0037730285
113	0x3afd3524	0.0019318205
114	0xbb65adbf	-0.0035046188
115	0x3a942ab1	0.0011304227
116	0x397efeaa	0.00024318197
117	0xba866fc1	-0.0010256694
118	0x3ab9808a	0.0014152688
119	0xba9ba35b	-0.0011874245
120	0xb9288d3f	-0.00016074347
121	0xbabf201c	-0.0014581713
122	0xba53f347	-0.00080852624
123	0xba5b04b3	-0.0008354887
124	0x3a98e342	0.0011664408
125	0xba846868	-0.0010101916
126	0xba06a56c	-0.0005136344
127	0xbaa01e2c	-0.0012216023
128	0x3ad27dca	0.0016059217
129	0x3a645c0a	0.00087112247
130	0xbb2206c6	-0.0024723276
131	0xb919212a	-0.00014603572
132	0xbacb1d09	-0.0015496324
133	0x3b26a34b	0.002542692
134	0xbb4f1ef7	-0.003160415
135	0x3b66e050	0.0035228916
136	0xbb0534ba	-0.0020325617
137	0x381bef7f	3.7177928e-05
138	0xb93df24e	-0.0001811471
139	0x39c1fc32	0.0003699973
140	0x3b53b637	0.0032304653
141	0x3ad48bbe	0.0016215963
142	0xbb089cb1	-0.0020845348
143	0x3b582211	0.003297929
144	0xba22c540	-0.0006209202
145	0x3a21f00c	0.00061774324
146	0x3ac7669c	0.0015213075
147	0x3ac43580	0.0014969558
148	0x37c67ffb	2.3663035e-05
149	0xb9a2d4ac	-0.000310575
150	0x383a6ae9	4.4445424e-05
151	0xba1734a5	-0.00057680375
152	0xb8f07982	-0.000114667244
153	0xba414e04	-0.0007373991
154	0xba916d1a	-0.0011095137
155	0xb88aba14	-6.6150125e-05
156	0x3a0a48ab	0.00052751106
157	0xb9fb6b87	-0.00047954565
158	0xba4b0990	-0.00077452604
159	0xbab436f7	-0.0013749291
160	0x38ea9ebc	0.00011187556
161	0x395f6589	0.00021304762
162	0x3a03dc3a	0.000503007
163	0xbabbcba2	-0.0014327655
164	0x399a828f	0.00029470443
165	0xba0103a9	-0.0004921505
166	0xb7d44c53	-2.530791e-05
167	0xb995da80	-0.0002858229
168	0x3ac8b3bb	0.0015312353
169	0xba90b6aa	-0.0011040766
170	0xb9b3db72	-0.0003430504
171	0x3ab1ac76	0.0013555426
172	0xb942cfaa	-0.00018578643
173	0xb9bd9fb4	-0.00036167877
174	0x385f7721	5.327829e-05
175	0xb8180c6c	-3.6251193e-05
176	0x3878960d	5.9267553e-05
177	0x3a0fd39d	0.000548655
178	0x3a1f4e56	0.00060770416
179	0x3a8dfde1	0.0010833108
180	0x38429562	4.6392328e-05
181	0xb9a2d220	-0.00031055603
182	0x399e84f8	0.00030235178
183	0xb9a5bbef	-0.00031611274
184	0x3a2e979a	0.00066601636
185	0x38790dfc	5.937925e-05
186	0x39b104bd	0.000337636
187	0x3a8c0272	0.0010681881
188	0x39050b5e	0.00012688103
189	0xbaa9f9a0	-0.0012968071
190	0x392d6b60	0.00016538566
191	0x3acd3e78	0.0015658876
192	0x396f374a	0.00022813413
193	0x39503a8c	0.00019858236
194	0xb87899fa	-5.927121e-05
195	0x38702dc9	5.72631e-05
196	0x39e4256f	0.0004351544
197	0x3ace5463	0.0015741702
198	0xbacf07c5	-0.0015795162
199	0x39751a6a	0.00023374861
200	0x3acb8e05	0.0015529996
201	0xba40f12c	-0.0007360156
202	0x398a799c	0.00026412017
203	0xba215520	-0.0006154347
204	0x3a91b25a	0.0011115775
205	0x3ace93ec	0.0015760637
206	0x3a42bccb	0.0007428645
207	0xb6a63a1c	-4.9539503e-06
208	0x39dd2c28	0.00042185304
209	0xb68a5cfc	-4.1235453e-06
210	0xb9ec27c0	-0.00045043044
211	0x3a644a35	0.00087085675
212	0x392f6ca7	0.00016729777
213	0x39e8cb92	0.0004440216
214	0xb9deaeb0	-0.00042473292
215	0xb978444c	-0.00023676566
216	0xbc0e2720	-0.00867632
217	0xbbb7370f	-0.0055912803
218	0xb99d8f1c	-0.00030051998
219	0x3b045c1d	0.0020196505
220	0xba0f9412	-0.0005477081
221	0x3a502092	0.00079394237
222	0xba843ece	-0.0010089518
223	0x3a2cfb6d	0.00065987447
224	0x3b16ecc8	0.0023029316
225	0xbc4a2169	-0.012337067
226	0x393558ca	0.00017294582
227	0xbbd5cfea	-0.0065250294
228	0x3a88a891	0.0010426213
229	0xbb85eaad	-0.0040868134
230	0xbb65a6bf	-0.0035042015
231	0x3c146e26	0.009059465
232	0xbac8831f	-0.0015297866
233	0xbb593e3a	-0.0033148662
234	0xb9ff2a2b	-0.00048668808
235	0xbcb84b4d	-0.022496844
236	0xbc35f869	-0.011106589
237	0xbc1adcdc	-0.009452071
238	0xbab39704	-0.0013701622
239	0xb8b9a31b	-8.851868e-05
240	0xbb3a97db	-0.002847186
241	0x3bbc4691	0.005745717
242	0xbca22b54	-0.019796051
243	0xbc2bed8d	-0.010493648
244	0xbb1b6dc9	-0.002371656
245	0xbc8e4b3c	-0.017369859
246	0xbb74032d	-0.0037233338
247	0x3b82ad38	0.0039879344
248	0xba9eee54	-0.0012125471
249	0x3ac1773b	0.0014760265
250	0xbb36c653	-0.0027889207
251	0xbbb94390	-0.005653806
252	0xbc2bf5b3	-0.010495591
253	0xbab8927e	-0.0014081744
254	0x3b967e4e	0.0045926934
255	0xbc1b6719	-0.00948503
