checkpoint/Wikipedia/20231105_161508916288.pth (torch, 760995 bytes, 38 tensors)

convs.0.weight f4 [72, 138]
0.13578887 0.13416329 -0.028572049 0.05459732 -0.023678632 0.086399 -0.07707311 0.07635522
-0.051991567 0.04923184 -0.025003888 0.024990357 0.058740545 0.009101317 -0.025492849 0.10905515
-0.022103827 0.15020132 -0.028831204 0.008681952 -0.005986999 0.006729081 0.0024797395 0.15954015
-0.02142209 0.087054394 0.045071885 0.08608008 0.027064905 0.018999288 0.0024985585 0.04881541
-0.003272519 0.052139882 -0.04337121 0.06902149 -0.08730359 -0.090032406 -0.000120643934 -0.0020167788
-0.11696079 0.025446996 -0.061796676 0.024245318 0.055692416 0.076192304 -0.013795996 0.010941655
0.09500468 0.10430414 -0.10815694 0.07220246 0.008923411 -0.0053916452 0.017372038 0.07851416
0.05721769 0.07593743 0.006196843 0.01890939 -0.04813918 0.032007333 0.0007116895 0.11763953
-0.08336043 0.11549196 -0.03335067 0.051715918 -0.030957295 0.12593788 -0.00678167 -0.019035116
-0.058379706 -0.01808313 0.014913592 0.07910557 -0.057780024 0.022270903 -0.028677687 0.0048819957
0.06515617 0.089813836 -0.10336976 0.0029834043 0.059543025 0.10518797 -0.05390598 0.004818364
-0.016620077 0.1215668 -0.037045497 0.044150226 0.030618314 0.14131705 -0.023665205 -0.0005012853
-0.028361872 0.10204748 -0.043808635 0.06290564 -0.08204737 0.012012894 0.028844036 0.008071477
-0.086446814 -0.007287485 -0.032861326 0.013880372 0.016509946 0.024632284 0.050769456 0.02066497
-0.026649777 0.111834064 -0.04564676 0.023603389 0.034520075 0.04954098 0.0089225145 0.07335266
-0.017969545 0.02140652 0.023276022 0.012574719 -0.0783783 0.04411371 0.029870214 0.14823602
-0.05510497 -0.0024257964 0.08043916 0.06558899 0.19423491 0.163124 0.1129042 -0.0601152
0.0123468805 -0.055440485 0.06804017 0.14189729 0.032023408 0.013643633 -0.03189995 0.017067822
-0.116962835 -0.0131035 -0.061239738 -0.062858805 0.0605842 0.0028868085 -0.004491901 0.036640383
0.03972276 0.05158417 0.041121025 0.05626436 0.019190285 0.026241511 0.030455925 0.029526217
0.00017349239 -0.031056523 0.0105038155 -0.007269744 0.07781109 0.024402663 0.023580698 -0.00720394
0.017398553 0.00034572292 -0.023214266 0.029603165 0.08290505 0.04784786 -0.087497346 -0.07852255
0.065077215 -0.050008327 -0.095305525 -0.05476036 0.008726664 0.013143605 0.011026092 0.006863374
-0.009706758 0.011910092 0.022925263 0.042971533 -0.112970285 0.04523611 0.008886693 -0.011116559
-0.0071048276 0.0028425497 0.060821746 0.09971996 -0.0148524325 -0.014130885 0.0076436223 0.007873615
0.0058335382 0.018633753 0.023764715 0.15095106 0.04201241 -0.0011747088 -0.005855914 0.04389392
-0.04851531 0.0070638345 -0.006813829 -0.11158197 0.03341988 -0.0130082965 -0.029592725 0.042488594
-0.0028873498 0.010352541 0.017647985 0.03011599 -0.11004205 -0.017230889 0.09018439 0.02474049
-0.009427122 -0.0105467085 0.018944912 0.02130291 -0.01739892 0.03753853 0.00911244 0.011502332
-0.013512265 0.02509116 0.042722225 0.062597066 0.0401231 0.018252298 -0.090345606 -0.031668153
0.037673157 0.006186075 -0.0046991324 -0.0032893182 -0.011712767 0.0068849176 0.018110434 0.04204391
0.04686384 0.016206685 -0.07212618 0.04819802 -0.06456798 -0.024486948 0.013056679 0.0029103982
00000000: 3d0c 0b3e 1a62 093e ee0f eabc 70a1 5f3d
00000010: b1f9 c1bc f5f1 b03d 82d8 9dbd 2060 9c3d
00000020: 1cf5 54bd 53a7 493d f4d4 ccbc 94b8 cc3c
00000030: ed99 703d b11d 153c 61d6 d0bc 4e58 df3d
00000040: 1613 b5bc 60ce 193e 6b2f ecbc bf3e 0e3c
00000050: 962e c4bb 9f7f dc3b 2083 223b 7e5e 233e
00000060: 617d afbc 9349 b23d 4c9d 383d c14a b03d
00000070: 38b7 dd3c 65a4 9b3c dbbe 233b abf2 473d
00000080: c277 56bb a190 553d 03a6 31bd 245b 8d3d
00000090: 39cc b2bd e962 b8bd 3802 fdb8 ef2b 04bb
000000a0: 2389 efbd 3876 d03c 831e 7dbd 1e9e c63c
000000b0: bb1d 643d b60a 9c3d 9a08 62bc a144 333c
000000c0: d091 c23d 699d d53d 6381 ddbd e2de 933d
000000d0: 8033 123c 66ac b0bb ce4f 8e3c 08cc a03d
000000e0: 195d 6a3d 1585 9b3d e30e cb3b dde7 9a3c
000000f0: 972d 45bd 1f1a 033d ad90 3a3a feec f03d
00000100: e0b8 aabd 0c87 ec3d b69a 08bd 12d4 533d
00000110: 279a fdbc dcf5 003e c538 debb 88ef 9bbc
00000120: 8f1f 6fbd 1223 94bc 2358 743c 1a02 a23d
00000130: bfaa 6cbd 7871 b63c 78ed eabc 26f9 9f3b
00000140: 9970 853d 51f0 b73d 86b3 d3bd 3885 433b
00000150: 63e3 733d ca6c d73d 84cc 5cbd 5ee3 9d3b
00000160: d426 88bc 04f8 f83d 05bd 17bd ded6 343d
00000170: 42d3 fa3c 6bb5 103e 88dd c1bc b068 03ba
00000180: 2857 e8bc 45fe d03d af70 33bd acd4 803d
00000190: 7408 a8bd bbd1 443c 544a ec3c 3a3e 043c
000001a0: 070b b1bd dbcb eebb 9999 06bd 806a 633c
000001b0: de3f 873c a5c9 c93c a2f3 4f3d 9549 a93c
000001c0: a250 dabc 4209 e53d 19f8 3abd e55b c13c
000001d0: ec64 0d3d 7ceb 4a3d bd2f 123c eb39 963d
000001e0: de34 93bc ba5c af3c 5bad be3c 3206 4e3c
000001f0: cd84 a0bd 94b0 343d 61b2 f43c 2fcb 173e
00000200: c0b5 61bd 1cfa 1ebb 49bd a43d 8553 863d
00000210: 84e5 463e fa09 273e 513a e73d 5b3b 76bd
00000220: 924a 4a3c 9015 63bd a558 8b3d 864d 113e
00000230: fa2a 033d 8b89 5f3c 86a9 02bd d1d1 8b3c
00000240: 368a efbd 10b0 56bc 85d6 7abd 1ebc 80bd
00000250: 2327 783d 9c30 3d3b cc30 93bb 3a14 163d
00000260: 55b4 223d ec49 533d 856e 283d 7575 663d
00000270: f234 9d3c 70f8 d63c b47e f93c f7e0 f13c
00000280: 82eb 3539 406a febc 3218 2c3c 0837 eebb
00000290: 6c5b 9f3d 18e8 c73c 4f2c c13c 070f ecbb
000002a0: 6987 8e3c 2542 b539 d82b bebc 5682 f23c
000002b0: 1fca a93d 1efc 433d cf31 b3bd 6ed0 a0bd
000002c0: 3447 853d 88d5 4cbd 8b2f c3bd 664c 60bd
000002d0: 48fa 0e3c 4658 573c c8a6 343c 27e6 e03b
000002e0: 1809 1fbc 8c22 433c c3cd bb3c eb02 303d
000002f0: f75c e7bd 8049 393d 7e99 113c 3a22 36bc
00000300: 9dcf e8bb 124a 3a3b 3920 793d fa39 cc3d
00000310: 9e57 73bc 3a85 67bc 5a77 fa3b 5600 013c
00000320: 4427 bf3b d0a5 983c 38ae c23c ea92 1a3e
00000330: 3415 2c3d b0f8 99ba f8e2 bfbb 1cca 333d
00000340: fdb7 46bd bd77 e73b 8a46 dfbb 1685 e4bd
00000350: 49e3 083d c020 55bc 716c f2bc 8508 2e3d
00000360: b139 3dbb b49d 293c 8292 903c cfb5 f63c
00000370: ba5d e1bd cb27 8dbc 98b2 b83d 91ac ca3c
00000380: 3774 1abc 1acc 2cbc 5c32 9b3c 7183 ae3c
00000390: 2e88 8ebc 00c2 193d 584c 153c 4774 3c3c
000003a0: 8c62 5dbc fa8b cd3c 80fd 2e3d e432 803d
000003b0: 1f58 243d d885 953c 1e07 b9bd 77b6 01bd
000003c0: 2b4f 1a3d 8fb4 ca3b 2efb 99bb 9a91 57bb
000003d0: e8e6 3fbc e09a e13b 555c 943c 3c36 2c3d
000003e0: 4cf4 3f3d e2c3 843c e4b6 93bd 496b 453d
000003f0: 383c 84bd da98 c8bc aeeb 553c 61bc 3e3b

convs.0.bias f4 [72]
0.022029746 0.08753855 -0.051804923 -0.006605965 -0.010667817 0.0074209576 0.07449753 0.07210907
0.038696896 0.013910907 0.104334176 -0.015941614 0.020384645 0.0026719947 0.13215935 -0.012704483
0.02314806 -0.03929608 -0.06940621 0.14048575 -0.016221417 -0.005095213 0.07119232 0.012098517
0.0068809283 0.006661616 0.06344055 -0.020596236 -0.045512013 0.046783824 0.12363999 0.003385568
0.03316057 0.028290836 0.10560179 0.06052066 0.04891087 -0.02309962 0.011919082 0.02224641
-0.06587594 0.08101518 -0.007038206 -0.08088603 0.017415395 0.120234266 -0.017375657 -0.045915253
-0.027651872 0.06091025 0.05353757 -0.0038254354 0.014807518 0.15565035 -0.004951748 0.14102262
-0.0017467632 0.016850196 0.0803162 0.04406567 -0.03215562 -0.008034864 -0.022253143 -0.015760928
0.07183392 0.0043559717 -0.018308757 0.028352605 0.06546564 0.11026386 0.063733794 0.10487555
00000000: ba77 b43c 6947 b33d 6631 54bd da76 d8bb
00000010: 11c8 2ebc 812b f33b 2992 983d ecad 933d
00000020: a380 1e3d 93ea 633c 28ad d53d fd97 82bc
00000030: b3fd a63c a21c 2f3b c854 073e 7726 50bc
00000040: 00a1 bd3c edf4 20bd d824 8ebd 7fdb 0f3e
00000050: c7e2 84bc bff5 a6bb 47cd 913d dc38 463c
00000060: 6979 e13b af49 da3b 1eed 813d 70b9 a8bc
00000070: ce6a 3abd 65a0 3f3d f736 fd3d 68e0 5d3b
00000080: 61d3 073d 2fc2 e73c c045 d83d 83e4 773d
00000090: c456 483d 6a3b bdbc 4148 433c 1a3e b63c
000000a0: f7e9 86bd 49eb a53d c0a0 e6bb 93a7 a5bd
000000b0: bbaa 8e3c 623d f63d 6557 8ebc a211 3cbd
000000c0: 2e86 e2bc 077d 793d 364a 5b3d 28b4 7abb
000000d0: 3b9b 723c ce62 1f3e 4642 a2bb 3c68 103e
000000e0: a6f3 e4ba 6c09 8a3c d27c a43d 347e 343d
000000f0: 9db5 03bd aaa4 03bc 394c b6bc 101d 81bc
00000100: aa1d 933d 8abc 8e3b 3ffc 95bc b943 e83c
00000110: d912 863d 05d2 e13d dd86 823d fec8 d63d

convs.1.weight f4 [72, 72]
0.009399991 -0.013861072 -0.014026164 -0.0030636075 -0.007936197 0.00986392 -0.00020406171 -0.0027412341
-0.0005984188 0.00079848384 -0.0007322504 0.015208598 -0.010059047 -0.0014510441 0.002926344 -0.008177451
-0.0019225323 0.010436112 -0.0019422948 0.0012962759 0.0062584816 0.010055801 -0.00886968 -0.0047406014
-0.008784228 -0.00028979732 -0.01892377 -0.006927226 -0.021795038 0.005387158 -0.015450119 -0.0026072073
-0.0023017703 1.8424988e-05 0.0009648088 -0.005643767 2.1823858e-05 0.020043094 0.0009155536 0.008322641
3.2621792e-05 -0.013211626 0.015645655 -0.0045741317 0.0065346286 0.00029646553 0.004020336 -0.003990735
-0.006547409 0.017576389 -0.0033148206 -0.013414022 0.005082295 -0.0005691447 -0.0029016053 0.0048029753
0.00032247903 -0.0037189415 -0.0024285796 -0.009693403 -0.010647035 -0.009272081 0.009765901 0.006750356
0.0063184137 -0.021235337 -0.009572008 0.0021968856 0.0018007864 0.0021276807 -0.008828704 0.01598675
-0.010619854 0.0023142195 -0.0014359432 -0.0023511252 0.0025378915 6.635496e-05 -0.01685027 -0.021680593
0.0022776164 0.021393238 -0.00894912 0.005247561 -0.01345696 0.006129305 0.0012956491 -0.001945039
-0.010046579 0.00813563 -0.0012759849 -0.0056521925 0.002607474 0.008660418 0.0025586747 -0.0052162125
-0.0035731765 0.0021853298 -0.004571981 0.011381618 -0.008963498 -0.013145105 -0.020263165 0.01966191
-0.010328651 -0.010028575 0.0037066157 0.0071610864 0.0033625735 -0.00045093655 -0.0077689188 -0.0071026613
0.002659603 -0.009687849 0.0032126482 0.0015348531 -0.0039215903 -0.0014577945 0.010134062 0.01590168
-0.0004993006 0.0045634992 -0.0018409416 0.015565379 -0.004229394 -0.0047928737 -0.013693664 0.003752508
0.00020840946 -0.0016901755 -0.004050983 0.002863016 -0.010183159 -0.012299181 0.0077381376 0.015237177
0.005588008 0.0063357065 0.019231724 0.0006962142 0.0032220257 0.0028396507 0.019969447 -0.009654031
0.010650662 0.0063541373 0.0047293887 0.008100376 -0.0016695573 0.0021010588 0.020402515 0.004869906
-0.0064636404 -0.009593585 -0.0013631701 -0.010344124 0.004447855 0.0053994334 0.009275557 -0.002517223
-0.0018766396 -0.0011788217 -0.0074786623 2.1273314e-05 -0.005023156 0.0072897705 0.007720551 -0.015753249
-0.0075934427 6.760322e-05 -0.001478395 0.0009297971 -0.0024720845 0.0011657682 0.008509536 -0.0021798916
-0.0053698565 -0.0042907484 -0.008821775 0.009964487 0.011071375 -0.0015517446 0.0009792878 0.0030614627
-0.009795139 0.0031296622 0.0029804434 0.016194066 -0.0016026086 0.002072991 0.010498338 -0.0031505986
0.0012670527 0.0005328127 0.010012721 -0.0060702655 0.0012561237 0.018675268 0.006815114 -0.0012472341
-0.002868849 -0.009090688 0.0057745515 -0.0016205721 -0.0017434312 0.004271128 0.0061425646 -0.004543979
0.010298047 -0.0030815548 0.0003756042 0.0023690935 -0.016751591 0.010518203 0.0072352197 0.0051818746
-0.0028455546 -0.00045440652 -0.0074442974 0.00504002 -0.002647152 0.012661197 -1.6071903e-05 0.008821861
0.0049035368 0.004545601 0.015570602 -0.007912385 -0.0017206022 0.010661358 0.010222094 0.018621944
-0.003221238 -0.019708546 -0.0012323947 -0.0044700406 0.010663867 -0.005373093 -0.015182389 0.0030784954
0.011763502 -0.009707543 0.007117694 -0.0030810698 -0.0014697268 -0.007584577 -0.01035815 -0.010419819
-0.008159738 -0.0013610083 -0.009492511 -0.004294448 -0.0050907433 0.00054347655 0.0022418888 -0.007672391
00000000: 6b02 1a3c 8d19 63bc ffcd 65bc cec6 48bb
00000010: d306 02bc 479c 213c 66f9 55b9 47a6 33bb
00000020: 35df 1cba 5851 513a 7ef4 3fba 7c2d 793c
00000030: b3ce 24bc f630 beba e8c7 3f3b b7fa 05bc
00000040: 7bfd fbba 3afc 2a3c 9994 feba cde7 a93a
00000050: f313 cd3b 16c1 243c 2252 11bc 0c57 9bbb
00000060: b9eb 0fbc f0ef 97b9 0606 9bbc c9fd e2bb
00000070: 828b b2bc c286 b03b 7f22 7dbc aedd 2abb
00000080: 4cd9 16bb 5c8f 9a37 39eb 7c3a 59ef b8bb
00000090: 6112 b737 6a31 a43c c301 703a b05b 083c
000000a0: 62d3 0838 9375 58bc 512b 803c 99e2 95bb
000000b0: 7020 d63b ee6e 9b39 06bd 833b b6c4 82bb
000000c0: a68b d6bb 5cfc 8f3c 763d 59bb 7cc6 5bbc
000000d0: 6189 a63b a732 15ba dc28 3ebb 4762 9d3b
000000e0: 6712 a939 7cb9 73bb ce28 1fbb 14d1 1ebc
000000f0: e770 2ebc ede9 17bc 2801 203c 1732 dd3b
00000100: b20a cf3b bbf5 adbc e9d3 1cbc a0f9 0f3b
00000110: 5d08 ec3a 8f70 0b3b 45a6 10bc a5f6 823c
00000120: e5fe 2dbc 29aa 173b 4236 bcba 5615 1abb
00000130: c152 263b 0c28 8b38 9409 8abc 809b b1bc
00000140: 1044 153b df40 af3c 549f 12bc bbf3 ab3b
00000150: 957a 5cbc 56d8 c83b c5d2 a93a aef0 feba
00000160: 689a 24bc 4e4b 053c f33e a7ba 0736 b9bb
00000170: 28e2 2a3b 6de4 0d3c 70af 273b c3ec aabb
00000180: f42b 6abb c037 0f3b 8ed0 95bb f779 3a3c
00000190: a3db 12bc 915e 57bc f0fe a5bc 0412 a13c
000001a0: 8139 29bc e44e 24bc b1ea 723b 8ca7 ea3b
000001b0: 9f5e 5c3b ae6b ecb9 6a92 febb 71bd e8bb
000001c0: bc4c 2e3b c9b9 1ebc 4b8b 523b 202d c93a
000001d0: af80 80bb 7713 bfba 5609 263c 3d44 823c
000001e0: 7fe3 02ba 6889 953b c04b f1ba ee05 7f3c
000001f0: ba96 8abb 8a0d 9dbb 645b 60bc a3ec 753b
00000200: 7d88 5a39 e188 ddba 1cbe 84bb 70a1 3b3b
00000210: 44d7 26bc 8182 49bc 3490 fd3b 5aa5 793c
00000220: 9c1b b73b c29b cf3b d98b 9d3c 2582 363a
00000230: 9f28 533b 6f19 3a3b f796 a33c f12b 1ebc
00000240: 1d80 2e3c 5e36 d03b fdf8 9a3b 71b7 043c
00000250: 0cd5 daba ebb1 093b 2d23 a73c bc93 9f3b
00000260: f2cc d3bb 692e 1dbc 66ac b2ba 677a 29bc
00000270: 50bf 913b bbed b03b 81f8 173c fef7 24bb
00000280: 93f9 f5ba b182 9aba 910f f5bb 1874 b237
00000290: 4999 a4bb 07df ee3b adfc fc3b f50c 81bc
000002a0: 6ad2 f8bb 34c6 8d38 b4c6 c1ba a1bd 733a
000002b0: b202 22bb b1cc 983a 956b 0b3c 83dc 0ebb
000002c0: 9ff5 afbb 6899 8cbb 3589 10bc 1642 233c
000002d0: b664 353c e963 cbba 725b 803a d2a2 483b
000002e0: ca7b 20bc 051b 4d3b 8b53 433b 6ba9 843c
000002f0: 9f0e d2ba 05db 073b 3901 2c3c 467a 4ebb
00000300: 3c13 a63a 74ac 0b3a 650c 243c 14e9 c6bb
00000310: 84a4 a43a e0fc 983c 5251 df3b 3b7a a3ba
00000320: 4d03 3cbb 1cf1 14bc 7338 bd3b 6069 d4ba
00000330: d883 e4ba d2f4 8b3b 9147 c93b a9e5 94bb
00000340: 24b9 283c e9f3 49bb beec c439 cb42 1b3b
00000350: a23a 89bc 8a54 2c3c 6c15 ed3b b7cc a93b
00000360: 7c7c 3abb 693d eeb9 4bef f3bb c126 a53b
00000370: d77b 2dbb e970 4f3c 26d2 86b7 9189 103c
00000380: d9ad a03b 44f3 943b d71b 7f3c f3a2 01bc
00000390: d485 e1ba faac 2e3c 927a 273c 0c8d 983c
000003a0: 681b 53bb d173 a1bc 4e88 a1ba 6b79 92bb
000003b0: 80b7 2e3c c510 b0bb 8ebf 78bc 95c0 493b
000003c0: b4bb 403c 630c 1fbc 8b3b e93b c6eb 49bb
000003d0: d9a3 c0ba 0b88 f8bb 3bb5 29bc e3b7 2abc
000003e0: 6cb0 05bc dc63 b2ba 7a86 1bbc 71b8 8cbb
000003f0: 40d0 a6bb 1878 0e3a a7ec 123b ae68 fbbb

convs.2.weight f4 [72, 72]
-0.002990816 -0.0013859636 -0.0052792677 0.0012822781 0.019169793 0.0009671695 0.00092556776 -0.021926586
-0.0040933415 -0.0058757053 -0.011070063 0.0077591063 0.011997724 -0.017033659 0.008705107 0.02174483
0.010276328 -0.0010500123 0.013903672 0.0053060907 0.0072659226 0.0022223692 -0.010703347 0.0049057985
-0.0005375993 -0.0054560555 -0.015393801 0.021484137 -0.0068990276 0.0011987174 0.0023799082 0.002204181
-0.0060883933 0.003361373 -0.010084688 0.0032473332 0.0001738586 0.0027518615 0.0071089608 -0.009717766
0.005069382 -0.02023279 -0.008428131 -0.017910877 0.010483177 0.005264298 -0.0012621301 0.0012921686
-0.01646208 -0.00923585 -0.0015505068 -0.0011115668 -0.010262113 0.005908093 0.0010371456 -0.0019842922
0.002290046 -0.0052487636 0.013805889 -0.003193719 -0.0021471058 0.0052864025 -0.0019762453 0.0016130956
0.006821749 0.009468146 0.0012208786 -0.0060881726 0.018678384 -0.0046913377 0.002207296 0.018525803
-0.010506962 -0.018429637 0.00021522354 -0.022251105 0.013332434 -0.004074406 -0.002805855 0.019631816
0.008247834 -0.010667846 0.022033956 0.008544368 0.0050639724 0.00066430465 0.007647448 0.002717023
0.002454175 0.010188991 -0.0093117915 0.0013450952 0.010345201 9.497479e-05 0.021318205 -0.009892339
-0.006486247 0.01858105 0.009040643 -0.0018795527 0.004422046 5.0622352e-06 -0.0018102789 -0.00023651088
-5.823988e-05 0.0070491843 -0.0058804043 -0.017297115 0.0016155738 -0.008577025 0.009302511 0.0102445865
-0.007238102 0.0034625637 0.004665728 -0.0009836789 0.019143287 -0.0018939691 -0.0016656702 -0.006027081
0.0086902175 0.0161929 0.005686953 -0.00018979212 0.016273137 -0.0017727257 0.009291726 -0.0044376263
0.016771575 -0.0015860789 -0.010386279 -0.0023472896 0.010654889 0.0005902424 -0.007707678 0.008816822
-0.00013792703 -0.0075187637 -0.0093828505 0.0014635137 -0.002204589 -0.007936929 0.021219015 0.005416982
-0.0072257826 -0.0028984607 -0.0118001215 0.0013999969 -0.020131357 0.0007535193 0.0011054251 0.0014044034
0.021048117 0.0042798496 -0.0015064315 -0.001138106 -0.0012848922 0.0153793385 -0.011590331 -0.021066045
0.010102803 -0.0009939418 0.0005972951 0.0064967703 0.0011860458 0.0075260745 0.00020738345 -0.0026066485
0.011313615 -0.01074099 -0.005445873 0.00023402597 -0.009316122 0.00629274 0.021409772 0.0032340996
0.00091161224 0.020641752 -0.01960313 0.0012683368 -0.00089066144 -0.022157976 -0.007534756 -0.0102563705
-0.00058187847 0.0021643692 -0.0012929444 -0.009899087 -0.0014188613 -0.0011187331 0.021139013 0.0048828577
0.0021453726 0.0081638275 -0.014743777 0.0032078477 -0.010505004 -0.0068079 -0.008528176 0.0020847314
0.0105136335 0.021740457 -0.020031169 -0.0059458604 -0.0037933157 -0.0027280925 -0.0002803067 -1.573416e-05
-0.004318201 0.0028360542 -0.015264697 -0.0032701585 0.002069942 0.0017872535 -0.014379742 0.009873073
0.0020417548 0.01203217 0.0011260278 0.0011730539 0.00034729936 -0.00835588 -0.0011872031 -0.0015615755
0.0016050127 0.019654002 -0.001301795 -0.005565704 -0.008092798 -0.0034951654 -0.0036168408 -0.012624935
0.004991836 -0.004035776 -0.0026454993 -0.0035119639 -2.0151367e-05 0.00038040994 0.007705317 0.0027993482
0.0023141287 -0.011240916 0.003236536 -0.00610262 0.009357087 -0.02067486 -0.011465293 -0.0011686742
-0.00109394 -0.0025457793 -0.000482029 0.00072965864 -0.0011852788 0.0004995886 0.010456633 0.02108151
00000000: 9101 44bb 39a9 b5ba b5fd acbb 1d12 a83a
00000010: f809 9d3c a589 7d3a cda1 723a 629f b3bc
00000020: 7021 86bb fd88 c0bb 365f 35bc 1a40 fe3b
00000030: 1a92 443c 2c8a 8bbc dd9f 0e3c 3722 b23c
00000040: 0b5e 283c 91a0 89ba 3acc 633c b7de ad3b
00000050: fa16 ee3b 2ba5 113b 175d 2fbc d2c0 a03b
00000060: aeed 0cba b6c8 b2bb 4836 7cbc 80ff af3c
00000070: 3d11 e2bb 481e 9d3a 3cf8 1b3b 0574 103b
00000080: 2581 c7bb 7b4a 5c3b 3f3a 25bc 36d1 543b
00000090: d04d 3639 9358 343b 49f2 e83b 4437 1fbc
000000a0: 0f1d a63b 3cbf a5bc 2516 0abc d5b9 92bc
000000b0: a2c1 2b3c 2280 ac3b 0f6e a5ba fc5d a93a
000000c0: 7cdb 86bc f651 17bc 603a cbba feb1 91ba
000000d0: 6c22 28bc ad98 c13b d5f0 873a e60a 02bb
000000e0: 9914 163b d2fd abbb 1832 623c b74d 51bb
000000f0: 75b6 0cbb 8f39 ad3b e583 01bb 826e d33a
00000100: fa88 df3b 4820 1b3c e305 a03a 4b7f c7bb
00000110: 6903 993c cbb9 99bb 48a8 103b 6dc3 973c
00000120: 6525 2cbc c0f9 96bc a1ad 6139 f347 b6bc
00000130: 4870 5a3c 9882 85bb 6fe2 37bb e7d2 a03c
00000140: ec21 073c 30c8 2ebc 8e80 b43c adfd 0b3c
00000150: aeef a53b bb24 2e3a 7297 fa3b 1510 323b
00000160: 39d6 203b baef 263c 7c90 18bc e84d b03a
00000170: eb7e 293c 342d c738 84a3 ae3c 7a13 22bc
00000180: 958a d4bb 4937 983c 351f 143c 535b f6ba
00000190: cfe6 903b 45dc a936 e146 edba e8ff 77b9
000001a0: 9846 74b8 d8fc e63b 68b0 c0bb aeb2 8dbc
000001b0: a9c1 d33a a686 0cbc 8f69 183c e9d8 273c
000001c0: 9a2d edbb 2eec 623b f7e2 983b c9ee 80ba
000001d0: 62d2 9c3c 0f3f f8ba 9e52 daba d27e c5bb
000001e0: 6a61 0e3c f9a6 843c 9f59 ba3b ef02 47b9
000001f0: 3e4f 853c ce5a e8ba 533c 183c 8269 91bb
00000200: 8b64 893c fae3 cfba 362b 2abc fcd4 19bb
00000210: d891 2e3c 7fba 1a3a b090 fcbb 6f74 103c
00000220: 81a0 10b9 f65f f6bb 87ba 19bc 5fd3 bf3a
00000230: de7a 10bb e509 02bc 80d3 ad3c f080 b13b
00000240: 42c6 ecbb 1af4 3dbb 4c55 41bc 1a80 b73a
00000250: 84ea a4bc d387 453a e9e3 903a f513 b83a
00000260: 1a6d ac3c fb3d 8c3b 7473 c5ba 802c 95ba
00000270: d469 a8ba 9ff9 7b3c 5fe5 3dbc b392 acbc
00000280: 3a86 253c 2747 82ba cc93 1c3a dce2 d43b
00000290: 1875 9b3a 4a9d f63b 1275 5939 4ed4 2abb
000002a0: be5c 393c fafa 2fbc 4b73 b2bb de64 7539
000002b0: a6a2 18bc 5433 ce3b 8c63 af3c 30f3 533b
000002c0: 43f9 6e3a e418 a93c be96 a0bc 523e a63a
000002d0: 477b 69ba a584 b5bc 1de6 f6bb 560a 28bc
000002e0: 3489 18ba 17d8 0d3b 0478 a9ba c82f 22bc
000002f0: 16f9 b9ba 74a2 92ba b92b ad3c 6100 a03b
00000300: 6199 0c3b 93c1 053c e28f 71bc c13a 523b
00000310: 2e1d 2cbc ce14 dfbb c3b9 0bbc fd9f 083b
00000320: 6041 2c3c 0b19 b23c 6818 a4bc 7ed5 c2bb
00000330: 4799 78bb ccc9 32bb 21f6 92b9 dafc 83b7
00000340: b27f 8dbb 18dd 393b c818 7abc 2850 56bb
00000350: dda7 073b 4742 ea3a 0299 6bbc abc2 213c
00000360: f6ce 053b 9422 453c 3997 933a 28c1 993a
00000370: bb15 b639 1ae7 08bc ed9b 9bba c7ad ccba
00000380: 4a5f d23a 6e01 a13c fea0 aaba 8260 b6bb
00000390: a897 04bc 250f 65bb 8508 6dbb d1d8 4ebc
000003a0: 8e92 a33b 8b3e 84bb 1d60 2dbb fa28 66bb
000003b0: bb0a a9b7 c271 c739 e27c fc3b 4575 373b
000003c0: a3a8 173b d22b 38bc 101c 543b 7df8 c7bb
000003d0: 784e 193c 535e a9bc edd8 3bbc 332e 99ba
000003e0: 8962 8fba 17d7 26bb d6b8 fcb9 9046 3f3a
000003f0: 5b5b 9bba d3f6 023a 4c52 2b3c 22b3 ac3c

convs.3.weight f4 [72, 72]
0.00040684605 -0.0037165917 0.009677979 0.011181682 -0.0041112234 0.0039562047 0.017670294 0.005323051
-0.005410923 -0.0054198145 -0.0028166785 0.006080835 0.0059553897 0.0058630668 -0.00053350604 0.00096080673
-0.009407209 -0.010585802 0.00943739 -0.010010217 0.005258876 0.0015902307 -0.012085328 0.004088328
0.0001132864 -0.0106818965 -0.001468074 0.0023306024 0.0010405106 0.0022216383 0.00944905 -0.006907411
0.007698506 -0.0069203754 0.020208435 -0.017165564 0.0019131557 -0.0014041323 -0.007855693 -0.0046081026
-0.014195278 -0.020757876 0.0029726825 0.00087703194 -0.010283308 0.016957209 -0.0056272494 0.0029588041
-0.0048058284 -0.005301715 0.0021406154 0.0030772572 0.005800368 -0.0078521315 -0.0022572197 -0.0086479345
0.00018192983 0.008464378 0.009344784 -0.017592618 -0.010415345 -0.00519986 0.008940541 0.003909981
0.0040570875 -0.001322378 -0.015607317 0.01261741 0.009895813 -0.020060817 0.018649649 0.0067597986
0.009488571 0.001714417 0.0022662464 0.016660558 0.012964139 0.012073876 0.0006889079 -0.00097518374
-0.0023586787 -0.010684775 -0.013603649 -0.0031823078 0.005772881 -0.007828545 -0.00741538 0.009924473
-0.001247653 0.002190359 0.0032401786 -0.0103766145 -0.008628561 0.004694257 -0.012054142 0.0011036329
0.01018748 0.004629517 0.0014375092 -0.0038399012 -0.0008397845 -0.006779852 -0.0023334988 0.010610974
-0.00907335 -0.0038757569 0.004644095 0.0125819305 0.010731782 0.0051957387 -0.0023145943 0.008561056
0.022113325 -0.020918021 -0.0029873617 -0.00455438 -0.000867072 -0.013163691 -0.0020337703 0.0012551663
0.016891638 0.015473031 -0.010393394 -0.0053793374 0.004737591 4.3956177e-05 -0.011535095 -0.012814182
0.009663315 0.005831151 -0.022168498 -0.0012127216 -0.019724637 0.008974929 0.01056498 0.004678349
0.0053509674 0.020671548 -0.009573614 0.009959397 0.0015562497 0.019814642 0.0021872695 0.009710499
0.0046088933 -0.018274708 -0.010049526 -0.0042451876 0.02199295 0.0078083123 -0.0021432855 0.0021064347
0.010641767 0.0012427937 0.009184177 0.015667079 -0.010101579 -0.020365806 -0.008265957 0.0016122881
0.0036475158 -0.010285416 -0.003378169 0.004124111 0.0011286817 -0.016791558 0.0069347406 -0.0045775897
-0.0051908097 0.005368959 0.010115443 -0.0005171158 -0.013080299 -0.016370937 -0.0070042387 -0.004532264
-0.010639175 0.004805579 -8.329973e-05 -0.007724187 0.011423269 0.018608319 -0.008985106 -0.012156549
-0.0023286066 -0.002233888 0.020367209 0.0007654793 0.0010368754 0.010202151 0.007770798 -0.005512374
0.018201388 -0.00024197262 0.013773308 0.0010009136 -0.0011802822 0.00014913488 0.013170066 -0.0027273674
-0.0032126536 -4.001154e-05 0.0011485924 0.0028336153 -0.0036370403 0.000861532 0.0012906318 -0.0043459097
0.011068898 -0.0007047304 0.008836785 -0.009205426 -0.013990756 0.0040752986 0.0039268155 0.0021463102
0.0017452608 5.5870634e-05 -0.0027557767 -0.0043583284 -0.0017213916 0.010394214 0.0037328075 -0.018255534
-0.02198617 0.012769446 0.008707652 0.019525245 -0.007281043 0.01280986 0.0036609524 -0.004255834
-0.008370807 -0.002164604 -0.0032300777 -0.00201389 0.010640666 -0.0028036474 -0.0064568473 -0.0021069616
0.0051658954 0.009553236 0.021363584 -0.002390107 0.0050128205 0.0003057354 -0.002547181 0.0021091448
-0.0012525901 0.019773405 -0.005589009 -0.0021213857 -0.000856719 0.01047003 0.009243463 -0.014983417
00000000: f44d d539 1092 73bb 6390 1e3c 6033 373c
00000010: 71b7 86bb 0da3 813b 4bc1 903c fd6c ae3b
00000020: 1d4e b1bb b398 b1bb 0698 38bb be41 c73b
00000030: 6e25 c33b f81e c03b fcda 0bba a6de 7b3a
00000040: b220 1abc 1270 2dbc 489f 1a3c e501 24bc
00000050: a652 ac3b 4a6f d03a 8a01 46bc 62f7 853b
00000060: 2c94 ed38 1f03 2fbc 646c c0ba 05bd 183b
00000070: be61 883a e898 113b 30d0 1a3c 9057 e2bb
00000080: c043 fc3b 51c4 e2bb 298c a53c cc9e 8cbc
00000090: dac2 fa3a dd0a b8ba 2ab5 00bc 91ff 96bb
000000a0: 5093 68bc 6c0c aabc 56d1 423b 9ee8 653a
000000b0: 527b 28bc d8e9 8a3c ca64 b8bb 7fe8 413b
000000c0: 367a 9dbb 02ba adbb 9149 0c3b cfab 493b
000000d0: 0311 be3b 3aa6 00bc dded 13bb 11b0 0dbc
000000e0: 6bc4 3e39 2dae 0a3c dd1a 193c 651e 90bc
000000f0: 20a5 2abc 9663 aabb 597b 123c 4c1f 803b
00000100: 51f1 843b a553 adba d5b5 7fbc 41b9 4e3c
00000110: 0c22 223c 9556 a4bc 26c7 983c 4d81 dd3b
00000120: f475 1b3c 4ab6 e03a 4e85 143b b97b 883c
00000130: 8a67 543c 82d1 453c d497 343a 79a3 7fba
00000140: 1094 1abb 320f 2fbc d7e1 5ebc 448e 50bb
00000150: 702a bd3b 4c43 00bc b7fc f2bb 429a 223c
00000160: 4a88 a3ba 208c 0f3b 2d59 543b ad02 2abc
00000170: cf5e 0dbc 48d2 993b bc7e 45bc c6a7 903a
00000180: 63e9 263c 34b3 973b ce6a bc3a daa6 7bbb
00000190: fc24 5cba 8529 debb 9ded 18bb a7d9 2d3c
000001a0: 63a8 14bc 6900 7ebb 7e2d 983b 7124 4e3c
000001b0: 5bd4 2f3c 0441 aa3b 73b0 17bb ac43 0c3c
000001c0: 0127 b53c 455c abbc 9dc7 43bb e93c 95bb
000001d0: 384c 63ba 86ac 57bc 0149 05bb 6484 a43a
000001e0: 5560 8a3c 9982 7d3c 0e49 2abc 2745 b0bb
000001f0: cb3d 9b3b 965d 3838 b2fd 3cbc 93f2 51bc
00000200: e152 1e3c 3d13 bf3b b69a b5bc 2ff4 9eba
00000210: 9095 a1bc 950b 133c bd18 2d3c d64c 993b
00000220: 2b57 af3b 6157 a93c a6da 1cbc bd2c 233c
00000230: 13fb cb3a 5152 a23c 4b58 0f3b c918 1f3c
00000240: 3306 973b d7b4 95bc c4a6 24bc 371b 8bbb
00000250: 8f2a b43c dfdc ff3b 5d76 0cbb 1c0c 0a3b
00000260: ce5a 2e3c 3de5 a23a 3b79 163c 3f58 803c
00000270: 1881 25bc 31d6 a6bc f06d 07bc 6953 d33a
00000280: 290b 6f3b 2984 28bc 4564 5dbb 8d23 873b
00000290: 46f0 933a 738e 89bc d23c e33b 9bff 95bb
000002a0: ab17 aabb 18ee af3b 3ebb 253c 0e8f 07ba
000002b0: c04e 56bc 581c 86bc d083 e5bb 6383 94bb
000002c0: ef4f 2ebc 1e78 9d3b 34b1 aeb8 2d1b fdbb
000002d0: aa28 3b3c 7970 983c 4436 13bc 432c 47bc
000002e0: 899b 18bb 6c66 12bb 22d9 a63c 72aa 483a
000002f0: c4e7 873a ec26 273c 2ea2 fe3b 25a1 b4bb
00000300: 141b 953c 08ba 7db9 71a9 613c 1631 833a
00000310: b3b3 9aba 1761 1c39 43c7 573c a2bd 32bb
00000320: 628b 52bb 10d2 27b8 5e8c 963a 2db4 393b
00000330: 695b 6ebb 6fd8 613a 6b2a a93a 2268 8ebb
00000340: 535a 353c a8bd 38ba 2ac8 103c 5bd2 16bc
00000350: 7c39 65bc 158a 853b 84ac 803b 1ca9 0c3b
00000360: 3cc1 e43a a356 6a38 439a 34bb 4fd0 8ebb
00000370: 51a0 e1ba 7e4c 2a3c 1ea2 743b a18c 95bc
00000380: 571c b4bc f036 513c 8aaa 0e3c 68f3 9f3c
00000390: d195 eebb 72e0 513c 97ec 6f3b 8674 8bbb
000003a0: b625 09bc 07dc 0dbb b6af 53bb 78fb 03bb
000003b0: 3056 2e3c 66bd 37bb f693 d3bb f314 0abb
000003c0: ac46 a93b 2d85 1c3c af02 af3c 57a3 1cbb
000003d0: 9642 a43b 1c4b a039 9bee 26bb 9439 0a3b
000003e0: f32d a4ba d6fb a13c 0124 b7bb f206 0bbb
000003f0: 7095 60ba 7d8a 2b3c e571 173c 017d 75bc

convs.4.weight f4 [72, 72]
0.0053917314 -0.0012680696 0.002296089 0.010323272 -0.0066564716 0.0022054866 -0.0007188408 -0.017846119
-0.003952662 0.0013465704 0.0057907044 0.01981284 0.002398991 -0.008749443 -0.019577986 -0.0086901095
0.016846938 -0.006228387 -0.020742299 0.019047266 -0.012627217 -0.0014146289 -0.005781895 0.007542931
0.009664945 -0.0035212731 0.004596925 -0.0139254555 0.009823964 0.0043364526 -0.015477287 -0.006841484
-0.0036888637 -0.00040904986 -0.010202961 -0.000429963 0.00930947 0.0014505232 -0.017085088 -0.0031064453
0.01679997 0.00719498 -0.00056739146 -0.0014686583 0.0054036593 -0.0014767945 -0.003148727 -0.0028952651
0.008106239 -0.017981866 -0.00039384147 -0.008041075 0.004419155 -0.009601643 0.00991025 0.0047663725
-0.0040818444 0.0032874544 0.010592557 -0.0031941873 -0.004851951 -0.0012402008 -0.010636253 -0.019129878
-0.0025784373 -0.009943208 0.004317268 -8.095316e-05 0.010003396 0.005781983 0.009454931 0.0051764324
0.00878757 0.0016142118 0.0029027734 0.00896927 0.00041825767 -0.01043527 0.00696835 0.01566275
0.0025635876 0.002611267 -0.0010783798 0.0100065535 -0.02062925 -0.011901588 -0.0010885 0.0008433891
-0.00086858374 0.0024532638 -0.0055774665 -0.0020252962 -0.0011560965 0.010475898 0.020371746 -0.008354962
0.002070766 -0.0106264455 0.020930571 -0.005406768 -0.00026026086 0.0020417527 0.0014013897 0.0019594384
-0.0031081506 -0.0036532097 0.0006293085 -0.005094037 0.0005382848 -0.003490553 0.0033613201 0.018520243
-0.0021621129 -0.009872327 -0.021208521 -0.00026164713 -0.00036402617 0.004717226 -0.0012501418 -0.0021127684
0.002191412 -0.002404602 -0.0035778508 -0.0032626519 -0.0013689761 -0.021829275 0.008243253 -0.0013460179
-0.005095216 -0.0030127931 0.0013775871 -0.0012955068 -0.00500729 -0.0002460272 -0.004485656 0.005190386
-0.0005436364 0.003441704 0.010652302 -0.009007964 0.010624561 0.012575749 0.0036044111 0.003717942
0.0044916756 -0.007661569 0.00814567 -0.0021473314 -0.002065648 0.0043801987 0.003160248 0.00608168
0.009592909 0.02181899 0.007234112 0.0006586971 0.0051393635 0.0057697133 -0.00853865 0.0017145918
-0.0011959559 0.018815326 -0.0014001873 0.0034732993 -0.010578969 0.017616535 0.0020202077 -0.0078197
-0.005405043 -0.008387287 -0.019448675 0.0020006304 -0.0032614137 -0.0012172301 0.0006853273 -0.0068944735
-0.00832559 -0.0011960674 -0.00013388199 -0.02088758 0.01959506 -0.019355401 0.009144294 -0.010645867
-0.010696423 0.0021931 0.010642035 0.017470494 -0.0029065826 0.017594947 0.0028414656 -0.003208099
-0.0017505947 0.012427247 -0.00061062636 0.0012303626 -0.010490541 0.0039213034 0.0030711752 0.0027851693
0.015031909 0.019163627 0.00945428 -0.0033742853 -0.00034004558 -0.00066284597 -0.0019277233 0.015457509
0.009883326 -0.00019526054 -0.003416839 0.006265885 -0.016040627 -0.009584341 -0.0005509099 0.007603047
0.0006016333 -0.01064756 0.00996404 0.0021815153 -0.010192799 0.013455789 0.0016243013 -0.016439367
0.0029977066 -0.014620985 0.0015734413 0.010296623 -0.014055376 -0.0035524792 0.007045876 0.0026407742
0.0003004402 -0.01311914 0.006228227 0.009320996 -0.010623927 -0.010392913 -0.0039725844 0.013875576
0.001794203 0.00063892436 -0.010467873 0.011193537 -0.00071341236 0.007817526 0.004502042 0.010025999
0.005375715 0.013301084 -0.0012778894 0.00393924 0.008627523 0.009475394 -0.009851989 0.0102327885
00000000: 1fad b03b 5b35 a6ba fb79 163b f122 293c
00000010: 881e dabb ed89 103b 9770 3cba 0632 92bc
00000020: 5585 81bb 687f b03a f3bf bd3b 894e a23c
00000030: 6438 1d3b d359 0fbc 0362 a0bc f660 0ebc
00000040: 9702 8a3c 7f17 ccbb c1eb a9bc 0309 9c3c
00000050: 63e2 4ebc 126b b9ba 0d76 bdbb b12a f73b
00000060: b859 1e3c 29c5 66bb cda1 963b 9827 64bc
00000070: b1f4 203c cd18 8e3b 7294 7dbc 872e e0bb
00000080: ddc0 71bb be75 d6b9 522a 27bc a86c e1b9
00000090: bf86 183c 7b1f be3a 07f6 8bbc 8195 4bbb
000000a0: 17a0 893c dec3 eb3b ffbc 14ba ff7f c0ba
000000b0: 2e11 b13b 0091 c1ba df5a 4ebb 7dbe 3dbb
000000c0: 08d0 043c b54e 93bc 827c ceb9 b7be 03bc
000000d0: 8fce 903b 3650 1dbc 9a5e 223c 3b2f 9c3b
000000e0: fec0 85bb 5572 573b 678c 2d3c 9255 51bb
000000f0: 1dfd 9ebb 3c8e a2ba ae43 2ebc 43b6 9cbc
00000100: 00fb 28bb d6e8 22bc de77 8d3b 66c5 a9b8
00000110: 49e5 233c ca76 bd3b dbe8 1a3c 109f a93b
00000120: bdf9 0f3c f693 d33a 753c 3e3b d8f3 123c
00000130: 9849 db39 b2f8 2abc c256 e43b 2b4f 803c
00000140: dd01 283b ca21 2b3b 6c58 8dba 87f2 233c
00000150: acfe a8bc e1fe 42bc 00ac 8eba e216 5d3a
00000160: abb1 63ba f0c6 203b 2ec3 b6bb d5ba 04bb
00000170: 2988 97ba 1aa3 2b3c a6e2 a63c 40e3 08bc
00000180: b0b5 073b 8b1a 2ebc 9776 ab3c 422b b1bb
00000190: 9f73 88b9 edce 053b d6ae b73a ec69 003b
000001a0: 1db2 4bbb b06a 6fbb 2ef8 243a e1eb a6bb
000001b0: ae1b 0d3a c3c1 64bb 9849 5c3b c4b7 973c
000001c0: 3cb2 0dbb 8abf 21bc 7ebd adbc af2d 89b9
000001d0: c4da beb9 f692 9a3b ccdb a3ba 5f76 0abb
000001e0: cb9d 0f3b 8796 1dbb 607a 6abb 37d2 55bb
000001f0: 376f b3ba 4fd3 b2bc b60e 073c de6c b0ba
00000200: c5f5 a6bb 4872 45bb 2790 b43a ffcd a9ba
00000210: 3114 a4bb 36fd 80b9 69fc 92bb 1d14 aa3b
00000220: d282 0eba 368e 613b fe86 2e3c 2496 13bc
00000230: a412 2e3c 840a 4e3c fc37 6c3b b7a8 733b
00000240: e82e 933b e60d fbbb 6b75 053c 3eba 0cbb
00000250: d35f 07bb c587 8f3b 2a1c 4f3b d448 c73b
00000260: 942b 1d3c bdbd b23c 210c ed3b 6aac 2c3a
00000270: 1b68 a83b dd0f bd3b b2e5 0bbc 27bc e03a
00000280: 9fc1 9cba 9922 9a3c 7d86 b7ba 4ba0 633b
00000290: 6953 2dbc 8d50 903c 7665 043b 331e 00bc
000002a0: c91c b1bb d56a 09bc d452 9fbc 021d 033b
000002b0: 71bd 55bb 778b 9fba 89a7 333a 09eb e1bb
000002c0: 0e68 08bc 5dc5 9cba ac62 0cb9 6e1c abbc
000002d0: d285 a03c 388f 9ebc f3d1 153c 016c 2ebc
000002e0: 0d40 2fbc 1dba 0f3b ee5b 2e3c 481e 8f3c
000002f0: 5d7c 3ebb 4723 903c e237 3a3b f83e 52bb
00000300: 3674 e5ba a79b 4b3c 7112 20ba 1e44 a13a
00000310: 85e0 2bbc 477e 803b c545 493b 6387 363b
00000320: 6548 763c 0afd 9c3c 20e6 1a3c 1d23 5dbb
00000330: 2548 b2b9 d7c2 2dba a9ab fcba 7e41 7d3c
00000340: aced 213c dabe 4cb9 0ced 5fbb 0e52 cd3b
00000350: a267 83bc a407 1dbc f06a 10ba fb22 f93b
00000360: edb6 1d3a 1a73 2ebc 3640 233c c1f7 0e3b
00000370: b3ff 26bc ab75 5c3c 82e6 d43a daab 86bc
00000380: 2c75 443b db8c 6fbc ee3b ce3a 2bb3 283c
00000390: 8548 66bc b6d0 68bb 17e1 e63b d710 2d3b
000003a0: 6784 9d39 a9f1 56bc 2816 cc3b 17b7 183c
000003b0: fb0f 2ebc 0947 2abc 742c 82bb 6256 633c
000003c0: 762b eb3a 7d7d 273a 7181 2bbc 1965 373c
000003d0: 4b04 3bba 1515 003c de85 933b 1644 243c
000003e0: c426 b03b caec 593c da7e a7ba bd14 813b
000003f0: 745a 0d3c af3e 1b3c 3d6a 21bc 6da7 273c

convs.5.weight f4 [72, 72]
-0.013738178 0.00534307 -0.001959631 -0.0010919434 -0.009903641 -0.0020460596 -0.0019645807 -0.004747684
0.016314661 -0.001064358 0.008595246 -0.0015467645 0.014338678 0.0017377863 -0.0005026453 -0.008692902
-0.00033453424 0.0052679656 0.010405537 -0.019997392 -0.00036717148 0.0013561663 0.019799389 -0.020689009
-0.0035894176 0.012204588 -0.00010416204 -0.0045873676 0.0076469844 0.0049534338 -0.01443259 -0.0030407554
0.002291697 0.009489588 -0.0005794425 0.0001880238 0.0014091814 0.012887441 0.0042925095 0.0022584489
0.0018953644 -0.0021433132 0.0023156118 -0.007704145 -0.0039367923 0.008710738 0.0023903446 -0.0053714095
0.006632601 -0.004838451 0.013303417 0.0032721676 -0.010255396 -0.008338613 -0.010171479 0.018974066
-0.0015807069 -0.0077488273 0.0009451689 -0.007707735 -0.0030851082 -0.0012391794 0.0072469893 -0.004528547
-0.00052269356 -0.009351064 -0.010643939 -0.0055727256 0.0026305346 -0.0007228324 -0.01790402 -0.010643868
0.0013398151 0.0037772423 -0.006024311 -0.020612435 0.009601378 0.009322255 -0.00022862651 -0.018905552
-0.015965052 0.010324516 0.00060794636 0.0055271694 0.00083377043 0.007401137 0.0062760543 0.0016948472
-0.00060067914 -0.0018341693 0.0010508707 0.0055042105 0.008925609 0.009952236 -0.0036093185 0.008605815
-0.022071347 0.008397529 0.007370364 -0.009319788 0.0049616676 -0.001416152 0.019130722 -0.005418685
0.010230301 0.021055287 -0.015021017 -0.0032687944 0.0016524728 0.0021469847 -0.009697419 -0.010585935
0.0015975549 -0.0005632001 0.0002726251 -0.01772656 -0.0061865705 0.00293355 -0.00475416 -0.005434786
-0.01852754 0.012668466 0.007024626 0.02166207 -0.0021995597 0.0005211608 -0.014520761 0.005192605
0.010503843 0.002122962 -0.01059373 0.00089545577 -0.003543484 -0.0079946965 -0.008029386 -0.0070254267
0.0017394376 0.009706282 -0.004990175 -0.020180156 0.0069149337 -0.01964381 0.009230033 0.008375111
-0.0016866699 0.0048892684 0.004466939 -0.00041045752 -0.0014832824 7.956813e-06 -0.0049738125 0.0019365627
-0.00038800997 -0.0012963813 -0.01057194 -0.0028475807 0.018788094 -0.00947163 -0.0036061227 0.00484897
-0.018690882 -0.0050611435 0.0021052605 -0.010484743 0.0006677368 -0.010551714 0.0030475492 -0.010653906
-0.006678719 0.012063309 -0.0006135267 0.010112061 0.0007244991 -0.00960711 0.002811676 -0.0011184266
-0.00013423795 0.020566529 0.0063898065 -0.004544919 -0.010416105 0.0010106199 -0.0014917718 0.0013375999
-0.0051730545 0.00918659 -0.012817803 0.02171534 0.00068469305 -0.0009588412 0.012529616 -0.020388182
-0.006268553 0.0023337514 0.0053838273 0.008292592 -0.0045774686 0.005732064 0.0023847162 0.010427067
-0.0066535347 0.0011209995 -0.009212404 -0.010004158 -0.0028231845 0.0011426215 -0.01875749 0.016251583
-0.010228292 0.0008522499 -0.015604473 0.021987168 -0.005282467 -0.009760865 -0.0038788728 -0.021204283
-0.017566806 0.010640914 -0.00054799527 0.0024285568 -0.0018188661 0.005402904 0.0030660664 -0.0013256178
0.010093041 0.001261273 -0.0036976193 -0.007926724 -0.005263484 -0.00058918184 -0.002565791 0.00093437626
-0.00024430754 0.0015436372 0.005765449 0.014553807 0.0015285133 -0.012236473 0.020425811 -0.0029194371
0.010271532 -0.016589385 -0.0028345375 -0.0050133346 -0.020826817 0.0017285576 -0.0011003312 -0.0042232485
-0.008953137 -0.0033127416 0.002186616 -0.008938274 -0.01061419 -0.0079951035 0.015910137 0.005401698
00000000: 1816 61bc eb14 af3b 276d 00bb 8a1f 8fba
00000010: e242 22bc 2f17 06bb 32c0 00bb 7692 9bbb
00000020: 53a6 853c ee81 8bba 13d3 0c3c cebc caba
00000030: c6ec 6a3c 6fc6 e33a f4c3 03ba ac6c 0ebc
00000040: 6d64 afb9 e69e ac3b fc7b 2a3c 92d1 a3bc
00000050: ec80 c0b9 64c1 b13a 5432 a23c ff7b a9bc
00000060: 6f3c 6bbb c1f5 473c 9271 dab8 a151 96bb
00000070: 8e93 fa3b 6a50 a23b ac76 6cbc 6947 47bb
00000080: 4c30 163b 387a 1b3c bae5 17ba 4128 4539
00000090: 48b4 b83a d825 533c 2ea8 8c3b 7c02 143b
000000a0: e06d f83a d476 0cbb 85c1 173b 0d73 fcbb
000000b0: 3500 81bb 7cb7 0e3c 54a7 1c3b a602 b0bb
000000c0: 4a56 d93b de8b 9ebb 93f6 593c dd71 563b
000000d0: 4006 28bc ae9e 08bc 46a6 26bc 806f 9b3c
000000e0: b92f cfba e0e9 fdbb 36c5 773a 2b91 fcbb
000000f0: 872f 4abb f66b a2ba 2778 ed3b 3564 94bb
00000100: 5f05 09ba 3535 19bc ea63 2ebc 699b b6bb
00000110: 0c65 2c3b 767c 3dba 74ab 92bc 9e63 2ebc
00000120: bc9c af3a 9c8b 773b 9567 c5bb 69db a8bc
00000130: 194f 1d3c 5fbc 183c 76bb 6fb9 d1df 9abc
00000140: 24c9 82bc 2928 293c 975e 1f3a 421d b53b
00000150: 6391 5a3a 3d85 f23b 5ca7 cd3b a325 de3a
00000160: e576 1dba 8268 f0ba 5fbd 893a aa5c b43b
00000170: b83c 123c b40e 233c 518a 6cbb 67ff 0c3c
00000180: f8ce b4bc ca95 093c 1883 f13b 06b2 18bc
00000190: 7c95 a23b 2d9e b9ba 08b8 9c3c 398f b1bb
000001a0: fe9c 273c 237c ac3c b61a 76bc 4539 56bb
000001b0: c997 d83a 6db4 0c3b ece1 1ebc a170 2dbc
000001c0: 0c65 d13a b8a3 13ba 1fef 8e39 4a37 91bc
000001d0: b7b8 cabb cd40 403b c9c8 9bbb 4a16 b2bb
000001e0: 11c7 97bc 668f 4f3c d52e e63b a774 b13c
000001f0: 7d26 10bb 829e 083a 7ce8 6dbc ba26 aa3b
00000200: 5018 2c3c 6421 0b3b 5391 2dbc 05bd 6a3a
00000210: cc39 68bb 30fc 02bc b08d 03bc 8d35 e6bb
00000220: d7fd e33a 1907 1f3c 9f84 a3bb db50 a5bc
00000230: ab96 e23b 0eec a0bc 9039 173c c337 093c
00000240: 4013 ddba 2836 a03b 665f 923b ad32 d7b9
00000250: b36a c2ba 407e 0537 5dfb a2bb 43d4 fd3a
00000260: d16d cbb9 57eb a9ba ee35 2dbc 7a9e 3abb
00000270: 7de9 993c e52e 1bbc b354 6cbb 1ce4 9e3b
00000280: 9f1d 99bc f3d7 a5bb 69f8 093b 33c8 2bbc
00000290: 0f0b 2f3a 19e1 2cbc 64b9 473b b88d 2ebc
000002a0: 28d9 dabb 2fa5 453c 14d5 20ba 0fad 253c
000002b0: 50ec 3d3a 2467 1dbc 1844 383b 2b98 92ba
000002c0: 3ac2 0cb9 237b a83c 9561 d13b 8bed 94bb
000002d0: 50a8 2abc c776 843a 8e87 c3ba 6852 af3a
000002e0: ba82 a9bb 5a83 163c c301 52bc 5ee4 b13c
000002f0: f97c 333a be5a 7bba 0549 4d3c 1e05 a7bc
00000300: 6f68 cdbb daf1 183b d16a b03b a7dd 073c
00000310: 97fe 95bb 0ad4 bb3b e648 1c3b 4ad6 2a3c
00000320: e505 dabb 80ee 923a 9fef 16bc 7be8 23bc
00000330: 2d05 39bb 04c4 953a 4fa9 99bc 0a22 853c
00000340: 9194 27bc 8669 5f3a e7a9 7fbc 6f1e b43c
00000350: 8c18 adbb 09ec 1fbc b034 7ebb 9bb4 adbc
00000360: 43e8 8fbc 3a57 2e3c 57a7 0fba 6c28 1f3b
00000370: 0567 eeba d80a b13b 0ff0 483b 5ac0 adba
00000380: 485d 253c 4d51 a53a c253 72bb 17df 01bc
00000390: 4e79 acbb 5373 1aba d426 28bb eef0 743a
000003a0: 6716 80b9 df53 ca3a 17ec bc3b 1773 6e3c
000003b0: 6558 c83a 7d7b 48bc 0854 a73c 0754 3fbb
000003c0: ee49 283c 76e6 87bc a6c3 39bb e646 a4bb
000003d0: 009d aabc c590 e23a fd38 90ba 2d63 8abb
000003e0: 2eb0 12bc 951a 59bb 544d 0f3b d771 12bc
000003f0: 24e7 2dbc e5fd 02bc fa55 823c ba00 b13b

convs.6.weight f4 [72, 72]
-0.0016605477 -0.004758379 0.0017061598 0.008202341 0.0055186097 -0.00044701292 -0.01772356 -0.0031595526
-0.0086989645 0.01863651 -0.0027688784 0.001126476 -0.008872198 -0.014418742 0.0017386988 0.0038676665
0.0051582083 -0.009085126 -0.00622327 -0.0033260002 0.0010414692 -0.0029020135 0.0037919227 -0.010628864
0.011150149 -0.010131281 0.019065978 -0.00253749 0.0012890776 0.010641103 0.008396557 -0.009488716
-0.00090697577 0.0007937249 -0.0045715068 0.0044195354 0.008572068 0.0027942872 0.013679606 0.010427686
-0.009756627 -0.0052835355 0.0027942047 -0.018078214 -0.008343159 -0.00033904228 -0.0032876856 0.0016844341
-0.021106599 -0.00453863 0.0016494439 -0.009503382 -0.016959174 -0.007024163 0.0030254761 -0.0057230704
-0.004396166 0.00476411 -0.0027669452 0.0009943367 0.0030238964 0.0007560678 -0.010550749 -0.0051432336
0.0002544321 -0.0025385502 -0.0105949985 -0.0019265788 -0.0024362013 -0.0018808624 0.002001265 0.010121746
-0.0022985672 0.0019081135 -0.0044170963 0.006280404 -0.017051715 0.0019190598 0.0070808358 0.0018161355
-0.0070112827 -0.009803977 -0.003928278 -0.0030793392 -0.019867523 -0.016081119 -0.009449633 -0.0015711319
0.013278677 -0.0036092747 0.004709104 -0.007783772 -0.0027285817 0.0048451936 -0.010212784 -0.0019131693
0.0076297857 0.008704698 -0.01017133 -8.0717095e-05 0.0069708037 -0.010554006 0.010663852 0.015016135
0.0026074436 0.0016706041 0.00021162478 0.004510462 -0.009977497 -0.0014992357 0.01302481 -0.005727465
0.009251552 0.0054764207 0.011687083 0.0025671292 0.0032726042 -0.0007892823 0.0015452142 -0.0030077011
-0.00049779547 0.020042539 -0.007132773 0.010592172 0.0053069275 -0.0035949415 -0.014932831 -0.0015176109
-0.005149799 0.003154425 -0.008447925 0.00044743498 -0.0018771082 0.0050472952 -0.005568752 0.0030486945
0.006062597 0.0043180836 0.004199642 0.010298945 -0.014148714 -0.0037804586 -0.0051876535 -0.008695672
-0.003246418 0.019015174 0.005597633 -0.0021523754 0.020778015 0.010271635 -0.009837974 0.0029737
-0.000473668 -0.010444587 0.01414912 0.004743664 0.006902629 0.008488798 -0.008607636 -0.0066960393
-0.0097724255 0.0015907799 -0.021849226 -0.0054085115 -0.005910914 0.005344252 -0.009817418 0.006593508
0.005499103 -0.0031246715 -0.007940539 0.020107199 0.009836752 0.0020646942 -0.0069916733 -0.0030817294
0.016711632 -0.0032535961 -0.00012943253 -0.003742538 0.0016733522 -0.007486037 -0.0027961829 0.0007831353
-0.009892787 0.00015103922 -0.0140847415 -0.0046157334 -0.0015872109 0.009622933 0.0064885616 0.0016618723
0.0029731947 -0.0022232162 -0.017545214 -0.00013911419 -0.008445154 -0.0046978714 0.0031719538 -0.009783038
-0.0011034796 -0.002428622 -0.008873766 -0.00047098368 0.009081152 -0.0017895501 0.00014844054 -0.0028067236
-0.002667198 -0.005419852 -0.00075616094 0.007632867 -0.0022290195 0.003843316 -0.007810932 -0.005390396
0.0006003199 -0.007164693 -0.005472569 -0.0040000486 -0.009269114 0.004631883 0.0044899243 -0.0030725761
0.0042458624 -0.006104162 0.022204239 0.0014016714 -0.0020871318 0.0011870825 0.010623052 -0.0032558362
0.010537313 -0.007060798 -0.015659722 0.0025001622 0.01338276 -0.010387258 0.00089339475 -0.009518109
0.017206274 -0.010395251 -0.0049624997 0.0074001364 -0.0010110083 0.016225882 0.013382213 -0.0066708876
-0.010369489 -0.010602699 -0.008331017 0.0021518625 0.009938431 0.011556547 -0.016821146 0.0031889647
00000000: bca6 d9ba 2dec 9bbb 39a1 df3a 1d63 063c
00000010: 74d5 b43b 0f5d eab9 0031 91bc 7f10 4fbb
00000020: 1a86 0ebc 98ab 983c 1276 35bb 43a6 933a
00000030: b25c 11bc 963c 6cbc 0de5 e33a ad78 7d3b
00000040: 3006 a93b c8d9 14bc 93ec cbbb 06f9 59bb
00000050: e881 883a b52f 3ebb e881 783b b024 2ebc
00000060: 1daf 363c acfd 25bc 4130 9c3c 054c 26bb
00000070: 44f6 a83a 0558 2e3c b691 093c 8f76 1bbc
00000080: 1dc2 6dba fa11 503a 94cc 95bb c0d1 903b
00000090: dc71 0c3c 5c20 373b 6d20 603c e3d8 2a3c
000000a0: 42da 1fbc 8221 adbb fa1e 373b c318 94bc
000000b0: bfb1 08bc 7cc1 b1b9 3676 57bb 3bc8 dc3a
000000c0: bfe7 acbc cab8 94bb 2732 d83a 13b4 1bbc
000000d0: f7ed 8abc f32a e6bb 1147 463b 9888 bbbb
000000e0: b70d 90bb 401c 9c3b a355 35bb 6754 823a
000000f0: 902c 463b da32 463a 0cdd 2cbc 9288 a8bb
00000100: 4c65 8539 ce5d 26bb a596 2dbc 4285 fcba
00000110: ada8 1fbb 4587 f6ba a827 033b aed5 253c
00000120: 8fa3 16bb aa19 fa3a 4abd 90bb d9cb cd3b
00000130: 0ab0 8bbc f688 fb3a 5b06 e83b 650b ee3a
00000140: e7be e5bb dca0 20bc c9b8 80bb bdce 49bb
00000150: 37c1 a2bc 8dbc 83bc a2d2 1abc 70ee cdba
00000160: cf8e 593c 9589 6cbb d44e 9a3b 030f ffbb
00000170: 01d2 32bb 6ec4 9e3b 8553 27bc 4fc3 faba
00000180: 4803 fa3b 269e 0e3c a6a5 26bc a946 a9b8
00000190: 576b e43b b6ea 2cbc 70b7 2e3c 3c06 763c
000001a0: a5e1 2a3b 2cf8 da3a 98e7 5d39 7fcc 933b
000001b0: a878 23bc 0182 c4ba 0366 553c 75ad bbbb
000001c0: d293 173c 8c73 b33b 2e7b 3f3c 483d 283b
000001d0: 3079 563b d7e7 4eba c988 ca3a da1c 45bb
000001e0: 7d7e 02ba 4030 a43c 09ba e9bb ca8a 2d3c
000001f0: bce5 ad3b 1c99 6bbb d5a8 74bc 92ea c6ba
00000200: a5bf a8bb 78ba 4e3b 2a69 0abc b595 ea39
00000210: 4d09 f6ba c863 a53b 147a b6bb 9bcc 473b
00000220: c0a8 c63b b67e 8d3b 279d 893b e8bc 283c
00000230: 02d0 67bc 92c1 77bb 31fd a9bb 4b78 0ebc
00000240: dbc1 54bb b6c5 9b3c 596c b73b de0e 0dbb
00000250: a836 aa3c 5c4a 283c 742f 21bc 68e2 423b
00000260: a556 f8b9 c61f 2bbc b6d1 673c bd70 9b3b
00000270: 732f e23b 9914 0b3c 0b07 0dbc 736a dbbb
00000280: 861c 20bc b781 d03a 26fd b2bc e239 b1bb
00000290: 57b0 c1bb d61e af3b 3cd9 20bc 5b0e d83b
000002a0: d231 b43b 4ac7 4cbb 0919 02bc dab7 a43c
000002b0: 542a 213c d24f 073b 681a e5bb d7f6 49bb
000002c0: d5e6 883c 493a 55bb 48b8 07b9 5e45 75bb
000002d0: 6254 db3a 6e4d f5bb 2a40 37bb 524b 4d3a
000002e0: 5b15 22bc 4860 1e39 b0c3 66bc 943f 97bb
000002f0: f609 d0ba 82a9 1d3c 009e d43b 2ed3 d93a
00000300: eed9 423b 61b3 11bb fbba 8fbc 2edf 11b9
00000310: 8b5d 0abc 9af0 99bb 8ee0 4f3b 0949 20bc
00000320: a2a2 90ba 8429 1fbb 4663 11bc 5cee f6b9
00000330: 1dc9 143c 568f eaba b4a6 1b39 02f1 37bb
00000340: 28cc 2ebb 0499 b1bb 1a39 46ba 211d fa3b
00000350: be14 12bb 25e0 7b3b d9f2 ffbb eba1 b0bb
00000360: c95e 1d3a cdc5 eabb 3c53 b3bb d712 83bb
00000370: 7bdd 17bc 0dc7 973b 3720 933b 465d 49bb
00000380: e020 8b3b 6c05 c8bb aae5 b53c 4ab8 b73a
00000390: 43c8 08bb e197 9b3a 4f0c 2e3c de5f 55bb
000003a0: b2a4 2c3c 445e e7bb d148 80bc c3d9 233b
000003b0: 5d43 5b3c 512f 2abc b532 6a3a d8f1 1bbc
000003c0: 2cf4 8c3c d850 2abc 779c a2bb d87c f23b
000003d0: cf83 84ba 24ec 843c 1241 5b3c 7697 dabb
000003e0: cae4 29bc f1b6 2dbc d17e 08bc 4306 0d3b
000003f0: cdd4 223c ac57 3d3c 80cc 89bc f3fd 503b
