checkpoint/Wikipedia/20231105_160905394854.pth (torch, 180281 bytes, 40 tensors)

convs.0.weight f4 [32, 138]
000000 df 89 86 bd 21 cf f9 bc b8 18 c2 bb 9a 1e a9 bc
       -0.065692656 -0.030494275 -0.005923357 -0.020644475
000010 3c 37 99 bc 24 11 f3 bb a6 53 e3 bc 0f 17 81 bc
       -0.018703096 -0.007417815 -0.027749848 -0.015758066
000020 b0 c3 e1 bc 68 3a 65 bb 75 bc 49 bc 7a e8 a2 3c
       -0.027559131 -0.003497744 -0.012312998 0.019886244
000030 e2 5f fa bb 58 a5 7b bc cc a2 85 bc 4b 19 40 bc
       -0.0076408247 -0.015359245 -0.01631298 -0.01172478
000040 18 85 cd bc 95 eb 8c 3c 75 9e 3c bd df 9f 93 bb
       -0.025087878 0.017202178 -0.046049554 -0.004505142
000050 0f 17 a2 bb 50 4d 48 bc 50 98 80 3c 6a 3b 6f 3c
       -0.0049465965 -0.012225464 0.015697628 0.014601568
000060 39 4c 49 bc 64 74 78 3b 91 e3 71 bc 24 a2 9b bc
       -0.012286239 0.003791117 -0.014763729 -0.018998213
000070 40 c8 11 bc 2c 0a 84 bc d7 8d 3d bc 33 6a 14 3b
       -0.008897841 -0.016118132 -0.011569462 0.0022646307
000080 d5 c0 82 bc 66 24 48 bc a9 ed 04 bd c2 36 60 3c
       -0.01596109 -0.012215709 -0.032453213 0.01368493
000090 a7 f8 bc bc 40 01 05 3b 34 f5 84 bc 3c de c8 3c
       -0.023067785 0.0020294935 -0.016230203 0.024520032
0000a0 1d 8b 56 bd dc cd 99 bc 6d 05 f1 3a e1 5b 02 3c
       -0.052378763 -0.01877492 0.0018388458 0.007956476
0000b0 57 2c 03 3b 9c 20 7e bc 17 d8 17 bc 1f a1 a1 bb
       0.0020015442 -0.015510704 -0.009267828 -0.004932537
0000c0 fa a3 93 3b 35 1d 16 bc fd a5 50 bd aa 4c 20 3c
       0.0045056315 -0.009162237 -0.05093955 0.009783903
0000d0 73 34 4a 3c ce fd 78 3c bc ae 05 3c 80 bc 33 39
       0.012341606 0.0151972305 0.008159336 0.00017140992
0000e0 2b 65 a3 bd 3e fd 4e bb 7a b3 a2 3b 25 e1 5e bc
       -0.07978281 -0.003158405 0.004965243 -0.013603483
0000f0 87 99 79 bc fe 46 09 bc d6 3e ef 3b 33 9d 9a 3c
       -0.015234358 -0.008378742 0.007301192 0.018873787
000100 36 69 37 bd 1f 35 44 bc 94 42 83 bb 27 81 4c bc
       -0.04477807 -0.011975556 -0.0040057395 -0.012481964
000110 77 65 6d bb f6 54 39 bc aa 50 a5 bc 56 08 22 3c
       -0.0036223808 -0.01131176 -0.020180065 0.009889683
000120 e3 52 a2 bc 42 86 82 bc 43 0d 83 3c 7f 07 37 bb
       -0.019814914 -0.01593316 0.015997535 -0.0027928052
000130 2d b8 5d bc 8a 5c 63 bc 42 9d 9f bc 89 e2 be 3b
       -0.01353268 -0.0138770435 -0.019484166 0.005825345
000140 45 94 12 bb a3 e0 a6 3c 95 b3 d6 bc 83 32 aa bc
       -0.0022366208 0.020370787 -0.026208678 -0.020776039
000150 26 e4 e1 bc da d8 b2 3c 61 3f 79 bc a5 37 32 3c
       -0.02757461 0.021831919 -0.015212865 0.0108775245
000160 5f 5f b9 bc 2b 7d 6e bc b2 9d b5 b8 ff ee 65 bb
       -0.022628484 -0.01455621 -8.6601256e-05 -0.003508508
000170 d7 89 7b 3b 49 75 16 3a 8e 01 8d 3c 0c 0e 0a bc
       0.003838172 0.0005739523 0.017212655 -0.008426201
000180 14 3b f6 bc c9 44 5c bc fe e5 01 bd 39 39 e9 3b
       -0.030057468 -0.013444134 -0.03171348 0.007117417
000190 75 41 0d bc fc 11 83 bb b8 85 6b bc 33 4a af 3b
       -0.008621563 -0.0039999466 -0.014375143 0.0053494214
0001a0 9d de 85 bc 22 85 88 bc db 46 88 bc 78 1e 97 bc
       -0.016341502 -0.016665045 -0.016635349 -0.018447146
0001b0 38 60 9d bb 54 7e 85 bc 7f 03 c8 3c ba 86 00 bc
       -0.00480273 -0.01629559 0.02441573 -0.007844621
0001c0 eb 50 85 3c c9 53 32 bb 11 5f 75 3b fa ac 33 3c
       0.016273936 -0.0027210584 0.0037440697 0.010966534
0001d0 c7 b4 cf b8 c4 ac a2 bc 98 f6 45 3b 49 8c 23 bc
       -9.9042016e-05 -0.019857772 0.0030206796 -0.009982177
0001e0 37 00 15 bd b5 b9 13 3b 05 48 2d 3c 62 d7 37 bc
       -0.036377158 0.002254111 0.010576253 -0.011220785
0001f0 35 84 aa bc 6e f2 7a 3c 37 f9 e7 3b 12 71 09 bc
       -0.020814994 0.015316589 0.0070792693 -0.0083887745
000200 10 93 9b bc 0a 06 d5 bd 47 3e c7 ba d5 98 2a bc
       -0.018991023 -0.104015425 -0.0015201055 -0.010412415
000210 aa 6d 88 bd 40 8c 61 bd 01 fc d1 bd e9 c1 e3 bc
       -0.06661542 -0.055065393 -0.10253144 -0.027802425
000220 63 fd 13 3d 37 2b 6e bd 9b 7c 09 3d b3 bf e9 3c
       0.03613032 -0.05814668 0.0335661 0.028533792
000230 be d6 a6 3d 5f a7 89 bb 84 7d a8 bc 95 2c e9 3b
       0.081464276 -0.0042008604 -0.020567663 0.0071159103
000240 d5 6c b9 3d 40 bf 86 3c e8 37 f6 ba d8 0c dd 3d
       0.09053961 0.016448617 -0.0018784972 0.107934654
000250 f3 33 a8 3b bb 27 67 bb 7a 86 b8 3c e2 9e da 3c
       0.005133146 -0.0035271484 0.02252506 0.02668709
000260 d0 d9 ad 39 71 64 e0 3c 67 71 a9 3c dd ad 87 3c
       0.00033159414 0.027391644 0.020683957 0.016562397
000270 05 87 02 3d 72 ef bc 3c cf c7 c0 3c 0a 48 65 3c
       0.031867046 0.023063395 0.023532776 0.013994226
000280 e1 38 9f bc 06 a5 c2 3b f4 ea 80 3c 7c a3 5c 3b
       -0.019436302 0.0059400825 0.015737034 0.003366678
000290 40 0b 6f 3b ab 31 80 bb 0d 5e 7a 3c 70 50 9a 3c
       0.0036475211 -0.003912171 0.0152812125 0.018837184
0002a0 62 67 37 bb dc f0 00 3d e1 b1 8e 3c 6c ee 5b 3d
       -0.0027985205 0.0314797 0.017418804 0.053694174
0002b0 f8 f0 ad 3d 24 6c 9d 3b 50 84 91 3d 59 7f 11 3d
       0.08493227 0.004804151 0.07105315 0.03552184
0002c0 9d 22 1c 3d 29 dc 02 3d e6 5a 34 3d 2d 0a 0a 3d
       0.038118947 0.031948242 0.044032 0.03370111
0002d0 7c f3 54 3c 1b a1 90 bc 59 b8 6b 3c 15 21 1a 3d
       0.012997504 -0.017654946 0.014387214 0.037629206
0002e0 ed 44 ab 3c 9c a5 15 bc b1 2a 34 3d 05 7f 85 3d
       0.02090689 -0.009133723 0.043986026 0.06518368
0002f0 34 86 0f 3c bc 4b 12 3d 0d 75 a6 bc ed 52 10 bb
       0.008760024 0.035716757 -0.020319486 -0.0022022084
000300 f5 23 c1 b9 e9 eb f1 3c 3e c4 a0 3d 63 cf 49 3d
       -0.0003683862 0.029531436 0.0784993 0.049270045
000310 a9 e5 23 bd fb 3c e0 3c ea a3 91 3d 79 27 db 3c
       -0.040013943 0.027372828 0.07111342 0.02675222
000320 ed 35 07 bc d3 a8 be bc 0a 5c 1e bd 91 54 81 3c
       -0.008252603 -0.023273861 -0.038661994 0.015787395
000330 45 39 8b 3d 59 43 57 3c e1 17 87 bc bc 60 3b 3c
       0.06798033 0.0131386155 -0.016490879 0.0114366375
000340 69 f3 ad 3c 52 b2 8f bc ad 00 48 3c 0e 19 8a 3d
       0.021234231 -0.017541084 0.012207192 0.0674306
000350 cb c6 8f bc 98 d1 39 bb 12 47 56 3d e9 36 17 3d
       -0.017550847 -0.0028353687 0.05231387 0.0369176
000360 3e 36 2b 3d 5b dc ed b9 50 d5 34 3d 0d 59 41 3d
       0.041799776 -0.0004536834 0.044148743 0.047204066
000370 d6 e0 9e 3c e8 95 30 bd ef fe 8b 3c e0 f4 ab 3c
       0.01939432 -0.04311171 0.017089335 0.020990789
000380 95 da 4a 3d 65 32 79 3c 77 ab 14 3d db 54 d7 3b
       0.049524862 0.015209769 0.036296334 0.006571395
000390 83 30 e7 bb 9a 88 a8 bc 0f dd 99 3c 5c d8 a9 bc
       -0.0070553436 -0.02057295 0.018782167 -0.020733051
0003a0 c7 c6 39 3d a2 16 84 3c 97 e4 50 3d 9f e6 60 bb
       0.045355584 0.016124073 0.05099925 -0.0034317148
0003b0 95 bb fa 3d 7f 99 fc ba 2e de 1d 3d 9f 7d d8 3c
       0.1224281 -0.001927182 0.038541965 0.026427088
0003c0 42 79 6b 3c 42 cd 58 bc 0b a3 22 3b 01 85 02 3d
       0.014372172 -0.013232531 0.002481642 0.031865124
0003d0 98 81 a1 3d 92 aa 2e 3c 6e a9 2f bc d4 1d 37 3d
       0.07886046 0.010660784 -0.0107215475 0.04470618
0003e0 cc 9c a2 3c 1d d9 9e bc 97 06 21 3d a7 bd b1 3d
       0.019850157 -0.019390637 0.039312925 0.086787514
0003f0 f4 fd c7 3b 5a 3a 86 bb 52 69 ae bc 7c 4f 38 bc
       0.0061032716 -0.0040963115 -0.021290455 -0.011249419

convs.0.bias f4 [32]
000000 09 bd 27 bd 5f cf 47 3c ad 21 9b 3c 00 44 de 3d
       -0.040951762 0.012195437 0.018936956 0.10852814
000010 c8 e5 00 bd 60 f0 e1 bd 49 a6 78 3a 72 8d 97 3c
       -0.031469136 -0.11032176 0.00094852276 0.018500064
000020 0b e2 14 3d 20 a6 2f bd c5 31 7e 3d 42 96 27 3e
       0.036348384 -0.04288304 0.062059183 0.16365913
000030 c1 cd 88 3c 70 08 83 3d b7 6f ed 3d a0 00 2d bd
       0.016699674 0.06398094 0.115935735 -0.042236924
000040 86 3d 03 3d 47 65 5a bd 91 a8 19 3e 6c e4 68 bc
       0.032041095 -0.05331924 0.15005709 -0.014214616
000050 ea 54 98 ba 79 4d 1c bd 6c 75 73 bd 5a 03 94 bd
       -0.0011621986 -0.03815982 -0.059438154 -0.07227202
000060 ad 53 3b 3e 54 dc 0f bd c1 41 4d bd 2b ca 5c 3d
       0.18293639 -0.03512223 -0.050111536 0.05390374
000070 c8 d6 30 3e 33 36 57 3c b7 7e 5c 3c 9c 9d 19 3e
       0.17269433 0.013135481 0.013457946 0.1500153

convs.1.weight f4 [32, 32]
000000 07 b9 30 bc be 23 dc 3b de 76 a2 bc 40 ee 9d 3c
       -0.010786301 0.006718128 -0.01983207 0.019278646
000010 c5 30 b9 bc d1 4b 6a 3c cc bc 3a ba 00 5e c5 ba
       -0.022606263 0.014300303 -0.000712347 -0.0015057921
000020 24 e2 95 3c 2b 99 e6 3c 2a 94 fa 3b 91 45 e5 3c
       0.018296309 0.028149208 0.007647057 0.027987273
000030 db 77 1e bc 52 77 11 3c 89 ad 68 3c d3 f0 a8 3c
       -0.00967213 0.008878546 0.01420153 0.020622646
000040 6d e7 d0 3c e3 39 3a 3c 34 69 2e bc 3f 8a 84 3c
       0.025500977 0.01136634 -0.0106452 0.016179202
000050 bf 4a 04 3c 72 0c e0 bc d4 87 25 3c 2e 85 ab ba
       0.0080744615 -0.027349684 0.010103185 -0.0013085955
000060 e2 eb 9f 3c dd 0e cd 3c 9f 5a 9b 3c d9 17 9f 3b
       0.019521657 0.025031501 0.01896411 0.004855138
000070 6c a2 25 3c b0 54 65 3c 54 8c 04 bb d2 de 49 bc
       0.010109525 0.013997242 -0.0020225244 -0.012321191
000080 c5 1b c0 3c 52 ee cf bb e9 66 e3 3c 6d 2b c9 bc
       0.023450742 -0.0063455487 0.027759032 -0.02455684
000090 23 ed 25 bc 99 e7 b0 3c b6 95 1c 3a 9b 37 f6 b8
       -0.010127339 0.02159481 0.00059732364 -0.000117405514
0000a0 54 b3 4f 3b 0b f9 10 3c 3d fc 2b bc e2 34 d4 3b
       0.0031692581 0.008848439 -0.01049715 0.0064760307
0000b0 14 1f 16 3c bf 70 12 3b 29 69 09 3c 56 9f 63 3b
       0.009162683 0.0022345034 0.008386889 0.0034732423
0000c0 4b a1 c8 bc 83 9b 60 3c ad 2b d8 bc aa 08 d3 3c
       -0.024490973 0.013708952 -0.026388014 0.025760967
0000d0 33 a3 a9 bc d0 c9 c7 bc ac 90 df 3c 9e 92 38 bb
       -0.020707702 -0.024388224 0.027290665 -0.0028163563
0000e0 05 04 e8 3c aa ce d6 3c 7f 9f 25 bb 4d dc de bc
       0.02832223 0.026221592 -0.002527207 -0.027204657
0000f0 cb 3e 6d 3b 3a 75 95 bc 9f 55 e4 3c c3 81 8b bb
       0.0036200758 -0.018244375 0.027872859 -0.004257412
000100 33 38 b7 3c 76 4e b3 3a ed 48 aa 3b f3 2a 21 3c
       0.022365665 0.0013679999 0.0051966817 0.0098369
000110 e8 c3 bc 3c 24 c8 d3 3c ce fc e5 3c 2a 68 e1 3c
       0.023042634 0.02585227 0.028074648 0.02751549
000120 7c 9e 8b 3b 53 c0 45 3c 20 f7 f9 3b a2 f9 20 3c
       0.004260836 0.012069779 0.0076283365 0.009825142
000130 28 4f d6 3c 96 47 d9 bb a8 2c c1 3c 22 a4 ce bc
       0.026160792 -0.006630848 0.023580864 -0.025224749
000140 eb 64 dd 3a 58 be e4 3c 8c 00 10 3c 9a 58 9f 3b
       0.0016891038 0.027922794 0.008789193 0.004862857
000150 ae e7 a4 3b 8a 70 e5 3c 10 cc 08 3c 7b 10 29 3a
       0.005032501 0.028007764 0.008349434 0.0006449294
000160 29 bc 12 bc 11 44 11 bc 3d 9b e0 3c 70 54 d6 3c
       -0.008955994 -0.008866326 0.027417773 0.02616331
000170 e4 07 0e 3b 3a d2 d3 3c ad 5f ba bb 79 91 ad bb
       0.0021672184 0.02585708 -0.005687675 -0.0052968827
000180 70 b8 8f 3c 2d f2 c3 3c db b4 a1 3c 95 8b c5 3c
       0.017544001 0.02391919 0.019739559 0.02411441
000190 81 95 9e bb 12 83 97 ba a0 2c 36 3c d9 97 d1 bb
       -0.0048395996 -0.0011559448 0.011119038 -0.0063962755
0001a0 cf ea 1a bc 07 87 64 3c 6e e4 2b bb 8c 49 d1 3c
       -0.009455397 0.013948209 -0.0026228684 0.025547765
0001b0 86 f6 cd 3c b3 ee 31 3c 86 e6 58 3c 00 86 a7 b9
       0.025141966 0.010860133 0.013238555 -0.0003195256
0001c0 cc b7 d2 3c 20 e4 10 bc bd b9 84 bc fb f0 e3 3c
       0.025722407 -0.008843452 -0.016201848 0.02782487
0001d0 22 a1 e6 3c 7a 47 da bc 9f 97 53 bc 6f 1e 37 3b
       0.028153006 -0.02664541 -0.012914567 0.0027941724
0001e0 9d 43 d6 3b c7 72 e6 bc 46 19 b3 bc 93 34 30 bc
       0.006538822 -0.028130902 -0.021862637 -0.010754722
0001f0 50 6a f5 ba a4 60 9a bc 07 1f ab bc a2 6b dc 3c
       -0.00187237 -0.01884491 -0.020888818 0.026906792
000200 39 15 e0 ba be 2a a7 3b 62 47 d4 bc e2 68 8f 3b
       -0.0017096169 0.005101531 -0.025912944 0.0043765167
000210 40 3a c5 3c db cc c3 3c ba 6c e6 bc 1b bb f1 3b
       0.024075627 0.023901394 -0.028128017 0.007377041
000220 d7 81 25 3c 49 9b e6 bc c0 42 bd 3c f3 89 53 bb
       0.010101757 -0.028150218 0.023103118 -0.003227827
000230 a1 00 a2 39 b4 b4 16 ba 76 d0 b4 bc 87 e8 85 bc
       0.00030899516 -0.0005748973 -0.022072058 -0.01634623
000240 c1 0b d7 3c 7f f6 d6 3b f1 08 b3 3c 82 64 de bc
       0.026250722 0.0065601463 0.02185485 -0.027147535
000250 f1 6b 0f 3c 32 33 30 bc 66 e9 b6 3a 9f 5e 20 bc
       0.008753763 -0.010754393 0.0013955056 -0.009788184
000260 89 04 82 3a 44 07 a4 3c 9d ca a7 b9 55 3a ab bc
       0.0009919564 0.020022996 -0.0003200368 -0.020901838
000270 5b 7f 09 3b 95 8c 8d bc 6d 68 c6 3c d5 5a d8 bc
       0.002098045 -0.017278949 0.024219716 -0.0264105
000280 76 72 17 3c e1 0a 1e 3c 46 69 9d 3c 20 3a 77 bc
       0.009243598 0.009646148 0.019215237 -0.015089542
000290 af e4 e0 39 02 d5 c2 3b 3f 7d 9f bc 5b e4 bb 39
       0.00042894992 0.0059458027 -0.019468902 0.00035837558
0002a0 03 3e bc 3c fe 33 ad 3c 60 43 d8 bc 11 27 98 bc
       0.022978788 0.021142956 -0.026399314 -0.018573316
0002b0 69 ab a0 3c fc 9c d4 bb a0 e0 17 bc 92 06 c1 bc
       0.019612985 -0.0064884406 -0.009269863 -0.023562703
0002c0 3f 2d 3f bc 56 f0 e3 bc 17 86 23 3c 84 72 74 bb
       -0.011668502 -0.027824562 0.0099807 -0.0037299702
0002d0 92 40 59 3c 2d f9 a8 bc 37 a9 c8 3a 85 14 7e bc
       0.013260024 -0.020626629 0.0015309219 -0.015507822
0002e0 7c d6 b2 3c 8b 5d 17 3c 6a f8 b7 bc d2 d9 dd bc
       0.02183079 0.009238611 -0.02245732 -0.027081404
0002f0 60 47 13 bc 14 a1 be bc 33 3c b5 bb e3 7c c1 3b
       -0.008989185 -0.023270167 -0.005530858 0.0059047802
000300 5f 06 22 bc 92 7a b7 3b 15 93 e5 3c 0c 42 13 bc
       -0.009889214 0.0055993283 0.028024236 -0.008987915
000310 fb 58 08 3b a1 b5 44 3c 17 db d9 bc 02 76 c9 3c
       0.002080499 0.012006194 -0.026593728 0.024592403
000320 83 7a 4b 3c 6a 38 e5 bc ac 84 1e 38 60 fe 8c 3b
       0.012419346 -0.027981002 3.7793696e-05 0.004302785
000330 7b f9 84 bc 48 9f e0 3c b0 94 4a 3b 6b e9 b3 3a
       -0.016232243 0.027419701 0.0030911379 0.001372618
000340 f8 55 85 3c e8 e0 a6 bc a8 9a 24 bc 27 0c 50 bb
       0.016276345 -0.020370916 -0.010046639 -0.0031745525
000350 cb 72 91 bb c9 9c e6 3c 86 df f3 bb ce ad e4 bc
       -0.004438733 0.028150933 -0.0074424176 -0.027914908
000360 95 e9 24 bc bb 5f 99 bc 27 23 d4 bc 21 11 b5 bc
       -0.010065456 -0.018722406 -0.025895668 -0.022102894
000370 58 eb 83 3b ee 4d 44 3a 99 23 05 bc 48 36 d3 3c
       0.004025858 0.0007488419 -0.008126163 0.02578272
000380 7b 38 59 bc 8f 16 d0 3c 1a 4f 18 3c e1 be e4 3c
       -0.013258095 0.025401382 0.009296203 0.02792305
000390 5e b2 0e bb 7e ad 68 bc ff 10 55 3c 0f c3 ca bc
       -0.0021773796 -0.01420152 0.0130045405 -0.024751214
0003a0 e7 cf bd 3c c3 e4 17 bb 71 78 e6 3c 76 1b da 3c
       0.023170425 -0.0023177124 0.028133603 0.026624423
0003b0 7e dc fe ba 70 ae 1d 3c 65 93 de 3c 8c e3 ac bc
       -0.0019444374 0.009624109 0.027169893 -0.021104597
0003c0 c6 63 df bc 4d 21 c1 3a a1 26 e5 3c 6b c7 46 bc
       -0.027269255 0.0014734656 0.027972521 -0.012132506
0003d0 8b f1 db bc 6d f5 af 3c ad f6 24 bc ae 82 d4 3c
       -0.026848575 0.021479333 -0.010068578 0.02594122
0003e0 96 7d 6f bc 19 20 00 bc 6d 8d 25 bc 08 c4 82 ba
       -0.014617344 -0.007820153 -0.010104519 -0.0009976635
0003f0 b9 73 8b bc f0 9a b7 bc 66 7c b9 3c 1c 59 a8 bb
       -0.017022954 -0.022412747 0.022642326 -0.005137576

convs.2.weight f4 [32, 32]
000000 87 82 47 3c 77 09 8e bc c4 db e4 bc 78 08 93 38
       0.012177116 -0.017338498 -0.027936824 7.011084e-05
000010 30 dd 82 ba fb 06 e5 bc 32 18 d5 bc 85 9e e6 3c
       -0.0009984132 -0.02795743 -0.026012514 0.02815176
000020 0a ef 1a ba 5c c0 c8 bc c7 c6 91 3a 02 40 b2 bb
       -0.00059102534 -0.024505787 0.0011121862 -0.005439759
000030 c9 12 0f 3c 58 b9 d5 3c 70 e4 9f 3b c0 86 e2 3c
       0.008732506 0.026089355 0.004879527 0.027652144
000040 f3 a1 e6 bc a0 1e a2 3c 69 bf 68 3c 7d 7c e4 3c
       -0.028153395 0.019789994 0.014205792 0.027891392
000050 fa 02 e4 bc fd ed 74 bc 69 22 10 bc 18 2b a2 3b
       -0.02783345 -0.014949319 -0.0087972665 0.004948985
000060 f2 e4 83 bc 2f 9f 33 3c 1a 09 bd bc 58 c0 a5 bc
       -0.01610038 0.010963245 -0.023075629 -0.020233318
000070 ce 51 a5 bb 11 bd 82 bc d0 5e 8f 3b 3f 59 7d bc
       -0.0050451523 -0.015959295 0.004375316 -0.015463172
000080 ec 1c db bc 70 3b a8 3c c2 d7 d7 3c 3e 5f 28 bc
       -0.02674719 0.020536155 0.026347999 -0.010276614
000090 e2 68 86 3a 06 5f cf bc ae 98 a1 bc 9f 0a 80 bc
       0.0010254646 -0.025313865 -0.019726124 -0.015630065
0000a0 6c 2c a0 bc 1a c0 e1 3c d0 2a c7 bc 04 c1 8e bc
       -0.019552432 0.027557421 -0.024312407 -0.017426021
0000b0 6d 41 c9 bc 87 31 b6 bc 3f b2 2e bb 32 56 90 bc
       -0.02456733 -0.022240413 -0.0026656536 -0.017619226
0000c0 cf 5c c3 3c 31 0e e5 bc c8 08 bd 3c aa 84 a7 bc
       0.023847966 -0.027960869 0.023075476 -0.020449001
0000d0 af 8f af 3c b3 a0 d1 3c 01 24 a6 bc 78 5d 0e 3b
       0.021430818 0.025589323 -0.02028084 0.0021723192
0000e0 9b 9d 20 3c 95 f4 92 bb 8a 6e 6c bc b7 07 40 3c
       0.009803201 -0.004484723 -0.014430651 0.011720589
0000f0 8c fc b3 bc e6 68 c6 bc 36 ca ca 3c 5c 45 2d 3c
       -0.02197101 -0.024219941 0.024754625 0.010575619
000100 f6 b6 43 bb ac 39 83 bb 4e 66 9a 3c 1b 05 c7 3c
       -0.0029863692 -0.0040046778 0.01884761 0.024294427
000110 34 43 1b bc a5 bc 03 bc 23 66 5d 3c 9b 94 e6 3c
       -0.009476472 -0.008040582 0.013513121 0.028147032
000120 c4 39 da 3c ff d3 46 bc de ca cd ba a9 f6 e4 bc
       0.026638873 -0.012135505 -0.0015700718 -0.027949648
000130 be 9a a6 bc 0c 6c b1 3c 3e 66 59 3a 64 67 02 3b
       -0.020337459 0.021657966 0.00082931283 0.0019898051
000140 bd d9 d6 3c c8 ef c2 3c bf a2 d2 bc 94 0c a4 bb
       0.026226873 0.023795977 -0.025712369 -0.0050063822
000150 d9 4a 11 3c 18 7b 49 bb 06 09 1f bb 5f cc 8b bc
       0.008867943 -0.0030743536 -0.0024266853 -0.017065225
000160 5f f6 d9 bc db 79 ab bc 2b 8d e6 3c 95 06 80 3a
       -0.026606737 -0.020932129 0.028143486 0.0009767587
000170 c0 e0 c2 bb 15 59 ce 3c 4c f9 ec ba 90 46 f7 bb
       -0.0059472024 0.025188962 -0.0018079667 -0.0075462535
000180 f0 af f1 b9 75 5e eb 3b e6 ca 88 bc c1 23 a7 3c
       -0.00046098186 0.007182891 -0.016698312 0.020402791
000190 42 fa 05 3b b7 2d 45 bb 18 c7 dc bc fc b2 c3 3c
       0.0020443355 -0.0030087063 -0.026950404 0.023889057
0001a0 fc 46 cd 3c b3 31 e6 bc 36 a1 d9 3c c9 db 58 3c
       0.025058262 -0.02809987 0.02656613 0.013235995
0001b0 d4 a4 bd bc 01 e3 af bc cd 1a 10 3c 5a 5d dd bc
       -0.023149885 -0.021470549 0.008795452 -0.027022053
0001c0 36 5c a7 3c d4 da e4 3c 77 c1 20 3c 45 9c a0 ba
       0.020429712 0.027936377 0.009811751 -0.0012253603
0001d0 ff ee e4 bc 12 55 6b 3a 3c 50 e2 bc 2c 25 47 3c
       -0.027945993 0.0008977215 -0.02762615 0.012154859
0001e0 46 b0 83 bc e2 04 2c 3a a5 96 3d bb d3 30 3f bb
       -0.016075265 0.0006562007 -0.0028928902 -0.0029173389
0001f0 44 fa 2f 3b 16 93 90 bc 45 d2 cf bc 53 c5 d5 bb
       0.002685205 -0.017648261 -0.025368819 -0.006523767
000200 a9 c6 2b bb d4 9c 81 bc f2 70 eb 3b 13 0f e5 bc
       -0.002621094 -0.015821852 0.007185095 -0.02796129
000210 b7 ac 8c 3c 95 0f c1 bc 1c e6 23 bc d9 a1 99 3b
       0.0171722 -0.023567 -0.010003593 0.004688483
000220 b2 b4 15 3c 1e 2e e6 bc fb 90 7a ba 1b 87 d3 bc
       0.009137319 -0.028098162 -0.0009558347 -0.02582126
000230 d4 fb db bc 6f d8 77 bc 03 6c c3 bc 68 30 e6 3c
       -0.02685348 -0.015127285 -0.023855215 0.028099254
000240 dd 56 e6 bc 0d c7 cc 3c ac 19 cd 3c 8c 85 c0 3c
       -0.028117592 0.024997259 0.025036655 0.02350118
000250 33 e1 bc 3b 61 86 d1 bc b1 65 ba 3a 5c b0 ba bc
       0.0057641505 -0.025576772 0.001422098 -0.022789173
000260 40 b7 9f bb 4f 42 b8 bc 82 9c b9 3b 0a 7e de 3c
       -0.00487414 -0.022492556 0.005664409 0.02715971
000270 77 2f 05 3c 4c 55 db ba c0 cf ae 3b b8 cc eb 3b
       0.008128992 -0.0016733794 0.0053348243 0.0071960352
000280 6c a6 e3 3c 9f 2e a2 ba b8 4f e4 bc d5 b6 f7 bb
       0.027789317 -0.0012373513 -0.027870044 -0.007559637
000290 5b ab e3 3c 4f 5f ca bc 49 24 22 3c a8 c8 08 3c
       0.02779167 -0.02470365 0.009896346 0.008348621
0002a0 6b 50 50 ba 20 b5 d5 bb 63 20 9f bb 36 bd 22 3c
       -0.00079465535 -0.006521836 -0.0048561557 0.009932807
0002b0 a3 d3 5d bb 07 dc f1 38 bf 3d 9f bc bb b2 8a 3c
       -0.003384807 0.00011532759 -0.019438623 0.016930928
0002c0 5d 8d 25 3c 4e 4c 9a 3b 1b b1 d3 bc c7 a5 18 bc
       0.010104504 0.0047088033 -0.025841286 -0.009316868
0002d0 e2 f6 82 bb 40 09 07 3b 78 9f 21 3c ce af ca 3b
       -0.003996716 0.0020604879 0.0098646805 0.0061855083
0002e0 2c b8 14 ba 54 2c 95 3c b9 a4 28 3c 2d 9d a0 bc
       -0.00056731957 0.018209614 0.010293179 -0.019606197
0002f0 63 42 9f 3a 93 7e 87 3c b8 85 da bc 5c d5 eb 3b
       0.0012150522 0.016539847 -0.02667509 0.0071970653
000300 88 bb e2 bb d9 ea 22 bc 1c e9 a7 bc 70 4c f1 3b
       -0.006919328 -0.009943687 -0.020496897 0.0073638484
000310 78 fa 88 3b 70 72 aa bc 5e 97 22 bc da 7f ff 3a
       0.004180249 -0.020806521 -0.009923784 0.0019493059
000320 43 6d a6 3c 41 f4 2b bc 87 dc 23 bc f2 bc 72 b9
       0.020315772 -0.010495246 -0.010001308 -0.00023149306
000330 bd 80 20 bc 89 40 85 bb ed a8 71 bb eb 24 4f bb
       -0.009796319 -0.004066531 -0.003687437 -0.0031607698
000340 7d 94 7e bc e3 0f a5 3b 4d ed 8c 3b a8 c7 d8 bb
       -0.015538332 0.0050372942 0.0043007494 -0.0066155978
000350 01 8c 0f 3c 12 74 ce 3c 77 43 25 3c c2 bb a0 3b
       0.008761407 0.025201831 0.010086886 0.004905195
000360 16 d6 de bb 92 6e e4 bb ef a4 bc bc 0f 85 21 bc
       -0.0068004234 -0.006971189 -0.023027865 -0.009858384
000370 d7 8c bb bc 2d ef e1 bc 05 7b 25 bc eb 62 e6 bc
       -0.022894306 -0.027579868 -0.010100131 -0.02812334
000380 05 f8 e2 bc f3 44 d3 3c 86 46 5e 3c b6 9e 15 bc
       -0.027706156 0.025789713 0.013566619 -0.009132078
000390 6f 1a 15 bc 11 a9 15 3c 88 2a c1 b8 bd 46 21 bc
       -0.009100541 0.009134547 -9.210879e-05 -0.0098435255
0003a0 eb 45 fe bb 26 ca 1e 3c 58 9c 91 bb f7 1b bc bc
       -0.0077597997 0.009691751 -0.0044436865 -0.022962553
0003b0 25 10 3a 3c 1b fd d6 bc 17 e7 e5 bc 07 1b 73 3c
       0.011356388 -0.026243737 -0.028064294 0.014837987
0003c0 e2 c6 e2 bc 57 9f b3 bc 73 54 e1 3a da 0f 0d 3c
       -0.027682725 -0.021926565 0.0017191306 0.008609736
0003d0 18 37 c2 bb 49 ef fd 3b a1 ef 83 bc ef 81 e6 3c
       -0.005926978 0.0077494723 -0.016105475 0.028138129
0003e0 42 c7 93 3c ff 6f 08 3c 36 76 07 bc 75 de f3 ba
       0.01803935 0.008327483 -0.00826793 -0.0018605726
0003f0 ec 78 e4 3c eb 2c 0d 3c ca 0d 8d 3b ca 30 cd 3c
       0.027889691 0.008616666 0.0043046223 0.025047679

convs.3.weight f4 [32, 32]
000000 50 ed 18 bc f4 bc 5b bb 9a 19 92 3b 55 9e bf 3c
       -0.009333923 -0.0033529373 0.0044586184 0.023390928
000010 e2 32 8d bb cc fa df 3c 29 09 8b ba c5 ed 02 3c
       -0.004309044 0.027341269 -0.0010607588 0.007991259
000020 df a2 d5 3c 82 14 61 bc 85 3d 21 bc b2 91 7a 3b
       0.02607864 -0.0137378 -0.009841328 0.0038233814
000030 5f 18 c1 3c 99 f9 d5 3c af 34 91 39 6d d7 bb ba
       0.023571191 0.026119994 0.00027695808 -0.001433117
000040 7d aa ff ba b4 40 3c 3b 85 0f 13 bc 62 c2 89 3b
       -0.0019505766 0.002872509 -0.008975868 0.0042040804
000050 7d 6c e3 bc 2d e3 83 bc ba de 5d bb 5f 5b c1 ba
       -0.027761692 -0.016099537 -0.003385468 -0.0014751962
000060 ec 7e b6 3c d6 e9 cc 3b 04 9e c9 3c 95 89 25 3c
       0.022277318 0.0062534614 0.02461148 0.010103603
000070 3e c8 69 ba 32 a3 83 3c f8 22 2b bb 57 78 2c 3a
       -0.0008918083 0.016069029 -0.0026113372 0.00065792113
000080 03 72 8b 39 3f 1d e6 bc aa 51 dc bc 19 2c cd bc
       0.0002659709 -0.028090117 -0.02689441 -0.025045441
000090 d7 20 60 3a 2c 14 ba 3c 82 2c ad 3c 65 59 ba 3c
       0.00085498154 0.022714697 0.021139387 0.022747705
0000a0 57 de e1 3c c8 ad de bc ca 66 e6 3c e8 b6 bd ba
       0.02757184 -0.027182475 0.028125186 -0.0014474066
0000b0 49 41 35 3c 27 bf bf bc 1e 3f e7 bc 3f 52 e6 3c
       0.0110629285 -0.023406578 -0.028228339 0.02811539
0000c0 f2 8d dd bc 4f 10 d3 3c d7 90 b8 3c 1c 7c 43 bc
       -0.027045224 0.025764612 0.022530003 -0.011931445
0000d0 e2 89 7a 3c f4 82 e6 3c 14 21 83 bb 74 11 c2 3c
       0.015291663 0.028138615 -0.004001746 0.023689963
0000e0 af bd bc bc b8 9a e6 bc 15 bb 0b bc 92 3f 2d ba
       -0.023039667 -0.028149948 -0.008528491 -0.0006608899
0000f0 6d f4 3d 3c 32 9d 01 3c ea 2c 70 3c 84 48 85 bc
       0.01159392 0.007911013 0.014659146 -0.01626993
000100 19 b1 8c bc 3a b6 17 3b ce 2a 4c bc 95 f3 4b bb
       -0.01717429 0.0023149387 -0.012461377 -0.0031120528
000110 3a c4 93 bc 8b bf d8 bc cf 5b 17 bb a0 f6 e4 3c
       -0.018037904 -0.026458522 -0.0023095494 0.027949631
000120 b1 5d 25 3c 02 75 d5 bc 32 e4 43 3b 7f 3c bc bc
       0.010093139 -0.02605677 0.0029890654 -0.022978066
000130 5c a2 b2 bb e5 63 77 bc 4d 48 a2 bb bd 10 f7 3b
       -0.0054514837 -0.0150995 -0.0049524666 0.007539837
000140 95 60 87 bc 29 0f e5 3c 90 3f 99 bc 64 91 9f bc
       -0.016525546 0.02796133 -0.018707067 -0.019478507
000150 f6 bc 62 bb 9b 05 20 3c af 24 b2 bc 2d 29 ee 3b
       -0.0034597493 0.009766961 -0.021746008 0.007268092
000160 f1 7f e0 3c dc d6 a9 3c 66 7a e6 3c d5 b7 c9 3a
       0.027404757 0.020732336 0.028134536 0.0015389869
000170 f0 03 74 bb 4b c1 38 bc 80 e3 14 3c 17 d6 32 bb
       -0.0037233792 -0.011276553 0.009087443 -0.0027288252
000180 8b d0 bb bb b5 f8 1c bc 11 27 e0 bc 7e 06 e0 3c
       -0.0057316474 -0.009580781 -0.027362378 0.027346846
000190 b1 a0 e6 3c bf 04 2a bc 26 06 3b bc 4b c6 cc bc
       0.028152796 -0.010377108 -0.01141504 -0.024996897
0001a0 90 83 a3 3c cb af dc bc 2c 63 d7 3c da 6e 16 bc
       0.019960195 -0.026939293 0.026292406 -0.0091817025
0001b0 cc e5 b1 3c 77 ba e2 3c 08 98 b3 3c 39 bf c6 bc
       0.021716021 0.027676804 0.02192308 -0.024261104
0001c0 08 75 e5 3c bb 5d e6 bc 72 cf d2 b9 e0 56 df 3c
       0.028009906 -0.028120866 -0.0004020888 0.027263105
0001d0 52 3b ef ba 24 b6 cf 3c 17 3d d2 bc 50 13 c1 3c
       -0.0018251932 0.025355406 -0.025663896 0.02356878
0001e0 20 72 db bc 2e 7e 33 bc f5 4c b7 bc 26 23 08 3c
       -0.026787817 -0.010955377 -0.022375563 0.008309161
0001f0 f7 d6 75 bc e3 8c c6 bc 83 22 e2 3b 2c 2e e1 3b
       -0.015004865 -0.024237102 0.006901087 0.006871959
000200 ec c4 d1 bc 64 03 d3 bc 03 af fe ba f7 30 d3 bc
       -0.025606595 -0.025758453 -0.001943082 -0.025780184
000210 e3 28 94 3b 21 ee d0 3c d2 f0 86 bb e6 42 c7 3a
       0.0045214756 0.025504174 -0.0041180635 0.0015202432
000220 35 88 30 3b 0b e5 63 3a 94 56 e1 3c 64 7c ac 3c
       0.0026936654 0.0008693493 0.027507104 0.021055408
000230 58 ed 33 39 d5 22 d7 3c 36 6f 26 3b 54 f8 e1 3c
       0.00017159188 0.026261726 0.0025395877 0.027584232
000240 3f 47 4f 3b 50 65 bc bc 76 cd 9f 3b 3d 48 e5 bc
       0.003162816 -0.022997528 0.004876788 -0.027988547
000250 42 9e e1 3c c4 47 b9 3b 5b 0d f9 bb 4f f7 72 3c
       0.027541284 0.005654307 -0.007600469 0.014829471
000260 af 77 63 ba ba 56 d9 bc 19 15 ba 3c 86 74 08 bc
       -0.0008677197 -0.026530612 0.022715138 -0.008328563
000270 0c e6 30 bb 31 96 e6 3c 94 a8 b4 b7 09 59 e5 bc
       -0.0026992587 0.028147789 -2.1536172e-05 -0.027996557
000280 f3 7b fa 3b 63 b1 c0 bc 71 76 e0 bc b8 da 71 ba
       0.0076441704 -0.023522085 -0.027400227 -0.0009226012
000290 b7 ce db bc 93 65 9d 3b 87 c6 c7 3a 1a de c9 bc
       -0.026831968 0.0048033684 0.0015241661 -0.02464204
0002a0 e2 69 cc 3b 01 d7 24 b8 1f f8 da bc 76 2f e1 3c
       0.006238208 -3.9300885e-05 -0.026729641 0.027488451
0002b0 67 ed f1 bb 40 0e 8e 3c bb 37 ab 3c 79 41 d7 ba
       -0.007383037 0.01734078 0.020900598 -0.0016422711
0002c0 1c 9d c2 bc 02 f3 16 3b d1 0b e2 bc 72 b1 4f bc
       -0.023756556 0.0023033028 -0.027593525 -0.012676584
0002d0 f7 c5 4f 3b de e1 9d 3b ae af d4 bc 08 41 6d 3c
       0.003170369 0.004818185 -0.025962677 0.014480837
0002e0 a5 75 57 3c fd c0 d3 3c ae 5c bf 3c 5e 32 c8 bc
       0.013150607 0.02584886 0.023359623 -0.02443808
0002f0 70 a1 7d 3b 06 fb c3 3c f6 d6 b1 bb 8d 74 d6 3c
       0.003870096 0.023923408 -0.0054272367 0.026178623
000300 46 59 c8 3c 20 63 e4 3c e0 38 fe bb 7c dd e3 3c
       0.024456631 0.027879298 -0.007758245 0.027815573
000310 d0 86 ca bc 9b 18 13 3c 9d 7a 90 3c ba 6b 28 3c
       -0.024722487 0.008978034 0.017636592 0.01027959
000320 ec 2b 23 3c 89 b8 9b bb 82 f2 a5 bb b0 fd 7c bb
       0.009959202 -0.004752223 -0.0050643096 -0.0038603358
000330 a9 61 45 3a e6 1c f0 3b 5f 3e 78 3c 5e 75 25 bc
       0.0007529506 0.0073276637 0.015151589 -0.010098783
000340 4f 7a a9 3c 76 32 03 bb c1 a4 cf bc 0b 8e ba 3c
       0.020688204 -0.002001909 -0.025347115 0.02277281
000350 ce 85 af 3c aa 49 17 bc 5d f6 ca bc f6 72 c6 3c
       0.021426108 -0.0092338715 -0.024775678 0.02422474
000360 b0 2c a5 3b 64 a6 9a bb 25 ff e5 bc b5 dd 22 bb
       0.0050407276 -0.0047195423 -0.028075764 -0.0024851386
000370 7d d8 89 3c 25 c5 93 3c a5 fc e5 bc d0 0e 45 3c
       0.016826862 0.018038342 -0.028074572 0.012027457
000380 a6 e7 a1 bc 8d d4 c1 3c d0 49 a9 bc 8c 4a a8 3a
       -0.019763779 0.023660922 -0.02066508 0.00128396
000390 5e ca e2 bc 25 8e e6 3c 20 48 ba bc e6 22 ad 3c
       -0.027684387 0.028143952 -0.02273947 0.021134805
0003a0 76 eb 44 3c 1b 19 92 3b ec 6b c8 3b 91 58 16 3b
       0.012019029 0.004458559 0.006116381 0.0022940973
0003b0 a7 5f 9f 3c b4 47 05 37 56 56 a0 3b 85 10 87 bc
       0.01945479 7.944112e-06 0.0048931045 -0.01648737
0003c0 2d 3f e6 bc b6 fb e3 3c 89 97 1c 3c 56 8c 25 bc
       -0.028106296 0.027829986 0.009557613 -0.0101042595
0003d0 a3 56 a1 3b ef 69 e0 3c d7 ac e5 3c a5 c0 2d 3b
       0.004923658 0.027394263 0.028036518 0.002651253
0003e0 2b 3b 4d 3c 2a 39 c8 bc 64 a0 34 bb 89 cb 91 bc
       0.012526314 -0.02444132 -0.002756142 -0.017797248
0003f0 df 00 8e 3b 16 35 83 bc b1 2a ca 3b 70 49 20 bc
       0.0043336 -0.016016524 0.00616964 -0.009783134

convs.4.weight f4 [32, 32]
000000 bd 9f e4 bc 91 0f d5 3c 6e 6b b4 bc fc dd c4 ba
       -0.0279082 0.0260084 -0.022023883 -0.001501977
000010 f7 2f 11 3c 8e cf c8 bc 9e 7a 17 3b 35 ae 94 3c
       0.008861533 -0.024513032 0.0023113857 0.018149475
000020 eb e6 9c bb 31 ab 6d ba 40 6b e6 bc 76 a0 e2 3c
       -0.0047882698 -0.0009066342 -0.028127313 0.027664404
000030 dc b2 7a 3c 66 01 19 3c 91 3c 47 3b 31 a9 e1 3c
       0.015301432 0.009338712 0.003040109 0.027546497
000040 66 14 3b bb 62 00 44 bc 35 d5 c8 bc 7d 39 b5 ba
       -0.0028546094 -0.011962982 -0.024515728 -0.0013826337
000050 70 2b ac 3a 6d 0d 81 ba b1 23 92 3c 95 13 b5 3c
       0.0013135504 -0.000984592 0.017839285 0.022104064
000060 2e 08 6a 3c 8e 78 a0 bc 21 e3 e3 3b 63 48 99 bc
       0.014284177 -0.019588735 0.006954566 -0.018711274
000070 26 ce 12 3c 1d 93 82 bc 52 3f d5 bc 7f 8b a7 bc
       0.008960282 -0.01593929 -0.02603117 -0.02045226
000080 23 cd 00 bb ae 5c e5 bc a0 68 bb 3c 1d 35 d1 bc
       -0.001965352 -0.027998295 0.022877038 -0.025538022
000090 50 03 89 bc 42 76 e6 3c 8c 78 00 bc 28 db e4 3c
       -0.016725212 0.028132562 -0.007841241 0.027936533
0000a0 c4 1b 61 3c 99 62 a4 3c ff e7 bc b9 7c 5e 32 bb
       0.01373953 0.020066546 -0.00036031005 -0.0027216962
0000b0 eb d2 73 bc a9 a7 de 3a e5 be 4c 3b d7 74 df 3c
       -0.01488183 0.0016987222 0.0031241712 0.027277393
0000c0 de 7e e5 bc 01 b3 d2 3c 82 dc bd bc c1 cd c8 3b
       -0.028014597 0.025720121 -0.023176435 0.0061280434
0000d0 23 00 10 3c 30 d6 99 3c 46 55 8b ba e9 47 b9 bc
       0.008789095 0.01877889 -0.0010630272 -0.022617297
0000e0 7d 05 02 ba ae 6f 59 b7 34 74 30 bc d8 66 0d bc
       -0.0004959924 -1.296021e-05 -0.0107698925 -0.008630477
0000f0 03 bd dc bc b9 6e cf bc 13 e2 5e 3c 25 c9 e5 3c
       -0.026945597 -0.025321351 0.013603705 0.028050015
000100 10 e4 fe ba ee a8 97 bc be c1 66 3c 80 21 86 bc
       -0.001944663 -0.01851317 0.014084278 -0.016373396
000110 c9 15 a0 3c 3c df b2 ba 0b a2 d9 bc fe c0 44 bb
       0.019541638 -0.0013646851 -0.026566526 -0.003002226
000120 a6 e6 cd bc 2f df d9 bb c8 39 e0 3c 59 83 07 3c
       -0.025134396 -0.00664892 0.027371302 0.008271062
000130 96 2a 41 3c bc f9 fe bb 39 fa 74 bb 54 37 5a 3b
       0.011789938 -0.0077812355 -0.003738059 0.0033297138
000140 7a ff 9c bc db f5 1c bb b2 59 2e 3b 35 04 e6 bc
       -0.01916479 -0.0023950252 0.0026603756 -0.028078178
000150 0d 29 09 3c e0 d0 5f 3c b4 cd da bb de 0f d2 bc
       0.008371604 0.0136606395 -0.0066773538 -0.025642332
000160 08 27 ca bc 84 b6 df ba d7 5e c4 ba 2b 0d f2 ba
       -0.024676815 -0.0017067944 -0.0014981878 -0.0018467059
000170 64 6b 68 bb e1 a7 14 38 26 85 91 3c 39 9d cd bc
       -0.00354644 3.54423e-05 0.017763685 -0.025099384
000180 34 bb 11 bc 03 f0 a1 bc 77 da c7 3c 6e 04 26 bc
       -0.00889473 -0.019767767 0.024396164 -0.010132892
000190 9b e1 94 3c fb 14 79 bc 2e 7c 40 bc 0b 3b 83 3c
       0.018173983 -0.015202756 -0.011748357 0.016019365
0001a0 ed 1e 4d 3b c9 7d 17 3c 70 86 d0 bb c7 a7 01 bc
       0.003129895 0.009246298 -0.0063636824 -0.007913536
0001b0 f3 16 d4 bc 9a 7c 49 3b 4e 7e cf bc 48 47 8d bb
       -0.02588985 0.0030744434 -0.025328781 -0.004311476
0001c0 0c 68 e6 bc 21 86 fa ba fb 36 e4 3c 13 51 2d 3a
       -0.028125785 -0.001911346 0.027858248 0.0006611507
0001d0 0b dc 10 ba 49 24 de 3b 18 59 c6 3c eb 99 e5 3c
       -0.0005525953 0.006779228 0.024212405 0.028027495
0001e0 f3 5f d2 bc 3c 0d db 3c 1f 9e e2 bc 3e e3 ca 3c
       -0.025680518 0.02673971 -0.027663289 0.02476656
0001f0 bc 28 0f bc 60 8b c2 bc bc b1 ae 3c d2 de 85 bc
       -0.008737739 -0.0237481 0.021324985 -0.0163416
000200 ad 32 c7 ba 26 ee 1a 3c 2a a3 c7 3c c4 ab 92 39
       -0.0015197598 0.009456193 0.024369795 0.00027975265
000210 ac 9f 08 3c e1 05 e6 bc c1 a7 dc 3c ca e2 d2 bc
       0.00833885 -0.028078975 0.02693546 -0.025742907
000220 c6 cb cc 3c b3 a7 a5 bb fb 02 e4 ba 11 32 cd bc
       0.02499951 -0.0050553917 -0.0017395908 -0.025048288
000230 ee f9 8c 3c 50 9d 22 3c 3a 34 d5 3c 25 6c e2 bc
       0.01720902 0.009925202 0.02602588 -0.027639458
000240 da 25 dd bb 61 d3 e5 3c 2c fc db bc 65 7d 25 bb
       -0.006748897 0.028054895 -0.026853643 -0.0025251743
000250 3a 71 2c 3b 7b 96 e5 bc 79 5f c5 3c e1 5a 22 bc
       0.0026312605 -0.028025856 0.024093376 -0.0099093625
000260 cc d9 a6 3c e7 53 ce 3b c7 f9 a6 bc 61 15 41 bc
       0.020367526 0.006296623 -0.020382775 -0.011784882
000270 f0 09 70 bb 03 83 dc bc c6 9f 59 ba 5b e2 1e 3c
       -0.0036627017 -0.02691794 -0.0008301701 0.009697522
000280 d8 49 d1 bc 56 f3 e8 bb 7c 5d 0a bc 76 ae 92 3c
       -0.025547907 -0.007109086 -0.00844514 0.017905455
000290 be b1 68 3b d0 73 9c bb e2 fb 88 bb 9c fc 4e bc
       0.0035506333 -0.004774548 -0.0041804174 -0.012633469
0002a0 9b c6 dc bc 11 ee 46 3b ac 13 c2 bb 5b d8 c6 bb
       -0.026950171 0.00303543 -0.005922755 -0.006068272
0002b0 09 b0 b7 3c 3a ed 21 3b e1 79 86 3c dd 5e d4 bc
       0.022422807 0.0024708048 0.016415538 -0.02592414
0002c0 96 84 71 bc f7 37 33 3c 95 94 0c bc 7c f1 e4 bc
       -0.014741084 0.010938636 -0.008580347 -0.02794718
0002d0 ed 9e fd 3b 48 04 a6 bc 09 d6 e6 3b d0 1d de bc
       0.0077398927 -0.020265713 0.007044558 -0.027113825
0002e0 45 c4 92 3c 54 1b 24 3c c1 dc d3 3c 80 6a cf 38
       0.017915854 0.010016281 0.0258621 9.890366e-05
0002f0 b2 aa e1 3c 7d 1e 1f 3c 4c 99 cb bc f3 4b 2b 3c
       0.027547214 0.009711859 -0.024853371 0.010455119
000300 b9 db 1b bc 56 d1 a5 bb ff ec a6 3c 3b 79 22 3b
       -0.009512835 -0.005060355 0.02037668 0.0024791497
000310 13 95 b5 3c bc 22 ab bc 35 eb 4f ba f6 6a 7e 3c
       0.02216581 -0.020890586 -0.0007931472 0.015528431
000320 a6 2e ce 3c a0 6d da 3c 76 e9 df 3c 26 c6 25 bb
       0.025168728 0.026663601 0.027333003 -0.0025295108
000330 b0 ff c4 bc 43 89 37 bc 0f ff 1c 3c b5 86 33 bb
       -0.024047703 -0.011202159 0.009582295 -0.0027393524
000340 3e 2d 99 bb c2 58 a2 bc 72 dc 20 3c 7c b7 99 ba
       -0.0046745827 -0.019817714 0.009818183 -0.0011727656
000350 e4 87 16 bc 5c 1b e0 3c 7a 30 c5 3c 21 56 c2 3c
       -0.009187672 0.027356796 0.024070967 0.02372271
000360 4b ae a4 bb 55 d9 ac 3b cb f3 c2 bc f1 2b b7 3c
       -0.00502566 0.0052749314 -0.02379789 0.02235982
000370 13 e4 e4 bb 43 6a 13 bc df ad cb 3c 1e a7 c7 3b
       -0.0069851964 -0.008997503 0.024863182 0.00609292
000380 e4 ec dd bc 69 23 12 3c e2 71 e2 bc 1c 7c e6 3c
       -0.027090497 0.008919575 -0.027642194 0.028135352
000390 47 cf 2b bb 72 20 d9 bc 7b 8e 05 3b 78 bb 8c 3a
       -0.0026216076 -0.026504729 0.0020379114 0.0010737022
0003a0 34 76 c1 3c 29 50 e7 3b 7b ee b0 b9 6d f5 ab ba
       0.023615934 0.0070591164 -0.00033747018 -0.0013119407
0003b0 a4 6e e6 bc 1f ef 18 bc fc 74 bd bc cd 01 16 bc
       -0.02812893 -0.009334355 -0.023127072 -0.009155703
0003c0 e0 d5 cc 3b 5d f8 e0 bc ac 63 e1 3c fd ad 45 3c
       0.006251082 -0.027462179 0.027513348 0.012065408
0003d0 13 c5 9e bc c4 17 c4 bc 05 87 e6 bc f1 54 e2 3c
       -0.019381082 -0.023937114 -0.028140554 0.027628394
0003e0 a6 27 8b ba e0 21 ba 3a 6d cb 8e 3b 96 c4 96 3c
       -0.0010616675 0.0014200769 0.0043577463 0.018404286
0003f0 eb 7e 18 bc 26 e6 e4 bc 0b 1d 1c bc c5 21 60 3c
       -0.009307603 -0.027941775 -0.009528409 0.013679926

convs.5.weight f4 [32, 32]
000000 61 36 37 3a ef 34 1f 3c 38 69 84 3b 38 d9 ba 3c
       0.0006988999 0.00971721 0.0040408634 0.022808656
000010 58 40 ef 3b 3c b3 99 bc 0b 6f c9 bc 05 ab e4 bb
       0.0073013715 -0.018762223 -0.024589082 -0.006978395
000020 84 54 46 bb c4 1e 99 bc 88 f6 9f bc 4e fa ba bc
       -0.0030262778 -0.018691428 -0.019526735 -0.022824433
000030 8a 55 7e 3a b7 78 92 3c f8 65 a3 39 7c 23 ce b9
       0.00097020774 0.017879827 0.00031165755 -0.0003931782
000040 1a 0c dc 3c 48 e2 a8 3c be 87 aa bc c1 c2 b9 bc
       0.02686124 0.020615712 -0.02081668 -0.022675874
000050 ca cf 33 39 be bc 80 bc 35 c1 83 3c ec b8 83 bc
       0.00017148178 -0.015715 0.01608334 -0.016079389
000060 80 a7 81 3a 5a 3d b2 3b fb 5d fe 3a 0a 5b 73 3c
       0.0009891838 0.0054394426 0.001940667 0.014853248
000070 fc d4 50 bc 98 c5 85 3c 55 48 d4 3c bb b2 6b 3b
       -0.012746092 0.016329572 0.025913397 0.0035964686
000080 27 ac bf bc d9 93 23 3c e7 9e e4 3c 31 ae 67 3c
       -0.023397518 0.00998398 0.027907802 0.014140652
000090 0d 9a e0 3c bf 3b ab bc da dc 4e 3c 21 7e 22 3b
       0.027417207 -0.020902513 0.012625897 0.0024794417
0000a0 17 f0 99 3c 28 b0 62 3c 9c e0 af 3c dd f9 b9 bc
       0.018791242 0.013835944 0.021469407 -0.022702152
0000b0 67 ae 7d bb ec 7d 34 3a f9 6f de bc 38 72 35 3c
       -0.0038708688 0.0006885219 -0.027153002 0.011074595
0000c0 9d 23 94 3b b9 35 57 bc cd 11 e5 3c 94 09 23 bc
       0.004520847 -0.013135367 0.02796259 -0.009951014
0000d0 9d 8a c7 ba 32 f6 e5 bc f5 46 5b 3c 65 d7 a7 3c
       -0.0015223805 -0.028071497 0.013383617 0.02048845
0000e0 64 17 a0 3c 28 9d e6 3c 50 77 b2 3c b6 8a b8 3c
       0.019542404 0.02815111 0.021785408 0.02252708
0000f0 96 87 bf bc 8e 95 91 bc cf 21 f7 ba 51 be e1 3c
       -0.023380082 -0.017771509 -0.001885468 0.02755657
000100 78 78 27 ba 8f 43 81 3c d1 f3 b6 bc 79 bf 87 3c
       -0.00063884957 0.015779285 -0.022333058 0.016570793
000110 84 48 10 3c bc 0e 3f bc a9 d0 c5 3c 99 34 e5 bc
       0.008806352 -0.011661228 0.024147348 -0.027979182
000120 7c 1f ac bc 40 0d c7 3a b2 98 d7 3c e5 14 46 3c
       -0.021011107 0.0015186444 0.026317928 0.012089943
000130 0d a2 a2 3c 50 d4 f8 3b 83 7a cf 3c a5 34 5f bc
       0.019852662 0.007593669 0.025326973 -0.013623391
000140 ee 2c 23 bc cf 26 17 3c 4e 4b 4c 3c 2d 4c bf bc
       -0.009959443 0.009225561 0.012469126 -0.023351753
000150 04 2a ac bc 0a 98 d5 3b e7 ac b8 bb 24 39 30 bc
       -0.021016128 0.0065183686 -0.005635846 -0.010755811
000160 52 25 e4 bc 7a fe 79 bc fe 73 21 3b b3 1f 76 bc
       -0.027849827 -0.015258426 0.0024635787 -0.015022206
000170 b7 f5 e5 bc 38 08 d0 3c f6 48 e4 3c 1d 25 e3 bc
       -0.028071268 0.025394544 0.027866822 -0.027727658
000180 8a d4 0a bc 74 7a 04 bc af f8 35 3b 62 a8 ab bb
       -0.008473525 -0.008085836 0.0027766635 -0.0052385787
000190 c2 7e 5f bc 0a c4 e9 3b 76 5b d9 3c e2 f2 e3 bc
       -0.013641061 0.0071339654 0.02653287 -0.027825776
0001a0 03 0a 8e bb 72 6b e0 bb 0e b0 d9 3c a8 d2 6e ba
       -0.0043346896 -0.006848746 0.026573207 -0.000911037
0001b0 f5 4a aa 3a d2 3d 03 3c 19 bd e4 bc 42 c7 d6 bc
       0.001299231 0.008010345 -0.0279222 -0.02621806
0001c0 2f 11 b3 3c 20 9d ca bc 0b ba 68 3b 09 63 de 3c
       0.02185878 -0.024733126 0.003551128 0.027146833
0001d0 f5 ce 98 bb 8f c3 dc bc a3 90 bb 3b 5a f9 85 3c
       -0.004663343 -0.026948718 0.005724029 0.016354252
0001e0 d0 ba 83 3b db 44 e3 3c 7d 6e ec ba 3c 73 39 bc
       0.0040200725 0.027742794 -0.0018038299 -0.011318978
0001f0 d3 46 09 3c 5d 85 cb 3c cb 62 9d 3c 8d e6 23 bc
       0.008378702 0.024843866 0.019212147 -0.010003698
000200 65 94 84 39 aa 20 d9 bc 75 93 2f 3c 90 b2 1b bc
       0.00025287564 -0.026504833 0.010716309 -0.009503022
000210 73 0d 83 3c b7 33 6c 3a bf d8 64 bb 38 1f bf 3a
       0.015997624 0.00090103917 -0.003491923 0.0014581447
000220 83 ed e0 3c 19 73 e6 bc b7 3b 95 3c 27 9d c7 bc
       0.027457004 -0.028131055 0.01821695 -0.024366928
000230 fd a6 e3 3c ee bf 1d bc 80 09 c2 b9 a7 81 58 bb
       0.027789587 -0.009628279 -0.00037009642 -0.0033036263
000240 08 13 e2 bb 56 9d 22 3c 8c d2 02 3c 48 32 8f bc
       -0.0068992414 0.009925207 0.007984769 -0.01748003
000250 45 6c c9 3c 41 ca 23 bb 9a 43 0c bb 9f f0 b3 3c
       0.02458776 -0.002499238 -0.0021402598 0.021965323
000260 d1 8b 21 bb af 48 e5 bc 83 f9 a1 3c 97 90 9d 3b
       -0.0024649987 -0.02798876 0.019772297 0.004808496
000270 cb 21 92 bc 84 dd b6 3c 86 89 b1 3c b0 c6 9e bb
       -0.01783838 0.022322424 0.021672022 -0.0048454627
000280 eb 4a 43 3c 93 d1 96 bc 72 ef 1e bc dc 68 c5 ba
       0.011919717 -0.01841048 -0.009700643 -0.0015061158
000290 69 cf ba bc 2f e4 98 3c 29 c4 2b ba ff 3d 24 bc
       -0.022803979 0.018663494 -0.00065523625 -0.010024547
0002a0 72 5e e6 bc f7 c4 e2 bc 96 b5 f6 ba da 50 e6 3c
       -0.028121207 -0.02768181 -0.0018822427 0.028114725
0002b0 a8 e5 64 3b ea a6 b1 bc 36 a0 7e 3c 22 ff de bc
       0.0034926925 -0.021686036 0.015541127 -0.027221266
0002c0 18 83 25 bc 2d cd 31 3a 12 14 5f 3c e5 e2 e2 3c
       -0.010102056 0.0006782588 0.013615625 0.027696082
0002d0 58 18 2c bb a0 8a 6d 3c 4f 2b 20 bb 78 fd 1a bc
       -0.0026259627 0.014498383 -0.0024439876 -0.009459846
0002e0 25 67 75 3b 99 e1 b1 3c 6a e3 d8 bc b1 0e 0d bc
       0.0037445512 0.021714019 -0.026475627 -0.00860946
0002f0 ee cc 24 bc 47 08 64 3c 19 c1 21 3c 81 a6 e0 bc
       -0.010058625 0.013917989 0.009872698 -0.027423145
000300 10 d2 c0 3a 8a 36 df 3c 15 68 93 bc a6 09 cf 3b
       0.0014711041 0.027247686 -0.017993966 0.006318289
000310 90 7f b7 bc 7b c5 71 b8 06 3c 00 3c 92 28 ca 3c
       -0.022399694 -5.7642796e-05 0.007826811 0.024677549
000320 e7 94 e6 bc 92 31 dd bb 2c 08 e4 3c f9 79 df bb
       -0.028147174 -0.006750294 0.027835928 -0.00681996
000330 0b 19 99 bb f6 20 17 bb 3d bc b8 bc 5c 08 28 3c
       -0.004672175 -0.0023060418 -0.022550697 0.010255899
000340 19 d1 a7 bb c3 fa d1 3b be af 94 bc 5e e3 bb 3c
       -0.005121362 0.006408067 -0.018150207 0.022935566
000350 81 9a a5 3c 8e f6 d0 3c e6 21 c1 bb a2 9b 32 bb
       0.020215275 0.025508191 -0.0058939336 -0.002725341
000360 47 32 13 3c cc 88 88 bb a0 d5 97 bb 7f 2c cf bc
       0.008984155 -0.004166698 -0.0046336204 -0.025289772
000370 32 91 26 bb 36 65 f5 ba b6 63 05 3c bb c2 1f bc
       -0.0025416133 -0.001872218 0.008141449 -0.009751017
000380 94 8f c4 bc 9a 2c 2a 3c f7 52 97 3b fe 4e 24 3c
       -0.023994245 0.01038661 0.0046180445 0.010028599
000390 96 5f e6 bc d8 ad a4 3b 13 1f e3 3c 28 7d 1b bc
       -0.02812175 0.0050256066 0.027724778 -0.009490289
0003a0 3a d4 f1 bb e0 e2 90 3c 0d 22 2f 3c 8c 25 8f 3c
       -0.0073800357 0.017686307 0.010689271 0.017473958
0003b0 88 ee 76 3b 27 7a 9e 3c 73 3e 27 ba 54 af ba bb
       0.0037678797 0.019345356 -0.000637985 -0.0056971703
0003c0 13 0a a6 3c 57 2e 22 3b 87 63 d4 bc 45 9b e6 bc
       0.020268476 0.002474686 -0.025926365 -0.02815021
0003d0 29 af 9b 3c 07 54 28 3c f1 7b c8 bc f2 3b da 3c
       0.019004421 0.01027394 -0.024473162 0.026639912
0003e0 9f 68 34 3c 1c 07 d5 3c bd ab 90 3b 8d 84 90 3c
       0.011011272 0.026004367 0.004415004 0.01764133
0003f0 b0 3d e5 3c 5a 43 d5 bc c2 e6 b6 3c 25 42 da ba
       0.027983516 -0.026033092 0.02232683 -0.0016651793
