checkpoint/Wikipedia/20231105_160906219628.pth (torch, 180281 bytes, 40 tensors)

convs.0.weight f4 [32, 138]
0	0xbd05a91d	-0.032631982
1	0xbc7e21b0	-0.015510961
2	0xbc2c65bd	-0.010522303
3	0x3c635aa2	0.013876589
4	0xbafa2c15	-0.0019086624
5	0x3bbcf02c	0.0057659354
6	0x3c3863a2	0.011254223
7	0xbb63bc27	-0.0034749599
8	0xbbecb28f	-0.0072234343
9	0xbc2232f1	-0.009899841
10	0xbc1a4702	-0.009416344
11	0x3c37b2f0	0.011212096
12	0x3c66c79c	0.0140856765
13	0x3b85e9df	0.0040867175
14	0xbc15dd83	-0.009147051
15	0xbb6f2f51	-0.0036496709
16	0xbc7a0b5f	-0.0152615
17	0x3a749488	0.0009329994
18	0xbcc95e6f	-0.024581162
19	0x3c239323	0.009983811
20	0x3c8d9260	0.017281711
21	0x3bbd2ed1	0.005773403
22	0xbc24378c	-0.010023009
23	0xbb559f6c	-0.0032596244
24	0xbc392b4d	-0.011301828
25	0x3c905c97	0.017622275
26	0xbbac5920	-0.005259648
27	0x3a9f4de7	0.0012153954
28	0x3bad0b7b	0.0052809096
29	0xbc0e4d91	-0.008685485
30	0x3ba2b295	0.0049651363
31	0x3c50ae9f	0.012736945
32	0xbc24af81	-0.010051609
33	0x3b9d1e5b	0.0047948784
34	0xbc03ed88	-0.008052237
35	0x3c46ed09	0.0121414745
36	0xbaf1b8ac	-0.0018441877
37	0x3c033b4a	0.008009741
38	0xbc2886de	-0.010286061
39	0xba814f47	-0.0009865545
40	0xbc1a58ef	-0.0094206175
41	0xbb767414	-0.003760581
42	0x3c574fb6	0.013141563
43	0xbacf51ec	-0.0015817261
44	0xba8edd69	-0.0010899726
45	0xbbc4fe84	-0.006011786
46	0xbc2e585c	-0.010641184
47	0xb9520b59	-0.00020031388
48	0x3bd22bf1	0.0064139296
49	0x3b461b50	0.0030228682
50	0xba9e13bb	-0.0012060323
51	0xbbacec0e	-0.0052771633
52	0xbbc14531	-0.005898141
53	0xbbff60c3	-0.0077935173
54	0xbb67bb89	-0.0035359582
55	0xbb48c8ff	-0.003063738
56	0xbd23c0d2	-0.03997881
57	0x3a60ee03	0.00085803884
58	0xbba85bbe	-0.0051378896
59	0x3c0c1606	0.008550173
60	0x3b6e6b9f	0.0036380065
61	0x3bd760e2	0.0065728286
62	0xbc01378d	-0.0078867795
63	0xbc277305	-0.010220294
64	0xbcbbad38	-0.022909746
65	0xbc056ad2	-0.008143144
66	0xbc1a36ae	-0.009412451
67	0x3aada8e7	0.0013249189
68	0x3c5900a7	0.013244784
69	0x3b6315ac	0.0034650369
70	0xbb9f2bae	-0.004857502
71	0xbb74c5fd	-0.0037349456
72	0xbc191d8b	-0.0093454225
73	0xbb7684f6	-0.0037615872
74	0x3b8c7f54	0.0042876396
75	0x38cdb27f	9.808409e-05
76	0xbc45e7d4	-0.012079198
77	0xbc2ebc51	-0.010665015
78	0xbaa2238b	-0.0012370212
79	0xbb3ffb5d	-0.0029294111
80	0xbc117c1c	-0.008879688
81	0xba2365af	-0.00062331086
82	0x3b9a0b5e	0.004701062
83	0x3bb1d27f	0.0054267044
84	0x3b71874a	0.003685432
85	0xba09d3c4	-0.0005257691
86	0x3b46a65a	0.0030311556
87	0x3c3dd81a	0.011587167
88	0xbc412a9e	-0.011789946
89	0xbb828d96	-0.0039841635
90	0x3c099ddd	0.008399454
91	0xba4e44a9	-0.00078685075
92	0x3abe92e6	0.0014539629
93	0x3b95de28	0.004573602
94	0xb99d0131	-0.0002994626
95	0x3c0a23fa	0.008431429
96	0x3c3d08c9	0.011537739
97	0xbbec6f27	-0.007215399
98	0xbad1ef5f	-0.0016016773
99	0xbb6c85ae	-0.0036090421
100	0x3c95e661	0.01829833
101	0x3bc07427	0.0058732214
102	0x3bedc00f	0.007255561
103	0xbb198688	-0.0023426134
104	0xbb6a1b7e	-0.0035721953
105	0x3c0781e5	0.008270715
106	0x3c12526d	0.008930785
107	0x3c1126fd	0.008859393
108	0xb97fc6d7	-0.00024392769
109	0xba9c9f95	-0.0011949415
110	0xbb57cc07	-0.0032928006
111	0x3b321ec3	0.002717898
112	0x3bdeed9b	0.006803227
113	0xbc3ea565	-0.011636113
114	0x3c4242a5	0.01185671
115	0xbc2a4998	-0.010393523
116	0x3ae6d478	0.0017610928
117	0x3bd1ebdb	0.00640629
118	0xba600cdd	-0.00085468387
119	0x3b65dcdd	0.0035074272
120	0xbc8deafb	-0.017323961
121	0xbb979009	-0.0046253246
122	0xbc26f156	-0.010189375
123	0x3bbecb7a	0.005822596
124	0xbc27d4c0	-0.010243595
125	0xbbeb68c1	-0.0071841185
126	0xbc1098ee	-0.008825524
127	0x3b5c411f	0.003360815
128	0xbcbd6d19	-0.02312331
129	0xbdb927cc	-0.09040794
130	0xbbb8ad6f	-0.0056359093
131	0xbc4ebf74	-0.012618888
132	0xbd3611de	-0.044450633
133	0xbd34466c	-0.044012472
134	0xbdac58ba	-0.08415361
135	0x3c45cd9a	0.012072945
136	0x3d0668ec	0.032814905
137	0xbd1ec22a	-0.038759388
138	0xbcf3c8c5	-0.02975882
139	0xbc804eac	-0.015662514
140	0x3d48a92f	0.04898947
141	0xbc8277cc	-0.015926264
142	0xbc3f4481	-0.011674047
143	0x3b04d681	0.0020269456
144	0x3dff29f7	0.12459176
145	0x3b688782	0.003548116
146	0x3b6fb1f4	0.0036574574
147	0x3e080a31	0.13285138
148	0x3b58867d	0.0033039146
149	0xbc34521c	-0.0110059045
150	0x3b87329e	0.004125907
151	0x3bc0524c	0.0058691856
152	0xbceead99	-0.029135512
153	0x3b844c37	0.004037406
154	0xbc5eb4b0	-0.013592884
155	0x3c749d2a	0.014930049
156	0x3d129f3c	0.03579639
157	0x3d16b6fb	0.036795598
158	0x3cc49b1e	0.023999747
159	0x3b9da1cd	0.004810548
160	0xbcc8efba	-0.024528373
161	0xbcb51a82	-0.022107366
162	0x3d044d0b	0.032300036
163	0xbc23a3a6	-0.009987747
164	0xbbaff1f9	-0.0053694216
165	0xbd0453c8	-0.032306463
166	0x3bc4a197	0.0060007083
167	0x3c695883	0.014242294
168	0xbbde8650	-0.0067909136
169	0x3cd4fa31	0.025998207
170	0x3ab75d4d	0.0013989598
171	0x3d5d50c3	0.0540321
172	0x3db61a0d	0.088916875
173	0x3a3b63e2	0.00071483676
174	0x3dcc7134	0.09982529
175	0x3d8fece4	0.07027605
176	0x3cf90df3	0.03040216
177	0x3c8c2ebf	0.017112134
178	0x3d7dfe6e	0.06201022
179	0x3d0df389	0.03465608
180	0x3cc67e36	0.024230104
181	0xbc375cec	-0.011191588
182	0x3caf924a	0.02143206
183	0x3d056c7e	0.03257417
184	0x3d1b8521	0.03796876
185	0x3c0ad308	0.008473165
186	0x3d4e02a1	0.050295476
187	0x3d9a59ab	0.07536634
188	0x3d1635e0	0.036672473
189	0x3cf868ca	0.030323405
190	0xbd29da13	-0.041467737
191	0x3c2110d0	0.009830669
192	0x3c376b9e	0.0111950915
193	0x3d2cb97f	0.04216909
194	0x3d16889d	0.03675138
195	0x3d73f76d	0.059562135
196	0xbd039ae7	-0.03213015
197	0x3d5498a4	0.051903382
198	0x3de927fc	0.113845795
199	0x3cf5dde5	0.030013034
200	0x3c4d1309	0.012516745
201	0x398631eb	0.00025595663
202	0xbd6c1499	-0.05763683
203	0xbc6d8785	-0.014497642
204	0x3d80112d	0.06253276
205	0xbbd3581e	-0.0064497134
206	0xbc4ef1a4	-0.012630854
207	0xbc01a713	-0.007913369
208	0x3c3e3ee2	0.011611672
209	0xbd01a659	-0.031652782
210	0x3b8a6649	0.004223619
211	0x3dc25c7a	0.09490295
212	0xbcd7d203	-0.026345259
213	0x3b1d6ead	0.0024022267
214	0x3d365d50	0.044522583
215	0x3c87da41	0.016583564
216	0x3d43adde	0.047773235
217	0x3c14d797	0.009084604
218	0x3d03e8a4	0.032204285
219	0x3d77471b	0.060370546
220	0x3d421513	0.04738338
221	0xbd0dec3a	-0.03464911
222	0x3a1c16af	0.0005954308
223	0x3d0a46d1	0.033758942
224	0x3d955fb4	0.072936445
225	0x3cd54ead	0.026038492
226	0x3d491895	0.04909571
227	0xbcbdc3ac	-0.023164593
228	0x3b9ad4e8	0.0047250874
229	0xbc433da2	-0.01191655
230	0x3c380225	0.01123098
231	0xbb98e20e	-0.0046656197
232	0x3dbb8f66	0.091582105
233	0x3ce87a45	0.028378615
234	0x3cc023cf	0.023454575
235	0xbbe0ddfe	-0.006862401
236	0x3e13f156	0.14447531
237	0x3bbd9485	0.005785527
238	0x3daf9e8d	0.08575163
239	0x3c5f010a	0.013611088
240	0x3d075c74	0.033047155
241	0x3c1756e1	0.009237022
242	0xbba01bae	-0.004886112
243	0x3d4359ae	0.047692947
244	0x3de436ac	0.1114324
245	0x3ad1fe41	0.0016021208
246	0x3c8eb113	0.01741842
247	0x3d615aa0	0.055018067
248	0x3c4b620a	0.012413511
249	0x3b7c5e3f	0.0038508323
250	0x3dc21755	0.094771065
251	0x3dacbc28	0.084343255
252	0x3ce64175	0.028107384
253	0x3c16995e	0.009191839
254	0x3c5ba800	0.013406754
255	0xbb964464	-0.0045857895

convs.0.bias f4 [32]
0	0xbd35b80d	-0.044364978
1	0x3caac636	0.020846467
2	0x3cd68dd0	0.026190668
3	0x3dabaf7b	0.083830796
4	0xbd11f58b	-0.03563456
5	0xbddd14e3	-0.107949995
6	0xbbb1cbd6	-0.0054259105
7	0x3ca4d607	0.020121587
8	0x3da61a03	0.0811043
9	0xbc13a4a8	-0.009011425
10	0x3cb9225f	0.022599397
11	0x3e1be84c	0.15225333
12	0x3c8ac446	0.016939294
13	0x3d95cab9	0.07314057
14	0x3dd0e260	0.101994276
15	0xbd50d88d	-0.05098777
16	0x3d2aa72e	0.04166334
17	0xbd673d0d	-0.056454707
18	0x3de7a5d3	0.11310925
19	0x3c2628e7	0.010141588
20	0x3cb99105	0.022652159
21	0xbb91099f	-0.0044261958
22	0xbd7ac413	-0.061222147
23	0xbd8dc866	-0.069229886
24	0x3e320158	0.17383325
25	0xbd267c42	-0.040645845
26	0xbccef7e2	-0.025264684
27	0x3dbfd4aa	0.09366734
28	0x3e06d250	0.13166165
29	0x3d3980b5	0.04528876
30	0x3c54afca	0.0129813645
31	0x3df5a658	0.11994618

convs.1.weight f4 [32, 32]
0	0x3c2541db	0.010086502
1	0xbace0b33	-0.001571989
2	0x3c202aaf	0.009775802
3	0xbc23892c	-0.009981435
4	0x3c0630f3	0.008190381
5	0x3cc6d0e9	0.024269538
6	0xba927fce	-0.0011177005
7	0xb92290ac	-0.00015503418
8	0x3cb55444	0.022134908
9	0x3b8508ba	0.004059878
10	0xbb5142e5	-0.0031930741
11	0x3be1a7e9	0.0068864715
12	0xbcd33ced	-0.025785888
13	0xbb9139bb	-0.004431931
14	0x3cc7266a	0.02431031
15	0xbc1a689e	-0.009424357
16	0x3c6c9a93	0.01444115
17	0xbc2798ed	-0.010229331
18	0xbcd133fd	-0.025537485
19	0x3cbf8850	0.023380429
20	0xbb46f340	-0.003035739
21	0xbc23bb23	-0.009993347
22	0xbbb6256d	-0.0055586607
23	0x3927abe4	0.00015990395
24	0xbc221ab4	-0.009894062
25	0x3c79d1c6	0.015247768
26	0xbc253ecf	-0.0100857755
27	0x399f3773	0.00030368156
28	0xbbb65884	-0.005564751
29	0xbc2e201f	-0.010627775
30	0xba231b17	-0.0006221993
31	0x3c2abff3	0.010421741
32	0xbbf4df9d	-0.007472946
33	0x3c0a00bb	0.008423026
34	0x3ae90108	0.0017776797
35	0xbc84f60d	-0.016230607
36	0xbcd2507e	-0.025673147
37	0xbc11cb89	-0.008898624
38	0xba54604b	-0.0008101507
39	0xbb3648d7	-0.0027814412
40	0xbbd2e412	-0.0064358795
41	0xbc1b9c3b	-0.009497697
42	0xbcd2d80f	-0.02573779
43	0xbaa76838	-0.0012772148
44	0xbb9e9e66	-0.00484066
45	0x3b288489	0.0025713763
46	0xbb78dcbf	-0.0037973372
47	0xbbdf8b1f	-0.0068220044
48	0xbc828c6e	-0.015936103
49	0x3cc8cd63	0.024511999
50	0x3b55dbc4	0.0032632211
51	0x3c645d9f	0.013938337
52	0x3c1b0e8f	0.00946392
53	0x3bd5859c	0.0065161716
54	0xbaaaff5f	-0.0013046077
55	0xba83ae6b	-0.0010046487
56	0x3ae9cfd5	0.0017838428
57	0xbb7afb0c	-0.0038296608
58	0xba8ce042	-0.0010747986
59	0x3aa25fd3	0.0012388177
60	0xb95cdbae	-0.00021062672
61	0x3c29fc6b	0.010375123
62	0x3adb68e1	0.001673963
63	0xba983036	-0.0011611048
64	0x3c995e52	0.018721733
65	0xbbb422c0	-0.0054973066
66	0x39c1e1a5	0.00036979947
67	0xbbb0978b	-0.005389159
68	0xbc009c4f	-0.007849767
69	0xbb93335c	-0.0044922065
70	0x3b229b25	0.0024811712
71	0x3c195c16	0.009360334
72	0xbbeec4b6	-0.0072866334
73	0x3ccda8ef	0.025104968
74	0x3cd67603	0.02617932
75	0x3cd343b1	0.025789114
76	0xbb7f8858	-0.003899118
77	0x3b0eb90e	0.0021777782
78	0x3c8cbce3	0.017179912
79	0x3bb42c54	0.0054984484
80	0x3a09cfdc	0.0005257109
81	0x3bf1db96	0.007380913
82	0xbb9571f3	-0.004560703
83	0xba1d4693	-0.0005999591
84	0xb9d81a4f	-0.00041218332
85	0x3bdc888d	0.0067301453
86	0xbb5a70ab	-0.0033331315
87	0xbb45543c	-0.0030110022
88	0xbcd45cd4	-0.02592317
89	0x3b9098ee	0.004412762
90	0x3c1f80a1	0.009735257
91	0xbb88a2f1	-0.0041698148
92	0xbbcc0dd4	-0.0062272344
93	0x3c62e3d1	0.013848261
94	0x3aa224b3	0.0012370556
95	0x3acfc600	0.0015851855
96	0x3cb9347d	0.022608036
97	0xbbe170ef	-0.006879918
98	0xbc1dfba2	-0.0096425135
99	0x3c85618c	0.016281866
100	0xb9a4ba07	-0.0003141912
101	0x3bae8325	0.0053256922
102	0x3cd03a72	0.025418494
103	0x3aa05832	0.0012233316
104	0x3b9e42a5	0.004829722
105	0xbc2e40a5	-0.01063553
106	0xbb03dc40	-0.0020120293
107	0xbbb9ccbe	-0.005670159
108	0x3c722ba6	0.014780914
109	0x3ccfef66	0.025382709
110	0x3cc8c500	0.024508
111	0x3a796e21	0.00095150067
112	0x3c67bcd5	0.014144142
113	0x3b8fca00	0.004388094
114	0xbcc221e5	-0.023697803
115	0x3c01bcfd	0.0079185935
116	0x3b990775	0.0046700784
117	0xbc455f98	-0.012046717
118	0x3c2c1774	0.010503639
119	0x3b108629	0.0022052622
120	0xbc127ea5	-0.008941327
121	0xbb7f5419	-0.0038960038
122	0xbc9da955	-0.019245783
123	0xbccf9b3e	-0.02534258
124	0x3babede2	0.0052468637
125	0x3c265401	0.010151864
126	0x3c196a86	0.009363776
127	0xbafdbc2e	-0.001935845
128	0x39a12741	0.0003073756
129	0x386990e4	5.568647e-05
130	0xbc5fdbb8	-0.013663225
131	0xb926f2cb	-0.00015921441
132	0x3c8886af	0.016665785
133	0x3c8a7348	0.016900674
134	0xbb5e7f72	-0.0033950475
135	0x3cd70dea	0.026251752
136	0xbbb6943c	-0.00557187
137	0xbb87a17a	-0.0041391226
138	0x3c92a0bc	0.01789891
139	0xbaebc164	-0.0017986712
140	0xbb99d04c	-0.0046940204
141	0x3974c546	0.00023343143
142	0xbc9be50b	-0.019030115
143	0xbcbecf5d	-0.023292238
144	0xbb779324	-0.0037776912
145	0xbb0ba5ba	-0.0021308498
146	0xbc0eea78	-0.008722894
147	0xbc2e9813	-0.0106563745
148	0x3cd4ef2f	0.025992958
149	0xbcd0f2d3	-0.025506413
150	0xba1ef488	-0.00060636597
151	0x3baebe31	0.005332731
152	0xba624186	-0.00086309796
153	0xbc1edebf	-0.0096966615
154	0x3abc5ba7	0.0014370576
155	0xbca5039f	-0.020143328
156	0x3b361b80	0.0027787387
157	0xbcba860a	-0.022768993
158	0xbbdbaa9a	-0.006703687
159	0xbc4e7b39	-0.012602621
160	0xbb8fe571	-0.004391365
161	0xbbaa4fe1	-0.0051975106
162	0xbc23e6a8	-0.010003723
163	0x3c2ebd85	0.010665302
164	0xbb9cbc5e	-0.0047831973
165	0xba4c6550	-0.0007797079
166	0x3c226efc	0.009914156
167	0xbb9b04cc	-0.0047307964
168	0x3c93d0fe	0.018043991
169	0xbc15ef00	-0.00915122
170	0xbc4ee823	-0.012628588
171	0x3c2725d2	0.010201888
172	0x3cadaf3e	0.021201726
173	0x3c0b18f4	0.008489836
174	0x3b9e245b	0.0048261113
175	0x3bf19c55	0.0073733726
176	0x3c28adf1	0.010295377
177	0xbc026c59	-0.007960402
178	0xbbaeff63	-0.005340503
179	0x3be56630	0.007000707
180	0x3cca3dba	0.024687637
181	0x3c1a5af6	0.009421101
182	0xb9203c22	-0.0001528119
183	0xbcc24f33	-0.023719406
184	0x3c9de2ae	0.019273128
185	0xbb9d1e7f	-0.004794895
186	0x3c080926	0.008302962
187	0xbc31e10c	-0.010856878
188	0x3b94e637	0.0045440453
189	0x3bfa69a1	0.0076419865
190	0x3c034443	0.00801188
191	0xbc066851	-0.008203582
192	0x3baaba53	0.0052102
193	0xbc03da3c	-0.008047637
194	0x3b0c85a0	0.0021441951
195	0x3b85d0a7	0.004083711
196	0x3a863705	0.0010239786
197	0x3ccdd9bd	0.02512824
198	0x3b481a2c	0.0030533178
199	0x3c827cce	0.015928652
200	0xbc2b0412	-0.010437982
201	0xbaea3d75	-0.0017871099
202	0x3b33e156	0.0027447543
203	0xb8b420f3	-8.589206e-05
204	0xbcbf4958	-0.023350403
205	0x3c1fa864	0.009744737
206	0x3afb5dcf	0.0019177737
207	0xb922f142	-0.000155394
208	0x3cbf19f4	0.023327805
209	0xbca8b880	-0.020595789
210	0x3bb5f4ff	0.0055528875
211	0xba52cfc9	-0.00080418267
212	0xba8f7a74	-0.0010946528
213	0x3b8a4aec	0.004220357
214	0xbcd6ed61	-0.026236238
215	0xbbf2087a	-0.0073862644
216	0x3bb6525f	0.0055640186
217	0x3c263fdd	0.010147062
218	0x3b90cb58	0.0044187717
219	0xbc9b9bff	-0.018995283
220	0xbb41e66e	-0.002958681
221	0x3b026f01	0.001990259
222	0xbcd5f5b5	-0.026118139
223	0x3c63df76	0.013908258
224	0xbcca3f6b	-0.024688443
225	0x3c6fdf09	0.014640578
226	0xbb9e8f8e	-0.0048388904
227	0x3ab3a006	0.0013704307
228	0xbb321618	-0.0027173813
229	0xbcc728f2	-0.024311516
230	0xbc2c70c6	-0.010524934
231	0xbc809b85	-0.015699157
232	0x3c92c886	0.017917883
233	0xbabcab2c	-0.0014394275
234	0x3b6f489a	0.003651178
235	0x3c44a9d2	0.012003379
236	0x3bbd9d5c	0.005786581
237	0xbba87666	-0.0051410673
238	0xbad89187	-0.0016522863
239	0xbca386c5	-0.019961724
240	0x3ac0ea79	0.0014718316
241	0xb98c467c	-0.00026755396
242	0x3bdebee0	0.0067976564
243	0xbccd8d73	-0.025091862
244	0xbc3bf9de	-0.011473147
245	0x3ca0ad9d	0.019614035
246	0x3bb65d96	0.0055653555
247	0x3c5ef694	0.0136085935
248	0x3c29a425	0.0103540765
249	0x3b5c97db	0.003365985
250	0x3bb64bb0	0.005563222
251	0xbb11cb24	-0.0022246325
252	0xbcbc8dbe	-0.023016807
253	0x3c097bb0	0.008391306
254	0xbc05de85	-0.008170729
255	0x3af7be11	0.0018901249

convs.2.weight f4 [32, 32]
0	0x3ccd64d4	0.025072493
1	0xbcba45b5	-0.022738317
2	0xbabde805	-0.0014488703
3	0xba1d9c1a	-0.00060123357
4	0x3b4dda68	0.0031410698
5	0xbbe969a7	-0.0071231904
6	0x3b8a1d7e	0.0042149415
7	0x3b899302	0.004198433
8	0x3963a822	0.00021711041
9	0xbc8386d7	-0.016055508
10	0xba5019a3	-0.00079383905
11	0x3c0268a6	0.00795952
12	0xbb78988c	-0.0037932722
13	0x3c59a3a5	0.013283645
14	0x3940ef7a	0.00018399759
15	0x3c1057d8	0.008810006
16	0xbb92d327	-0.0044807377
17	0xbc20707b	-0.009792442
18	0x3cc705f0	0.024294823
19	0x3a9cbc7c	0.0011958028
20	0xbc01a30d	-0.0079124095
21	0x3c2ebcc7	0.010665125
22	0x3b8e8a11	0.004349955
23	0xbad9ac03	-0.001660705
24	0x3c2e090e	0.010622276
25	0x3cd077db	0.025447777
26	0xbc92e607	-0.017931951
27	0x3c1d739c	0.009610083
28	0x3acd5da6	0.0015668168
29	0xbcc07cfb	-0.023497095
30	0xbb2fa11e	-0.0026798914
31	0x3c2e7128	0.010647096
32	0xbc41312c	-0.011791509
33	0x3ca750fd	0.02042436
34	0x3c4bea35	0.012445976
35	0x3bb8a965	0.005635428
36	0x395af3bb	0.00020880897
37	0xbc71bd92	-0.01475467
38	0xbcacf783	-0.021114117
39	0xbcc1d36a	-0.02366038
40	0xbcad75c5	-0.021174321
41	0x3c16d45b	0.009205903
42	0x3bcfaf09	0.0063380045
43	0xbcb97262	-0.02263755
44	0xbc83c3e0	-0.016084611
45	0x3c0a1f43	0.008430305
46	0xbab5a533	-0.0013858437
47	0x3c2af1fc	0.01043367
48	0x3c8b9792	0.017040048
49	0xbbe8bbe0	-0.0071024746
50	0x3c918f6d	0.017768586
51	0x3c1baab3	0.009501147
52	0xbc12d79f	-0.008962541
53	0x3c6a04ff	0.014283418
54	0x3c1cf6f9	0.009580367
55	0x3a907d9d	0.0011023764
56	0xbbb7519c	-0.0055944454
57	0xba87a2e4	-0.0010348228
58	0xbcc662be	-0.024217006
59	0x3ccf2e5a	0.025290657
60	0x3c0bb20b	0.0085263355
61	0x3bdc9ffd	0.0067329393
62	0xbbc4bd3a	-0.006004003
63	0x3cd04f27	0.025428368
64	0xbb0caf59	-0.002146682
65	0xbad5195c	-0.0016258168
66	0xbc24ee5f	-0.010066598
67	0xbbdac648	-0.006676469
68	0xbcd39ef4	-0.02583263
69	0x3b4500ce	0.0030060294
70	0xbc2d74dc	-0.0105869435
71	0x3b9ae550	0.004727043
72	0x3c46b533	0.012128162
73	0x3c2a0be1	0.010378809
74	0xb84b7e58	-4.851664e-05
75	0xbbdcf38c	-0.0067429002
76	0x3c1c66bd	0.009545979
77	0x3c9f7691	0.019465717
78	0x3b154c4d	0.0022781075
79	0x38225034	3.8698505e-05
80	0x3c56967c	0.013097402
81	0x3c8b973d	0.01703989
82	0xbc668668	-0.014070131
83	0x3ab70215	0.0013962412
84	0xbb8fd08f	-0.004388876
85	0x3b5a7961	0.0033336508
86	0xbb23b4a4	-0.0024979496
87	0xbcbb8d93	-0.022894656
88	0x3b342b2c	0.0027491553
89	0x3c17b7b7	0.00926011
90	0x3b9eb31f	0.0048431302
91	0x3aa04cbe	0.0012229902
92	0x3c04f2e9	0.008114555
93	0xbbb4672d	-0.0055054636
94	0x38cb9085	9.706713e-05
95	0x3c125149	0.008930513
96	0x3a7d0811	0.0009652386
97	0xbb371690	-0.0027937032
98	0xbcbe42f3	-0.023225283
99	0xbc1d566b	-0.009603123
100	0x3a8213ca	0.000992411
101	0x3b5bf8ee	0.0033565122
102	0xbc37c350	-0.011216
103	0x3c8aa4ee	0.016924348
104	0x3c7a7b3c	0.01528817
105	0xbbbcec2f	-0.00576546
106	0x3c4980e6	0.012298798
107	0x3cca639b	0.024705699
108	0xbc9342a9	-0.017976122
109	0xbca10ef9	-0.01966046
110	0xbb867c0b	-0.0041041425
111	0xbc352e74	-0.011058439
112	0xbc1c33b0	-0.009533808
113	0x3abf192b	0.0014579644
114	0xbbb5d8d9	-0.005549532
115	0x3993c342	0.00028183503
116	0xbbe823b9	-0.0070843366
117	0xba869845	-0.0010268769
118	0xbc117383	-0.008877638
119	0x3ccd7886	0.025081884
120	0xbcbf8714	-0.02337984
121	0xba45f10c	-0.00075508724
122	0xbb09a49b	-0.0021002654
123	0x3b567181	0.0032721462
124	0x3a6fb927	0.00091447163
125	0xbcb8aae4	-0.022542424
126	0x3baeedd1	0.0053384085
127	0x3b073f05	0.0020636928
128	0xbabe96c8	-0.0014540786
129	0xbcc10af6	-0.023564797
130	0xbb07a52a	-0.002069781
131	0xbbe8f7a8	-0.007109601
132	0xbc2c1a63	-0.010504338
133	0x3bf1783b	0.007369069
134	0x3bb01a5c	0.005374236
135	0x39ed324e	0.00045241643
136	0xbc1cf7e1	-0.009580583
137	0xbbbe3c4b	-0.0058055273
138	0xbb1591f9	-0.0022822602
139	0x3b944d39	0.004525807
140	0x3b230c53	0.0024879172
141	0xbcc3c9db	-0.023899963
142	0xbc8b0b4c	-0.01697316
143	0x3bbdc932	0.0057918066
144	0xbb583a26	-0.0032993644
145	0xbbbceeda	-0.005765778
146	0x3c7986bb	0.015229876
147	0x3c8eac70	0.017416209
148	0xba1c7e20	-0.0005969722
149	0xbc6a586f	-0.014303311
150	0xb986e2fc	-0.00025727588
151	0xbc9596b1	-0.018260332
152	0xb990e9dd	-0.00027640062
153	0xbc984540	-0.018587708
154	0xbc046693	-0.008081096
155	0xbadcfb7c	-0.0016859616
156	0xbc16f9fe	-0.009214876
157	0x39b8067c	0.00035100046
158	0xb9399ed1	-0.00017702139
159	0xbb340622	-0.0027469476
160	0x3c059817	0.008153937
161	0xb99e5d7c	-0.0003020576
162	0xbbfd1a74	-0.0077241007
163	0x3b21bcb6	0.002467913
164	0x3c05564a	0.008138249
165	0xbc811927	-0.015759064
166	0xbc211df2	-0.0098338
167	0xbb5b2b15	-0.0033442427
168	0xb9d689b4	-0.00040919858
169	0x3b093d46	0.0020941063
170	0x3bfa9e41	0.00764826
171	0xbbb2ff94	-0.005462596
172	0xbad994fe	-0.0016600189
173	0x3a3d95cc	0.00072320993
174	0x3c22a1e4	0.009926293
175	0x3cbc2c57	0.022970362
176	0xbbb5f2b8	-0.005552616
177	0xbb1207c3	-0.0022282458
178	0x3b939f3d	0.0045050667
179	0x3b9fae2b	0.0048730574
180	0xba904670	-0.001100732
181	0x3b3838a7	0.002810994
182	0xbc20f4f4	-0.009824026
183	0xba85ef94	-0.0010218495
184	0xbb83f78e	-0.0040273136
185	0xbc28b5b7	-0.01029723
186	0x3cd1f7c8	0.025630847
187	0xbcadb50f	-0.0212045
188	0x3b65cd44	0.0035064975
189	0x3cbdf510	0.023188144
190	0xbc44144a	-0.011967728
191	0xbb345054	-0.00275137
192	0x3ae9af01	0.0017828644
193	0x3bad3965	0.005286383
194	0x3c1b6725	0.009485041
195	0xbb1401f6	-0.0022584177
196	0x3ab86efd	0.0014071163
197	0xbca5b2c3	-0.020226842
198	0x3bb2b7ab	0.005454024
199	0xbbc0144a	-0.0058617936
200	0xbc1cc5fa	-0.009568686
201	0x3c23fa2c	0.010008376
202	0x3bb4d496	0.0055185063
203	0x3b3c01a8	0.002868751
204	0x3baeed74	0.005338365
205	0xbac774f0	-0.0015217345
206	0x3b4e1a9d	0.0031448968
207	0x3bd9fe6d	0.0066526444
208	0x3c2ea01b	0.010658289
209	0xbaa2750a	-0.00123945
210	0x3a55d7df	0.00081574725
211	0x3ac00740	0.0014650598
212	0xbb8d575a	-0.0043133916
213	0x3c751ba1	0.0149602005
214	0xbbb69b78	-0.0055727325
215	0xbaedca3c	-0.0018141936
216	0x3b1ae3c7	0.00236343
217	0x3c0ec3f2	0.008713709
218	0xbc9359bc	-0.017987125
219	0xbcd2dc02	-0.025739674
220	0xbc94adcf	-0.018149285
221	0x398f2648	0.00027303607
222	0x3bb59b71	0.0055422117
223	0xbb54eaeb	-0.0032488655
224	0xbc0c490a	-0.008562336
225	0x3c640554	0.013917286
226	0xbc2dc9ab	-0.010607163
227	0x3c1c9c57	0.009558759
228	0x3c1cce8c	0.009570729
229	0xbb8b8d5b	-0.0042587942
230	0x3ace87d1	0.0015757029
231	0xbcd2f0f4	-0.025749661
232	0xbcd63807	-0.026149763
233	0xbba2b3f1	-0.0049652983
234	0x3b24677f	0.0025086103
235	0xbc942ad2	-0.018086825
236	0xbc2805f7	-0.010255328
237	0x3b79a019	0.003808981
238	0xbb247668	-0.002509499
239	0x3cc4e1a2	0.024033371
240	0xb8f5cd81	-0.000117207885
241	0xbc9d1ada	-0.019177843
242	0x3ae6668d	0.001757817
243	0x3cd5302b	0.026023945
244	0x3acbe7ea	0.0015556787
245	0xbb2f5792	-0.0026755077
246	0x3c2e1cf9	0.010627025
247	0x3b6ece30	0.0036438815
248	0xbc2b7056	-0.010463795
249	0xbb599aaa	-0.003320376
250	0xbcd5bd0b	-0.02609112
251	0xb98000a1	-0.0002441453
252	0x3bf70a31	0.0075390567
253	0xbb6cd058	-0.0036134925
254	0xbb332982	-0.0027337973
255	0x3c79012d	0.015198034

convs.3.weight f4 [32, 32]
0	0x3b937931	0.004500531
1	0xbaddeadb	-0.0016930954
2	0xbbf35346	-0.0074256985
3	0xbbf6d790	-0.0075330213
4	0xbaa57f8f	-0.0012626516
5	0x3c2442aa	0.01002566
6	0x3b4f098c	0.0031591384
7	0xbb40cee1	-0.0029420184
8	0xbb866231	-0.004101061
9	0xbcc8b7f4	-0.024501778
10	0x3c20c430	0.0098124
11	0x3aa5f3d9	0.0012661173
12	0x3c8de76f	0.01732227
13	0xbb8401c9	-0.004028533
14	0x3ae4c7de	0.0017454585
15	0x3bb48659	0.0055091796
16	0xb9342511	-0.00017179946
17	0x3a86ebed	0.00102937
18	0x3b942143	0.0045205667
19	0x3ab5015c	0.0013809609
20	0xbc07d001	-0.008289338
21	0xbcbfdf54	-0.02342192
22	0xbad9356d	-0.0016571708
23	0xb995e344	-0.0002858882
24	0x3c9a4ce4	0.018835492
25	0xba8f0cfc	-0.0010913904
26	0x3c823bec	0.015897714
27	0xbbb6bc26	-0.0055766283
28	0xbb061279	-0.0020457788
29	0x3cbfff58	0.023437187
30	0x3b5d5400	0.0033771992
31	0xba462b0e	-0.0007559516
32	0x3a96604b	0.0011472789
33	0xbbce242b	-0.0062909327
34	0xbc3ed767	-0.011648036
35	0x3bbab742	0.0056981156
36	0xbb4b08dc	-0.0030980622
37	0xbc04ee54	-0.0081134625
38	0xbc15f6b7	-0.00915306
39	0x3c95fd50	0.018309265
40	0x3c17bb3e	0.009260951
41	0x3ad168ba	0.0015976646
42	0x3b257a15	0.0025249769
43	0xbaf3b8d7	-0.0018594515
44	0xbc27378d	-0.010206115
45	0xbc8fc401	-0.017549517
46	0xbbba0e69	-0.0056779874
47	0x3b54b40b	0.0032455947
48	0x3afc6895	0.0019257242
49	0x3c64a037	0.013954214
50	0x3c96e5f2	0.018420193
51	0xbcce0972	-0.025150988
52	0x3cc3589e	0.023845967
53	0x3b6d2713	0.003618662
54	0xba8f7edb	-0.001094784
55	0x3c8cb269	0.017174916
56	0xbc92ae18	-0.01790528
57	0xbb87f27b	-0.004148779
58	0x3b85883f	0.0040750797
59	0xbb8076c9	-0.0039204103
60	0xbc2b1cac	-0.010443848
61	0x3cd66768	0.026172355
62	0x3cc54fcc	0.024085902
63	0x3c2d8bde	0.010592429
64	0x3c2c0c85	0.010501032
65	0xbb5d8bf2	-0.0033805338
66	0xbccce760	-0.025012672
67	0xbb0bb36f	-0.0021316668
68	0xbcb6b2e8	-0.022302106
69	0x3b5c54cd	0.003361988
70	0xbb2a477a	-0.0025982545
71	0x3beb9789	0.0071896953
72	0xbbb5458d	-0.0055319727
73	0xbc5b23b2	-0.01337521
74	0x3b0a84db	0.0021136317
75	0xbc937769	-0.018001275
76	0x39821449	0.00024810646
77	0xbcc3d5a4	-0.023905583
78	0x3a1a1882	0.0005878286
79	0x3cd6d5fd	0.026225084
80	0x3c2d8332	0.010590361
81	0x3be90a0d	0.007111794
82	0x3c25424d	0.010086608
83	0x3c22652f	0.009911819
84	0xbacd9a3b	-0.0015686223
85	0xbc207125	-0.009792601
86	0xbc9e89ad	-0.019352758
87	0xbb0c87f0	-0.002144333
88	0xbaa1fba9	-0.0012358326
89	0x3ca63edc	0.020293646
90	0x3b6a80c8	0.0035782326
91	0x3b558eb8	0.0032586288
92	0xba02001d	-0.00049591233
93	0x3c2777d9	0.010221445
94	0xbb8ad94d	-0.00423733
95	0x3b651f64	0.0034961337
96	0x3a13fa7f	0.0005644932
97	0x3b9b9f2f	0.004749201
98	0xbc293cce	-0.010329438
99	0x3c20a6c0	0.009805381
100	0x3b91b8a7	0.004447061
101	0xbcd1bf2a	-0.02560385
102	0x3c27ba58	0.010237299
103	0xbc7a7ee8	-0.015289046
104	0x3cabf0ad	0.020988787
105	0x3b13eefa	0.002257286
106	0xbb813352	-0.0039428854
107	0x3c1bd1ac	0.009510439
108	0x3c9e0654	0.019290127
109	0x38d2d70e	0.000100536374
110	0x3c9bdbc3	0.019025689
111	0x3bda6195	0.0066644647
112	0x3be3b66d	0.006949237
113	0xbbafec01	-0.00536871
114	0x3a17dec4	0.00057933875
115	0x3c28a287	0.010292656
116	0xbae53faf	-0.0017490293
117	0x3c70da21	0.0147004435
118	0x3b9c7f89	0.0047759456
119	0x3c8df327	0.017327858
120	0x3b0aebd5	0.0021197696
121	0xbcd0728a	-0.025445241
122	0x3c091885	0.008367662
123	0xbc176770	-0.00924097
124	0xbcc57938	-0.024105653
125	0x3bdb2cf7	0.00668871
126	0xbb2437dc	-0.002505771
127	0xbb002a42	-0.0019556438
128	0x3ba0383f	0.0048895176
129	0xbc64d0e5	-0.01396582
130	0x3b5b934f	0.003350455
131	0xbc6441fd	-0.013931748
132	0xb994005f	-0.00028229036
133	0x3c6c83c3	0.014435711
134	0xb86ac4fc	-5.5973404e-05
135	0xb96c3835	-0.00022527653
136	0xbb5d4ebd	-0.0033768856
137	0x3a8993d8	0.0010496331
138	0xba155bdf	-0.0005697589
139	0x3ca3e537	0.02000676
140	0xbb969391	-0.004595228
141	0xbb760d43	-0.0037544526
142	0x3a8dcd85	0.0010818696
143	0xb98a32bc	-0.0002635921
144	0x3b08d3e6	0.0020878254
145	0xbc93a344	-0.018022187
146	0x39542df3	0.00020235013
147	0xbbe2062f	-0.00689771
148	0x3c180f01	0.009280921
149	0xbaa827bd	-0.0012829226
150	0x3b4e3085	0.0031462025
151	0xbc2eb5e7	-0.010663486
152	0xbb78c7aa	-0.0037960806
153	0x3b529b57	0.0032136047
154	0xbc04cd89	-0.008105644
155	0x3b7dee82	0.0038746898
156	0xba98e2f2	-0.0011664315
157	0x3b9b0eea	0.0047320025
158	0x3b35850b	0.0027697708
159	0xbaf48f29	-0.0018658388
160	0xbb511790	-0.0031904913
161	0xbc8e7586	-0.017390024
162	0xbc21090b	-0.009828816
163	0x3a6796ec	0.000883444
164	0xbc3d6d83	-0.011561754
165	0xbb061b57	-0.0020463073
166	0xb94d759f	-0.00019594141
167	0x3bcbb044	0.006216081
168	0x3cd8752d	0.026423061
169	0x3ad2bd04	0.001607806
170	0x3b355aa1	0.0027672427
171	0x3c1b9e3c	0.009498175
172	0x3c11c554	0.008897144
173	0x3cba3b58	0.022733375
174	0xbc180849	-0.009279319
175	0xbaf53aa2	-0.001870949
176	0xbc8bfd15	-0.017088452
177	0xbb5d9a69	-0.003381396
178	0x39655da8	0.00021874032
179	0xbccbfd2e	-0.024900999
180	0x3b089e6e	0.0020846385
181	0xbbf9fcc3	-0.0076290085
182	0xbc5e348e	-0.013562335
183	0xbc2e8ce1	-0.010653705
184	0xbc2cd141	-0.010547937
185	0x3c61f0d4	0.013790328
186	0xbbf7c70e	-0.007561571
187	0x3bd37291	0.0064528664
188	0x3a9f26e5	0.0012142329
189	0xbbe60053	-0.0070190816
190	0x3c025c52	0.007956581
191	0x3c56dede	0.013114659
192	0xbbd33581	-0.006445587
193	0x3a93588e	0.0011241601
194	0xbcd68469	-0.026186185
195	0x3c032fc4	0.008006994
196	0xbc80dcc2	-0.015730266
197	0xbb8579ce	-0.004073358
198	0x3cb8c885	0.022556553
199	0x3cd1ff89	0.025634544
200	0xbbaded8d	-0.0053078593
201	0x3b0ccdfe	0.0021485086
202	0x3a437537	0.0007456126
203	0x3b48e563	0.0030654303
204	0x39ea67e8	0.00044709374
205	0xbc116076	-0.008873096
206	0x3cc3af8b	0.023887416
207	0x3bb6ab2f	0.005574606
208	0x3ca68bc6	0.020330321
209	0xb9eda97a	-0.00045330432
210	0x3bad18e5	0.0052825087
211	0x3c95bd73	0.018278813
212	0xbc134608	-0.008988865
213	0x3b8f8397	0.0043797004
214	0x3bc62ae0	0.0060475916
215	0x3c86db2f	0.016461937
216	0xba0756c5	-0.0005162771
217	0x3b1086d2	0.0022053015
218	0xbb2ca73f	-0.0026344804
219	0xba864ecd	-0.0010246873
220	0x3cbc9d90	0.02302435
221	0x3cb6b6bc	0.022303931
222	0xbbc7d719	-0.0060986397
223	0x3ccdca47	0.025120867
224	0xbcacbbb6	-0.021085601
225	0xbbee0eb0	-0.0072649345
226	0xbca6e295	-0.020371715
227	0x3b12f9f5	0.0022426818
228	0xbc0df605	-0.008664613
229	0x3ba07f93	0.0048980205
230	0xbc960b7e	-0.018316027
231	0xbc1621a8	-0.009163298
232	0x3cce19ca	0.025158782
233	0xbbf3b61d	-0.007437481
234	0xba8b1007	-0.0010609635
235	0x3ac1e812	0.0014793894
236	0x3cae7bfe	0.021299358
237	0xbade1a5a	-0.0016945109
238	0x3982e8d0	0.0002496899
239	0x3c2d900c	0.0105934255
240	0xbbb97d5e	-0.005660697
241	0x3c01f30c	0.007931482
242	0x3cd31837	0.025768382
243	0x3bb608c5	0.0055552446
244	0x398433b5	0.00025215527
245	0xba78923d	-0.00094822404
246	0x3bd4b001	0.006490708
247	0x3a523828	0.0008019232
248	0xbc2d363b	-0.010572012
249	0xbc844c8b	-0.01614978
250	0xbb10ad6d	-0.0022076026
251	0x3c2a9448	0.01041133
252	0xbbf3aebd	-0.007436602
253	0x3c2e873f	0.010652362
254	0xbc088960	-0.008333534
255	0x3bb059c4	0.0053817946

convs.4.weight f4 [32, 32]
0	0xbbf46d8a	-0.007459347
1	0x3c5c9f9c	0.013465788
2	0x3c0d3e1b	0.008620764
3	0x38dde90d	0.0001058151
4	0xbb80f950	-0.0039359704
5	0x3bd0b633	0.006369376
6	0x3a9f8aac	0.0012172065
7	0x3cb61e18	0.022231147
8	0xb9bbf122	-0.00035847077
9	0xbb060252	-0.002044816
10	0xbb675b8a	-0.0035302364
11	0x3c102a38	0.008799128
12	0x3cc31a99	0.023816394
13	0xbb93da64	-0.004512118
14	0x3ad3a90e	0.0016148405
15	0xb9d4e4d1	-0.00040606273
16	0xba8ebeec	-0.0010890639
17	0x3c29a74b	0.010354827
18	0xbc836f99	-0.016044425
19	0x3967b8b9	0.00022098691
20	0xb97f2145	-0.00024331089
21	0xba977192	-0.0011554232
22	0x3cb7bd0d	0.022429014
23	0x3c9ba069	0.018997388
24	0x3cc6efe6	0.024284314
25	0xbcadd4ba	-0.0212196
26	0x3cd79bf0	0.026319474
27	0x3c266d0c	0.010157835
28	0xbb854ebe	-0.0040682247
29	0xbcc08cb4	-0.023504592
30	0xbc5c0b9d	-0.013430503
31	0x3c1bb82d	0.00950436
32	0xba677e08	-0.0008830731
33	0xbbe73b91	-0.0070566614
34	0x3c93dfa1	0.01805097
35	0xbc6d6d5b	-0.014491404
36	0x3c2d1abf	0.010565459
37	0x3baf8b41	0.0053571765
38	0xbcd65689	-0.02616431
39	0x3beeff3f	0.0072936113
40	0x3cc92080	0.02455163
41	0x3caab996	0.020840447
42	0x3a55b45b	0.000815218
43	0x3b685e8b	0.0035456743
44	0xbcc528b7	-0.024067266
45	0xb84e90bc	-4.924902e-05
46	0x3af01b38	0.0018318659
47	0x3c279b14	0.010229845
48	0xbbd415d4	-0.0064723287
49	0xbb9a4e54	-0.0047090445
50	0x3bf97124	0.0076123644
51	0xbc084cb4	-0.008319069
52	0x3cd507e7	0.026004745
53	0x3cb2a6aa	0.021807987
54	0xbb0935f7	-0.0020936707
55	0x3c061975	0.00818478
56	0x3aa80af3	0.0012820646
57	0xba617d40	-0.00086017326
58	0xbcd0ed87	-0.025503887
59	0x3b725e80	0.0036982596
60	0xbc3c6428	-0.0114984885
61	0x3baf013f	0.0053407247
62	0x3cc8f977	0.024533017
63	0x3bafcc4e	0.005364931
64	0x3854227d	5.057686e-05
65	0xbcb42348	-0.02198948
66	0x3cc73d96	0.024321359
67	0xbcbec1d9	-0.023285793
68	0xbc220348	-0.009888478
69	0xba1032b1	-0.00055007177
70	0xbc47bacc	-0.012190532
71	0xbad3913f	-0.0016141309
72	0xbc7647d4	-0.015031774
73	0x3ac3afef	0.0014929752
74	0x3c233d1f	0.009963303
75	0x3cd5c8ad	0.026096666
76	0x3cce43be	0.025178786
77	0xbcd672bd	-0.026177758
78	0xbafbf4dd	-0.0019222755
79	0xbbdce694	-0.0067413542
80	0xbcb02f90	-0.021507055
81	0xbab3ee7b	-0.0013727689
82	0xbb5f6dbf	-0.0034092513
83	0xbb2f7463	-0.0026772253
84	0xbb5b723d	-0.003348484
85	0xbc2dab1f	-0.0105998805
86	0x3b12cf7b	0.00224015
87	0x3b9e952f	0.0048395614
88	0x3bc4adba	0.006002155
89	0xb90f1aa4	-0.00013647467
90	0xba0962d3	-0.0005240861
91	0xb999f0b7	-0.0002936178
92	0xbad371b1	-0.0016131905
93	0x3ae18473	0.0017205611
94	0xbc2a7d3f	-0.010405838
95	0x3bb80b44	0.0056165773
96	0x3b9182bb	0.004440633
97	0x3c210ad0	0.009829238
98	0xbbd17f8d	-0.006393379
99	0x3bb0ff6b	0.005401542
100	0xbc28da6a	-0.01030598
101	0xbcc3767d	-0.02386021
102	0x3c28af7b	0.010295744
103	0xbc2e48f0	-0.010637507
104	0x3ac8a6b0	0.0015308466
105	0xbb906b0c	-0.004407292
106	0xbcd8c120	-0.026459277
107	0x3b68cbb7	0.0035521814
108	0x3b91dcba	0.0044513615
109	0xbb4d5aed	-0.0031334714
110	0x3bb4e602	0.005520583
111	0x38ed212e	0.00011307221
112	0xbb8d3482	-0.004309238
113	0xb8a53dc1	-7.879316e-05
114	0x3a8870f6	0.0010409642
115	0xbb491fcf	-0.0030689125
116	0x3b443f89	0.0029945096
117	0xbc0d5800	-0.008626938
118	0x3c871545	0.016489634
119	0x3bd7044b	0.006561791
120	0xbc63caac	-0.013903301
121	0xbb35637b	-0.0027677703
122	0xb852d354	-5.0264716e-05
123	0xbbc8663b	-0.0061157024
124	0x3c17fde9	0.0092768455
125	0x3bebcc1e	0.0071959635
126	0x3ca1ad45	0.019735942
127	0x3c2cb545	0.010541265
128	0xb8306dee	-4.206405e-05
129	0xbb9879f8	-0.0046532117
130	0x3c851b31	0.016248317
131	0xbabee9d3	-0.0014565535
132	0xbc183885	-0.009290819
133	0xbbc60c18	-0.006043922
134	0x3c38d7dc	0.011281934
135	0x3b99173f	0.0046719606
136	0xbbbcb95d	-0.0057594017
137	0x3a85f856	0.0010221105
138	0xbaed52b0	-0.0018106308
139	0x3bba6e69	0.0056894314
140	0x3cbad60e	0.022807147
141	0xbbb2d1fd	-0.0054571615
142	0x3c5bf1ad	0.013424319
143	0xbc114316	-0.008866092
144	0xbcd7dcf0	-0.026350468
145	0x3b1e477c	0.0024151495
146	0xbc3ca364	-0.011513565
147	0xbab5b070	-0.0013861787
148	0x3a4935a4	0.00076755346
149	0xbb0ca6f7	-0.0021461823
150	0x3c885423	0.016641682
151	0x3bb25b1b	0.0054429895
152	0x3ca8c8f4	0.020603634
153	0xbc0995a5	-0.008397494
154	0xbca8a9e1	-0.020588817
155	0xbcce6a68	-0.025197223
156	0xbab99ac2	-0.0014160501
157	0x3b1814cf	0.0023205762
158	0x3a8c5590	0.0010706652
159	0xbbabfb4b	-0.0052484623
160	0x3ba31ed3	0.00497804
161	0x3b01e3ee	0.0019819695
162	0x3b82e145	0.0039941394
163	0xbc29e049	-0.010368415
164	0xbb5201d1	-0.003204454
165	0xba0494a5	-0.000505755
166	0xbab8a299	-0.0014086544
167	0x3c2b948d	0.010472429
168	0x3b128612	0.0022357744
169	0xbbd75f7e	-0.006572663
170	0x3ac86d2d	0.0015291326
171	0x3c07bcb0	0.008284733
172	0x3c98e18c	0.018662237
173	0xbbcb7ac2	-0.006209702
174	0x3cbe7e7d	0.023253674
175	0xbc5f82ed	-0.013642055
176	0x3c2eabeb	0.010661106
177	0xbc25e81e	-0.010126142
178	0x3b874053	0.004127541
179	0xbacb24bd	-0.001549862
180	0x3cd68b18	0.026189372
181	0x3c1d22f7	0.009590856
182	0xbb2a5d81	-0.0025995674
183	0x3aec4962	0.0018027241
184	0xbc29dfd3	-0.010368305
185	0xbbb0b70f	-0.005392916
186	0x3c618002	0.01376343
187	0x3b8fc2b2	0.004387223
188	0xb9d63c7d	-0.00040862328
189	0xbbac660c	-0.0052611884
190	0xbc7e63e3	-0.015526745
191	0x3cd19d2e	0.025587644
192	0x3c1f16ed	0.009710056
193	0x3a546e95	0.0008103636
194	0xbc1c5110	-0.009540811
195	0x3b20cad3	0.0024534955
196	0x3c9b1aac	0.018933617
197	0x3c1829e2	0.009287329
198	0xba8ea30c	-0.0010882332
199	0x3cc23a4b	0.023709437
200	0xbbb55897	-0.0055342424
201	0x3c448ff7	0.0119972145
202	0x3c24af67	0.010051585
203	0xba23ea2d	-0.00062528515
204	0x3be1a1fc	0.006885765
205	0xbccfe56a	-0.025377948
206	0xbb9d9a16	-0.0048096282
207	0x3b5d4cbd	0.0033767663
208	0x39da6ef7	0.00041662875
209	0xbcac5fa6	-0.021041702
210	0xbbafbe9b	-0.005363298
211	0xbb683ab4	-0.003543538
212	0x3c1d5606	0.009603029
213	0x3c23512c	0.009968083
214	0x3c8897d1	0.016673954
215	0x3c8c63ab	0.01713737
216	0x3aac6476	0.0013152498
217	0xb8edeb7f	-0.00011344905
218	0x3bea2309	0.00714529
219	0x3c997371	0.018731805
220	0x3af2360e	0.0018479244
221	0x3b952ebf	0.0045526917
222	0x3c7e25a9	0.015511909
223	0x3cd8989f	0.026439963
224	0xbc316edd	-0.0108296545
225	0xbb9217f1	-0.0044584204
226	0xbc116b02	-0.00887561
227	0x3b6a997c	0.003579705
228	0xbb18d619	-0.0023320972
229	0xbc4ae490	-0.012383595
230	0xbbc208b1	-0.0059214463
231	0xba6c5fea	-0.0009016978
232	0xbbee3f8a	-0.007270758
233	0xbc0f9673	-0.008763897
234	0x3b3814d1	0.002808858
235	0xb74d2c33	-1.2229243e-05
236	0xbb5f9f0b	-0.0034121897
237	0x3b93e811	0.0045137485
238	0xbc926226	-0.017869066
239	0x3c1d213d	0.009590444
240	0xba8605f0	-0.0010225158
241	0xbc1d0b69	-0.00958524
242	0xba18f144	-0.0005834291
243	0xbc29fb85	-0.010374908
244	0xbcaf014f	-0.021362929
245	0xbc8a0fb8	-0.016853198
246	0xbba3fb50	-0.005004324
247	0xb8b37cc1	-8.558622e-05
248	0xba4128fc	-0.0007368473
249	0x39d5eb07	0.00040801635
250	0x3a48796a	0.00076474866
251	0x3cb4e93e	0.022083875
252	0x3c1ce10c	0.00957514
253	0xbac43ec7	-0.0014972322
254	0x3b9b65c8	0.004742358
255	0x3cc8c7a3	0.024509257

convs.5.weight f4 [32, 32]
0	0xbb477f47	-0.0030440853
1	0xbbacabc7	-0.005269501
2	0xbb4280ae	-0.002967875
3	0x3c9562e1	0.018235626
4	0xbb3acd1d	-0.0028503605
5	0xbcb2beea	-0.02181955
6	0x3bcd9722	0.00627412
7	0x3b261898	0.002534425
8	0xbb01b112	-0.001978938
9	0x3c269799	0.01016798
10	0xbcae2cf3	-0.021261668
11	0x3c033539	0.008008295
12	0x3b72bda3	0.0037039302
13	0x3cb78715	0.02240328
14	0xbb9a1d59	-0.0047032055
15	0x3a7210c5	0.0009234066
16	0xbb221779	-0.002473323
17	0xbc1a75c2	-0.00942749
18	0xbca5a366	-0.020219516
19	0xbc969f62	-0.018386547
20	0xbb967208	-0.0045912303
21	0xbcc1795f	-0.023617445
22	0x3cbff21d	0.023430878
23	0x3c2e24df	0.010628908
24	0x3b71fa22	0.0036922772
25	0xb99014d2	-0.00027481333
26	0x390634b2	0.00012798866
27	0xbc2ec6fe	-0.010667561
28	0x3c2bcead	0.010486287
29	0xbc2dd48f	-0.01060976
30	0xbb8f9c8d	-0.004382676
31	0x3af47596	0.0018650766
32	0xbc8fb7fe	-0.017543789
33	0xbbb15947	-0.005412254
34	0x3be3d124	0.0069524217
35	0x3cc6d02d	0.024269188
36	0x3c1fc06a	0.009750465
37	0x3c17fad2	0.009276109
38	0x3ccc34b9	0.024927484
39	0x3b20a06b	0.002450968
40	0xbc250302	-0.010071518
41	0x3cc858c5	0.024456391
42	0x3ca05520	0.01957184
43	0xbc95fd0c	-0.018309139
44	0x3be63e52	0.007026472
45	0xba53e51b	-0.00080831506
46	0x3b01467b	0.0019725848
47	0x3cd032c6	0.025414836
48	0xbbf32b8a	-0.0074209617
49	0xbcca9cba	-0.024732936
50	0x3ad91418	0.0016561775
51	0x3bb2c3ee	0.0054554855
52	0xba89b374	-0.0010505752
53	0xbb298201	-0.0025864842
54	0x3cc9de83	0.024642235
55	0xbc1b6dea	-0.009486655
56	0xbc25831b	-0.010102059
57	0x3b90f771	0.0044240286
58	0x3c9e3a34	0.019314863
59	0x3c98a697	0.018634124
60	0x3bf4e42e	0.00747349
61	0xbcb7f5c8	-0.022456065
62	0xbb18b203	-0.0023299463
63	0x3c116890	0.008875027
64	0xbb20f4a8	-0.002455989
65	0xbc2e7490	-0.010647908
66	0x3c0aa2b6	0.008461645
67	0x3cbdc55b	0.023165395
68	0xbb7da5f9	-0.0038703664
69	0xbccebeb7	-0.025237424
70	0x3c87ebce	0.016591933
71	0xbae9fc86	-0.0017851747
72	0xbca3fd70	-0.02001831
73	0x3845251b	4.7003017e-05
74	0xbb756447	-0.0037443803
75	0xbc2aa894	-0.010416169
76	0xbc202038	-0.009773307
77	0xbb24ec0f	-0.0025165116
78	0xbbacd1f1	-0.0052740504
79	0x3c2dbe9c	0.010604527
80	0x3baf88b0	0.0053568706
81	0xbc1d8b2a	-0.009615699
82	0xbc2c4b5e	-0.010516016
83	0x3bf7f78c	0.0075673517
84	0xbca41333	-0.020028686
85	0xbc0b54f6	-0.008504143
86	0x39f70693	0.0004711641
87	0xbcd0f14a	-0.02550568
88	0xbbf38dee	-0.007432691
89	0xbcc3463d	-0.023837203
90	0x3aaf4b83	0.0013373945
91	0xbcc3f48f	-0.023920326
92	0xbbc6e20d	-0.006069428
93	0x3c700977	0.014650694
94	0x3a8599c2	0.0010192918
95	0xbc0abee7	-0.008468366
96	0x3b646f05	0.0034856212
97	0x3b6c13f1	0.0036022628
98	0x3a81d7a9	0.0009906191
99	0xb82f6db8	-4.1825435e-05
100	0xbcc90949	-0.02454056
101	0xbb03346b	-0.0020020257
102	0xbb57f53f	-0.0032952575
103	0xba610afc	-0.00085847056
104	0xba3c99cd	-0.0007194549
105	0x3ade7ee6	0.0016975075
106	0x3c48c6ae	0.0122544
107	0xbb772f3a	-0.0037717358
108	0xb9933119	-0.00028074606
109	0xbb6b64f5	-0.003591833
110	0xba356216	-0.0006919218
111	0xbc55aaa7	-0.013041175
112	0xbc0f335b	-0.008740271
113	0x3bc7bb46	0.006095323
114	0x39c7871a	0.00038056896
115	0xbae07f3c	-0.0017127763
116	0x39db508b	0.00041830944
117	0xbc383725	-0.011243616
118	0xbab1322e	-0.0013518983
119	0xbc2dbbfa	-0.010603899
120	0x3a7ed1df	0.0009720604
121	0x3c09cb84	0.008410338
122	0xba92eecb	-0.0011210082
123	0x3c27dfd8	0.01024624
124	0xbb6fe829	-0.0036606884
125	0x3c7eceb2	0.01555221
126	0xbc23955b	-0.00998434
127	0x3c1fe94f	0.009760215
128	0x3b8bdd9d	0.0042683617
129	0xbc4ae818	-0.012384437
130	0x3cd1051b	0.02551513
131	0x3ba5acb0	0.0050559863
132	0x3cc04dae	0.02347454
133	0x3a876bf7	0.0010331859
134	0x3be0ab2e	0.0068563437
135	0xb994e387	-0.0002839828
136	0x3c1d66e0	0.009607047
137	0xbbac0120	-0.0052491575
138	0x3cb5ba0f	0.022183446
139	0x3bd6190f	0.006533749
140	0x3a28d9ea	0.0006441163
141	0x3ba9b4ae	0.0051790094
142	0x3b9b4546	0.0047384826
143	0xba38f659	-0.00070557516
144	0xbcd7ae45	-0.026328215
145	0x3cd2bce6	0.02572484
146	0x3cd622ce	0.026139643
147	0x3c2b404a	0.010452339
148	0xbbcdcce9	-0.0062805307
149	0xba1b3121	-0.00059201015
150	0xba8ccfd5	-0.0010743091
151	0xbc0db7b0	-0.008649752
152	0xbb220236	-0.0024720556
153	0xbaf1e038	-0.0018453663
154	0xbc208cf5	-0.009799232
155	0x39dd5cdd	0.00042221593
156	0x3c2a0a2b	0.010378401
157	0x3c99c290	0.018769532
158	0x3c9f28c9	0.019428628
159	0x3b03f25a	0.0020133466
160	0xbc2987b4	-0.010347296
161	0x3c27d933	0.010244655
162	0xbcd33493	-0.025781905
163	0x398e4537	0.0002713592
164	0x3c03a615	0.0080352025
165	0xbc26b99d	-0.01017609
166	0x3a782111	0.00094653765
167	0x3bb1242e	0.0054059243
168	0xbbb1dc81	-0.0054278974
169	0xb91290bc	-0.00013977563
170	0xbb422244	-0.0029622475
171	0x3b4b098d	0.0030981035
172	0x3afe2feb	0.0019392943
173	0xbc9f07c4	-0.019412883
174	0x3cc22757	0.0237004
175	0x3ac3f390	0.0014949907
176	0x3bb61bdc	0.0055575203
177	0xbba2bf8e	-0.0049666828
178	0x3cc91ee0	0.024550855
179	0x3c0d1cd1	0.008612827
180	0xbabf0683	-0.0014574084
181	0x3cc61e4b	0.024184367
182	0xba8002f1	-0.0009766502
183	0x3ba45a8f	0.0050156782
184	0xbb4c1be5	-0.0031144556
185	0x3c9ed5de	0.01938909
186	0x3b5a2c9a	0.0033290745
187	0x3b885019	0.004159939
188	0x3bb2c23d	0.005455284
189	0x3cc8203a	0.02442943
190	0xbbb15d31	-0.0054127206
191	0x3a5ecc00	0.00084990263
192	0x38699cf9	5.569772e-05
193	0x3c295d9e	0.0103372615
194	0x3c299215	0.01034977
195	0x3cd85da6	0.026411843
196	0x3c08baa6	0.008345282
197	0xbb90c1c1	-0.0044176285
198	0xbc14dfd0	-0.009086564
199	0xbbca48a5	-0.0061732107
200	0xbb9887ff	-0.004654884
201	0x3c0d1de8	0.008613087
202	0x3c01a2ae	0.007912321
203	0x3c0da618	0.008645557
204	0x39d6ac1b	0.0004094549
205	0x3b5db41f	0.0033829284
206	0xbc97cae1	-0.018529357
207	0x3cd20d90	0.025641233
208	0x3a52bfe3	0.00080394576
209	0xbaa3fce1	-0.0012511277
210	0x3c28eff1	0.010311113
211	0xbc01f65c	-0.007932272
212	0xbc1d836c	-0.009613853
213	0xbba52e48	-0.0050409175
214	0x3c06519b	0.008198167
215	0xba6c2358	-0.0009007952
216	0xbb85b522	-0.0040804306
217	0x3b3b2b65	0.00285598
218	0x3bf69d83	0.007526101
219	0xbc729a6b	-0.014807324
220	0xbab794fe	-0.0014006195
221	0x3918d56a	0.00014575353
222	0xbb71be0a	-0.0036886954
223	0x3c205bd8	0.009787522
224	0xbc896df4	-0.016776063
225	0x3cd1d3cc	0.025613688
226	0x3a6a8601	0.000894636
227	0x3cd25d77	0.025679333
228	0xbbb21bbf	-0.0054354365
229	0xbaab8dad	-0.0013088487
230	0x39acf647	0.00032989887
231	0x3ba4fd6a	0.005035092
232	0xbcd6cb98	-0.026220128
233	0x3cb87990	0.022518903
234	0x3cd0b621	0.02547747
235	0x3cb96525	0.022631237
236	0x39b3a3b8	0.0003426352
237	0x3caf6398	0.021409795
238	0xba845d54	-0.0010098615
239	0x3a0ae7d1	0.00052988256
240	0xbc1c5102	-0.009540798
241	0x3a84f7b8	0.0010144627
242	0x3b8d1e9b	0.004306627
243	0xbb878dbb	-0.0041367686
244	0x3cb177f6	0.021663647
245	0x3cd20241	0.02563584
246	0xbc83ead6	-0.01610319
247	0xbb430a3e	-0.0029760743
248	0x3ccff019	0.025383042
249	0x3c5cda1d	0.013479737
250	0x3a93990c	0.0011260821
251	0xbc2a5d3e	-0.010398207
252	0x3be0991d	0.00685419
253	0xbc5bc181	-0.013412834
254	0x3c99ba1e	0.018765505
255	0x37812648	1.5395824e-05
