checkpoint/Wikipedia/20231105_160001440986.pth (torch, 339335 bytes, 18 tensors)

convs.0.weight f4 [72, 138]
00000000: 42cd 64bd 4396 b63e 8450 adbe 8eac 623e
00000010: 9fa2 f43e 9cca 48bc 2a12 87be 9395 703e
00000020: d944 bbbc 5911 b2bd 6869 00be 42b4 dabd
00000030: 617d e83d 1064 e53d cf73 e0bd f516 883d
00000040: 62c6 eb3d de5a bb3e d31a 79be d72e dd3d
00000050: 70f0 b03b 032f 49bd 51a5 77bc 367d ad3b
00000060: 662f bcbc 971d 473e 7fcd b73d 7fce da3d
00000070: ca3c 73bd 9984 443e 5ba5 00bd dd4c a23b
00000080: 2077 fa3d 4be2 923d a8bc b9be 2d0d 483d
00000090: e8d7 9bbe be01 d2bd 0fa5 acbb d0da 21bc
000000a0: bc16 e8bd cdcf 62bc 5066 cb3b 8a1d 5dbc
000000b0: b542 a43d 2685 bb3c 1a87 0d3d 6445 93bb
000000c0: 42ed 78bc 593a 1a3b 806a 99be 4592 183b
000000d0: 4e0b 74bd 2b0c 5f3e 770e c8bc e90c 3fbd
000000e0: d156 cfbd 4397 e03d 56fc 91bc 9a8d 25bd
000000f0: fc5d 97be bd4d 23be 635b 13bd 48da 3ebb
00000100: ae81 ac3e 69a7 033f 7e10 a3be 3d0d 95bd
00000110: 8302 97bd c6ab 0fbe 0184 e2bd f2b0 6fbd
00000120: e3d6 06be 1e7d 06be bfa3 c4bd ba19 603e
00000130: f311 6cbe 152b 9c3d f2f5 0bbe 498e 50bc
00000140: e4c3 8c3e f7c4 333d e3b7 24be 7e02 483e
00000150: cc8a 7b3c ba00 853d 95b6 55be 03bf 47bd
00000160: a255 3dbe 2904 1c3e ee6b bfbd faf6 95bd
00000170: b32f aabc 8c6e e0b9 48eb 77be a85f febc
00000180: 8979 323d 0724 b53d a9a5 bdbe 311d 963d
00000190: 2230 92be 560c b93d 6586 2d3c 3b26 98b9
000001a0: c1ee b4bc af54 42bd 0fab bcbe 4714 6cbc
000001b0: a0e9 1fbb 1287 d1bc 63a4 523d 2ec7 b8bb
000001c0: b575 eabd 46fb 9db8 9a6f 3cbe 243a a03d
000001d0: 4335 f1bc 75e0 a23d 2286 d9bb 696e 92bd
000001e0: 87f0 3abe c186 99bd 78c9 0cbc 9828 f9bc
000001f0: d1e2 8cbe 7f0a c8bd 431e e0bb b595 4a3d
00000200: 3237 ecbe cdc9 ebbe 2585 553e c089 023d
00000210: 25fc 23bd c449 c6bd 7caf 10be c279 cdbe
00000220: 5b63 413f 3584 7e3f 85d4 85bd e7e2 d13d
00000230: eb1b 2bbd 2551 1ebe b995 a6bd ff3f 58bc
00000240: f34a 24be 0d95 5fbe 0691 b9bd 4cc1 71bd
00000250: 0001 acbc 9cc1 523d 9bc7 983c 6691 7abd
00000260: e90d 8f3c d544 923e 957b 78be 7730 a13e
00000270: 487e a03c df8d 863a cd7d 8f3d 496c d4bd
00000280: 3904 bdbc 3253 23bc c6f2 f0bb f63c c33e
00000290: 4476 e0bc 7baa a73d 60de f3bc 9792 a13d
000002a0: 4f40 28bd 59ed b23d 85d4 243e 7f85 d33d
000002b0: bc58 3ebe 6a0e 4f3e d1c1 20be eebc 14be
000002c0: 3a38 3bbd 6971 debd 957c f13d 3931 2b3d
000002d0: 0076 08bd 77b0 cebc fdb7 3ebd 75f5 0c3f
000002e0: ada1 18bd c5c0 8c3c 73ba d0bd 5278 f63e
000002f0: 6b8b 50be 2378 27be f0fd d6bd 2f60 f3bd
00000300: 6140 a43c 393e 333c e579 6e3d 324a a13c
00000310: 67bf 36bc 102c 803d 8a0a 67be f25b 123e
00000320: 7017 bb3c 02d1 343d e064 8eb9 94dc c33e
00000330: 71cb fcbd ac1f e2bd d34f c3bb 88b6 6c3e
00000340: f155 e53a 5bf2 29be 432a a53d 1baa 993b
00000350: b5af a9bd a0f8 243d 5b27 62be 21ae 0d3d
00000360: 635e 5cbd 0644 5f3c a4ba 0f3c e3db d33e
00000370: e759 05be fce9 b1bd d86e 883e 7420 a5bd
00000380: 48ce 17be 0adc 563c eec5 2bbd d0cb 923e
00000390: 1324 0d3c 5328 353e 8a6a 25bc 0135 313e
000003a0: 451e 5bbe 9424 dc3b d12b a13e 0cba 073e
000003b0: dcde 97be 52e9 963e 456e 38be 3f61 24be
000003c0: c3bf af3d f534 32b9 03f8 093e 4036 823d
000003d0: 0276 67be e330 6f3b 15a3 8c3c 655d 6a3e
000003e0: af55 153e c60c 173d f84c 8cbd edb6 283f
000003f0: b05b 54be 1ff1 1bbe df09 1b3c 5d21 f03c
-0.05585981 0.35661516 -0.3385049 0.22136137 0.4778032 -0.012255337 -0.26381046 0.23494558
-0.022859978 -0.08694715 -0.1254021 -0.10678913 0.11352039 0.11200726 -0.10959589 0.06645004
0.11512448 0.36592764 -0.24326639 0.107999496 0.005399756 -0.0491171 -0.015115098 0.0052944673
-0.02297182 0.19444881 0.08974742 0.10683917 -0.059384145 0.19191207 -0.031407695 0.0049530105
0.122297525 0.07172068 -0.36276746 0.04884069 -0.3043816 -0.102542385 -0.0052687 -0.009878829
-0.11332461 -0.013843489 0.006207265 -0.013495812 0.08020536 0.022890639 0.03455267 -0.004494356
-0.015193285 0.0023533313 -0.29964066 0.0023280543 -0.059581093 0.21781985 -0.02442096 -0.04664317
-0.10123981 0.10966351 -0.017820518 -0.040418245 -0.29563892 -0.15947624 -0.035975825 -0.0029121805
0.33692688 0.5142732 -0.3184852 -0.072779156 -0.07373526 -0.1403037 -0.11060334 -0.058518358
-0.1316791 -0.13133666 -0.096015446 0.21884814 -0.23053722 0.07625405 -0.1366804 -0.012729236
0.27493203 0.043889012 -0.16085772 0.195322 0.015352916 0.06494279 -0.20870431 -0.048766147
-0.18489698 0.15235962 -0.09346758 -0.07322498 -0.020774698 -0.00042806973 -0.24210846 -0.031051472
0.043572936 0.08844762 -0.3704045 0.073297866 -0.28552347 0.09035556 0.010591124 -0.00029020183
-0.022086503 -0.04744404 -0.36849257 -0.014409131 -0.0024400726 -0.025577102 0.051426303 -0.0056389784
-0.11448232 -7.533147e-05 -0.18401948 0.078235894 -0.029444342 0.07952968 -0.0066383043 -0.07149965
-0.18255816 -0.074964054 -0.008592956 -0.030414864 -0.27516797 -0.09767627 -0.006839545 0.049459178
-0.4613586 -0.460524 0.20851572 0.03186965 -0.040035386 -0.096820384 -0.14129442 -0.40131956
0.7554223 0.9942048 -0.065346755 0.10248356 -0.04177467 -0.15460642 -0.08134026 -0.013198852
-0.16044216 -0.21834202 -0.09060864 -0.059022233 -0.02099657 0.05145417 0.018649867 -0.06117382
0.017462688 0.2856814 -0.24265893 0.31482288 0.019591466 0.001026567 0.070064165 -0.10372216
-0.023073303 -0.009968566 -0.0073531596 0.38132447 -0.027400143 0.081868134 -0.029769123 0.07889288
-0.041076954 0.08736677 0.16096695 0.10328197 -0.18588537 0.20220342 -0.15698935 -0.14525196
-0.04570792 -0.10861475 0.1179134 0.04179499 -0.03331566 -0.02523063 -0.046562184 0.5506204
-0.03726356 0.017181763 -0.10191812 0.48138672 -0.20365684 -0.16354422 -0.104976535 -0.1188358
0.02005023 0.010940128 0.058221716 0.0196887 -0.011154032 0.06258404 -0.22562614 0.14292887
0.022838324 0.044144638 -0.00027159508 0.38254225 -0.12343491 -0.11041197 -0.0059604435 0.23116505
0.0017496926 -0.16596358 0.080647014 0.0046894676 -0.082854666 0.04027617 -0.22085325 0.03458989
-0.05380095 0.013627058 0.008772526 0.41378698 -0.13022576 -0.08687207 0.26647067 -0.080628306
-0.14824784 0.013113985 -0.041936807 0.28671122 0.008614558 0.17691164 -0.010096202 0.17305376
-0.21398266 0.0067182276 0.31478742 0.13254565 -0.29662216 0.29474884 -0.18010814 -0.16052721
0.085814975 -0.00016995131 0.13473515 0.063580036 -0.2260361 0.0036497645 0.017167607 0.2288719
0.14583467 0.036877416 -0.06850618 0.6590412 -0.20738101 -0.15228699 0.009462803 0.029312784

convs.0.bias f4 [72]
00000000: c1ae 083e 9cbc 003e 0741 e33d 7ff1 103e
00000010: b889 bb3d 3b12 133e ff96 1e3e 267d 04bd
00000020: faa7 363e b2f8 da3d 07ac 233d f53a aabc
00000030: 838e 9b3b 5b86 493e 3021 67bb 578a b73d
00000040: 91a1 16bd e340 dc3d 4245 e4bc 967a 163e
00000050: 8ac8 923d 1fb2 453d 511b 233e e87d 5bbd
00000060: a30e 233e 3c38 a53d 05a6 b73d e475 a83d
00000070: a859 333e d6a7 4d3d 1322 033e 4986 293e
00000080: 2441 1a3e c1ad 0c3e 55b8 6f3d 867d f43d
00000090: 5c48 c03d 99dd 053e 7f45 273d 3846 c13d
000000a0: 64b5 da3d b889 723d 6a76 c93d 4722 e03d
000000b0: 0f1d e43d 8d28 c73d 5e57 c73d bcbb 0e3e
000000c0: 568d 1d3e 1aa0 b53d efcd 233e e587 193e
000000d0: ee7c 023e 0cfb 083e e0b4 a63d 1fc1 163e
000000e0: b2fa ce3d a736 1c3e 20d1 303d 721c d73d
000000f0: 8507 933d 367f 0ebc 07a6 ec3d 2a7c 3c3e
00000100: 403b 153e 542d 443d c3d4 003e 8e36 473e
00000110: accc f53d e355 db3d c2e1 0b3e dd27 aa3d
0.13347913 0.12571949 0.11096387 0.14154623 0.09157127 0.14362423 0.15487288 -0.032345913
0.17837515 0.10691966 0.03995898 -0.020780066 0.0047472133 0.19680159 -0.0035267584 0.08961933
-0.036775175 0.10754564 -0.027865056 0.146952 0.07167156 0.048265573 0.15928389 -0.05358687
0.15923552 0.080673665 0.089672126 0.08225611 0.1751467 0.05020889 0.12805967 0.16555132
0.15063912 0.13738157 0.058525402 0.11938004 0.093888015 0.13072814 0.04083776 0.09437221
0.10679129 0.05921337 0.09837039 0.10944038 0.11138355 0.09724531 0.09733461 0.13938802
0.15385947 0.088684276 0.15996526 0.14993246 0.1274297 0.13377017 0.08139968 0.14722107
0.1010641 0.15255223 0.043168187 0.105034724 0.071791686 -0.008697322 0.11555105 0.1840674
0.14573383 0.04789479 0.12581162 0.19454405 0.12001929 0.10709741 0.13660339 0.083083846

convs.1.weight f4 [72, 72]
00000000: 1229 9bbc 475e f03b 0e2c 1ebc 26cf 08bc
00000010: 45e9 49bc d075 a0bc eb69 67ba 665c e937
00000020: 33d6 6e3a 2256 c83a 0d1d 7fbc 3eed 0f39
00000030: da2c b9ba 5313 52ba 7adc 6336 e987 c0bc
00000040: 0716 5338 3f79 913b f3f8 aa38 f23a a9bb
00000050: c0ab 4cbc 5335 95bb 41c2 c4bb 9a47 453a
00000060: e8cb 393c 46fd fabb f45e c43b efd2 40bb
00000070: 2815 a13c ba6d fdbc 444f a6bb 7721 55bc
00000080: 7993 81bc 9278 83bc 19dd eabb fcc8 0fbc
00000090: ec8d 123c 6ddb 1ebc 2306 3fba 720e 69bc
000000a0: 3fb3 40bb 423d 3f3c 4901 eabc 8cc8 cd3b
000000b0: b719 b0bc d11a bdbc df1c 75bc faed 2cbc
000000c0: a01b e9bc ae33 7bbc 8332 ee3a e83d 38bc
000000d0: 899f f4bb f307 b9bb 9106 5bbc 8498 dcbc
000000e0: 8bc7 b83b c97a 71bb 9d99 c53b 4e2b a6bc
000000f0: afca e0bb 4950 8fba c8d5 a0bc bcf8 f4bb
00000100: 9405 d93b f7c9 97bc 240c 86bc 8abb 2ebb
00000110: 3b75 9abb 5982 b1bb 56e1 8c3b 1d5b 08bc
00000120: abfc 97bc cbde 003c 2ab8 38bc fc98 e9ba
00000130: 30bb 33bc 6ad5 b6bc f807 18bb 699c d636
00000140: 4dbc 63ba 33c4 13bb b219 e7bc 30ca 2eb7
00000150: 1310 30bc 0db3 903b a7eb b3b6 d5bb d9bc
00000160: 9923 91b9 bbf0 0b3c ced2 25b6 f197 2dba
00000170: 1b42 e9bb 27c2 33bc e3f2 d8bb 2510 50b9
00000180: 1832 ef3b f67c efba 0aaf 863c 9210 3cbc
00000190: 8074 4b3c 14b4 54bd 6ec6 dfbb 7ea4 f2bb
000001a0: cfde a8bc 8eae 8bbc 3c9a 48ba 5fab 37bc
000001b0: 9759 273c 4cf8 1ebc c17c 093c 1ae0 dfbc
000001c0: 26c8 ddbb a3e8 983c ed17 c6bc 4191 d73a
000001d0: 6ac0 acbc f103 c6bc 8206 d0bc 164e 45bc
000001e0: 5128 ebbc 985c b3bc 25ca 393b 7464 49bc
000001f0: 5c38 61bc 2d40 52bb 7c78 3ebc 21d6 c7bc
00000200: 75da bf3b fdc5 88bc a066 263c 2303 8abc
00000210: 4a82 213a e433 7db9 80c7 b2bc 85bb 1cbc
00000220: 41f8 d13b 7763 a0bc dcf6 97bc 4f78 1cbc
00000230: 161d b6bb 25e8 85b9 1f07 ae3b a31a c8bb
00000240: 8e5f d6bc cb2d c53b a951 6dbc 1bbd 35bc
00000250: 7633 4ebc f6a0 ccbc 3799 4fbb 6194 acb8
00000260: e9ef 893b e424 0239 286d e3bc 100c 28b8
00000270: 37f5 d3ba e9f7 1ebb 1c94 03b8 2a88 07bd
00000280: b8ee 98b9 e524 d33b 03b7 03b8 3715 26bc
00000290: b752 98bc a54e 79bb f824 cabb b9c0 9db9
000002a0: 60f4 853c a97e 45bc cfa8 213c d777 57bc
000002b0: 71b1 c23c ed6a d7bc 7aa6 15bc 348c 8dbc
000002c0: 1e56 b6bc 2db7 9fbc d185 3dbc ca21 3abc
000002d0: 5449 363c 8159 65bc 66df b8bb d6ac a5bc
000002e0: ae51 46bc 0ffb 2d3c 2ff9 1abd cf01 dd3b
000002f0: 38ad cabc 9aa4 e9bc 6081 aebc 3d64 19bc
00000300: 4800 10bd 54b3 c1bc ea4a 5e3b b067 97bc
00000310: 81d6 2ebc fbae 38bc 9593 90bc 4e32 19bd
00000320: 465f cb3b 1a11 1bbc 9b73 a93b 1878 e7bc
00000330: 559c 2cbc d05a b737 c712 acbc 9f22 3ebc
00000340: 7837 e73b 180b d1bc 6df9 afbc d683 833b
00000350: 13e3 fcbb 2f00 1cbc bd70 0b3c 1448 1bbc
00000360: c181 a6bc f3e8 d13b 8688 29bc 692b 65bc
00000370: 09b1 41bb dc1c 97bc a23d d339 5c4c 7238
00000380: a48a ab3b 3546 e2ba 25e3 91bc 7b9b b9b8
00000390: a24b 9abb 67db 94bb 46c6 92b7 f6ac c9bc
000003a0: e128 d539 de0b 033c fb1b cdb6 0230 16bc
000003b0: c86f 77bc 91e1 6db9 d63f cfbb 1d15 c9b9
000003c0: 4684 953c 41b2 5bbc d792 813b 5bb9 6dbc
000003d0: 20b6 be3c 116a a1bc cebe 9fbb 00c0 aebc
000003e0: 00d9 91bc 2ed1 8dbc e570 01bc 97c3 01bc
000003f0: 4526 243c 438a 35bc 6978 b1bb 48ad 93bc
-0.018940482 0.0073354575 -0.009654058 -0.008350169 -0.012323682 -0.019587427 -0.00088277337 2.781879e-05
0.00091108977 0.0015284459 -0.015570891 0.00013725922 -0.0014127747 -0.0008013744 3.395397e-06 -0.023502307
5.0326835e-05 0.0044395025 8.152602e-05 -0.0051644975 -0.01249212 -0.004553476 -0.006004602 0.0007525623
0.011340119 -0.007659587 0.0059927646 -0.0029422601 0.019663408 -0.03093611 -0.005075367 -0.013008467
-0.01581739 -0.016048703 -0.00716747 -0.008775946 0.00894497 -0.00969587 -0.0007286986 -0.014224635
-0.0029403714 0.01167232 -0.028565066 0.0062800106 -0.021496637 -0.023084076 -0.014960497 -0.010554785
-0.028455555 -0.015332146 0.0018173013 -0.011245228 -0.007465307 -0.0056466996 -0.013368265 -0.026928194
0.0056390218 -0.0036846867 0.006030275 -0.020284321 -0.0068600993 -0.0010933961 -0.019633189 -0.0074759405
0.0066229794 -0.018528922 -0.016363211 -0.0026662075 -0.004713682 -0.00541715 0.004299323 -0.008322504
-0.018553099 0.007865618 -0.011274377 -0.0017822082 -0.010969922 -0.02231856 -0.002319811 6.3959055e-06
-0.0008687422 -0.0022547364 -0.028210495 -1.0418284e-05 -0.01074602 0.0044158758 -5.3620493e-06 -0.026578823
-0.00027683077 0.008541281 -2.470962e-06 -0.00066220673 -0.007118476 -0.0109715825 -0.006620751 -0.0001984244
0.007299673 -0.0018271494 0.016440887 -0.01147856 0.0124179125 -0.05192955 -0.0068290746 -0.007404863
-0.020614056 -0.017051008 -0.0007652377 -0.011210292 0.010214231 -0.009702753 0.00839156 -0.02732854
-0.0067682443 0.018665617 -0.02418133 0.0016446487 -0.021087844 -0.024171801 -0.025393728 -0.012042543
-0.028705748 -0.021894738 0.0028349247 -0.012292016 -0.013746347 -0.0032081709 -0.011625405 -0.024394097
0.0058548995 -0.01669597 0.010156304 -0.016847199 0.0006161077 -0.00024147291 -0.021823645 -0.0095661925
0.006407768 -0.019578679 -0.018550329 -0.009550168 -0.0055576665 -0.00025540698 0.0053109075 -0.006106691
-0.02616861 0.006017422 -0.014484801 -0.01109245 -0.012585511 -0.024979096 -0.0031677017 -8.229237e-05
0.0042095077 0.00012411509 -0.02776201 -4.0065555e-05 -0.0016171102 -0.0024256653 -3.137077e-05 -0.03308884
-0.0002916956 0.006443607 -3.1403277e-05 -0.010136894 -0.018594129 -0.003804126 -0.006168958 -0.00030088963
0.016351879 -0.012054124 0.009866907 -0.013151131 0.023766251 -0.026296103 -0.009133929 -0.017278768
-0.02225786 -0.019496525 -0.011567549 -0.011360595 0.011125881 -0.01399839 -0.0056418655 -0.020224016
-0.012104435 0.010618939 -0.037835296 0.0067446004 -0.0247408 -0.028520871 -0.021301925 -0.009362278
-0.03515652 -0.02364508 0.0033919164 -0.01848206 -0.010671259 -0.011272187 -0.017648498 -0.03740149
0.006206426 -0.009464527 0.005171252 -0.028255507 -0.010535319 2.1857588e-05 -0.021005047 -0.011604934
0.007056173 -0.025517985 -0.02148124 0.004013519 -0.007717499 -0.009521528 0.008510766 -0.009477634
-0.020325543 0.0064059435 -0.010347491 -0.013987401 -0.0029554984 -0.018446378 0.00040290976 5.776841e-05
0.005235033 -0.0017263355 -0.017808506 -8.850448e-05 -0.004708723 -0.0045427564 -1.7496885e-05 -0.024618607
0.00040656983 0.007998435 -6.1127334e-06 -0.009166719 -0.015102334 -0.00022686111 -0.0063247485 -0.00038353438
0.01825155 -0.013409198 0.0039542723 -0.014509524 0.023280203 -0.019703897 -0.0048750406 -0.021331787
-0.017803669 -0.017311659 -0.007900451 -0.007920167 0.01001889 -0.011080327 -0.0054159653 -0.018026963

convs.2.weight f4 [72, 72]
00000000: 3d75 e4bb 591d 553b e779 55bb 1183 2b3a
00000010: 85f1 f8bb 2544 88bb b62c 343b 31d0 ce38
00000020: f1ba 3dbb f3b3 6837 ea2a c8bb 93c9 9138
00000030: 50a4 dcb9 4625 b7ba cb86 51b6 7507 e8bb
00000040: dc19 1eb9 973d 863a 59ee a737 e86a 593b
00000050: fa4b 39bb 4522 5bbb 13aa 83ba 3b79 acb8
00000060: 62fc 543a fa78 aab9 2e2b 813b ff11 2c3b
00000070: 9cf5 a6bb a236 38bc 7384 5cba 4dbe 853b
00000080: 56a9 f63a 796d 70bb ab91 463b a5bc 40bb
00000090: 1ccf 8a3b bc0c b4ba 44d3 db3b 2925 d6bb
000000a0: 7d1a 2d3b 9e83 7b3b 2717 243a bcf2 b1ba
000000b0: 945e 93bb 4047 34bc ee74 debb b753 4dbb
000000c0: 3054 553a 343a bcbb c208 6abb 1c1d a53b
000000d0: 0436 17bb 1b41 623b 896d 41bb 96dc 3cbc
000000e0: a6ce 123b a2f6 eeba 43dd 893a 1765 93bb
000000f0: e6ab 073c 6d39 c436 940d fbb9 85cd 86ba
00000100: 8994 663b cfd3 ddbb bc52 c5bb dce0 a1bb
00000110: e1df a4ba 717a 013b aa47 d4b9 3525 de39
00000120: 8215 9dbc 42f1 4dbb c700 16bc f1a3 b1bb
00000130: cc6b bfbc 3ab3 aebc 5195 2eba bfef 1eb9
00000140: 6bce 02bc 3841 933b bd14 89bc 2d63 c6b8
00000150: ee5e babb 5fdb 78bb 6cd6 0a38 a9a7 e8bc
00000160: 5ca4 1038 2333 573b a38c 5438 4d95 043c
00000170: 67a2 c5bb af29 39bc ec09 aabb 2523 73b8
00000180: afc4 0d3b 7c85 c0bb dc40 043b 62b1 16bc
00000190: 229d 93bc 8352 0ebd 6f66 dcbb b32c adba
000001a0: 89d7 1ebc 2a6e f1bb e524 93ba 9b9a 92bc
000001b0: 228a c53b 029d dbbb 24ce 913a e978 86bc
000001c0: dbd6 47bc cd7e 5ebb 18fc 0dbc e870 adba
000001d0: b67e babc d8a6 85bc ad99 a9bc 5381 b9bc
000001e0: c489 37bc 1bbc 85bc 07dc abba 65e5 05bc
000001f0: 67ac 17bc 4aaa f8bb 04cc 92bc 5575 1b3a
00000200: e106 233c 0b5e 8ebc 0164 a3bb bab5 96bb
00000210: 707a 633c c247 59b9 4060 2dbc 7d58 cebb
00000220: 71a3 fc3b 72c2 49bc a534 91bc 289b 7ebb
00000230: 0b7a b2bb 6697 3abc ad40 213b 578a afbb
00000240: d553 46bc 4a9c ea3a 2289 07bc 9ae5 4dbb
00000250: 3252 aabc 8c69 42bc 58ba a93b 40ab d337
00000260: e064 85bb 35d0 883a d052 42bc cf31 3db8
00000270: 630e 82ba 0d4b 24ba c3c8 c237 8808 8ebc
00000280: 411d a3b8 3056 6f3b c82a a4b2 2434 2c3b
00000290: 9da4 51bb 124c a9bb f915 16ba 2c0c 1bb9
000002a0: 01f1 0b3c a8aa 193b ec67 ea3b 139b 55bb
000002b0: 48d0 f9ba f8e9 cebc 2978 98bb a44c ebb9
000002c0: 9954 0abc 4e7e 7abb f0eb 6538 f65c d6bb
000002d0: 8871 9b3b 7ceb 3fbb 8925 123c d0fc 5ebc
000002e0: c45a ce39 de0a 053c 51d6 5dbc 65e1 263b
000002f0: aaea 6fbc e099 a7bc 50af 62bc c620 8abb
00000300: c9da 2fbc b12e 19bc cef8 1e3a 242c 063a
00000310: 3810 c5bb 2b76 40ba f3b5 1cbc 1ec4 99bb
00000320: 0cfb 053c ccd3 30bc 0d36 123b 1c2f 0d39
00000330: e93c 673c 06db 76b9 ba23 5cbc 8052 59bb
00000340: 6b73 063c d215 f7bb 72bd 2bbc 34cb 5ebb
00000350: c731 c6bb bd6c 8abb 6a70 0cba 101a 90ba
00000360: 4ec8 30bc b20d 583b 97ac b0bb 3c9b 3d3a
00000370: 4c8a cfbb 17e4 26bc b63d 143b a4a0 de36
00000380: 26a2 d2bb 6521 bd3a 6230 33bc 1ce9 b2b7
00000390: 38e6 ceba 0afc 5b3b 0a80 16b7 5725 5ebc
000003a0: ba56 9137 6104 7aba 1292 ceb7 1bc4 3e3b
000003b0: daf3 86bb e5cd 41bb 2b05 76bb 6e32 45b8
000003c0: 9ae7 c2b9 6b1e d13a 052b 0a3c 9d52 02bb
000003d0: 61f8 503a 8c91 79bc 49b8 bd3a fda7 f43a
000003e0: 4493 e5bb 01e4 c8bb 8ee1 123b e849 32bc
000003f0: df0c 9c3b 1c4b 61bb 2d31 123b 70e2 06bc
-0.0069719837 0.0032518713 -0.003257388 0.0006542663 -0.0075971507 -0.004158514 0.002749247 9.861624e-05
-0.0028950537 1.3870175e-05 -0.0061086314 6.951685e-05 -0.00042084092 -0.00139729 -3.1221887e-06 -0.007080967
-0.00015077688 0.0010241744 2.001894e-05 0.0033175293 -0.0028274045 -0.0033437174 -0.0010045193 -8.22418e-05
0.0008124766 -0.0003251506 0.003941915 0.0026255844 -0.005095197 -0.011243494 -0.00084120705 0.0040815235
0.0018818777 -0.0036686345 0.0030299227 -0.0029409316 0.004236115 -0.0013736705 0.0067085344 -0.0065351916
0.0026413493 0.003837801 0.00062595535 -0.0013576369 -0.0044973586 -0.011003315 -0.0067888414 -0.0031330416
0.000813785 -0.005744243 -0.0035710786 0.0050388705 -0.0023072967 0.003452367 -0.002951475 -0.011527201
0.0022401004 -0.0018231461 0.0010518212 -0.004498135 0.00828073 5.8479404e-06 -0.00047884567 -0.0010284638
0.0035183749 -0.0067696343 -0.0060218256 -0.0049401354 -0.0012578928 0.0019756819 -0.00040489185 0.0004237086
-0.019175295 -0.0031424318 -0.009155459 -0.0054211547 -0.023366831 -0.021325696 -0.0006659823 -0.00015157367
-0.007983784 0.0044938587 -0.016733522 -9.459849e-05 -0.005687586 -0.0037972552 3.310146e-05 -0.02840026
3.4485347e-05 0.0032836876 5.0675717e-05 0.008092237 -0.0060313228 -0.011301442 -0.005189171 -5.7968446e-05
0.0021632125 -0.0058752876 0.002018026 -0.009197565 -0.018019263 -0.034746658 -0.006726078 -0.0013212174
-0.009694942 -0.007367869 -0.0011226205 -0.017895987 0.0060284296 -0.0067020664 0.0011124057 -0.016415076
-0.012197222 -0.003395009 -0.008666061 -0.0013232501 -0.022765499 -0.016314909 -0.020703161 -0.022644674
-0.0112022795 -0.016325047 -0.0013111838 -0.008172368 -0.0092574125 -0.0075886594 -0.017919548 0.00059302646
0.0099503705 -0.017378828 -0.0049862866 -0.0045993 0.013884172 -0.00020721465 -0.01058203 -0.0062971697
0.0077099134 -0.012314426 -0.017725298 -0.0038849805 -0.0054466776 -0.011388635 0.00246052 -0.0053570676
-0.012104948 0.0017899361 -0.008272441 -0.003141737 -0.020791147 -0.011865985 0.0051796846 2.5232905e-05
-0.004070863 0.0010438027 -0.011860564 -4.51075e-05 -0.00099225 -0.0006267287 2.322009e-05 -0.017338052
-7.777895e-05 0.0036519878 -1.9111567e-08 0.0026276195 -0.0031988986 -0.005166539 -0.000572532 -0.00014786486
0.0085413465 0.0023447666 0.0071535017 -0.0032593652 -0.0019059265 -0.02525805 -0.004652996 -0.00044879795
-0.008443021 -0.0038222256 5.481759e-05 -0.0065418435 0.0047437586 -0.0029284647 0.008920082 -0.01361008
0.00039359007 0.008120267 -0.013539867 0.0025463935 -0.014643351 -0.020459116 -0.013835743 -0.0042153327
-0.010733315 -0.009349511 0.00060642965 0.0005118272 -0.0060138963 -0.0007341827 -0.009564864 -0.0046925684
0.00817753 -0.010792684 0.0022310049 0.00013464357 0.014113643 -0.00023541981 -0.013436252 -0.0033160746
0.008206229 -0.007540443 -0.010482179 -0.003399563 -0.0060484144 -0.0042243884 -0.0005357327 -0.0010994095
-0.010789944 0.0032967147 -0.005391668 0.00072329096 -0.006333625 -0.010186217 0.002261979 6.6348166e-06
-0.006428021 0.0014429508 -0.010936828 -2.1327804e-05 -0.0015785163 0.0033566975 -8.970508e-06 -0.013558707
1.7325732e-05 -0.00095373957 -2.4625133e-05 0.0029108587 -0.004118425 -0.0029572186 -0.0037539701 -4.7015426e-05
-0.0003717512 0.00159545 0.008433108 -0.0019885667 0.00079715817 -0.015232455 0.0014474477 0.0018665787
-0.007006081 -0.006130696 0.0022412273 -0.010881878 0.0047622765 -0.0034377044 0.0022307143 -0.008232698

convs.3.weight f4 [72, 72]
00000000: c348 5cbb 343d 9e3a fa2b eeba c143 203b
00000010: 870e bfbb 8a5c f3ba a3f2 0e3b 65b9 0739
00000020: c87e bbba 107c ff3a 842c aabb aef5 55b8
00000030: 4f08 01b9 7411 b539 3e9f 22b8 e37c cabb
00000040: f928 8938 8a7c 813a 523c e6b6 ce59 f93a
00000050: d1d2 8ebb 4666 12bb 2485 353a 89a7 3038
00000060: e792 853b 6ed1 803a 57ab 093b f06f 31ba
00000070: c576 a5ba 5a93 42bc 18ce 63ba cff4 fbba
00000080: a78b c8bb df9b 3ebb 37a6 1a3b 36d7 95ba
00000090: af08 983b be9b 4dba fcb9 143c 0818 13bb
000000a0: b705 b039 23ad 83b6 ed36 4a3b f425 92b8
000000b0: b4d1 87bb 6c80 08bc b957 2fbb 93a0 14bb
000000c0: d217 f93a 7ade b5bb 15e8 863a afa4 52ba
000000d0: 1800 5fbb 6548 243b 2fc4 d6b9 54aa 26bb
000000e0: d4e6 03ba 1dc7 a7bb f67f 3337 d97c a2bb
000000f0: 3675 d13a fa1d 1637 8c82 9dbb 0679 c039
00000100: a317 043a 7342 cebb f581 00bb 853a 74bb
00000110: 9c30 fe39 a701 e539 ea9e 073a 0651 33b9
00000120: 39bc 9dbc c617 dcba 7b98 07bc 975d 9bbb
00000130: 2612 68bc 8908 62bc 19d5 ddb9 478b 0239
00000140: 359f 8bbc 64ee 593b 3b87 62bc dbe8 b8b8
00000150: cb72 59b9 42c6 97ba 211b 90b8 7668 c4bc
00000160: 3865 71b9 3658 033c 056c e9b8 5b02 c73b
00000170: ab23 03bc 2037 00bc f972 8bbb 3d4d 89b8
00000180: 0064 153c a4e0 1bbc fc87 a03b 2bb2 91bc
00000190: 6de9 62bc 83ac 92bc d045 c3bb c36d a338
000001a0: f784 77bb 3c43 b83b 0315 dfbb 11af 71bc
000001b0: 52b1 7d3b 4434 e0bb 28b0 c23b 87aa 56bc
000001c0: e6d4 56bc 5a8a 073c ebc1 19bc 0613 af3a
000001d0: d717 78bc 2b88 4ebc 26dd 82bc 0f73 2fbc
000001e0: c075 27bc 9ab9 16bc d223 c8ba 48c9 62bb
000001f0: 42b4 4bbc c489 d6bb e7ef 55bc 2e04 0c3a
00000200: 5265 f43b e11f 63bc 8ab2 15bb 4762 7aba
00000210: 4d09 893c 5b65 73b9 8283 34bc e3ee 8fbb
00000220: 1568 473b a732 19bc e90a 96bc 9b05 e8ba
00000230: 669f 87bb b1a0 8cbc 8610 aeb9 b75b 80bb
00000240: 9edc 3ebc 1612 ff3a c616 e4bb 4bec a4ba
00000250: 3381 a4bc a498 f3bb 553d 353a 43a6 0039
00000260: 3d3e 8eba faed 403a dce8 11bc a8a9 3db7
00000270: 7446 25bb a48f d33a 2a51 e2b7 8101 70bc
00000280: 0de7 4938 c834 293b 82c6 65b7 cf10 b13a
00000290: dd22 a2ba 413f 9dbb f640 e1b9 498b a5b5
000002a0: e11d 053c eaa1 6c3a fba2 e139 478f 6dbb
000002b0: 0c69 023b 3781 43bc 95c5 9ebb 2fd6 b43a
000002c0: 1e1f 0ebc 0c0e 133b d8d9 7cbb d852 08bc
000002d0: 4fe4 7c3b 73d9 75bb c27d 543c 9cff 0bbc
000002e0: 9a2c db3a 22e9 383c d8b4 71bb 0f73 253b
000002f0: 4809 05bc 0e40 87bc af0d 21bc 1fa8 74bb
00000300: 672b 18bc 2e62 d7bb 2844 8fbb 0f16 88ba
00000310: 6474 95bb b9c6 66ba 23bd a5bb fde6 52bb
00000320: 7bec 143b 4b1b 16bc a3fd 81ba 58c0 e5ba
00000330: 60fd 733c fdfa c6b8 c53a 10bb 237f 3e3b
00000340: 74d2 013c 2a61 9fbb 7bf3 3dbc 6f45 9abb
00000350: 6d2e 18bc a6bc 09ba c018 31ba 103d 48ba
00000360: e045 07bc 5e29 923b 177c 82bb ad85 633a
00000370: 9adc 11bc 3ee9 09bc 186d 0d3b 403d abb9
00000380: c904 2fba 3983 3dbb ae19 1fbc c23e 80b8
00000390: 924d 9dba 18ad f43a c2ed 1038 7507 23bc
000003a0: 482a 1138 73ff 36b9 ee5c 5e38 4430 bbb9
000003b0: 95f6 adbb 19df e6bb b35e 1ebb 10a0 05b9
000003c0: 6877 563b 3c7f 1e3b 12fc 1a3c 616a 02bb
000003d0: 818d 77bb d735 08bc c814 b33a 3725 a6b9
000003e0: 200b 23bc eac1 87bb 85fe 23ba c7a9 07bc
000003f0: ddb1 7a3b c217 3a3b 42eb 793b 1b72 72b9
-0.0033612705 0.0012072683 -0.0018171065 0.0024454447 -0.005830589 -0.0018567008 0.0021812103 0.00012943668
-0.0014304752 0.001949193 -0.005193295 -5.1011964e-05 -0.00012305494 0.00034536014 -3.8772116e-05 -0.0061794384
6.540301e-05 0.0009879034 -6.8615564e-06 0.0019023956 -0.0043586274 -0.0022338792 0.00069244415 4.21177e-05
0.00407635 0.000982804 0.0021006668 -0.0006768694 -0.0012623897 -0.011875952 -0.0008690073 -0.0019222739
-0.0061201635 -0.0029084606 0.0023597607 -0.0011431936 0.004639707 -0.0007843337 0.009077545 -0.0022444744
0.00033573594 -3.92426e-06 0.0030855492 -6.968892e-05 -0.0041448716 -0.008331399 -0.0026755168 -0.0022678718
0.0019004291 -0.005550203 0.0010292555 -0.0008035404 -0.0034027155 0.0025067565 -0.0004096343 -0.0025431113
-0.00050316495 -0.0051201717 1.0699025e-05 -0.0049587307 0.0015980366 8.947676e-06 -0.004806822 0.00036711263
0.00050389225 -0.0062945425 -0.001960871 -0.0037266326 0.00048482872 0.00043679515 0.00051735213 -0.00017100954
-0.01925479 -0.0016791753 -0.0082761 -0.0047413814 -0.014164483 -0.01379598 -0.00042311175 0.00012449651
-0.01704369 0.0033253664 -0.013826187 -8.8171764e-05 -0.00020737496 -0.0011579471 -6.871508e-05 -0.023975592
-0.00023021258 0.008016637 -0.00011130426 0.006073279 -0.008004109 -0.007825643 -0.004255649 -6.547056e-05
0.00911808 -0.009514008 0.004899023 -0.017785152 -0.013849598 -0.017904526 -0.00595925 7.7928904e-05
-0.0037768462 0.0056232493 -0.0068079247 -0.014751212 0.0038710427 -0.006842168 0.0059414096 -0.01310218
-0.013112282 0.008272732 -0.009384613 0.001335711 -0.015142403 -0.012605707 -0.015974592 -0.010708584
-0.010220945 -0.009199524 -0.0015269464 -0.0034604836 -0.0124331135 -0.0065471847 -0.013057685 0.0005341199
0.0074583674 -0.013862581 -0.0022842013 -0.00095513876 0.016728068 -0.00023212044 -0.011017682 -0.004392491
0.0030427028 -0.009350455 -0.01831575 -0.0017701866 -0.004138875 -0.017166467 -0.00033200177 -0.0039171833
-0.011649279 0.0019460346 -0.0069607226 -0.0012582628 -0.020081138 -0.0074339677 0.0006913741 0.00012268969
-0.0010852289 0.000735968 -0.008905616 -1.1304779e-05 -0.0025218995 0.0016140831 -2.6979094e-05 -0.014648796
4.8137317e-05 0.0025818814 -1.3695682e-05 0.0013509038 -0.0012370009 -0.0047988 -0.00042963744 -1.2333995e-06
0.0081247995 0.00090268126 0.00043036774 -0.003624873 0.0019899039 -0.011932663 -0.004845331 0.0013796742
-0.008674411 0.0022438793 -0.0038581993 -0.008320533 0.003858823 -0.0037513643 0.012969436 -0.008544829
0.0016721666 0.011286052 -0.0036881473 0.0025245582 -0.008119889 -0.016510036 -0.009829923 -0.0037331653
-0.009287692 -0.006572983 -0.0043721385 -0.001038255 -0.004560994 -0.00088034157 -0.0050579472 -0.0032181137
0.002272396 -0.009161781 -0.0009917509 -0.0017528636 0.014891952 -9.488126e-05 -0.0022007686 0.0029067479
0.007923711 -0.004863878 -0.011593695 -0.004707984 -0.0092884125 -0.0005254246 -0.0006755702 -0.00076384936
-0.008256406 0.0044604978 -0.003982078 0.0008679282 -0.008902693 -0.008417426 0.0021579918 -0.00032661296
-0.0006676433 -0.0028917326 -0.009710712 -6.115205e-05 -0.0012001267 0.0018667309 3.4553705e-05 -0.009950508
3.461007e-05 -0.00017452035 5.3015472e-05 -0.0003570338 -0.005308936 -0.0070456383 -0.0024165332 -0.00012743496
0.003272498 0.0024184724 0.009459512 -0.0019899833 -0.0037773552 -0.008313618 0.001366281 -0.00031689715
-0.009951383 -0.0041429894 -0.0006255883 -0.008280224 0.0038252987 0.0028395508 0.003813461 -0.00023121426

convs.4.weight f4 [72, 72]
00000000: 2d74 7bbb 59cf 743b dcae 22bb bd7e 563a
00000010: e33e cdbb 4216 9ebb a489 973a 8312 0839
00000020: c244 48bb 6727 e139 fd39 a1bb 173c 59b5
00000030: 7ebe dab9 4b62 04bb 08dd 0f37 166a 04bc
00000040: 14df 8e36 edc3 9e3b 9d7a af38 d4c8 b23a
00000050: 2043 a6ba c68b 04bb 2bf1 1b39 5e3b 8136
00000060: 17b9 1b3a 7d14 4dba fde7 a43b dcbb 06bb
00000070: ee7e a4bb 6b9f b7bb b275 a5bb 9e47 ec38
00000080: 695f c3bb a4a6 553b aab2 cd39 5726 21bb
00000090: ce6d 423b f819 6cbb 551c 203c 8204 48bb
000000a0: 6d07 663a 4247 d03b d1c6 133b 7b06 103b
000000b0: 4433 93bb 964b fbbb 3619 54bb 1787 1fbb
000000c0: 9d94 103b 79a0 b8ba e2a1 d839 d311 f43a
000000d0: 42d0 ce39 2c91 1e3b ccc2 8739 4bdb 4ebb
000000e0: fdf9 153b 894b b7ba ff2b 063b 6131 69bb
000000f0: 617c 83ba 3031 aab8 38b4 f936 4330 1c3b
00000100: 826a 273a 6a6d 4dbb a61b 77bb 6066 31bb
00000110: fc96 1eba 4ac2 8939 8f67 50ba 1a61 90b9
00000120: 1bb3 96bc 10a8 46bb 99c7 ffbb 3f2a 79bb
00000130: 3c51 0ebd 5b5f 63bc 204d 1fbb 6b87 dbb7
00000140: 44c3 aebb c105 9f3b 7b76 31bc 755f 8438
00000150: b47b e3b9 f09b 38ba 41eb d437 cbfc 86bc
00000160: 32af 83b7 6783 743b aa1e a2b8 edfa 2b3b
00000170: c5d9 07bc a44e 06bc 21ba 7abb cd82 09b9
00000180: 3e09 003a 1af1 c3bb ae37 8f3b cf8b 3fbc
00000190: abb5 40bc d393 eebc d1d6 b6bb 0d97 c939
000001a0: 4cce 77bb 2da5 93bb f3ea 57bb 1cee 81bc
000001b0: 1d7b be3b 6fbf 15bc be6a 56ba 297f 93bc
000001c0: 9785 9cba fec9 67bb 0c16 35bc f8d3 f1ba
000001d0: cb3d 32bc 4cd7 4fbc 9eb8 9cbc 85ad a3bc
000001e0: 01da dbbb e5ab 15bc 61b9 d3bb 7c0b 8cbb
000001f0: e527 fdbb 1f6a efbb 64fa 4ebc 9878 98bb
00000200: 4de9 4d3b 32c6 80bc 2f3a 63bb 7e89 dfba
00000210: 03f5 233c 2109 41b8 8c0e 32bc 6a5f 143a
00000220: 7e36 213b f512 ebbb 9514 bcbc e979 8cbb
00000230: c161 2abc 8e59 0ebc f5b2 11bb 6526 95bb
00000240: d111 42bc 2564 c638 d9d3 d2bb e741 1fbb
00000250: ec04 57bc 2070 a4bb 78b6 143b cb2f 25b8
00000260: a445 a5bb 0aaf 443b f258 16bc b964 7bb8
00000270: 80ab 8cb9 bc6c eb39 61f7 0cb6 8b31 46bc
00000280: f342 13b8 4dee 233b adbb 8838 fa3c 593b
00000290: 9896 fabb 8abb 58bb 133c 07bb 4a22 54b6
000002a0: 6779 1c3b 7a9b 89ba 9258 f73b 8a43 2fbc
000002b0: df1e eebb fb73 3ebc c6be 57bb 70f1 303b
000002c0: a7f6 1dbb 02da f73a e91a 96ba 59f1 1ebc
000002d0: d45b 693b 2291 ffba 7b3c 0f3c e955 e7bb
000002e0: f855 0b3b 2bbc 2b3c e25e 50bc 978a 2fbb
000002f0: 0573 52bc c5eb 99bc 761f 62bc defb 39bc
00000300: a2d4 53bb ce4d f2bb c418 843a 4f8f 45bb
00000310: 0943 95bb 612e feb9 73e5 b6bb 91de 18bb
00000320: a16b a73b 419b 52bc 4ace 213b 13a0 33bb
00000330: c046 5f3c 87d3 08b9 d016 2abc e462 aa3a
00000340: 53c9 7b3b f7ba 1ebc 973e 3ebc 2a1f 0739
00000350: 6f56 10bb f742 d63a 561e a4ba 1c13 8eba
00000360: ef19 38bc 2b9b 883b 5658 72bb dac5 1d3a
00000370: be53 8dbc 6758 8dbb 8a4f 373b c98b 0d39
00000380: 31a3 d7ba cf7e 673b c3db e4bb a86e cb37
00000390: a8f4 b1b9 4fee 27ba 3226 82b8 d769 01bc
000003a0: 0b14 d738 190e ab39 0ef1 1db8 16f9 013b
000003b0: 660f d3bb a163 b5bb 4dba 79ba 3a61 ae38
000003c0: f6d8 6f3a a9d2 013b c3a7 d43b 7dae 49bb
000003d0: 3686 9c3a 30c6 7dbc 5ccc ce3a 762e 363a
000003e0: 5389 40bc b791 aebb 0367 c43a 2ee4 0cbc
000003f0: c524 8f3b 4408 113b e0ff 193c 41ce f8b9
-0.0038368807 0.0037355034 -0.0024823463 0.00081823376 -0.0062636 -0.0048244307 0.0011561406 0.00012976867
-0.003055856 0.000429447 -0.004920243 -8.092624e-07 -0.00041722128 -0.0020200189 8.574927e-06 -0.0080819335
4.2578995e-06 0.0048451335 8.367489e-05 0.0013640174 -0.00126848 -0.0020224913 0.00014871794 3.851411e-06
0.00059403613 -0.00078231824 0.005032538 -0.002055875 -0.005020014 -0.005603721 -0.0050494308 0.00011266697
-0.0059623015 0.0032600546 0.00039233762 -0.0024589503 0.00296675 -0.003602622 0.00977238 -0.0030520265
0.000877491 0.006356151 0.0022548924 0.002197652 -0.0044921953 -0.0076689227 -0.003236366 -0.0024341994
0.0022061237 -0.001408591 0.00041319343 0.0018621035 0.00039446546 0.0024195416 0.00025894342 -0.0031563814
0.00228846 -0.0013984303 0.0020473 -0.003558241 -0.0010031575 -8.1153936e-05 7.4417585e-06 0.0023832477
0.00063864153 -0.0031345733 -0.0037705689 -0.0027069077 -0.000604972 0.00026275433 -0.0007950002 -0.00027538167
-0.018395951 -0.0030312575 -0.0078057763 -0.0038019565 -0.03474544 -0.013877715 -0.0024307445 -2.6169893e-05
-0.005333336 0.004852981 -0.010831471 6.312031e-05 -0.0004338898 -0.00070422795 2.5381918e-05 -0.016477963
-1.5697999e-05 0.0037309767 -7.7304736e-05 0.0026242093 -0.008291666 -0.00819746 -0.0038257914 -0.00013114065
0.00048841897 -0.0059796693 0.004370651 -0.011691048 -0.011762063 -0.029123222 -0.0055798073 0.0003845025
-0.0037812172 -0.0045057745 -0.0032946437 -0.01586061 0.005813016 -0.00913988 -0.0008179358 -0.01800497
-0.0011941668 -0.00353682 -0.01105262 -0.0018450012 -0.01087899 -0.012685608 -0.019131001 -0.019980201
-0.0067093377 -0.009135221 -0.006461308 -0.00427383 -0.007725703 -0.007306352 -0.01263294 -0.004653048
0.0031419576 -0.015719507 -0.0034672131 -0.0017054526 0.010007146 -4.6023288e-05 -0.010867726 0.000565997
0.002459913 -0.0071738907 -0.022959033 -0.0042869938 -0.010399283 -0.008688344 -0.002223191 -0.004551696
-0.011845068 9.460029e-05 -0.0064339456 -0.0024300755 -0.013123732 -0.005018249 0.0022691768 -3.9383576e-05
-0.005043702 0.0030011558 -0.00917648 -5.993687e-05 -0.00026830658 0.00044903706 -2.100562e-06 -0.012096773
-3.5109882e-05 0.0025013865 6.519943e-05 0.0033147917 -0.0076473467 -0.0033070766 -0.0020635172 -3.161042e-06
0.0023876072 -0.0010498606 0.0075484 -0.010697255 -0.0072668637 -0.011624332 -0.0032920106 0.0026999377
-0.0024103315 0.0018909576 -0.0011452112 -0.009701096 0.0035607712 -0.0019498209 0.008742447 -0.007059802
0.0021260958 0.010481874 -0.012717934 -0.0026785487 -0.012844806 -0.018789181 -0.013801446 -0.011351554
-0.0032322784 -0.007394529 0.0010078182 -0.0030145233 -0.0045551104 -0.0004848121 -0.0055815517 -0.002332602
0.005109266 -0.012854398 0.0024689608 -0.0027408644 0.013627708 -0.00013048771 -0.0103814155 0.0012999442
0.003841956 -0.009688131 -0.011611602 0.00012886213 -0.0022024175 0.0016346861 -0.0012521248 -0.0010839435
-0.011236652 0.004168888 -0.0036978922 0.0006018557 -0.017251845 -0.004313517 0.0027970993 0.00013498882
-0.0016451833 0.0035323387 -0.0069842055 2.4251014e-05 -0.00033942354 -0.0006406055 -6.2059975e-05 -0.007898769
0.00010255732 0.00032626165 -3.7656217e-05 0.0019832305 -0.0064410446 -0.0055355583 -0.0009526357 8.3150764e-05
0.0009149456 0.00198094 0.0064897253 -0.003077417 0.0011941853 -0.015489146 0.0015777457 0.0006949672
-0.011751491 -0.005327429 0.0014984313 -0.008599324 0.004368397 0.002213017 0.009399384 -0.00047455917

convs.5.weight f4 [72, 72]
00000000: 4df1 c2bb c2d2 e43a 5d89 e036 aa6f 293b
00000010: 1e04 bfbb a33d 7fba 2709 a13a 11b5 2839
00000020: aeda 5ebb 0bc4 033b d7cb 95ba e91d 50b6
00000030: 61cd a9b8 028d 1839 8781 fab5 db38 ebbb
00000040: aea0 c9b8 a6de a43a c58d c5b7 0b3d 14b8
00000050: 3ce5 cfbb 2314 02bb 8439 5db9 c3c1 67b7
00000060: cfdb be3b b133 07ba fc23 a83b 74db a1bb
00000070: 35a3 bebb cd76 38bc 52b9 c1bb c23c ab3b
00000080: c41e d5bb e8da 4dba aecd a939 4653 90bb
00000090: 0c6e 8e3b 7b0e 39bb cf1a 103c fa13 69bb
000000a0: cb95 7cb8 2db5 14bb 4f5f cebb 9c11 c33a
000000b0: b886 efbb 6507 cebb 706d b1bb c7c7 e5ba
000000c0: ffd0 223b a1ed c9bb 741c 8137 babd c7ba
000000d0: 5e4f 3fbb 2153 f03a 15f0 4dbb 4eb0 81ba
000000e0: ce51 a0b9 929b e8bb ee58 20bc 17dc b5bb
000000f0: a8f1 2d3c 4555 f7b8 4e03 55b8 ba4e 8e3b
00000100: 4a3a 483b c9db f4ba f794 c4bb 66f1 9fbb
00000110: 69ef 07bb 40a3 4fbb b99d 3e39 30e9 b8b9
00000120: 9525 80bc 887b 533b 72e9 d6bb 972d 3cbb
00000130: 1dbe 0abd d884 35bc 9a68 2aba 0375 78b9
00000140: a285 96bb e0b9 c338 92a2 e7bb 5164 1538
00000150: 8675 21ba 64b7 4d3a 935f 77b7 e93a 85bc
00000160: 6ae4 5b38 738f 2f3b 69b4 adb8 690b 353b
00000170: c1fc f8bb 51e1 aebb 7d39 c7bb ce77 d8b7
00000180: 629f 003c eea2 0bbc e67c ca3b f070 96bc
00000190: d5f9 50bc ae7c e6bc 113d 9abb 9745 243a
000001a0: ecc1 17bc 7eb7 de3b 648a a6bb 920a 53bc
000001b0: 2fa6 bb3b 9299 d2bb c2a9 1c3c a11e 57bc
000001c0: 128d a6ba cf80 043c b74c 42bc b80a 16ba
000001d0: f319 26bc d1be a5bc 816c 8dbc 1e62 15bc
000001e0: b27d 87bb 2dcd 2dbc f5c8 83ba c402 f5ba
000001f0: 9736 10bc 026c a2bb afe9 16bc e5a3 163b
00000200: 159a 273c f41c 16bc f9e0 3abb ad00 2ebb
00000210: fcaf 493c 1629 47b9 bf43 07bc b1ca 2fbb
00000220: b46c 533b 8263 fbbb a2a1 90bc c52b 0abb
00000230: 48af 5fbb 0e91 fabb 52bc 5dbb 9ae8 97bb
00000240: 02f8 35bc 5991 4b3b 061d c8ba 7e92 82ba
00000250: df77 14bc 4818 acbb f7c5 563b b529 65b8
00000260: b8b1 febb 8974 c43a d53f 21bc 4119 75b8
00000270: cdb3 98ba 0877 d3b8 8fe0 9736 4594 5dbc
00000280: 287c 02b8 a3ba 853b 664b 88b7 f7ab 513b
00000290: 82cd e0bb 8646 5fbb 8fe2 d5ba 5ec6 1538
000002a0: 6375 803b bf09 aebb 1490 873b 3e84 28bc
000002b0: 4832 f6bb f194 8cbc 9e18 a8ba a95a 2d3b
000002c0: 7326 18bc 8598 c9ba 19be 77b9 6a56 34bc
000002d0: 1947 893b 9223 85bb 2b07 563c 9f56 dabb
000002e0: 4b4a e43a 18f1 153c d545 dcbb d30c 333b
000002f0: 7fa6 09bc 8a3b 33bc abfb 74bc 5224 45bb
00000300: 3e3e dcba f56b 2fbc ab58 983a 32c1 95ba
00000310: 0dd6 8ebb e4db e9ba 0a23 ccbb c4f0 8dbb
00000320: 7bdb d93b 8127 3dbc 7cde 87ba 5031 41bb
00000330: 9315 81ba 49eb 3f38 fa42 37bc 50d8 4abb
00000340: 60d8 d93b 5af7 f9bb a1ec 7fbc 915f 69ba
00000350: 8db9 cdba 8739 ceb7 f548 5abb 8739 86bb
00000360: cc0e 3ebc b1c5 a43b 1433 8cba 12f1 a23a
00000370: a594 82bb 738c acbb 7135 2c39 0d69 07b9
00000380: f938 d8b9 a73b 293b 16e9 32bc 6143 6c36
00000390: 6be4 afbb ece1 5738 971b 8cb8 5c6f 94bc
000003a0: 6382 1bb9 73fe 09bb a131 3837 1f1d 0b3b
000003b0: a581 f4bb d4a1 e1bb 5812 3dbb f46c 5139
000003c0: 0be6 ce3a e05a 8139 68c5 083b 4f5c 95bb
000003d0: 34a9 08bb 0779 c9bb a693 523a 2878 413b
000003e0: 6ce8 3bbc 75c5 cfbb bebe b03a 2eca ccba
000003f0: 23b0 a5ba aeba 89bb c19f 1c3c b5bd 84bb
-0.0059491755 0.001745783 6.6917114e-06 0.002585391 -0.005829348 -0.00097366626 0.0012286053 0.00016089181
-0.0034004855 0.0020105864 -0.0011428547 -3.1011825e-06 -8.096803e-05 0.00014548379 -1.8664149e-06 -0.0071784086
-9.614356e-05 0.0012578561 -2.3550247e-05 -3.53428e-05 -0.0063444655 -0.0019848428 -0.00021097629 -1.3813787e-05
0.005824543 -0.0005157544 0.005131243 -0.004939491 -0.0058177956 -0.011258793 -0.0059119845 0.0052257488
-0.0065039117 -0.0007852749 0.00032387435 -0.004404458 0.0043466147 -0.002823739 0.008795454 -0.0035564885
-6.0220988e-05 -0.0022690997 -0.0062979828 0.0014882567 -0.007309761 -0.0062875026 -0.0054146573 -0.0017530852
0.002484381 -0.006162361 1.5391248e-05 -0.0015239038 -0.0029191594 0.0018335321 -0.0031423618 -0.0009894462
-0.00030578527 -0.0070986236 -0.0097868275 -0.0055499184 0.010616697 -0.000117937605 -5.0786235e-05 0.004342881
0.003055232 -0.0018681224 -0.0059992033 -0.004881072 -0.0020742065 -0.0031682998 0.00018178568 -0.00035268953
-0.01564292 0.0032269675 -0.0065585906 -0.0028713697 -0.033872712 -0.011079036 -0.0006500572 -0.00023694713
-0.004593567 9.3329465e-05 -0.0070689404 3.5617795e-05 -0.0006159175 0.0007847457 -1.47446e-05 -0.016263442
5.2426396e-05 0.0026788383 -8.282887e-05 0.002762521 -0.00759849 -0.0053369184 -0.006079851 -2.5804995e-05
0.0078505 -0.008522732 0.00617944 -0.0183644 -0.012754877 -0.028135624 -0.0047069867 0.0006266473
-0.009262543 0.0067967763 -0.0050824154 -0.012880938 0.0057265977 -0.0064269984 0.009561958 -0.013129861
-0.0012706837 0.008087351 -0.011859111 -0.0005723643 -0.010138023 -0.02023259 -0.017263653 -0.009117631
-0.004134857 -0.010608 -0.0010054397 -0.0018692841 -0.008802078 -0.004956723 -0.009210988 0.0022985872
0.010229607 -0.009162176 -0.0028515442 -0.0026550696 0.012310024 -0.00018993425 -0.008255898 -0.0026823694
0.0032260837 -0.0076717744 -0.017655198 -0.0021083218 -0.0034131575 -0.0076466864 -0.0033834171 -0.0046358826
-0.011106493 0.0031061976 -0.0015267439 -0.0009961871 -0.009061783 -0.005251918 0.0032771805 -5.4636697e-05
-0.0077726506 0.0014988343 -0.009841879 -5.843607e-05 -0.0011650264 -0.00010083435 4.5262927e-06 -0.01352412
-3.1110045e-05 0.0040810867 -1.6247574e-05 0.0031993368 -0.006860436 -0.0034069135 -0.001631813 3.5709112e-05
0.0039202436 -0.0053112204 0.0041370485 -0.010285435 -0.007513318 -0.017160865 -0.0012824719 0.0026451743
-0.009286511 -0.0015380537 -0.00023626573 -0.011006931 0.0041893837 -0.004063078 0.013063232 -0.006663158
0.001741716 0.0091517195 -0.006722192 0.0027320876 -0.008401512 -0.010939488 -0.01495258 -0.0030081463
-0.0016803218 -0.010706891 0.0011623105 -0.0011425375 -0.004359013 -0.0017842022 -0.006229763 -0.00433168
0.0066484786 -0.011545063 -0.0010365988 -0.0029478855 -0.0009848349 4.5757075e-05 -0.011185402 -0.0030951686
0.0066481084 -0.0076283636 -0.015620382 -0.0008902485 -0.0015695557 -2.4583902e-05 -0.0033307646 -0.0040962133
-0.011600208 0.0050284495 -0.0010696375 0.0012431464 -0.003985005 -0.0052657663 0.00016423107 -0.00012913738
-0.00041241178 0.002582291 -0.01091983 3.520596e-06 -0.0053678057 5.14704e-05 -6.680859e-05 -0.018119507
-0.00014830525 -0.0021056205 1.097881e-05 0.0021227074 -0.007461744 -0.0068857465 -0.0028850045 0.00019972381
0.0015785111 0.00024672505 0.0020869616 -0.004558123 -0.0020852806 -0.006148461 0.00080328656 0.0029521082
-0.011468988 -0.0063406774 0.001348458 -0.0015624219 -0.0012640994 -0.004203162 0.009559573 -0.004050935

convs.6.weight f4 [72, 72]
00000000: 625f e9bb 6199 593b 366b 37bb db27 b53a
00000010: e001 92bc 97c1 7dbb 1d4c 343b e9e8 a536
00000020: 1eb9 a0bb b730 263a 90ed 33bb a682 c5b7
00000030: 243b a2b9 bacd 8e39 5b90 8238 139c 00bc
00000040: f292 02b9 a4f2 b73a 258a 04b7 5e8a 9e3b
00000050: 9799 c8bb bf92 25bb 0101 2cba 7820 be38
00000060: 8129 bb3b 4c5b 9dbb 417d 7038 94b1 c6bb
00000070: d4b1 f2bb 3c81 46bc 1113 f8bb eaf9 aa3b
00000080: 5d35 dfbb 1d4a 043c e8df f238 381d ccbb
00000090: cf1d 1b3b 8a5e 84ba 63be d33b 55ac 3dbb
000000a0: 23a0 b53a a3db 64ba 7d37 fd39 9dfe e53a
000000b0: 3dd3 e9bb 5a62 27bc ec6f 10bc 964f 36bb
000000c0: 397c fabb 6730 93bb 6741 abbb 6a11 e53a
000000d0: 7076 4abb 73d0 823b 0e2b c4ba 17eb c0bb
000000e0: 3d71 db38 dded fabb 4abb c63a 7351 04bc
000000f0: 1627 7a3b a6c7 28b8 b921 c1bb 5468 7a3a
00000100: 152d 8f3b e446 54bb 047b c1bb c90f b0bb
00000110: 1f6f 16ba 469f de38 efbd 8f3a 2455 6cba
00000120: d45c 46bc 1da9 81b9 9161 e7bb eec1 c1ba
00000130: a884 b8bc 256e 3bbc 517d 0cbb 29ba 4038
00000140: ddb3 eebb 3e22 193c ae09 19bc db53 5638
00000150: f07b bbb8 b719 043a 222d cd35 c528 3cbc
00000160: 7d6d 4fb8 f4a5 be3b 70e8 1737 400c 893a
00000170: 342a 07bc e775 9cbb 4497 3ebb 5c91 b5b8
00000180: 9d67 fe3b 9390 ccbb 9bbd e63b 7628 82bc
00000190: a9ab ddbb 4e50 9abc ca3d 91bb 64f8 c73a
000001a0: 1be5 32bc 28a3 d13b d2d0 b6bb 82c4 5abc
000001b0: bb12 a53b 5892 d8bb f0c5 8b3b d4b5 1dbc
000001c0: fd83 52bb 0ff4 94bb 32fe 26bc 4c5b e53a
000001d0: 5ed1 1abc 4d7e 47bc ea3e 8ebc efeb a5bc
000001e0: ee5d 48bb 5d6c 50bc 874a 01bb f10b 39bb
000001f0: 82e2 e7bb c9b6 80bb 2b51 34bc 2870 15bc
00000200: 19c6 2f3b 36e3 87bc 5f5c 50b9 40ba 28bc
00000210: 2e47 943c f94f 11b9 6550 2ebc db13 f839
00000220: d1a2 c83b 02c7 0fbc 4399 99bc b008 5abb
00000230: e503 18bc a485 fabb 725c f439 c256 9dbb
00000240: 1f68 3dbc c907 303b ac0a b4bb 8a15 833a
00000250: 2d41 8fbc 5736 c9bb fad5 8b3b d48c 85b8
00000260: 2554 cdbb 390f 053b 11a9 28bc 249a 7137
00000270: d2ec 64ba c664 403a b51c 77b8 b980 8dbc
00000280: 4078 8638 54dc 333b 2b13 1138 5b1a 413b
00000290: 4f64 2ebc 8865 a2bb b581 c7ba 29ab 8b38
000002a0: c1fb 193b 37a7 a8ba 8af1 683a 2097 4bbc
000002b0: dfb6 f2bb 137a c0bc ac55 52bb 1fb5 3c3b
000002c0: 8d19 38bc cb68 dcba 530f b2bb bd2c 38bc
000002d0: bc1e 483b c138 81ba efaa 7e3a 3cbf e3bb
000002e0: f6ff 933a 4600 283c 1607 07bc bea7 5ebb
000002f0: ac97 07bc 1418 a7bc 494b 2abc db35 8fbb
00000300: c10d 61bc 4618 22bc ff48 66ba dcc0 4cba
00000310: 151d a4bb bf34 37b9 3f9e e8bb 4f31 fabb
00000320: 3c67 713b 8606 55bc 3d67 723b 22ed 2bbc
00000330: f3ad 8b3c 0d6e 3cb9 f224 3cbb 54c2 653b
00000340: 90a0 013b 3803 2abc 76f6 87bc cd66 0cbc
00000350: 94fe 2bbc 2592 c43a eb94 d139 1f42 dfba
00000360: dde4 29bc ae06 d03b 2196 14bb 3e78 f13a
00000370: 2724 7fbc 8014 e5bb 1b3e 3f3b cdb2 9ab8
00000380: 3322 95bb 38a6 813b d7a6 37bc feeb 7a38
00000390: e362 4abb 512e c63a 55c0 6bb7 f4a8 88bc
000003a0: a229 05b9 6b4f bf38 f3de c9b7 9bdb f039
000003b0: 30b1 17bc 9a17 f3bb 9272 deba 5719 f738
000003c0: 01d1 ec3a eb7e bdbb 3718 643b 678b fcbb
000003d0: b461 7a3b 8e5f 90bc b368 98ba 488c 3b3b
000003e0: e9aa 18bc bddd ccbb d341 c2b9 fe2f 48bc
000003f0: b040 483b 1bb8 0a3b 15f6 1f3c c9e9 a0bb
-0.007121966 0.0033202993 -0.0027987487 0.0013821082 -0.01782316 -0.0038720125 0.0027511187 4.9444975e-06
-0.00490488 0.00063396565 -0.002745483 -2.3545068e-05 -0.0003094311 0.0002723763 6.225771e-05 -0.007849711
-0.00012452508 0.0014034105 -7.899977e-06 0.004838272 -0.006121825 -0.002526447 -0.0006561429 9.065954e-05
0.0057117348 -0.004802143 5.733711e-05 -0.0060636494 -0.0074064527 -0.012115773 -0.0075706323 0.0052177804
-0.0068117813 0.008074311 0.00011581165 -0.006229069 0.002366889 -0.0010098976 0.006461905 -0.002894183
0.0013856929 -0.0008730238 0.00048297262 0.0017547194 -0.0071357773 -0.01021632 -0.008815747 -0.0027818433
-0.007644203 -0.004491854 -0.0052263024 0.0017476503 -0.0030893348 0.0039921342 -0.0014966445 -0.0058874
0.00010463826 -0.00765775 0.0015162018 -0.00807606 0.003817027 -4.024026e-05 -0.0058939126 0.0009552289
0.004369388 -0.0032390887 -0.005904557 -0.0053729755 -0.0005738604 0.00010615452 0.0010966639 -0.00090153725
-0.012107093 -0.00024730797 -0.0070611914 -0.0014782527 -0.022524193 -0.011439835 -0.0021437 4.5949742e-05
-0.007284625 0.009346543 -0.009340687 5.1099672e-05 -8.93994e-05 0.0005039232 1.5286826e-06 -0.01148433
-4.9454615e-05 0.005818123 9.05442e-06 0.0010455921 -0.008249808 -0.0047747972 -0.002908186 -8.657828e-05
0.0077638165 -0.0062428205 0.0070416457 -0.015888434 -0.0067648483 -0.01883712 -0.0044324147 0.0015256521
-0.010918881 0.0063976236 -0.0055790925 -0.013352515 0.0050376332 -0.0066092424 0.0042655393 -0.009625871
-0.0032122128 -0.0045456956 -0.010192441 0.0017498522 -0.009449331 -0.012176109 -0.017363984 -0.020254103
-0.0030573565 -0.012721148 -0.001972826 -0.0028235877 -0.0070765624 -0.0039280397 -0.01100568 -0.009120978
0.0026820956 -0.016587835 -0.00019870837 -0.010298312 0.018100347 -0.0001385807 -0.010639285 0.0004731704
0.006122925 -0.0087754745 -0.018749839 -0.0033269338 -0.009278272 -0.0076453257 0.00046608184 -0.004801602
-0.011560469 0.002686011 -0.0054944362 0.0010000926 -0.017487133 -0.006140511 0.0042674514 -6.3681655e-05
-0.0062661343 0.0020303263 -0.010294215 1.4400608e-05 -0.0008732799 0.0007339235 -5.8916125e-05 -0.017273294
6.412016e-05 0.0027444558 3.4588546e-05 0.0029465172 -0.010644033 -0.004955951 -0.0015221151 6.6599176e-05
0.0023496004 -0.0012867217 0.000888609 -0.012426168 -0.007407054 -0.02349571 -0.0032094521 0.002879448
-0.0112365605 -0.0016815899 -0.0054339557 -0.011241135 0.0030535897 -0.0009858833 0.0009714802 -0.006950287
0.0011291492 0.010253971 -0.0082414355 -0.0033974494 -0.0082759075 -0.020397224 -0.010393926 -0.0043704337
-0.013736189 -0.009893483 -0.0008784681 -0.00078107207 -0.0050083497 -0.0001747189 -0.0070989425 -0.0076352726
0.0036835214 -0.013002044 0.0036987804 -0.010493549 0.017050719 -0.00017970074 -0.0028708545 0.0035058456
0.001977954 -0.010376744 -0.016597014 -0.0085694315 -0.010497708 0.0014997168 0.0003997454 -0.0017033255
-0.010369507 0.0063484525 -0.0022672492 0.0018422676 -0.015572584 -0.006990969 0.0029181305 -7.3765965e-05
-0.004551196 0.0039565824 -0.011209211 5.982443e-05 -0.0030881695 0.0015120005 -1.4051872e-05 -0.016682126
-0.00012699378 9.1223825e-05 -2.4064886e-05 0.00045939986 -0.009258553 -0.007418585 -0.00169714 0.00011782598
0.0018067659 -0.005782952 0.0034804472 -0.0077070477 0.0038205208 -0.017623689 -0.0011627882 0.002861755
-0.009318092 -0.006252019 -0.00037051606 -0.0122184735 0.0030556135 0.0021166864 0.00976326 -0.004910682
