checkpoint/Wikipedia/20231105_160914474322.pth (torch, 180281 bytes, 40 tensors)

convs.0.weight f4 [32, 138]
00000000: 326a 8b38 1449 67b6 b648 6736 a0af 27b8
00000010: 2319 ddb6 cc37 b1b6 a949 abb7 f777 2eb7
00000020: 7e97 7837 be8a cab7 d2a1 8b37 9e73 abb7
00000030: 8d32 e036 19eb 9ab7 ee07 54b7 5980 5b37
00000040: 40c1 6637 657c 4bb7 6330 3c38 0564 a637
00000050: f2e5 bb37 318c 2f37 8708 2eb7 2416 6d37
00000060: 775d cdb7 d97c 2038 13bb 80b7 e097 8037
00000070: d1cd 1bb6 fc59 cab7 a91a 9937 8100 8836
00000080: 0e8b 3237 c6e7 8237 b3d8 a5b6 e6cd feb7
00000090: 21a1 fc37 31f8 3635 5d28 8cb7 abdf ba36
000000a0: dd3c 36b8 9761 ce37 4788 ecb6 3523 4db7
000000b0: dab0 e135 509e be37 e157 c437 1340 ecb5
000000c0: 4a69 76b4 ae04 56b7 d54c 3f38 e1ef 3ab7
000000d0: 51f6 82b7 4d9e b336 5a84 3237 9d58 87b6
000000e0: f584 c138 7e19 cc36 12a8 6937 54ca 92b6
000000f0: 6292 b037 f2c3 7637 66af 3f37 e8c9 d537
00000100: a22a 2538 ff97 a537 7d80 d437 c3ee 2937
00000110: 00de c837 4f41 6cb7 662b c637 ed59 1234
00000120: bbcf 9035 4eb0 92b7 13e1 0537 d792 ffb6
00000130: 0d09 6d37 3eb6 a4b6 337c bcb7 610f bab6
00000140: ef20 8937 5f9f 03b7 68b5 ba34 e8db 07b5
00000150: 7a94 0438 fa82 61b7 5afe 33b7 4137 edb7
00000160: 8698 f4b7 a2d0 9ab7 ed4d 23b7 b4dc 1e37
00000170: 1e2a c3b6 e4c0 deb6 be24 bfb7 84a9 82b7
00000180: 0bbe 4237 430f a5b7 2bf3 2438 2395 12b7
00000190: bdc1 c635 81b3 6837 ed80 9737 c314 d8b6
000001a0: a54e 8637 25a3 e1b5 1564 11b8 339e 9937
000001b0: dae3 88b7 da56 6437 5bfe e6b6 1b25 38b7
000001c0: 4797 f837 653a d537 f480 e4b7 c788 a1b7
000001d0: 3fcd 77b6 3889 ce37 f5c9 cbb4 0191 2f37
000001e0: effb b7b7 bc00 7c37 d2fd 15b7 897c 3137
000001f0: 1373 9037 af38 2f37 357d 9eb7 59ae 29b7
00000200: b98e 88bb 7c3e eab9 d90a ba37 edde e3b8
00000210: b127 f1b7 9fed 1f37 9208 a439 395f 4b37
00000220: 4bdf d635 2c14 76b8 7ec1 5bbe 6128 35be
00000230: 1683 5bbe 7030 03bd d0e6 1dbd 73e2 f6bd
00000240: 5c30 16bd bc72 d83b 0ffc c1bd 7861 393e
00000250: 69e4 1abd 0f6d d5bd 29b5 68bc 0d89 78bd
00000260: d1bb 46be 8ed1 f3bd aa68 c6bd ff52 f93d
00000270: 7b6b 30bc bbfb 293d 7b48 ac3d 1da4 c3bd
00000280: 714b 68bd da69 e0bd 0e27 2e3d a56a 61bd
00000290: ea27 78bd 09cd 39be 2a72 c3bd ecbb d1bd
000002a0: 46d3 bfbd 5c95 6d3d 3760 3dbe ef94 943d
000002b0: acca 2cbd 804b 40bb 99fe e23d e626 813d
000002c0: 2436 2b3c a651 81bc 428a d4bc 63f4 cfbc
000002d0: d24d b9bc 1d2b f2bc 300b d3bd 3cee bdbd
000002e0: 2990 633d 3b4b 833b fb5d a4bd 4538 59bd
000002f0: 9c15 dbbd 91a2 ecbd 897b f6bd 6018 a4bc
00000300: 9a4c 26bc 0557 0f3c 05b0 2ebe e3c5 e23d
00000310: c6c8 6ebd 388c ca3d d70f 0c3e 6c16 943b
00000320: 5fe1 48bc 899e 1ebd c76f e8bc 6bbb a7bd
00000330: 9a54 b73c f96b 9ebd 1aca 9bbc f50a 9ebd
00000340: 5a54 a1bd ab58 eebd 3dda b2bd a9d3 9a3d
00000350: 7ef9 94bd 0bb2 a8bd 9a7a 27be 0a28 83bd
00000360: b0ce 73bd 6ce6 c23b 8807 193c 3ac8 433e
00000370: 211e 8b3d b11b 653c f03c 9cbb 8c68 14bd
00000380: e60d 88bb b6e2 2f3b ee5b 833c ccac 40bd
00000390: 9b5c 02bd fb61 32bd c98e d2bc 3a7d 3bbd
000003a0: 0a50 d83c 2584 4abd b92f 26be d7a4 5dbd
000003b0: 873d ec3c d810 27bd 89ee ac3d d497 3abd
000003c0: 250a e73c 82a0 3bba 43e2 853d 616a 6bbc
000003d0: 6c1c 11bc e28a 523b 593f 27bc f2d7 273e
000003e0: 8246 0cbd 2d4a ef3b e23b 2f3e e926 353e
000003f0: 5e34 b7bd 77ea d4bc 134a 11ba 2d4f 9cbd
6.647817e-05 -3.446422e-06 3.4464006e-06 -3.9979466e-05 -6.5892395e-06 -5.2815067e-06 -2.041909e-05 -1.039914e-05
1.4817224e-05 -2.4144883e-05 1.6645445e-05 -2.0438627e-05 6.681605e-06 -1.8467706e-05 -1.2638031e-05 1.30833005e-05
1.3754063e-05 -1.2128706e-05 4.4867757e-05 1.9835317e-05 2.2399214e-05 1.0463454e-05 -1.0373194e-05 1.4131456e-05
-2.4481427e-05 3.8263246e-05 -1.5345902e-05 1.5329511e-05 -2.32166e-06 -2.4122179e-05 1.8251436e-05 4.0531745e-06
1.0642003e-05 1.5605136e-05 -4.9426103e-06 -3.0375038e-05 3.0115772e-05 6.816145e-07 -1.6708096e-05 5.5692703e-06
-4.3448865e-05 2.4602557e-05 -7.049213e-06 -1.2227149e-05 1.6815277e-06 2.2723485e-05 2.3405943e-05 -1.7602018e-06
-2.2948839e-07 -1.2756484e-05 4.5609504e-05 -1.1142315e-05 -1.5611908e-05 5.3530443e-06 1.0640442e-05 -4.0336295e-06
9.227722e-05 6.0826414e-06 1.3927014e-05 -4.374693e-06 2.1049e-05 1.4708365e-05 1.1425325e-05 2.5485599e-05
3.937877e-05 1.9740311e-05 2.5332201e-05 1.0128776e-05 2.3945235e-05 -1.4081902e-05 2.3623648e-05 1.3630024e-07
1.0789294e-06 -1.7486655e-05 7.979822e-06 -7.6166866e-06 1.4128408e-05 -4.9087967e-06 -2.2469181e-05 -5.5450223e-06
1.6347009e-05 -7.845315e-06 3.477719e-07 -5.0611425e-07 3.1609532e-05 -1.344154e-05 -1.0728452e-05 -2.8278331e-05
-2.9158091e-05 -1.8455383e-05 -9.733701e-06 9.46892e-06 -5.816356e-06 -6.638571e-06 -2.2786084e-05 -1.5576145e-05
1.1607549e-05 -1.967664e-05 3.9327115e-05 -8.737002e-06 1.4808535e-06 1.3870072e-05 1.8060638e-05 -6.4397186e-06
1.6010667e-05 -1.6811288e-06 -3.4663903e-05 1.8312689e-05 -1.6318565e-05 1.3610081e-05 -6.884145e-06 -1.0975894e-05
2.9634348e-05 2.541877e-05 -2.7239766e-05 -1.9256388e-05 -3.6925337e-06 2.4621011e-05 -3.795864e-07 1.0464574e-05
-2.1932616e-05 1.50205415e-05 -8.940189e-06 1.0579018e-05 1.7219723e-05 1.04440105e-05 -1.8893372e-05 -1.0113778e-05
-0.0041674045 -0.00044678512 2.217798e-05 -0.00010865727 -2.8747922e-05 9.532464e-06 0.00031286903 1.2121914e-05
1.6009229e-06 -5.8669757e-05 -0.2146053 -0.17691185 -0.21436724 -0.032028615 -0.038550198 -0.120549105
-0.036667213 0.0066054743 -0.094719045 0.18103588 -0.037815485 -0.10421192 -0.014203348 -0.060677577
-0.19407584 -0.11905204 -0.09687932 0.121740334 -0.010767813 0.041499835 0.08412262 -0.095527865
-0.05671257 -0.109576896 0.042517714 -0.055033345 -0.06058494 -0.18144621 -0.095432594 -0.102409214
-0.09366469 0.05800377 -0.18493734 0.07254969 -0.04218547 -0.0029341877 0.11083717 0.063062474
0.01044992 -0.015786003 -0.025944833 -0.025385087 -0.022620115 -0.029561574 -0.10304868 -0.09273955
0.055557404 0.004006771 -0.08025738 -0.05303218 -0.10697481 -0.115544446 -0.12035281 -0.020031154
-0.010150099 0.008748774 -0.17059334 0.110729 -0.05829694 0.09890026 0.13677917 0.0045192745
-0.012260764 -0.03872541 -0.028373612 -0.08190044 0.022379208 -0.07735438 -0.019017268 -0.07716934
-0.07877417 -0.11638006 -0.08733032 0.07559902 -0.07274149 -0.08237084 -0.16355363 -0.06404121
-0.059523284 0.0059478786 0.0093401745 0.19119349 0.06792856 0.013983653 -0.0047680065 -0.036232516
-0.0041520474 0.002683801 0.016035046 -0.047039792 -0.031826597 -0.043550473 -0.02570285 -0.045773722
0.026405353 -0.04944243 -0.16229142 -0.05411228 0.028837932 -0.040787548 0.084439345 -0.04555495
0.02820308 -0.00071574014 0.065372966 -0.014368624 -0.008856874 0.0032126238 -0.010207974 0.1639097
-0.03424693 0.0073025436 0.17112687 0.17690624 -0.08945535 -0.025990708 -0.0005542349 -0.07632289

convs.0.bias f4 [32]
00000000: 1d7d 0bbd 1ad3 a33c 7cb6 ca3b 8f47 ba3d
00000010: 8057 c5bb 017b 78bc dc98 eabb 9ef6 1f3d
00000020: 1bca e03c d569 1c3d 5228 1a3d 1bdc 033e
00000030: a011 4c3d c9ca 113d 1e0e 8e3d d716 29bd
00000040: 6cdb 093d 2323 26bd b296 e33d a17c 7b3c
00000050: c8d3 a63c 9ff1 aabc 058b 0bbd 667b 0bbc
00000060: 5223 343d 5021 13bd 6aa1 1f3e 266c 303d
00000070: 0542 e03d f7bf 733c b0ea 06bd cb19 9e3d
-0.034054864 0.019998122 0.0061863046 0.0909568 -0.0060223937 -0.015166045 -0.0071593355 0.03905355
0.027440121 0.038186867 0.03763611 0.12876932 0.049821496 0.03559378 0.069362864 -0.041281547
0.033656523 -0.040560853 0.11112727 0.015349538 0.020364657 -0.020867167 -0.034068126 -0.008513307
0.043978997 -0.03592044 0.15588918 0.04307189 0.10950092 0.014877311 -0.03293866 0.07719763

convs.1.weight f4 [32, 32]
00000000: 2006 5335 65ee 6637 8cc1 2837 a0d7 82b6
00000010: 0c63 f437 a883 c937 6658 83b5 cddd 17b4
00000020: 2a47 5038 7891 7c36 ea6c 7e36 b264 ceb7
00000030: 1054 ab37 e30d 3cb7 4cde c137 0f1f 99b7
00000040: 1fae a2b7 68b6 9036 425f 3e37 4bf5 2438
00000050: 688b 34b6 3e8a 2c38 4e9d 5037 f954 c4b5
00000060: 32c2 deb6 c15b 2fb7 760e c7b4 f805 ceb6
00000070: 809c 5237 136c be37 9ce3 3136 56ff 4fb7
00000080: c428 e0b7 7c7a 03ba 2a53 10bb 3713 4fba
00000090: 80a6 8637 c4c7 d8b7 0ef2 27b4 d149 f6ba
000000a0: cfb8 eab9 dd19 dfb9 6cea 8cba 9e84 61ba
000000b0: 50ad 9b3a c61a 3cbb fd47 f33a fb42 6ab6
000000c0: e1b1 a9ba 4fec 9c37 8db7 1a37 bae3 4eba
000000d0: fc65 53ba 4c68 9f37 14db 0c38 1ba7 43b6
000000e0: 4238 91b9 0627 7c37 a359 0ebb a06c 80ba
000000f0: a53d 1a3a 4ac0 1cba 6d7d 9539 7465 29b9
00000100: cfdf 0838 c25d 2738 443b c93a 5a62 ae39
00000110: 8a2c f0b7 4040 0d37 fa53 9e37 66b9 51ba
00000120: 5285 bf35 ba4d e3b9 7621 c1ba 7459 b938
00000130: 1b75 aeba e24e 0c3b 9190 b7b9 2bc1 8636
00000140: 4f76 7d36 d78d f1b7 68aa 8ab9 bcf1 dfba
00000150: 43c5 9c39 10a7 ceb7 fd61 deb6 1ff4 95b6
00000160: a47d 2cba 151e 4337 5f39 f438 59b8 a1ba
00000170: 2366 0dba adf9 ecba 7719 1cba 1699 0a39
00000180: d765 4538 bf74 8fb9 ff8a 59bb 26c1 a4ba
00000190: 71b8 4fb7 a1c6 67b7 ccb0 e5b6 0321 d1b9
000001a0: fd12 343a 5b92 b5b8 ae94 773b 178a 94b8
000001b0: 37c1 27bb 06f7 03bb bdc4 09ba ee66 4435
000001c0: 1bec 07bb 2158 2f37 d7fb 4eba 993b d8ba
000001d0: 9ede adba d473 1938 9451 93b7 f167 e7b6
000001e0: 470a efb9 88ed b0b6 0674 26b9 c20c d6ba
000001f0: 866d fcb9 0c38 f2ba 7eff 48ba 009d 03ba
00000200: 0ed9 4735 d4c0 6837 69a1 e137 ab10 d1b6
00000210: 56e2 f336 05c6 2c37 0250 31b7 348d 24b8
00000220: 13eb 5837 93f3 44b6 22c8 c037 aa0f 3536
00000230: af8b 9437 c085 48b6 1fc7 16b8 5fb5 29b8
00000240: 0e67 8d37 4a68 2f37 f72f e5b7 2cb0 2d38
00000250: ed9e eeb7 2af9 2c37 bef2 2e36 5275 2bb5
00000260: 1e1e e335 28c0 4bb7 f933 8db5 2976 3fb8
00000270: 3446 51b7 c26e 40b8 68a6 a5b7 282c 1238
00000280: 6b2f 73b7 313b 83b6 a741 55b6 fdd7 d0b7
00000290: 786c 9137 ac07 8a37 8981 ca36 0e51 9337
000002a0: b2af cf37 937b bfb7 767e 1138 273f 83b6
000002b0: e56a 5338 a667 b137 f5f1 3237 aa9d d937
000002c0: 1be1 e9b6 28ab 0938 4df5 3c36 8054 cf36
000002d0: 4f8a 6e37 c79a 9937 528b 52b5 890d 10b8
000002e0: fb00 2138 d22f 37b7 9eb1 f337 b2f9 2c38
000002f0: c348 4237 f7d3 e737 1fbb 9837 8b43 a5b7
00000300: e9bc fb35 a543 9bb7 8c86 b837 a33c 6a37
00000310: 35f4 d2b5 d602 0036 676d c9b7 8886 0fb6
00000320: ab43 5d37 ece2 cfb7 cb5d 0937 0ac5 e7b6
00000330: 8a75 26b8 8bbf 2ab8 4328 83b6 42d5 0936
00000340: 15ab 2738 7fac 4ab8 1963 40b7 bcf9 1637
00000350: a068 c134 01b2 0b36 01bf 2238 cbe9 f037
00000360: 45e8 4cb7 cdef 07b6 1420 1db7 8373 15b8
00000370: fc33 ddb6 3777 a236 0fca 0c38 135b ceb7
00000380: 6064 6fb7 c96d f1b9 fa61 caba 8bb1 98ba
00000390: 4937 4637 f119 c0b7 fa14 9137 bf40 8bba
000003a0: 8ddb b139 f4a1 1e3a 2aaa 14bb fc04 8f39
000003b0: 8436 1c3a 8615 753a c00c 1cb9 230e 3ab8
000003c0: b39a 01bb e265 fd35 aaf5 ecb9 3d0f 91ba
000003d0: 05fb 9bba 960e 2d38 162e 52b7 7fb5 e5b7
000003e0: 172a d5b9 94d2 17b6 a478 9a3a 8a73 2c3a
000003f0: 7773 bcba 11b3 01bb 3e00 abb9 46bc 8eb7
7.861254e-07 1.3764574e-05 1.0058644e-05 -3.899404e-06 2.9133189e-05 2.4022374e-05 -9.785988e-07 -1.4143662e-07
4.965734e-05 3.76356e-06 3.7912346e-06 -2.4604004e-05 2.0423933e-05 -1.12089065e-05 2.3110908e-05 -1.8253484e-05
-1.9392986e-05 4.3127693e-06 1.1347061e-05 3.9329094e-05 -2.6903235e-06 4.1136744e-05 1.24343915e-05 -1.4627868e-06
-6.638723e-06 -1.0452176e-05 -3.707716e-07 -6.1399733e-06 1.2553413e-05 2.2700091e-05 2.6507541e-06 -1.23976115e-05
-2.6721864e-05 -0.0005015505 -0.0022022226 -0.00078992866 1.6051577e-05 -2.584223e-05 -1.5641146e-07 -0.001879031
-0.0004476965 -0.00042553144 -0.0010751016 -0.00086028303 0.0011877213 -0.0028702482 0.0018560883 -3.4907705e-06
-0.0012946689 1.8706689e-05 9.2218515e-06 -0.000789221 -0.0008064208 1.9002844e-05 3.3582633e-05 -2.9154533e-06
-0.0002769847 1.5029456e-05 -0.0021720908 -0.0009797998 0.00058838195 -0.0005979581 0.00028512944 -0.0001615489
3.2633365e-05 3.990322e-05 0.0015352746 0.00033261144 -2.863097e-05 8.419214e-06 1.8874172e-05 -0.0008000344
1.426941e-06 -0.00043354725 -0.0014734704 8.8381494e-05 -0.0013310047 0.0021409323 -0.0003501219 4.015999e-06
3.7768802e-06 -2.8795488e-05 -0.00026448374 -0.0017085592 0.0002990161 -2.4634908e-05 -6.627523e-06 -4.4689655e-06
-0.0006580001 1.162991e-05 0.00011645513 -0.0012338265 -0.00053939427 -0.001807978 -0.00059547223 0.00013217735
4.7063306e-05 -0.00027362068 -0.003319442 -0.001256977 -1.2381105e-05 -1.381492e-05 -6.8453137e-06 -0.00039888182
0.00068692846 -8.6580134e-05 0.003777783 -7.082911e-05 -0.0025597343 -0.002013625 -0.00052554515 7.316547e-07
-0.0020740095 1.0451332e-05 -0.00078958034 -0.0016497254 -0.0013265198 3.6585916e-05 -1.7561753e-05 -6.896437e-06
-0.0004559329 -5.272861e-06 -0.00015874216 -0.0016330706 -0.00048146787 -0.0018479838 -0.0007667466 -0.0005020648
7.4449133e-07 1.3873174e-05 2.6897253e-05 -6.230626e-06 7.2683133e-06 1.0298104e-05 -1.056865e-05 -3.9232153e-05
1.2929336e-05 -2.9348055e-06 2.2981378e-05 2.698022e-06 1.770802e-05 -2.9880175e-06 -3.5948233e-05 -4.0461655e-05
1.6856498e-05 1.04550945e-05 -2.7321263e-05 4.1410487e-05 -2.8445816e-05 1.0310012e-05 2.6069315e-06 -6.387319e-07
1.6921583e-06 -1.2144483e-05 -1.0520445e-06 -4.5647994e-05 -1.2473716e-05 -4.587952e-05 -1.9747022e-05 3.4850236e-05
-1.4494969e-05 -3.910995e-06 -3.1777688e-06 -2.489611e-05 1.7335857e-05 1.6454454e-05 6.035149e-06 1.756151e-05
2.4758137e-05 -2.2826518e-05 3.468847e-05 -3.911456e-06 5.0405873e-05 2.114831e-05 1.0665962e-05 2.5941834e-05
-6.970147e-06 3.2822747e-05 2.8156967e-06 6.178918e-06 1.4218108e-05 1.8311095e-05 -7.8433834e-07 -3.434488e-05
3.8386304e-05 -1.0918784e-05 2.9050567e-05 4.1240542e-05 1.1580242e-05 2.763605e-05 1.8206947e-05 -1.9700985e-05
1.8755937e-06 -1.850894e-05 2.1997163e-05 1.3961605e-05 -1.5717293e-06 1.9075137e-06 -2.4012012e-05 -2.1386968e-06
1.3188382e-05 -2.4781992e-05 8.187674e-06 -6.907275e-06 -3.968695e-05 -4.0709547e-05 -3.9087913e-06 2.0538723e-06
3.9975235e-05 -4.8321202e-05 -1.1467165e-05 8.9988425e-06 3.6025176e-07 2.0816226e-06 3.8801696e-05 2.8719098e-05
-1.2213427e-05 -2.025615e-06 -9.365398e-06 -3.5631947e-05 -6.592365e-06 4.8418547e-06 3.3566783e-05 -2.4599523e-05
-1.42688805e-05 -0.00046048898 -0.0015440576 -0.0011649592 1.1814592e-05 -2.2900264e-05 1.7295115e-05 -0.0010624154
0.0003392365 0.00060513546 -0.0022684433 0.000272788 0.0005959051 0.00093492155 -0.00014882069 -4.435902e-05
-0.0019776046 1.8879621e-06 -0.00045196462 -0.0011067163 -0.0011900371 4.126e-05 -1.2527706e-05 -2.7383443e-05
-0.00040657885 -2.2623326e-06 0.0011785221 0.0006578496 -0.0014377673 -0.001979057 -0.00032615842 -1.701539e-05

convs.2.weight f4 [32, 32]
00000000: a4b4 7136 3e50 41b8 3c6e e4b7 cd94 8fb5
00000010: cd7a 9235 a204 df37 73d1 46b7 df12 1b36
00000020: 4408 49b6 3d9e 1435 31c6 3db4 51df 9437
00000030: ff3e 47b7 9145 fbb7 354a c6b6 eda5 1db8
00000040: 602b 1835 ee0c 21b7 c7ce c237 cc7e f037
00000050: ba5b 0838 e27c d0b7 94fd 3337 c02f c036
00000060: 7991 c0b7 e837 0bb7 eb22 c4b7 9fc2 7137
00000070: e7af d2b6 3f38 1eb8 93a4 ddb6 a6c0 ceb7
00000080: a4e8 2238 3ed2 4838 50a4 80ba 80d9 c137
00000090: 74bf 0535 42cf 8637 fdad 52b8 af0d bfb9
000000a0: 1e85 9039 4e23 b337 2e37 18ba d027 3239
000000b0: 4294 1aba 7bf0 82ba 5e27 fe39 5735 5eb7
000000c0: b9d8 20ba 2cb1 dc37 9ac6 ceb8 5c7d 37ba
000000d0: 9080 eab9 cba1 b8b7 2133 7a37 2e6b a5b4
000000e0: d373 8639 64ae 1336 7f2e 29b8 835d c1b9
000000f0: 1a0a cab9 7acb b4b9 9967 3338 af11 d2b9
00000100: 534f c535 48bd 57b9 e9d5 81ba e75b dcb9
00000110: e1ea b937 f8b9 1f36 657b aa37 a911 c5b9
00000120: a4a2 0139 663d 06b9 4a91 06bb b9f6 0239
00000130: 5a86 fab9 14cb 54ba 39e2 4f3a ef25 8cb6
00000140: 571f 51ba 996d 4b37 0ae1 11b9 ffce 1fba
00000150: 295b 6a39 cf81 35b6 af20 2637 3e8a 3bb8
00000160: f5b3 9ab9 7e8c af37 3bdf a538 7d54 11bb
00000170: ffbc 97b9 9651 4bba 431d 3d3a ad26 cf36
00000180: 46b8 f3b5 b632 c139 a885 adba 348b 2fba
00000190: 26fe fcb5 d1d1 a1b6 4b77 2938 7cfc 05ba
000001a0: d17c 1c39 084c f2b8 99bc 90ba 4fa8 4439
000001b0: 43b9 afba 78f2 a3ba f9e5 a23a 827d 2b38
000001c0: 5f6d 78ba eb81 e237 99e7 e1b8 9abc 39ba
000001d0: 92f7 13ba 92dd 0236 1599 1e38 2397 6536
000001e0: a455 15ba 75f0 c335 600f 1f3a bf0a 3bba
000001f0: 3345 163a 1e9d abba f19b b2b9 fa06 dbb9
00000200: cc13 6fb6 d76f 1ab8 4c8f 1b37 d9be dd37
00000210: a503 8e37 e05b d937 b598 8bb6 4560 3937
00000220: 756e 66b7 ec95 7237 6551 deb6 0ec1 04b7
00000230: 1e8a eeb7 8c28 04b8 c6f0 3cb7 fdc5 6fb7
00000240: 0794 42b7 ff52 0ab7 0489 31b7 8144 8d37
00000250: cf0f 8837 ba96 ae37 9111 ea35 1f81 e5b7
00000260: 93cd cf36 a4a9 02b8 d41a 9db7 db96 0838
00000270: 0ce8 a1b7 f030 4035 12c7 7b37 1d79 0937
00000280: 6dd5 0eb8 f7e5 27b4 4da3 0138 233a a6b6
00000290: 0470 0eb8 d6e3 8d36 0b3d 0cb7 18a8 e5b6
000002a0: 7e04 cf35 0b9f 2db7 5168 6f37 04b1 d336
000002b0: e107 ba35 1c98 1236 3848 bc36 e8d9 3838
000002c0: 57ab 4837 650c 6bb5 76bf 0ab7 a6ad 2837
000002d0: 8769 a3b6 53da 55b7 0266 10b7 5bd1 8737
000002e0: fa1a 9c37 066f 0137 5d9a 76b7 eab8 53b8
000002f0: ee57 90b7 d076 2e38 0aaf 1f38 9951 0c37
00000300: 440d 4cb7 be0b 4fb5 0707 8e37 6a39 f436
00000310: 9a89 7b36 03cd 41b8 abf0 bfb6 a05e 1037
00000320: a911 7fb7 183b 6136 987c 18b7 0fa4 eb36
00000330: 4b94 77b5 9231 a2b6 c1db 8036 d050 c135
00000340: 83e8 ceb7 8943 d936 6907 0337 06b5 72b7
00000350: fe86 2fb7 b947 66b7 a736 5737 90ff 9536
00000360: c77d 2cb7 1637 b437 ecd3 c9b7 599f 9d37
00000370: 0ab5 d9b7 1f17 10b8 737e 46b7 6033 4bb7
00000380: 351f 1838 06a5 7eb9 9e5c c2ba 73d7 0dba
00000390: 6627 6c37 128b 73b7 e050 8a35 e4b5 f3b9
000003a0: c045 2d39 6b6f c5b7 a358 063b 4ebb 2a39
000003b0: 50c6 30b9 b507 e2ba 21c0 14b9 712e f137
000003c0: 14c6 83ba f7d0 1cb8 ff55 d439 04ca 1dba
000003d0: 235d a438 e5c8 1d36 8e67 c1b7 71dc 0737
000003e0: d59d 6eb9 f1fa ebb6 ce06 1eb8 2ee8 e5ba
000003f0: 36f2 31ba 05b5 24ba 7116 bbb9 678b bbb9
3.6016945e-06 -4.6089517e-05 -2.723105e-05 -1.0697637e-06 1.0913587e-06 2.6585829e-05 -1.1850486e-05 2.3107784e-06
-2.9956145e-06 5.5364563e-07 -1.7674098e-07 1.7746965e-05 -1.1875992e-05 -2.9953926e-05 -5.9094987e-06 -3.7586247e-05
5.668753e-07 -9.599358e-06 2.322289e-05 2.8669274e-05 3.2510354e-05 -2.4853685e-05 1.0728272e-05 5.7276047e-06
-2.2955925e-05 -8.298062e-06 -2.338128e-05 1.4410033e-05 -6.2789654e-06 -3.772252e-05 -6.605472e-06 -2.4646823e-05
3.8840473e-05 4.787952e-05 -0.0009814594 2.3108674e-05 4.982496e-07 1.6070557e-05 -5.022994e-05 -0.00036440554
0.00027565 2.1354903e-05 -0.0005806562 0.00016990234 -0.0005896726 -0.0009989882 0.00048475986 -1.324465e-05
-0.000613581 2.6308546e-05 -9.859838e-05 -0.0006999576 -0.00044727745 -2.200985e-05 1.4913066e-05 -3.0811628e-07
0.00025644767 2.2006216e-06 -4.0336043e-05 -0.000368815 -0.0003853597 -0.00034483877 4.277341e-05 -0.00040067497
1.470073e-06 -0.0002057451 -0.0009905669 -0.00042030143 2.2163093e-05 2.3801094e-06 2.032304e-05 -0.00037587926
0.00012362987 -0.00012802109 -0.0020533376 0.00012489677 -0.00047783816 -0.0008117419 0.0007930133 -4.176741e-06
-0.0007977387 1.2125261e-05 -0.00013912111 -0.00060962135 0.00022349939 -2.704666e-06 9.901981e-06 -4.4713022e-05
-0.00029507247 2.0927047e-05 7.909393e-05 -0.0022175603 -0.00028941777 -0.00077559927 0.0007214138 6.173583e-06
-1.8158541e-06 0.0003684961 -0.0013238685 -0.0006696463 -1.884943e-06 -4.8225997e-06 4.040384e-05 -0.00051111705
0.00014923817 -0.00011553621 -0.0011042535 0.00018754716 -0.0013406653 -0.0012508174 0.0012428156 4.0886465e-05
-0.0009476747 2.7001797e-05 -0.000107719745 -0.0007085294 -0.0005644496 1.950048e-06 3.7812704e-05 3.4211632e-06
-0.00056966604 1.4598614e-06 0.00060676597 -0.0007135085 0.00057323574 -0.0013093089 -0.0003406699 -0.00041776133
-3.5625299e-06 -3.682062e-05 9.272084e-06 2.6434123e-05 1.6929416e-05 2.5911198e-05 -4.1603003e-06 1.1049274e-05
-1.3734786e-05 1.445923e-05 -6.625591e-06 -7.912762e-06 -2.8436127e-05 -3.1509015e-05 -1.1261733e-05 -1.4291608e-05
-1.1597766e-05 -8.244765e-06 -1.0581924e-05 1.684041e-05 1.6219825e-05 2.0812604e-05 1.7439471e-06 -2.7359054e-05
6.1930127e-06 -3.1152405e-05 -1.8728351e-05 3.2565422e-05 -1.930075e-05 7.159679e-07 1.50071155e-05 8.194035e-06
-3.4054206e-05 -1.5636748e-07 3.0908082e-05 -4.9539535e-06 -3.395976e-05 4.228651e-06 -8.358863e-06 -6.8443005e-06
1.5424009e-06 -1.0348634e-05 1.4269798e-05 6.3088974e-06 1.3860373e-06 2.1844235e-06 5.611244e-06 4.407196e-05
1.1960822e-05 -8.756236e-07 -8.270019e-06 1.0054011e-05 -4.8700635e-06 -1.2746622e-05 -8.606819e-06 1.6190743e-05
1.8609211e-05 7.714849e-06 -1.4698683e-05 -5.0478535e-05 -1.7207083e-05 4.1595486e-05 3.8071572e-05 8.363649e-06
-1.2162436e-05 -7.7130596e-07 1.6930991e-05 7.2784505e-06 3.748201e-06 -4.6205718e-05 -5.720261e-06 8.6051e-06
-1.5203296e-05 3.356201e-06 -9.088915e-06 7.0226447e-06 -9.2230465e-07 -4.833747e-06 3.84028e-06 1.440314e-06
-2.4665385e-05 6.474966e-06 7.809934e-06 -1.4466472e-05 -1.0462243e-05 -1.37257675e-05 1.2827723e-05 4.4702974e-06
-1.0281284e-05 2.1483324e-05 -2.4059751e-05 1.879006e-05 -2.5952719e-05 -3.435381e-05 -1.1831161e-05 -1.2111705e-05
3.6268688e-05 -0.00024284804 -0.0014828627 -0.00054108276 1.4075869e-05 -1.45163085e-05 1.0305339e-06 -0.0004648409
0.0001652455 -2.3536113e-05 0.002049961 0.0001628224 -0.00016858545 -0.0017244729 -0.00014185953 2.8751065e-05
-0.0010053539 -3.7387912e-05 0.00040499863 -0.00060191774 7.8374775e-05 2.351176e-06 -2.3055614e-05 8.097953e-06
-0.00022756246 -7.032759e-06 -3.7676473e-05 -0.0017540508 -0.00067881064 -0.00062830775 -0.0003568414 -0.00035771282

convs.3.weight f4 [32, 32]
00000000: 4252 6d37 6397 d535 a820 49b7 1e74 e2b7
00000010: 7a85 01b6 e4b8 2cb8 3f1b 1135 01ec beb5
00000020: 859f 5d37 41df 9db7 279b 1037 97b3 4a36
00000030: fa8b 8337 d375 6a37 6730 6f36 e582 4db7
00000040: ec0a e9b5 3837 02b7 2ed5 4137 7ddf 6336
00000050: e901 1238 1ea0 22b8 502b 9735 a62b 0cb6
00000060: 7704 0e38 6868 8637 0c10 28b6 b238 5937
00000070: 8c3e 98b6 577b 2138 478f f6b6 8585 a735
00000080: 7e18 28b6 bf27 4838 f95c 42ba 86ec abb9
00000090: aa90 28b6 2e84 f4b7 b596 beb7 2bbc 70b9
000000a0: c8d4 3e39 bd66 ea38 69b0 cdb9 5eee c2b9
000000b0: 997b e0b8 0ef5 beb9 4bf7 f7b8 ca2e 4c37
000000c0: d76d 22ba 8885 cbb7 eddd b8b8 9272 e9b8
000000d0: 1d84 91b8 217e f836 f82a a8b6 2058 6937
000000e0: af25 68b9 18ca 42b6 9431 2339 6276 a738
000000f0: 83bd b2b9 05ad 18ba 5dea 6238 8d21 1a39
00000100: 2d51 8eb7 12d6 9eb8 c853 26ba a307 ceb9
00000110: e659 4db8 386d b1b7 4139 3337 97c1 aab9
00000120: ec0d 9139 ed17 62b8 2ecf 513a 2852 2c38
00000130: b3bf 3c39 f4d0 1eba 92f5 0a3a 1c03 1fb8
00000140: 3b3e 13ba 7659 deb7 2309 9eb8 a3f1 deb9
00000150: 2ca6 3c37 5e65 1bb7 3053 24b8 d0ff 1337
00000160: 1e76 46b9 c6f4 4438 3f7e 6e38 6416 62b9
00000170: e305 9239 e3dc 06ba 1c8f eeb9 f7c3 ffb8
00000180: ff1e 8ab7 25ef 9039 99be a1ba d409 13ba
00000190: 089c a7b4 bf6d 6937 29b1 a9b6 a915 d2b9
000001a0: affc 2639 da6a 8db8 2001 51ba f776 cfb9
000001b0: f981 7cba cf0a 94ba 737c 24b9 4ca5 9f37
000001c0: 5a67 50ba 4732 2737 16af bbb9 52e8 2fba
000001d0: a527 1e39 b272 8fb7 ffe5 a5b6 ac25 8437
000001e0: 618f b2b9 4680 0f37 e1f3 fc38 1071 84b9
000001f0: dad9 1cba b30b 3aba 3c0f 15ba 3ef9 59b9
00000200: 2b1b 62b6 0164 ca37 8f7b e4b6 1435 cd37
00000210: b4f0 abb6 c32a a3b7 57a1 0337 5a17 3935
00000220: ddac eb36 41ad 4436 8683 1038 465c 3b38
00000230: 68b1 9737 589b 8e37 443d e935 3c87 0f38
00000240: f445 b934 8d76 cdb7 a5ff c3b6 9747 ce37
00000250: e8ae 25b8 98cf bb36 f8a9 92b6 36b2 cf37
00000260: a770 9837 d91c bdb7 963c f4b7 1c58 b936
00000270: a537 dd36 45ed 61b6 ea2b 0537 e78f cbb7
00000280: 151f 8036 8b54 8bb7 3091 2a38 4d13 dfb5
00000290: f693 2638 873b e735 5728 af34 4bd6 6937
000002a0: f267 44b8 a8c7 c935 41f8 ddb7 9c26 28b8
000002b0: e9b5 b137 cb1f 4138 553c afb7 fbfe 07b6
000002c0: aa75 56b7 5537 0437 e578 0fb8 fee9 0eb7
000002d0: 2df4 4235 8785 6fb7 40ea e837 b9e8 ca37
000002e0: 9d71 9937 ab2c d8b7 e1fe e3b7 298e 8c37
000002f0: c967 7b36 eaf0 c1b7 e008 9437 9c96 03b8
00000300: f325 8db7 4ca9 f437 b6fa 1838 611c 0bb8
00000310: 02f9 9936 f781 69b7 ca39 4738 9d96 78b7
00000320: e631 ec35 df68 88b4 14a6 3cb3 d460 b236
00000330: a8a8 fdb5 0ace b2b7 df04 0438 f6a7 59b7
00000340: a692 4438 4b7a 5d35 44fb fd35 ab86 e737
00000350: 4487 d1b7 8c87 7337 a27b 4737 e71d 9b36
00000360: 1a0c e834 a389 2335 7144 95b7 920f 30b6
00000370: 5b51 3638 dd95 4d38 66a2 9137 b160 0936
00000380: 9666 52b8 c05b 09b8 d897 84ba 5179 84ba
00000390: 3ba6 1a38 54a3 a9b6 38fb eab7 46e6 e8b9
000003a0: 48be e538 f4ee f3b8 7cc1 2339 1636 02ba
000003b0: 2ea1 59ba 78c1 bd39 c543 433a d3b5 b2b7
000003c0: 86fe 43ba 31e8 08b8 8088 77b9 fa3e feb9
000003d0: 0d95 9339 c61a 0f38 164a b1b7 e895 5335
000003e0: b307 ecb8 cd20 34b4 0bf6 3cba 9deb aab9
000003f0: 7d98 61b9 4efc 38ba b246 6bb9 f714 81b9
1.4145453e-05 1.5913796e-06 -1.1988137e-05 -2.699537e-05 -1.9300192e-06 -4.118019e-05 5.405636e-07 -1.4224789e-06
1.32097675e-05 -1.881982e-05 8.619193e-06 3.020488e-06 1.5681599e-05 1.397492e-05 3.564195e-06 -1.2249428e-05
-1.7363031e-06 -7.76146e-06 1.1553331e-05 3.3955723e-06 3.481089e-05 -3.877293e-05 1.1262982e-06 -2.0887032e-06
3.3859596e-05 1.6022663e-05 -2.5043291e-06 1.2947408e-05 -4.5372344e-06 3.850026e-05 -7.348051e-06 1.2481329e-06
-2.5048207e-06 4.7720732e-05 -0.00074143667 -0.00032791885 -2.5118156e-06 -2.9148618e-05 -2.2719943e-05 -0.00022958282
0.00018199079 0.00011177126 -0.00039232083 -0.0003718016 -0.00010704174 -0.00036422204 -0.0001182394 1.21702415e-05
-0.0006196177 -2.4261666e-05 -8.8151406e-05 -0.00011131646 -6.938747e-05 7.4056593e-06 -5.0117924e-06 1.39084e-05
-0.00022139282 -2.9025887e-06 0.0001556336 7.985231e-05 -0.00034092003 -0.0005824122 5.4100867e-05 0.00014699083
-1.696552e-05 -7.573901e-05 -0.0006344882 -0.00039297072 -4.8959533e-05 -2.1150903e-05 1.0682562e-05 -0.00032569162
0.00027666928 -5.390488e-05 0.00080035895 4.108451e-05 0.0001800049 -0.0006058358 0.0005300875 -3.791145e-05
-0.0005616878 -2.650612e-05 -7.535729e-05 -0.00042523173 1.1244363e-05 -9.262321e-06 -3.917812e-05 8.821444e-06
-0.00018926754 4.6958005e-05 5.6861198e-05 -0.0002156138 0.00027851676 -0.0005144609 -0.00045501522 -0.00012195849
-1.6465316e-05 0.00027643997 -0.0012340128 -0.00056090695 -3.1219702e-07 1.39134345e-05 -5.0572166e-06 -0.0004007046
0.00015925126 -6.7433066e-05 -0.0007972885 -0.00039570752 -0.00096324045 -0.0011294725 -0.0001568662 1.903125e-05
-0.0007949971 9.965682e-06 -0.0003579787 -0.00067103386 0.00015082823 -1.7100338e-05 -4.9441583e-06 1.5753169e-05
-0.0003405763 8.55333e-06 0.000120617224 -0.0002526124 -0.000598339 -0.000709708 -0.0005686169 -0.00020787583
-3.3692438e-06 2.4126844e-05 -6.8093136e-06 2.446262e-05 -5.1242187e-06 -1.9451027e-05 7.845773e-06 6.895185e-07
7.0236697e-06 2.9307123e-06 3.4454766e-05 4.467021e-05 1.8083214e-05 1.7000057e-05 1.7377683e-06 3.4219804e-05
3.4509833e-07 -2.4493109e-05 -5.841214e-06 2.459045e-05 -3.950196e-05 5.5972014e-06 -4.370926e-06 2.4759309e-05
1.817227e-05 -2.2543989e-05 -2.911528e-05 5.523687e-06 6.592791e-06 -3.3665722e-06 7.937642e-06 -2.4266496e-05
3.8183157e-06 -1.660946e-05 4.0666375e-05 -1.6620412e-06 3.9715283e-05 1.7228166e-06 3.262564e-07 1.3937776e-05
-4.6826848e-05 1.5033775e-06 -2.6460855e-05 -4.009028e-05 2.1184753e-05 4.6044395e-05 -2.088972e-05 -2.0264986e-06
-1.278279e-05 7.880696e-06 -3.420645e-05 -8.51834e-06 7.2625954e-07 -1.4276599e-05 2.7765636e-05 2.4188646e-05
1.8291927e-05 -2.5770007e-05 -2.7179196e-05 1.6755499e-05 3.7462326e-06 -2.3119577e-05 1.7647108e-05 -3.13731e-05
-1.6826181e-05 2.9165902e-05 3.6473117e-05 -3.3166612e-05 4.5887436e-06 -1.3918142e-05 4.7499117e-05 -1.4817019e-05
1.7597893e-06 -2.5408278e-07 -4.3923208e-08 5.3160857e-06 -1.8899054e-06 -2.1315198e-05 3.147579e-05 -1.2973314e-05
4.686662e-05 8.2506875e-07 1.8923097e-06 2.7600056e-05 -2.497773e-05 1.4515488e-05 1.189011e-05 4.622841e-06
4.3222173e-07 6.092252e-07 -1.7794055e-05 -2.6235107e-06 4.346795e-05 4.901538e-05 1.736097e-05 2.0470873e-06
-5.0163442e-05 -3.2748794e-05 -0.0010116054 -0.0010106956 3.6871275e-05 -5.0556064e-06 -2.8011957e-05 -0.00044422055
0.000109550136 -0.000116316514 0.0001561697 -0.0004967166 -0.0008301911 0.00036193035 0.0007448758 -2.1303922e-05
-0.00074765866 -3.2641172e-05 -0.00023606606 -0.00048493576 0.00028149076 3.411879e-05 -2.1134543e-05 7.882177e-07
-0.00011254791 -1.6775739e-07 -0.0007208294 -0.00032600472 -0.00021514478 -0.00070566393 -0.00022437682 -0.00024620417

convs.4.weight f4 [32, 32]
00000000: b671 f537 b4b2 efb7 317c ea37 013b d335
00000010: c844 5bb7 e163 8537 3e0f c135 1893 4e38
00000020: 4c5d 45b7 8485 90b6 1653 1bb7 3a7b 1db8
00000030: 610e 0938 1095 6bb7 53be 7eb6 b13b 1038
00000040: 09ec 78b6 ac67 1fb7 829d 3f35 d50a d5b5
00000050: 153a 1f35 d1a3 ea35 5172 4a38 1a54 1538
00000060: 8f49 c737 4c8e 53b8 2601 31b8 cfa3 1db6
00000070: 70af 69b7 69f7 1db8 e346 f237 199c 8a37
00000080: 100b 1335 a1ca 8038 1d5a 11ba 84f2 80b9
00000090: 99e2 a7b7 e32e 24b7 b3ff 1438 7fc5 91b9
000000a0: 643f 5b39 51d8 08b8 e09f 5c39 a2e9 b1b9
000000b0: d098 aeb9 f31a 5e3a 10d7 033a 7f72 2db8
000000c0: c127 02ba d1ca ba36 1e42 6738 4cf5 e0b9
000000d0: cb77 d4b8 93ee 5338 854a 66b6 cb2f f337
000000e0: 85db a938 d873 8cb5 132a 1bb8 b3b5 4cb9
000000f0: 0988 12b9 19c3 94b9 a55a 2338 7808 7bb9
00000100: e23a 6f36 7978 31b9 b13f 12ba b008 95b9
00000110: 139c e6b6 3fde 31b4 1eec 1b38 e388 8139
00000120: 2219 ff38 dec9 2eb8 1318 1bba 6468 94b6
00000130: f3a9 09ba a58a ecb9 ad10 033a 75fa 27b6
00000140: 185f 12ba cad8 9736 2774 3539 c70a d7b9
00000150: 7d13 a7b8 8f14 b537 82c8 31b7 b3c9 8bb6
00000160: b63f 43b9 6e21 3e36 5c01 2fba 28a6 98ba
00000170: bcc7 80b8 0ab2 c039 121b 70b9 6236 9bb8
00000180: 07a8 3a37 fdb9 39b8 f4cb acba 51ce 4c39
00000190: 8d54 0637 eebe 05b8 f860 07b7 e73a bbb9
000001a0: 20d9 a5ba 3c0f f1b8 b3bb 3cba 1efe ddb9
000001b0: c2a6 50ba 3129 f03a 08b0 1938 7d10 e336
000001c0: 52d7 40ba 3709 1db6 49b0 24b9 f777 a1ba
000001d0: 5da9 3f39 ede2 b5b7 a20a a436 6557 b5b7
000001e0: e0df afb9 9476 db37 9c3e 53b7 6e4e fdb9
000001f0: 3124 a1b9 a5e3 39ba aa0d 74b9 6a5e 03b8
00000200: ce5a f035 384b 5ab7 b337 0036 66d2 6135
00000210: 1d89 99b7 91da 8c37 b8d9 29b8 56df d0b6
00000220: 9318 0ab7 8c70 b3b6 7974 a8b5 d3c5 f336
00000230: 4022 3f38 b00b d336 23c0 f2b7 6eb5 1e38
00000240: 77e0 3638 e69e a537 fe4a 2738 950f 6ab6
00000250: fb11 8634 8088 b8b7 e576 e936 498f b4b6
00000260: 7bd2 4a38 8e6d aeb7 067a 4ab8 0237 9034
00000270: 73c5 c8b5 dd27 f7b7 f616 93b6 2a8d 08b6
00000280: 6464 14b6 c9fa 2db7 84fe ee36 3902 3337
00000290: 13fa f6b5 8408 c636 d471 7ab6 af40 79b7
000002a0: 6933 fbb7 ba92 b8b4 0e85 ffb6 8e6c a937
000002b0: 91bc 0538 f30b 9336 1b7d 2b38 0708 e337
000002c0: ac6c cfb7 ec29 1035 b8ab 1237 00c0 deb7
000002d0: ed7a 19b8 e8cf 7637 9303 1c37 f6b8 06b8
000002e0: 8823 3137 d945 a536 0a1d dab7 cbfd 9ab7
000002f0: afdd 0f38 d22a ffb5 4e20 ec36 0017 5eb7
00000300: b5d5 3b37 b900 75b6 03bb 85b7 6f10 20b7
00000310: f88b 1238 b0de ad37 6f5d 0eb6 c7c4 1038
00000320: 8fab afb6 f17f 1fb8 eed4 2cb8 54b2 e435
00000330: 48b5 b437 c076 cd36 5824 3bb7 d024 e3b6
00000340: f02b 6c36 4ddb 51b8 5631 db35 2ae9 9137
00000350: 3381 6337 d865 2cb8 5a8f f636 b189 5f37
00000360: f488 dbb6 00eb 7737 a81d ca37 8863 0938
00000370: 88bd 43b7 b935 4237 e81f f2b6 6d2f 48b8
00000380: 5ae3 2c38 788c f538 6d6c 7cba 5f33 eab9
00000390: ffb5 0b37 7ca7 1738 33f4 0037 c0e0 203a
000003a0: 9b43 ebb7 d60d adb8 79b5 c13a 1c33 5339
000003b0: d328 4bba fa8d 71b9 6d58 28b9 9ef3 6637
000003c0: abf7 f1b9 a32d 2938 25a2 8bb8 2ff2 03ba
000003d0: 1598 fbb9 46a5 25b7 932c cc36 b13a 0e38
000003e0: 3ac5 41ba 6998 2736 3c74 dd39 581c 04ba
000003f0: 855c 6fb9 4db0 71ba 736c 07ba acef 79b9
2.9259227e-05 -2.8574235e-05 2.7952805e-05 1.5737897e-06 -1.3069432e-05 1.5901345e-05 1.4384057e-06 4.925122e-05
-1.1763837e-05 -4.3070777e-06 -9.258065e-06 -3.754648e-05 3.2676737e-05 -1.4041798e-05 -3.7959733e-06 3.4387867e-05
-3.709227e-06 -9.5012765e-06 7.138225e-07 -1.5872889e-06 5.9316636e-07 1.7482035e-06 4.826702e-05 3.5602694e-05
2.3756902e-05 -5.0438844e-05 -4.2201158e-05 -2.3490172e-06 -1.39287295e-05 -3.7662136e-05 2.8881657e-05 1.652357e-05
5.4777865e-07 6.141258e-05 -0.0005544739 -0.0002459475 -2.001347e-05 -9.786078e-06 3.5524088e-05 -0.000278037
0.00020909082 -3.2626387e-05 0.00021040393 -0.0003393414 -0.0003330172 0.00084726437 0.00050293 -4.1353047e-05
-0.000496503 5.566843e-06 5.513627e-05 -0.0004290737 -0.00010131261 5.052851e-05 -3.4316047e-06 2.8990113e-05
8.099437e-05 -1.0464528e-06 -3.6994064e-05 -0.00019522644 -0.00013974322 -0.0002837412 3.8946648e-05 -0.0002394038
3.564805e-06 -0.00016924915 -0.0005578949 -0.00028425967 -6.8727036e-06 -1.6565262e-07 3.717478e-05 0.00024706786
0.00012164029 -4.1672836e-05 -0.0005916368 -4.4228964e-06 -0.00052514597 -0.00045116726 0.00049997383 -2.5030724e-06
-0.0005583628 4.5253882e-06 0.00017304775 -0.00041016025 -7.9668105e-05 2.1586455e-05 -1.05967065e-05 -4.1660037e-06
-0.00018620383 2.8331665e-06 -0.0006675923 -0.0011646198 -6.140719e-05 0.00036753743 -0.00022898268 -7.4011055e-05
1.1125586e-05 -4.4280652e-05 -0.0013183341 0.00019531815 8.006708e-06 -3.1887488e-05 -8.069204e-06 -0.00035711305
-0.0012653209 -0.00011494613 -0.00071996 -0.00042341737 -0.0007959419 0.0018322823 3.6641984e-05 6.7670467e-06
-0.0007356304 -2.3400187e-06 -0.0001570593 -0.0012319078 0.00018278272 -2.1682552e-05 4.8888187e-06 -2.1617578e-05
-0.000335454 2.6162052e-05 -1.2591157e-05 -0.00048314355 -0.00030735278 -0.00070911116 -0.00023274744 -3.1320764e-05
1.7907821e-06 -1.3011326e-05 1.9105908e-06 8.41252e-07 -1.830287e-05 1.6791078e-05 -4.0495506e-05 -6.224883e-06
-8.231163e-06 -5.347718e-06 -1.2550873e-06 7.264994e-06 4.5569846e-05 6.2896506e-06 -2.8938119e-05 3.7839105e-05
4.360123e-05 1.9743526e-05 3.9885745e-05 -3.4877787e-06 2.4972528e-07 -2.1998072e-05 6.9577823e-06 -5.3810986e-06
4.835658e-05 -2.0793432e-05 -4.8274196e-05 2.6862114e-07 -1.4958626e-06 -2.9463257e-05 -4.3836144e-06 -2.0347748e-06
-2.2112154e-06 -1.0369994e-05 7.1225822e-06 1.0669749e-05 -1.840121e-06 5.901851e-06 -3.731916e-06 -1.4856617e-05
-2.9945471e-05 -3.4379428e-07 -7.615082e-06 2.019692e-05 3.1885287e-05 4.3823325e-06 4.088609e-05 2.7064247e-05
-2.4726927e-05 5.3705185e-07 8.7422595e-06 -2.655387e-05 -3.6592526e-05 1.471115e-05 9.299157e-06 -3.2120348e-05
1.0558295e-05 4.9255145e-06 -2.6001147e-05 -1.8476412e-05 3.4300316e-05 -1.9011443e-06 7.037109e-06 -1.3237586e-05
1.1195826e-05 -3.6508266e-06 -1.594192e-05 -9.540569e-06 3.493947e-05 2.0726904e-05 -2.1214034e-06 3.451554e-05
-5.2353785e-06 -3.802771e-05 -4.1206302e-05 1.7039224e-06 2.1542088e-05 6.1233004e-06 -1.11545305e-05 -6.7694127e-06
3.5192315e-06 -5.0033723e-05 1.633113e-06 1.7393922e-05 1.3560336e-05 -4.1102845e-05 7.3480596e-06 1.3323895e-05
-6.542652e-06 1.47770625e-05 2.4094086e-05 3.275604e-05 -1.1667034e-05 1.1575809e-05 -7.2158764e-06 -4.7727885e-05
4.1219733e-05 0.00011708675 -0.0009629194 -0.00044670232 8.32742e-06 3.6157187e-05 7.686252e-06 0.0006137006
-2.8045664e-05 -8.25186e-05 0.0014778815 0.00020141568 -0.0007749919 -0.00023036441 -0.0001605467 1.376579e-05
-0.0004615163 4.0335242e-05 -6.658238e-05 -0.00050333416 -0.0004798776 -9.873247e-06 6.084863e-06 3.39101e-05
-0.0007391755 2.4973654e-06 0.00042239006 -0.0005039624 -0.00022827282 -0.0009219691 -0.00051660015 -0.00023835775

convs.5.weight f4 [32, 32]
00000000: 1a3a 7eb6 a7c1 c6b5 6863 e1b6 1332 e337
00000010: 83ec fa36 60d5 53b8 e381 7737 438d 22b7
00000020: b380 9c36 883e 30b6 6ad9 53b8 1cdf f237
00000030: 08f6 96b7 3efb 4a38 fb25 9437 2d1a 2136
00000040: 759a ee37 a69e 98b7 f884 41b8 3113 f2b7
00000050: d1a9 9737 42c9 16b8 4026 2238 06a7 c1b7
00000060: f3c8 96b7 a7fc 8137 64a9 0336 efb1 cf37
00000070: f3ca 82b7 63c8 b837 faae 2437 82f6 9f36
00000080: 371b 9bb7 768d cc39 07f4 46ba c476 35b9
00000090: 28a7 2ab8 2881 ae37 5010 0337 f1f7 a136
000000a0: 3e97 14b9 6461 c0b8 30ae 96b9 82b8 f338
000000b0: 60a7 a538 9b54 283a 2e91 c5b8 21db f1b6
000000c0: cf0f 4c38 2f88 59b7 3187 74b7 b375 41b9
000000d0: 9809 8b3a f8cc 9fb7 47ab 8037 d608 8fb7
000000e0: b505 e7b8 222c aeb3 fce3 1538 188a 49b9
000000f0: 6f3d 7eb9 ffb2 0eba 2f48 0d38 8ad9 99b9
00000100: 9147 0ab7 16e8 4538 deda 35ba 91dd 50b9
00000110: d5a7 52b7 97c9 c735 8117 d536 998b 8fb9
00000120: 3d3f 7238 5330 b53a 596e 08ba 9880 4ab9
00000130: 4489 c0b9 e122 dbb9 dac2 ceb6 4b4c b1b7
00000140: c318 e9b9 ba14 5fb7 fbe9 5eb8 f0f7 c1b9
00000150: 128b 9db9 db7f b3b7 2164 87b7 b376 2e37
00000160: 9634 4cb9 cc8e 06b8 3eaf 34ba e634 c5b9
00000170: 42b6 98b9 b801 27ba fcef 1db9 6076 14b9
00000180: 8b08 1037 8953 8a39 5142 3938 3d53 b5b8
00000190: 2ffd 95b7 82f2 2c37 2557 b437 9c79 ebb9
000001a0: 32d1 2938 d589 1fb9 51c2 59ba b286 e7b9
000001b0: 5ed6 3f3b 843a 843a 0a38 efb8 935c 0538
000001c0: d816 2bba bf49 5037 c7fd 3d39 2075 1aba
000001d0: 2e0a 9039 54f5 2738 6bbd cc36 9478 b837
000001e0: 99d6 cab7 db89 14b8 9a8e 70ba 5e6d 81b9
000001f0: 04c1 c738 a9d1 7aba 772a a6b9 b220 5db6
00000200: a5ca 9cb7 36a0 1738 39aa 32b7 5470 f936
00000210: 3c93 1f38 1ceb 2836 c6d0 8c36 9e08 ec35
00000220: 1c4d 29b8 bdf1 1237 f689 4f38 dfc5 9537
00000230: a318 0438 78a8 9736 67c4 92b7 b314 1c37
00000240: feae 3238 e4ea 97b7 5258 11b8 bef3 74b7
00000250: 52e0 79b7 2ddf 0a36 80f1 6835 9a27 e9b7
00000260: 2b4a 2137 5741 ccb7 35e9 1db7 2c7d cfb6
00000270: f293 3fb7 d118 0b38 ea47 2738 f183 1cb6
00000280: fbb0 1837 8016 bdb6 04e1 a837 39e7 e3b5
00000290: e460 f337 53d9 4436 62e9 fbb5 1c9c b7b6
000002a0: c6d2 3137 7700 0cb8 444a 6937 2e72 6237
000002b0: c520 8036 bce6 26b8 6009 1138 0f71 0bb8
000002c0: ff9d 50b7 f88d 8937 7845 9337 4bd8 19b8
000002d0: cbc2 69b6 d486 d837 0e06 40b6 f1b3 0837
000002e0: e5e0 8db6 d699 2538 e5f8 b3b7 170c 1737
000002f0: 284f fcb6 1335 ab37 74e3 8736 4e8d 10b8
00000300: d008 0eb6 17b2 2db8 36e5 25b7 2f51 42b8
00000310: 6c1a f337 6c28 9b37 9abb a9b7 4b4e 63b7
00000320: 11a3 2836 7796 b337 ab41 08b8 3894 b337
00000330: 7e0a 7d36 3a3a 07b7 057a ffb7 f3ff 7bb7
00000340: 6fa6 38b5 fde1 8137 908b 0bb7 061f f2b7
00000350: 4ada 6eb7 c56d b935 310e a537 4204 fbb5
00000360: e55d 69b7 013f f236 677e 5b37 316a 8137
00000370: dbb3 6bb6 8b97 1636 3448 4bb6 e152 2037
00000380: 154d 12b7 4148 7bb9 90d1 623a d6bc a7b9
00000390: 9517 3337 f7f5 de36 19b7 0838 c432 9fb9
000003a0: fde7 f338 958e 06b9 e1bb 44ba 03f6 1039
000003b0: 1c44 1d3a ba2b 46ba 5431 b03a 7926 88b7
000003c0: c1c0 19ba 482e 2636 c147 cfb8 30af 08ba
000003d0: 50b3 bfb9 03c1 76b7 b624 17b4 fab5 ce37
000003e0: f760 adb9 df7a ebb7 375f 13ba 2eb2 81b9
000003f0: 7b2d 00ba 3d1c 61ba f347 91b9 40f3 01ba
-3.788277e-06 -1.480851e-06 -6.717095e-06 2.7083826e-05 7.478114e-06 -5.050504e-05 1.4752589e-05 -9.6888425e-06
4.664145e-06 -2.6262442e-06 -5.0508803e-05 2.8952541e-05 -1.799596e-05 4.839454e-05 1.766066e-05 2.4006106e-06
2.8443736e-05 -1.8193688e-05 -4.6138623e-05 -2.8857585e-05 1.807968e-05 -3.5950223e-05 3.8659433e-05 -2.308517e-05
-1.7974968e-05 1.5495649e-05 1.961912e-06 2.475918e-05 -1.5591713e-05 2.2027822e-05 9.815902e-06 4.7672665e-06
-1.8490113e-05 0.0003901531 -0.00075894635 -0.00017305749 -4.0686835e-05 2.080256e-05 7.8120065e-06 4.827038e-06
-0.00014170722 -9.173414e-05 -0.0002874001 0.0001162151 7.898989e-05 0.00064212986 -9.420734e-05 -7.2078697e-06
4.8652113e-05 -1.2965916e-05 -1.457501e-05 -0.0001844976 0.0010607718 -1.9049723e-05 1.5338546e-05 -1.7051043e-05
-0.000110160014 -8.110534e-08 3.5736695e-05 -0.00019220298 -0.00024246213 -0.00054435426 3.3684246e-05 -0.00029344513
-8.242104e-06 4.7184607e-05 -0.0006937216 -0.00019918966 -1.2556052e-05 1.4885326e-06 6.350631e-06 -0.00027379094
5.775619e-05 0.0013823606 -0.00052044314 -0.00019312126 -0.00036723365 -0.00041796922 -6.161962e-06 -2.1135571e-05
-0.00044459672 -1.3296662e-05 -5.3146836e-05 -0.00036996556 -0.0003004899 -2.1398e-05 -1.613988e-05 1.0398845e-05
-0.00019474546 -3.208108e-05 -0.0006892568 -0.0003761418 -0.00029127492 -0.00063708005 -0.00015062088 -0.00014158478
8.585058e-06 0.0002638365 4.41692e-05 -8.646257e-05 -1.7880082e-05 1.0308462e-05 2.1498252e-05 -0.000449133
4.048757e-05 -0.00015214768 -0.00083068485 -0.0004416011 0.002927206 0.001008824 -0.00011406846 3.1795887e-05
-0.00065265363 1.24149365e-05 0.00018118984 -0.0005892087 0.00027473405 4.0044382e-05 6.101725e-06 2.1990658e-05
-2.4180206e-05 -3.5414338e-05 -0.0009176523 -0.00024686282 9.5250114e-05 -0.0009567985 -0.00031693626 -3.2950597e-06
-1.8691013e-05 3.6150414e-05 -1.064926e-05 7.433855e-06 3.8045677e-05 2.5170802e-06 4.1966296e-06 1.7585878e-06
-4.0364554e-05 8.758562e-06 4.9481132e-05 1.7854325e-05 3.1494197e-05 4.519763e-06 -1.7496013e-05 9.303144e-06
4.260148e-05 -1.8109982e-05 -3.465295e-05 -1.4600284e-05 -1.4893785e-05 2.0693508e-06 8.6778164e-07 -2.7794205e-05
9.613616e-06 -2.4349121e-05 -9.412227e-06 -6.1836527e-06 -1.1418933e-05 3.3163295e-05 3.9882878e-05 -2.3322611e-06
9.1011125e-06 -5.6352583e-06 2.0131942e-05 -1.6980113e-06 2.9012976e-05 2.9332775e-06 -1.8768881e-06 -5.4719985e-06
1.0599097e-05 -3.3379034e-05 1.3905174e-05 1.3497234e-05 3.818512e-06 -3.9792372e-05 3.4579425e-05 -3.3245477e-05
-1.2434552e-05 1.6397782e-05 1.7556114e-05 -3.667948e-05 -3.483309e-06 2.581199e-05 -2.8613754e-06 8.148128e-06
-4.2283086e-06 3.9482336e-05 -2.1454363e-05 9.003116e-06 -7.5194002e-06 2.0409503e-05 4.0497926e-06 -3.4463876e-05
-2.1164778e-06 -4.1412273e-05 -9.888134e-06 -4.6328812e-05 2.8980161e-05 1.8496263e-05 -2.0233729e-05 -1.3548483e-05
2.5128868e-06 2.1408528e-05 -3.2486085e-05 2.1407483e-05 3.7706045e-06 -8.060184e-06 -3.0455189e-05 -1.5020359e-05
-6.8787534e-07 1.5483232e-05 -8.31754e-06 -2.8863094e-05 -1.423673e-05 1.3815521e-06 1.9676141e-05 -1.8702196e-06
-1.3909744e-05 7.2194966e-06 1.30828475e-05 1.5427448e-05 -3.5122418e-06 2.2439951e-06 -3.0291385e-06 9.55604e-06
-8.720225e-06 -0.00023964142 0.0008652443 -0.00031993416 1.0674722e-05 6.6447496e-06 3.259545e-05 -0.00030364667
0.00011630354 -0.00012832352 -0.0007504803 0.00013824557 0.0005999224 -0.00075596164 0.0013442435 -1.6230379e-05
-0.00058652094 2.4762867e-06 -9.8838944e-05 -0.0005214093 -0.00036563957 -1.4707682e-05 -1.4076326e-07 2.4641853e-05
-0.00033069376 -2.80714e-05 -0.0005621793 -0.00024737552 -0.00048895896 -0.00085872767 -0.00027710162 -0.00049572065

convs.6.weight f4 [32, 32]
00000000: 4687 9336 0aa8 8db7 76a1 af36 ecd8 0b38
00000010: 6b1c 0838 16aa db36 1a35 6c37 1664 ebb7
00000020: 1e12 87b5 f03b dbb7 f1a5 96b7 3f52 2fb7
00000030: 3cc6 4737 77a7 2838 4cc2 b3b7 e3b6 c9b6
00000040: c35a 9bb7 c75b 0538 a6e2 d337 fe0a 29b7
00000050: 1fa9 9b37 82e3 4fb7 e7e8 a5b7 e1c0 1c37
00000060: c2c0 20b6 3348 07b7 8e9f 8237 fb2c 86b7
00000070: 0e7f 1136 8e4f 2038 a7a5 86b7 2a15 6637
00000080: 79a0 d637 f800 0db8 b78b 47ba 1388 49b9
00000090: 8273 ecb7 00e3 b035 6106 aab5 bc0e ae38
000000a0: c8ca ec38 dcfe e0b8 85af ddb9 da2c 4939
000000b0: 3d17 a3b9 4d00 883a 4168 3ab9 5ca3 1536
000000c0: 4d07 20b9 a3ee cbb7 5841 76b8 47b8 0aba
000000d0: 72b6 2db9 dcd3 c6b6 1b01 80b6 e885 a2b7
000000e0: f497 0fb9 018f 2e38 958f 94b8 d5c8 ecb9
000000f0: a9c6 3839 803b dfb8 7aa7 8eba 9797 b3b9
00000100: 4563 8db7 b3f2 89b8 c3c5 47ba 93d7 65ba
00000110: f0b8 74b5 6fa0 a3b6 efa9 67b7 6796 84b9
00000120: e3fc 3237 6b43 2b39 f82e 21ba 5602 aab9
00000130: 7aeb 12ba a305 ab3a d22d b5b8 6971 c637
00000140: 5733 c4b9 13f9 0135 0a64 c7b8 8a71 dcb9
00000150: e80b b53a bda5 75b7 43bd cd37 733b 4f37
00000160: 3e88 a4b9 94b7 1ab7 6b73 2e38 3b04 36ba
00000170: a21a b7b9 4315 16ba 325a 5bb9 b238 24b9
00000180: 2bbc b3b7 f712 e338 2a4e 94ba f8ba 00ba
00000190: 802d 1038 72ed 8d36 6f82 b037 1396 3cb9
000001a0: 3628 ecb7 4a4d f9b8 babf ecb9 734a 5438
000001b0: 11cb 5fba 122b e73a a976 0db9 1d3b 05b8
000001c0: 46b1 38ba 5232 ff37 1e55 dbb8 040e 0cba
000001d0: 8cad acb9 4a16 8837 844b 9e37 ae33 72b7
000001e0: 1c93 d2b9 f2c9 bcb6 e14a 5a38 4977 efb9
000001f0: 3c02 05ba a9e8 cab9 a6ab 77b9 c015 6fb9
00000200: 0bf0 9837 25d7 afb7 4c8f 2937 e81e 9536
00000210: 2f9c eab7 92d0 1eb7 ea1a bbb7 cc87 b7b7
00000220: 30b9 8937 9024 91b7 5e5e d737 7d0e 88b6
00000230: 7f98 c6b7 5a24 2e35 a46c 9a36 d593 80b6
00000240: 3307 b037 82a7 bcb7 7b8b 9636 0eda 7f35
00000250: 00c8 1c38 d97c 5637 d8ca b4b7 c97d 9eb6
00000260: 3e9c 0c38 431b 7eb7 0be1 b9b7 873a ec36
00000270: 1e26 14b8 7215 ea36 f61e 9c36 b3f5 c237
00000280: 9dd7 4038 073c 1238 f903 b6b4 84b3 ed37
00000290: eff5 1fb8 139b c836 ac10 feb5 feb4 9f36
000002a0: 3e89 af37 4703 0eb6 e1a2 73b6 2fc4 0d36
000002b0: 1db0 b9b7 5a31 2438 26b0 ab37 0058 dd37
000002c0: 87a0 f237 b5f2 f3b5 7091 b1b7 ba35 1a37
000002d0: f57f a6b7 50a3 eeb7 9162 e437 7388 24b5
000002e0: e8b2 99b7 b490 cab5 742e 2cb8 cbda d3b6
000002f0: 1744 bdb6 b952 9336 1ee5 4c38 feec 6b35
00000300: fe67 09b8 d1f2 4238 946b 2cb6 0657 16b8
00000310: 5f71 33b8 34c9 2eb6 d28a 7a36 73ec 49b7
00000320: e3ff 93b7 c5fb d335 91cb 8e36 9a66 eeb7
00000330: 2e96 3a37 dfd5 4136 b160 1f37 1e70 c937
00000340: 2d22 b337 f9e6 f137 e292 60b7 418a 5837
00000350: c754 b7b6 9e51 8937 2d12 9db7 6cce a9b7
00000360: 9daa a937 b3ef 2b38 6606 0b36 9793 8937
00000370: 9edb 9db7 64b3 1b38 ba37 ebb7 0b8c 3cb6
00000380: 8d9a 32b7 c333 a4b8 a2d0 23ba 1ff6 a2b9
00000390: 40b0 2c38 1587 8a36 5f1a d037 acf1 c4b9
000003a0: 2841 91ba 77de 97b8 9944 54ba 5233 dd38
000003b0: 78e4 3c3a 1010 8bba 9cc9 203a 9bee 71b7
000003c0: 9a14 2bba 4dd6 80b7 6c7f f5b8 2c29 e3b9
000003d0: 319a 253b 39f2 4b38 8ca1 b536 2d02 35b7
000003e0: 288d 60b9 525d 08b8 1059 24b8 6249 d1b9
000003f0: 8ffa fab9 a9d8 18ba 21cd 653a 2a61 80b9
4.3966893e-06 -1.688676e-05 5.234203e-06 3.3342207e-05 3.2451393e-05 6.546509e-06 1.407906e-05 -2.806079e-05
-1.0063557e-06 -2.6134745e-05 -1.7958666e-05 -1.0449962e-05 1.1907479e-05 4.0210285e-05 -2.142894e-05 -6.0115576e-06
-1.8519704e-05 3.1795145e-05 2.5258701e-05 -1.0075744e-05 1.8556193e-05 -1.2391132e-05 -1.9777986e-05 9.343233e-06
-2.3954058e-06 -8.063437e-06 1.5571506e-05 -1.599499e-05 2.168064e-06 3.8221064e-05 -1.6051183e-05 1.3713996e-05
2.5585514e-05 -3.3617922e-05 -0.00076120667 -0.00019219545 -2.818718e-05 1.3179088e-06 -1.2667844e-06 8.299711e-05
0.00011291128 -0.000107286236 -0.00042283177 0.00019185562 -0.00031107097 0.0010376066 -0.0001777718 2.2297818e-06
-0.00015261509 -2.431061e-05 -5.8711827e-05 -0.00052917417 -0.00016566532 -5.9255235e-06 -3.814826e-06 -1.937426e-05
-0.0001369415 4.1618016e-05 -7.083934e-05 -0.0004516306 0.00017621614 -0.000106445514 -0.0010883652 -0.00034254484
-1.6854736e-05 -6.577875e-05 -0.00076207164 -0.000876778 -9.11662e-07 -4.8764555e-06 -1.3808239e-05 -0.0002528906
1.0668507e-05 0.00016332946 -0.00061486615 -0.00032426667 -0.0005604547 0.0013047945 -8.639287e-05 2.365625e-05
-0.00037422284 4.8418696e-07 -9.507693e-05 -0.00042046263 0.0013812752 -1.4641727e-05 2.4526036e-05 1.2352003e-05
-0.00031382026 -9.221858e-06 4.1592324e-05 -0.00069433794 -0.00034924323 -0.0005725214 -0.00020919068 -0.0001566138
-2.1426085e-05 0.00010827736 -0.0011314799 -0.0004910673 3.437465e-05 4.2297697e-06 2.1041573e-05 -0.00017984984
-2.8152117e-05 -0.000118876414 -0.00045156275 5.0614075e-05 -0.0008537034 0.0017636737 -0.00013491012 -3.1764725e-05
-0.0007045459 3.0421801e-05 -0.00010458588 -0.00053426647 -0.000329357 1.6222843e-05 1.8870232e-05 -1.4436357e-05
-0.00040163926 -5.626346e-06 5.2044987e-05 -0.00045674507 -0.00050738803 -0.00038701788 -0.000236197 -0.00022800919
1.823159e-05 -2.096181e-05 1.0106549e-05 4.444144e-06 -2.7967702e-05 -9.466095e-06 -2.230467e-05 -2.1878535e-05
1.6417907e-05 -1.7302373e-05 2.567394e-05 -4.0548025e-06 -2.367445e-05 6.487295e-07 4.602205e-06 -3.831907e-06
2.0984187e-05 -2.2489348e-05 4.486586e-06 9.5312214e-07 3.7379563e-05 1.2784462e-05 -2.1552129e-05 -4.7234103e-06
3.3524113e-05 -1.5145927e-05 -2.2158512e-05 7.0401616e-06 -3.532145e-05 6.97624e-06 4.6527666e-06 2.3241015e-05
4.5977173e-05 3.4865017e-05 -3.3903032e-07 2.8336195e-05 -3.8137598e-05 5.9785175e-06 -1.8929327e-06 4.7596395e-06
2.0925534e-05 -2.1161557e-06 -3.630463e-06 2.1124831e-06 -2.2135728e-05 3.914661e-05 2.0466814e-05 2.6386231e-05
2.89234e-05 -1.8175548e-06 -2.1167769e-05 9.1916245e-06 -1.9848327e-05 -2.844786e-05 2.7225617e-05 -6.129332e-07
-1.8322331e-05 -1.5092287e-06 -4.105126e-05 -6.313761e-06 -5.6405656e-06 4.3905716e-06 4.8850772e-05 8.788919e-07
-3.2760196e-05 4.6479345e-05 -2.5692616e-06 -3.5843834e-05 -4.278251e-05 -2.6045136e-06 3.7333707e-06 -1.2035586e-05
-1.7642922e-05 1.5794e-06 4.255628e-06 -2.8419588e-05 1.112143e-05 2.888373e-06 9.499651e-06 2.4013276e-05
2.1354377e-05 2.8836994e-05 -1.3385639e-05 1.2906793e-05 -5.4636944e-06 1.6369679e-05 -1.8724322e-05 -2.0242493e-05
2.0225818e-05 4.0992814e-05 2.0716338e-06 1.64004e-05 -1.8818126e-05 3.712195e-05 -2.8040133e-05 -2.8095699e-06
-1.0645611e-05 -7.829771e-05 -0.0006249045 -0.00031082422 4.117214e-05 4.128446e-06 2.4807812e-05 -0.00037564093
-0.001108204 -7.2416784e-05 -0.000809738 0.0001054766 0.00072056754 -0.0010609645 0.0006133558 -1.4420274e-05
-0.0006526202 -1.535858e-05 -0.000117062445 -0.0004332749 0.0025268907 4.862456e-05 5.413027e-06 -1.0788947e-05
-0.0002141489 -3.2511838e-05 -3.9183593e-05 -0.0003991826 -0.00047870397 -0.0005830625 0.00087662233 -0.00024486455
