checkpoint/Wikipedia/20231105_161458368157.pth (torch, 760995 bytes, 38 tensors)

convs.0.weight f4 [72, 138]
0	0x3e1b5c96	0.15172037
1	0xbdb6420f	-0.088993184
2	0xbe87a169	-0.26490334
3	0xbc8d247e	-0.017229315
4	0x3d48ad7c	0.048993573
5	0x3e2b2587	0.16713534
6	0xbdf8af26	-0.12142782
7	0x3cc56a18	0.024098441
8	0xbe0abcf6	-0.13548645
9	0xbd2c1b28	-0.042018086
10	0xbda1ff37	-0.079100065
11	0x3c1ee54c	0.009698223
12	0x3dad6ab1	0.084676154
13	0x3d36a19a	0.04458771
14	0x3e87cdb9	0.2652414
15	0x3eed85e3	0.4639121
16	0x3c944db5	0.01810346
17	0x3e8ab266	0.27089232
18	0xbea42677	-0.32060596
19	0x3d793371	0.060840074
20	0xbde70094	-0.11279407
21	0x3dc08d94	0.09402004
22	0x3d4d63a7	0.050143864
23	0x3e4e2a0f	0.20133232
24	0xbdd75e40	-0.10516024
25	0x3db906a3	0.09034469
26	0x3b75bce2	0.0037496616
27	0x3eebf227	0.46083185
28	0x3d9c77a2	0.07640006
29	0x3eabbd96	0.3354308
30	0x3dab8cb7	0.083764486
31	0xbd99eb06	-0.0751553
32	0x3ba81cb8	0.0051303767
33	0xbe02e0ba	-0.12781039
34	0xbe94783c	-0.28997982
35	0x3d54b11b	0.051926713
36	0xbe543ab8	-0.20725524
37	0x3badf7ef	0.005309097
38	0xbe100685	-0.14064987
39	0x3da76316	0.08173196
40	0xbd0b1d18	-0.033963293
41	0x3db5587e	0.08854769
42	0xbe1f60f6	-0.15564331
43	0xbd07e84c	-0.03318052
44	0x3e22bf8a	0.15893379
45	0x3ec35a05	0.38154617
46	0xbdd64a76	-0.10463421
47	0x3d12d5c0	0.03584838
48	0x3db81a78	0.089894235
49	0xbbd462eb	-0.0064815185
50	0xbe3824d3	-0.17982797
51	0x3cd58244	0.026063092
52	0x3d046bba	0.0323293
53	0x3e4c42d3	0.19947366
54	0x3c9c1287	0.019051803
55	0x3e5784ce	0.21046755
56	0xbdeccc69	-0.11562426
57	0x3e692911	0.22769572
58	0x3d9bdaf1	0.07610119
59	0x3e1c1b20	0.15244722
60	0xbe140c31	-0.14457776
61	0xbcd7c555	-0.026339212
62	0x3d5024ba	0.050816275
63	0x3c6b8617	0.014375231
64	0xbdde2a7d	-0.10847948
65	0x3df41ab0	0.11919153
66	0xbe326765	-0.17422254
67	0xbd603bff	-0.054744717
68	0xbd8fea86	-0.07027154
69	0x3ea3451e	0.3188867
70	0xbdcb295b	-0.09919997
71	0xbe02905c	-0.12750381
72	0xbdf96176	-0.12176792
73	0xbdacc75e	-0.08436464
74	0x3d9e3980	0.07725811
75	0x3e03ff6a	0.12890401
76	0xbe14728a	-0.14496818
77	0x3da7b0bc	0.08188006
78	0xbe02357c	-0.12715715
79	0xbc0b10cf	-0.008487894
80	0x3d815520	0.063150644
81	0x3e09e867	0.1346756
82	0xbe149331	-0.14509274
83	0x3e33cd5a	0.17558804
84	0x3c357868	0.01107607
85	0xbc8b4331	-0.016999813
86	0xbe3a035a	-0.18165341
87	0x3def5cee	0.11687647
88	0xbe3aab66	-0.18229446
89	0x3cba9436	0.02277575
90	0xbd95f1b1	-0.073214896
91	0x3e7e100b	0.24810807
92	0x3c1cb52c	0.009564679
93	0xbcc79489	-0.02436282
94	0xbe129df6	-0.1431807
95	0xbc625039	-0.013813072
96	0xbde7205c	-0.11285469
97	0x3e0ff2e0	0.14057493
98	0xbd6e1c08	-0.0581322
99	0x3d8d3520	0.068948984
100	0xbe3a5260	-0.18195486
101	0xbc9fc4ec	-0.01950308
102	0x3d846f49	0.064665385
103	0x3ca78475	0.020448903
104	0xbe2d7089	-0.1693746
105	0x3dc1ec00	0.094688416
106	0xbdcf194e	-0.10112248
107	0x3cb9e4ba	0.022692073
108	0x3cf161dd	0.02946561
109	0x3e5290bd	0.20563026
110	0x3caaf5cb	0.020869156
111	0x3d62ada9	0.055341396
112	0xbd34fafd	-0.044184674
113	0x3e56aa1c	0.20963329
114	0xbe0e3baa	-0.13889948
115	0x3e0a6795	0.13516076
116	0x3d29a440	0.041416407
117	0x3ea24b35	0.31698003
118	0x3d5d4644	0.05402209
119	0x3ec96567	0.39335176
120	0xbe7bb597	-0.2458099
121	0x3d48e03c	0.04904197
122	0x3cb8aebf	0.022544263
123	0x3e9c4d0f	0.3052754
124	0xbe398604	-0.18117529
125	0x3c63710f	0.013881936
126	0x3d8f463d	0.06995819
127	0x3d95df32	0.07317962
128	0xbe83ec1a	-0.2576607
129	0xbe306903	-0.17227559
130	0x3f3a9b08	0.7289281
131	0xbca467ed	-0.020069087
132	0xbe8d0283	-0.2754098
133	0x3f8c1a3c	1.0945506
134	0xbd105a0e	-0.035242133
135	0xbe5e15b5	-0.21687968
136	0xbe88613a	-0.26636678
137	0x3f6c45b9	0.9229389
138	0x375ec639	1.3278383e-05
139	0xb7958261	-1.7822897e-05
140	0xb3631220	-5.286904e-08
141	0xb4ba5e3d	-3.4713767e-07
142	0xb61470b0	-2.2119311e-06
143	0x349e628e	2.95015e-07
144	0x36f1bf99	7.2046646e-06
145	0x35cf5089	1.5446141e-06
146	0x36de49a4	6.6246885e-06
147	0x361030e6	2.1486135e-06
148	0xb57cb3c9	-9.413894e-07
149	0x36227f5a	2.421401e-06
150	0x3505f76c	4.990641e-07
151	0x350b4dcb	5.189474e-07
152	0x34a5c816	3.0879227e-07
153	0x36943868	4.4173103e-06
154	0x35a7823f	1.2480376e-06
155	0x369d372d	4.685388e-06
156	0xb713a31a	-8.799858e-06
157	0xb48dd5b3	-2.6418783e-07
158	0x35bf977c	1.4274697e-06
159	0x35accda4	1.2874848e-06
160	0xb64e9273	-3.0781637e-06
161	0xb6746532	-3.6417737e-06
162	0x35a8171f	1.2523705e-06
163	0x34dafde4	4.0790394e-07
164	0xb622976b	-2.4228018e-06
165	0xb66c61fa	-3.522377e-06
166	0x3672323c	3.609005e-06
167	0xb5e165ff	-1.6793491e-06
168	0xb5c78f69	-1.4868393e-06
169	0x352f364f	6.527161e-07
170	0xb6cfb5a6	-6.1902274e-06
171	0x35cc1c85	1.5207485e-06
172	0x3730455f	1.0506569e-05
173	0xb6920174	-4.3513082e-06
174	0x35b3040f	1.333772e-06
175	0xb65a7cc0	-3.2557145e-06
176	0xb6114549	-2.1647013e-06
177	0x3530d084	6.586854e-07
178	0x35f0dd1c	1.7945745e-06
179	0xb62a2801	-2.535526e-06
180	0xb6db9518	-6.5440654e-06
181	0xb4158569	-1.392524e-07
182	0xb4dfe921	-4.170661e-07
183	0x36438125	2.9132436e-06
184	0x3683d8bb	3.929335e-06
185	0xb59469b7	-1.1057626e-06
186	0xb5bad979	-1.3921373e-06
187	0x372ad96b	1.0183411e-05
188	0x367c5122	3.7598152e-06
189	0xb52e484e	-6.492527e-07
190	0x370218ab	7.754347e-06
191	0x34e83bf2	4.3256983e-07
192	0x334836b4	4.661588e-08
193	0xb501ae7b	-4.831015e-07
194	0x379a17da	1.8369337e-05
195	0xb66e4492	-3.5504677e-06
196	0x360b8c0f	2.079414e-06
197	0xb60c81b5	-2.0937125e-06
198	0x341d2830	1.4636385e-07
199	0x360d9b63	2.1101084e-06
200	0xb39bae48	-7.2494515e-08
201	0xb4d4ef37	-3.966213e-07
202	0x35a1a62e	1.2043799e-06
203	0xb7156123	-8.9037085e-06
204	0x37293bd8	1.0087118e-05
205	0x36461c1a	2.9520656e-06
206	0xb6799b08	-3.7194131e-06
207	0x36323c29	2.6559085e-06
208	0xb6cf3a93	-6.1758997e-06
209	0x36618a0f	3.3607973e-06
210	0xb431c8b5	-1.6557426e-07
211	0xb630be61	-2.6336859e-06
212	0x366a353f	3.489971e-06
213	0xb587d1c3	-1.0119333e-06
214	0x355207ca	7.824243e-07
215	0x368b92f4	4.1596304e-06
216	0xb3ec748b	-1.10108054e-07
217	0xb549bee2	-7.5156106e-07
218	0x365cd4dd	3.2906457e-06
219	0x368cf9be	4.201399e-06
220	0xb387c172	-6.321615e-08
221	0x360d9951	2.109988e-06
222	0xb5f49269	-1.8222028e-06
223	0xb6094f5a	-2.046078e-06
224	0x36b264e2	5.3165577e-06
225	0xb549ff3a	-7.524974e-07
226	0x36de837a	6.6314215e-06
227	0x363df535	2.8305924e-06
228	0x33fd4caf	1.1795179e-07
229	0xb48f02a0	-2.6637736e-07
230	0xb3a33255	-7.599434e-08
231	0xb56d95cf	-8.850738e-07
232	0xb5aec3a4	-1.3020949e-06
233	0xb4dea755	-4.1472472e-07
234	0xb6abe15a	-5.1224315e-06
235	0x3680c108	3.837169e-06
236	0x36b1491d	5.2835226e-06
237	0x36263bfc	2.4770843e-06
238	0xb5aa0d61	-1.2669881e-06
239	0x3496ec59	2.8111643e-07
240	0xb4771915	-2.3012792e-07
241	0x341bfe78	1.4528075e-07
242	0xb6aba111	-5.1149477e-06
243	0xb58367c2	-9.790458e-07
244	0x36b7063e	5.4545517e-06
245	0x35c3ab1f	1.4578435e-06
246	0xb55465bb	-7.912419e-07
247	0xb561b11c	-8.407676e-07
248	0xb6c84b2a	-5.9692147e-06
249	0xb59ea993	-1.182127e-06
250	0xb5bfc03a	-1.4286554e-06
251	0xb6bdefff	-5.660578e-06
252	0xb4883d11	-2.5376406e-07
253	0x35aac0a7	1.2722056e-06
254	0x35a83c37	1.25345e-06
255	0xb518214d	-5.667287e-07

convs.0.bias f4 [72]
0	0x3dccbad2	0.09996571
1	0xb88e4473	-6.783837e-05
2	0x3d84d514	0.06485954
3	0x3d8553fa	0.06510158
4	0x3ddae8c6	0.10688929
5	0x3e06516d	0.13116999
6	0x3c9ab81d	0.01888662
7	0x3de3c4e6	0.1112154
8	0x3d6104b7	0.054936137
9	0x3d399378	0.045306653
10	0xb9bb95ee	-0.00035779126
11	0x3c28b4a4	0.010296974
12	0x3c2c2454	0.010506708
13	0x3d8c5398	0.06851882
14	0xbc661fac	-0.014045637
15	0x3dd35495	0.10318867
16	0x3ddce03e	0.10784958
17	0x3b51522f	0.0031939854
18	0xbce69645	-0.028147826
19	0x3db6e40e	0.08930217
20	0xbd19bbe7	-0.037532713
21	0x3d573432	0.05254001
22	0x3c485610	0.01222755
23	0x3df83785	0.121199645
24	0x3d45f7de	0.048332088
25	0x3cb00009	0.021484392
26	0x3c52ef8a	0.012874493
27	0x3dc0605f	0.09393381
28	0x3df38f99	0.118926235
29	0xb974d15d	-0.00023347647
30	0xba50f7b7	-0.00079714827
31	0xbd04d819	-0.03243265
32	0x3cb1a012	0.021682773
33	0x3db77afd	0.08959005
34	0x3d827ce8	0.0637148
35	0xbce6251e	-0.02809387
36	0x3dc0ba63	0.094105504
37	0x3cb5b49d	0.02218085
38	0x3c82e82a	0.015979845
39	0xbcc83e57	-0.024443788
40	0xbbd4d1f2	-0.006494754
41	0xbcfa9941	-0.030590655
42	0xbbb94748	-0.0056542493
43	0x3d992c98	0.07479209
44	0x3d92b701	0.071638115
45	0x3d02c4a4	0.031925812
46	0x3e1d712c	0.15375203
47	0x3de75f7b	0.11297508
48	0x3decb9b8	0.115588605
49	0x3d6d5b4c	0.057948396
50	0x3dd70ad1	0.1050011
51	0x3d607648	0.0548003
52	0xbc532573	-0.012887347
53	0xbd80af14	-0.062833935
54	0xbae30bbb	-0.0017322222
55	0x3d23b02a	0.039962925
56	0x3e57bc93	0.21068029
57	0xbc4156a4	-0.011800442
58	0x3c78541c	0.015156772
59	0x3d06bc45	0.03289439
60	0xbc82c4cf	-0.015962986
61	0x3e390d85	0.18071564
62	0xbcf36ec2	-0.0297159
63	0x3cf72303	0.030168062
64	0x3d543988	0.05181268
65	0x3de405fc	0.11133954
66	0xbcc01988	-0.023449674
67	0x3d2a6dbd	0.04160856
68	0xbd13233c	-0.035922274
69	0x3d9d5e5f	0.076840155
70	0x3dcb2caf	0.09920632
71	0x3dc0b421	0.09409357

convs.1.weight f4 [72, 72]
0	0xbae7035f	-0.0017624906
1	0x3545b944	7.3657816e-07
2	0x3b9a76e1	0.0047138785
3	0x3ad296f7	0.001606672
4	0xbb5b3209	-0.0033446571
5	0xbb2c39ca	-0.0026279562
6	0x3b2d31be	0.0026427354
7	0xbb86f3b0	-0.0041184053
8	0xbc082050	-0.008308485
9	0xbba4ba54	-0.005027095
10	0xb46e852c	-2.2213925e-07
11	0xbc0d3bb0	-0.008620188
12	0x3b9a963e	0.0047176173
13	0xbb0d3f5f	-0.0021552665
14	0xb9f4915b	-0.00046647605
15	0x3a8c00f4	0.0010681436
16	0x3bbd1c71	0.0057712127
17	0x3b7f75b3	0.0038980066
18	0x376b332e	1.4019008e-05
19	0xba37dac4	-0.00070134946
20	0x3a222fc3	0.00061869266
21	0xbaa542ec	-0.0012608445
22	0xbb05deab	-0.002042691
23	0x394bf41f	0.00019450531
24	0xbc1a47a2	-0.009416493
25	0x3c0db1f7	0.008648387
26	0xb7d7fb06	-2.574689e-05
27	0xb93798e1	-0.00017509192
28	0x3b1e7383	0.0024177737
29	0xb32b7f58	-3.992986e-08
30	0xb4f46933	-4.5525084e-07
31	0xb53c2846	-7.0094063e-07
32	0xb97fcec3	-0.0002439572
33	0x39875a23	0.00025816364
34	0x3b570fd2	0.0032815826
35	0xb3b78933	-8.546558e-08
36	0x39a62eaf	0.0003169677
37	0xba8b3a78	-0.0010622283
38	0x3a13f7b6	0.0005644517
39	0xb87fb27a	-6.0962957e-05
40	0x37cf0f7c	2.4683533e-05
41	0x376ded2d	1.4181523e-05
42	0x350cb212	5.241319e-07
43	0xbb1bd946	-0.0023780628
44	0x3a21433d	0.0006151682
45	0xbb51f40e	-0.0032036337
46	0xbb657226	-0.0035010665
47	0xb8873eb0	-6.448978e-05
48	0xb9b6eaa0	-0.00034888554
49	0x3bc9ee87	0.006162468
50	0x3a0c627b	0.0005355251
51	0xbad37c7a	-0.0016135119
52	0xba4a88f2	-0.0007726095
53	0x3b1cd99c	0.0023933416
54	0x34c37673	3.6407764e-07
55	0xbab26f34	-0.0013613463
56	0xbb2f2bd0	-0.0026728995
57	0xbbaba5cc	-0.0052382704
58	0xb8ff145b	-0.00012163139
59	0xbaea8d10	-0.0017894823
60	0xbb817feb	-0.0039520166
61	0xba40ec2a	-0.000735941
62	0x34cecd5f	3.8519917e-07
63	0x3addc4b7	0.0016919588
64	0xbc44fd59	-0.012023293
65	0xbc432f8a	-0.01191319
66	0xbc3c781d	-0.011503247
67	0x3b4731f3	0.0030394762
68	0xbb821ed4	-0.00397096
69	0x3ad08907	0.0015909978
70	0xbb9f248f	-0.004856653
71	0xbc00f887	-0.007871754
72	0x344f0782	1.9281109e-07
73	0xb4e401f1	-4.2469722e-07
74	0xb5b933c5	-1.3798641e-06
75	0x34be431a	3.543908e-07
76	0x3575a0dc	9.1503694e-07
77	0x343a1182	1.7328969e-07
78	0xb58db1b0	-1.0557033e-06
79	0x3614a4df	2.2149686e-06
80	0x359876aa	1.1359418e-06
81	0xb4d5b1f5	-3.9803822e-07
82	0x3405e710	1.247065e-07
83	0x3588c27f	1.0189395e-06
84	0x34397194	1.7270787e-07
85	0x33178746	3.5280458e-08
86	0x34b2f282	3.333153e-07
87	0xb5fd5a45	-1.8876241e-06
88	0xb47e8b21	-2.3706208e-07
89	0x35500526	7.749353e-07
90	0xb4d50464	-3.9677536e-07
91	0xb47aa1e0	-2.3341954e-07
92	0xb5835223	-9.784166e-07
93	0xb5dc73ba	-1.6424958e-06
94	0x35b6438c	1.3579715e-06
95	0x35660814	8.569343e-07
96	0x341fd117	1.4884095e-07
97	0x360b3054	2.0740745e-06
98	0x32f10d26	2.8062072e-08
99	0x35961774	1.1182697e-06
100	0xb425a2ca	-1.5426045e-07
101	0xb5aeb335	-1.3016166e-06
102	0x35be2fff	1.4170072e-06
103	0xb54be611	-7.5958184e-07
104	0xb4879d68	-2.5260238e-07
105	0xb5afb015	-1.3089763e-06
106	0xb43b1c97	-1.7426133e-07
107	0xb5b68a0a	-1.3600231e-06
108	0x35dba524	1.6364834e-06
109	0xb45c2d41	-2.050556e-07
110	0x35d87c43	1.6129419e-06
111	0xb42954ae	-1.5770158e-07
112	0x347c55f9	2.3500606e-07
113	0x35ae7ad2	1.2999756e-06
114	0x349fb1d3	2.9745442e-07
115	0x34fcd43c	4.709308e-07
116	0xb43736c3	-1.7063125e-07
117	0x357a6a6b	9.3287116e-07
118	0x35b0497f	1.3134412e-06
119	0x34f7a8f2	4.613026e-07
120	0x34901bce	2.684232e-07
121	0xb5c5f1b9	-1.4747994e-06
122	0x34248d5f	1.5325121e-07
123	0xb5ed0ed9	-1.7662197e-06
124	0x35b2b2ad	1.3314035e-06
125	0xb60f09c6	-2.131435e-06
126	0xb4378221	-1.7090544e-07
127	0x34f5dffd	4.579778e-07
128	0xb32c34c7	-4.009487e-08
129	0xb4f913bd	-4.6394226e-07
130	0x341b7004	1.4476251e-07
131	0x3442a1d3	1.8126529e-07
132	0xb5e6a463	-1.7184178e-06
133	0x34bd9d00	3.5318226e-07
134	0xb4ddfcd2	-4.134841e-07
135	0x342d6d6f	1.6151692e-07
136	0x34117c0c	1.3549305e-07
137	0x357dd2a8	9.455639e-07
138	0x35d63d36	1.5962057e-06
139	0x35002b21	4.7746477e-07
140	0x3595449b	1.1121332e-06
141	0x34b38bfc	3.34432e-07
142	0x34b9cfd7	3.461016e-07
143	0x351e150c	5.8890214e-07
144	0xbbfae8a4	-0.0076571275
145	0xb362ac0c	-5.27762e-08
146	0xbabb72c0	-0.0014301166
147	0x3aab7ac3	0.001308285
148	0xbb1dd71d	-0.0024084516
149	0xbb9568d7	-0.004559617
150	0x3a5ceaab	0.0008427302
151	0xba999b8c	-0.001171933
152	0xb9213cdb	-0.00015376827
153	0xbb9330ad	-0.0044918866
154	0xb60b09d3	-2.0718333e-06
155	0xbb7270e8	-0.0036993567
156	0xba6a4bbc	-0.0008937677
157	0xbb5a2009	-0.0033283255
158	0x3a82d8ea	0.0009982858
159	0xbae8a5b1	-0.0017749575
160	0x3a64d419	0.0008729115
161	0x3bbbc5df	0.005730375
162	0xb6fb2546	-7.484722e-06
163	0x3b24285b	0.0025048468
164	0x3a4306cf	0.0007439674
165	0x3b0eb714	0.0021776604
166	0xbb5b8e25	-0.0033501473
167	0xbb057d17	-0.0020368749
168	0x39ff6e65	0.0004871964
169	0x3c0902f7	0.008362523
170	0xb78d0643	-1.6811426e-05
171	0x3ac2eceb	0.0014871632
172	0xbb40e41c	-0.0029432839
173	0x35615e99	8.395669e-07
174	0xb595813b	-1.1138976e-06
175	0xb4dd141a	-4.1179084e-07
176	0xba9c57cc	-0.0011928021
177	0xbbfa10e3	-0.0076314076
178	0x3b694f0f	0.00356001
179	0xb5a5848d	-1.2332035e-06
180	0x39dabdc2	0.0004172158
181	0x380f4d78	3.4166005e-05
182	0x39eb6363	0.00044896742
183	0xb942bb2e	-0.00018571012
184	0x36ca141d	6.0224106e-06
185	0x37cfd295	2.4774383e-05
186	0x35852de0	9.922624e-07
187	0xbbc1d15b	-0.0059148497
188	0xb95509ea	-0.00020316956
189	0xbba01b6b	-0.004886081
190	0xbb035b62	-0.0020043482
191	0xb9d6baea	-0.00040956523
192	0x397e8ca2	0.00024275717
193	0xbb2f7283	-0.0026771135
194	0x3a3b4066	0.000714308
195	0xbb12192b	-0.0022292833
196	0x39673156	0.00022048256
197	0x3b0a6457	0.0021116936
198	0x33acab1c	8.040499e-08
199	0x3a33eeca	0.00068638904
200	0xbb38106a	-0.0028085955
201	0x392e94d3	0.00016649374
202	0x3a8c5722	0.001070712
203	0xbb5b9cc3	-0.0033510185
204	0x3a77ab6c	0.0009447846
205	0xbb0f935e	-0.0021907906
206	0xb5543152	-7.9047925e-07
207	0xbad69e79	-0.0016374133
208	0xbc5655b6	-0.0130819585
209	0xbaf93a1e	-0.0019014513
210	0xbbc08eb8	-0.0058763884
211	0xbac40009	-0.0014953624
212	0xbbccf53f	-0.0062548216
213	0x3ab3be3e	0.0013713313
214	0xbba3bb75	-0.004996712
215	0x3a3d9ffe	0.00072336185
216	0xbba7b0da	-0.005117518
217	0xb61a2eb8	-2.2974982e-06
218	0x39e7d62c	0.00044219324
219	0x3a1bcd91	0.00059434125
220	0x38d9c1b6	0.00010383448
221	0x37b24eba	2.1255913e-05
222	0x3b139875	0.0022521291
223	0x3ab7b0cb	0.001401448
224	0xb96acfeb	-0.00022393434
225	0xbb9944cb	-0.00467739
226	0x3570cb7d	8.970308e-07
227	0xbb861fd2	-0.0040931487
228	0x3af9b65c	0.001905154
229	0x382dc0c5	4.1425945e-05
230	0xbb935c37	-0.004497077
231	0xbb847606	-0.00404239
232	0x3a01fe9f	0.0004958901
233	0x3aadc30b	0.001325698
234	0x361cafaa	2.3348061e-06
235	0x3a5a04bd	0.0008316746
236	0x393aa7b4	0.00017800817
237	0xbafbfce5	-0.0019225149
238	0xbae47ee6	-0.0017432838
239	0xbad3ea74	-0.0016167895
240	0xb867982f	-5.5216424e-05
241	0x3b878464	0.0041356552
242	0x380a320a	3.2948366e-05
243	0x3ab6b3a5	0.0013939036
244	0x3a98ad87	0.0011648395
245	0x356c2ca2	8.79818e-07
246	0xb48c400c	-2.6123632e-07
247	0xb588d94a	-1.0196029e-06
248	0xba3d12e7	-0.00072125945
249	0x39c8b98f	0.00038285225
250	0xbb20c774	-0.0024532946
251	0x35d3def8	1.5785618e-06
252	0x398a4b6d	0.00026377608
253	0x3985e728	0.00025539962
254	0x3b823bef	0.00397443
255	0x36c0824d	5.737215e-06

convs.2.weight f4 [72, 72]
0	0xba805ea1	-0.0009793827
1	0xb54570f6	-7.35526e-07
2	0x3a0b7267	0.00053194765
3	0x3a717171	0.00092103245
4	0xba55413b	-0.0008135025
5	0xba978cc7	-0.0011562341
6	0xbb37b260	-0.0028029904
7	0xba50cb16	-0.00079648325
8	0xb98aa088	-0.00026441016
9	0xbb1e146f	-0.0024121066
10	0xb60e86b0	-2.1238047e-06
11	0xbb99dc9a	-0.004695487
12	0xba18607d	-0.0005812718
13	0xba31abf1	-0.00067776354
14	0x3a1ff0e3	0.00061012636
15	0xb9f1bb48	-0.00046106637
16	0x3b86cd37	0.004113819
17	0x3b2a4c74	0.002598551
18	0xb66ed06a	-3.5586077e-06
19	0x39217725	0.00015398541
20	0xb9793843	-0.0002376745
21	0xb922b7f1	-0.00015518047
22	0x389e465e	7.547134e-05
23	0x38161428	3.578156e-05
24	0xbb8db303	-0.0043243184
25	0xbae39f3e	-0.0017366183
26	0xb7da9365	-2.6056261e-05
27	0x3ab9f133	0.0014186263
28	0x3a38e701	0.0007053465
29	0x35111ce6	5.405876e-07
30	0xb4b16c15	-3.304746e-07
31	0xb508a255	-5.090017e-07
32	0x39620157	0.00021553539
33	0xb91c96b7	-0.00014933465
34	0x3b01716d	0.0019751445
35	0xb5873009	-1.0072264e-06
36	0xb85c2d16	-5.2494077e-05
37	0xba43f126	-0.00074745936
38	0x38bbbf78	8.952519e-05
39	0x3711b538	8.684867e-06
40	0x371b60cc	9.261257e-06
41	0x370993b3	8.200225e-06
42	0xb5cab2c5	-1.5102202e-06
43	0xbadf7fd0	-0.0017051641
44	0xba8529f0	-0.0010159593
45	0xba77099c	-0.0009423734
46	0xba9ec0dc	-0.001211192
47	0x3a86f74a	0.0010297087
48	0x3b002785	0.0019554805
49	0xbaae8c2a	-0.0013316919
50	0x39b86944	0.00035173644
51	0xbb53d814	-0.0032324838
52	0xbbc447e8	-0.005990017
53	0x3ac3be10	0.0014933962
54	0x35c63f22	1.4770524e-06
55	0x3b8c478a	0.004280989
56	0xbabe3d22	-0.0014514069
57	0xbb3ed39e	-0.0029117833
58	0xb99218ea	-0.00027865852
59	0xba31572b	-0.0006765003
60	0x3a3e0b8c	0.00072496454
61	0xb9a92064	-0.00032258325
62	0xb5bd02a0	-1.4082361e-06
63	0x38759040	5.8546895e-05
64	0x39c8387e	0.00038189063
65	0xbbb1eee1	-0.005430088
66	0xbbb60cb6	-0.0055557145
67	0x3a446b20	0.00074927695
68	0xb9c62c78	-0.00037798635
69	0xbb04828a	-0.002021941
70	0x3ae94d95	0.001779961
71	0x3849ce56	4.81143e-05
72	0xb362fa44	-5.284734e-08
73	0x36192b8e	2.2824129e-06
74	0x350ed1e1	5.3204536e-07
75	0x35d6017e	1.5944677e-06
76	0xb5bbd298	-1.3993877e-06
77	0xb5417cc5	-7.2079666e-07
78	0xb4ad5639	-3.2286496e-07
79	0x346b8cee	2.193735e-07
80	0xb484332d	-2.462415e-07
81	0xb5f32dd3	-1.8118247e-06
82	0xb59e8494	-1.1810503e-06
83	0xb3c55bda	-9.190235e-08
84	0x32cd6b79	2.3914014e-08
85	0xb50db601	-5.2791444e-07
86	0x34ef3867	4.4558257e-07
87	0x35db3f8f	1.633527e-06
88	0x345fa60f	2.0828905e-07
89	0x35df5f38	1.6642507e-06
90	0xb613c9fd	-2.202228e-06
91	0xb58db129	-1.0556879e-06
92	0xb41e0954	-1.471829e-07
93	0xb4a40ad6	-3.0555265e-07
94	0xb49e8e7f	-2.9533473e-07
95	0xb4fdf834	-4.7305514e-07
96	0x332cec1d	4.0261614e-08
97	0x35d2f37b	1.5717081e-06
98	0x35886dca	1.0164742e-06
99	0x34eed1a3	4.4483485e-07
100	0x35a2e97f	1.2137897e-06
101	0x357c73d5	9.4045873e-07
102	0x35603fa0	8.353909e-07
103	0x34254cf7	1.5394822e-07
104	0xb5d1537a	-1.5596008e-06
105	0x340b9fec	1.3003563e-07
106	0x345ac3d4	2.0374074e-07
107	0x3541c527	7.2185e-07
108	0xb489a154	-2.563562e-07
109	0x34498254	1.8766997e-07
110	0xb591567d	-1.0828513e-06
111	0xb59eece8	-1.1840866e-06
112	0xb2637e76	-1.3241893e-08
113	0x357cf45c	9.4232905e-07
114	0x32905964	1.6804456e-08
115	0xb4acc50a	-3.218086e-07
116	0x3398e1fb	7.119157e-08
117	0x35f6e86e	1.8396074e-06
118	0xb562d879	-8.450657e-07
119	0x3449fad0	1.8810829e-07
120	0x36093bc4	2.044938e-06
121	0x359650fb	1.1199439e-06
122	0x3487d7ce	2.5302728e-07
123	0x33bfc9d9	8.9308465e-08
124	0x3385250e	6.200035e-08
125	0xb5435998	-7.2773537e-07
126	0x329c91fc	1.8227176e-08
127	0x35817b7f	9.647191e-07
128	0xb5f4e141	-1.8244974e-06
129	0xb5bd62de	-1.4110371e-06
130	0xb5a14b29	-1.2017309e-06
131	0x35930a4c	1.095535e-06
132	0xb52c2c3e	-6.4139374e-07
133	0x3365ac41	5.347488e-08
134	0xb4952b20	-2.778479e-07
135	0x34408df1	1.7933031e-07
136	0x34cc6ec2	3.8078548e-07
137	0xb499fc92	-2.868224e-07
138	0x33e58a02	1.0688747e-07
139	0xb5abe855	-1.280811e-06
140	0x35c29a85	1.4499097e-06
141	0xb3bf19aa	-8.898799e-08
142	0x35f8ba16	1.8531598e-06
143	0x356c32ca	8.799076e-07
144	0xbb81839a	-0.0039524557
145	0xb387446c	-6.298873e-08
146	0x3995ce02	0.00028572982
147	0x3a4333f0	0.0007446399
148	0xbabc8b9f	-0.0014384872
149	0xbade8140	-0.0016975775
150	0x3af8dbe7	0.0018986434
151	0xba808a2a	-0.0009806801
152	0xbb92663e	-0.0044677546
153	0xbae02110	-0.0017099697
154	0x36003bed	1.9108368e-06
155	0xbb5dc564	-0.0033839578
156	0x3b16db7c	0.0023019006
157	0xba332407	-0.00068336766
158	0xbb34a1f1	-0.0027562345
159	0xbafbb3c6	-0.0019203357
160	0xbb0ef973	-0.0021816164
161	0x3a23944a	0.00062400533
162	0xb6d37585	-6.301971e-06
163	0x39f8953c	0.00047413434
164	0x3a1e3fa6	0.0006036706
165	0x3b820ff4	0.003969187
166	0xba0f3a8f	-0.0005463743
167	0x391712f4	0.00014407543
168	0xb9203ace	-0.00015280696
169	0x3b81fb93	0.0039667576
170	0xb789941f	-1.6400647e-05
171	0x398d7a92	0.00026984938
172	0x39f45c88	0.00046608248
173	0xb5260cf8	-6.185869e-07
174	0x34fbfc35	4.6935898e-07
175	0x346fb222	2.2323414e-07
176	0x3898edd5	7.2922245e-05
177	0xb9081449	-0.00012977528
178	0x3b023fcc	0.0019874452
179	0x351b982e	5.796345e-07
180	0x393ba430	0.00017894874
181	0xba32689d	-0.000680575
182	0x399cf9ec	0.00029940845
183	0x373e24f3	1.1333485e-05
184	0x371384e2	8.792822e-06
185	0xb7ee100a	-2.837928e-05
186	0x3562eb20	8.453371e-07
187	0xbb16a4c3	-0.002298639
188	0x3aea47db	0.0017874198
189	0xbb5ce48b	-0.0033705558
190	0xbac5e823	-0.0015099089
191	0xb92a7c50	-0.00016258773
192	0xbb19d7ae	-0.0023474502
193	0x3b5358de	0.0032249014
194	0x3950f83a	0.00019928897
195	0xba229658	-0.00062022125
196	0xbadc6f56	-0.0016817849
197	0xba023be4	-0.0004968031
198	0x3501b45a	4.831869e-07
199	0x3b9dc0dc	0.0048142504
200	0xbab78933	-0.001400268
201	0x3bb4c16f	0.005516223
202	0x3b40947e	0.0029385383
203	0x39cbae4f	0.00038849047
204	0x3a21bd63	0.00061698834
205	0xb98aa9aa	-0.0002644782
206	0xb581c648	-9.668956e-07
207	0x3a525127	0.0008022957
208	0xbbb8c567	-0.0056387666
209	0x3a310858	0.00067532575
210	0xbbb72629	-0.005589266
211	0xba0fcb5c	-0.000548532
212	0xb9979196	-0.00028909434
213	0xb9af1910	-0.00033397274
214	0xbad6013a	-0.001632727
215	0x3a2a8991	0.00065054843
216	0xbb527f69	-0.00321194
217	0x34b60567	3.3904072e-07
218	0x3a2dd502	0.0006631167
219	0x3986fbc6	0.00025746058
220	0xb8492372	-4.7955145e-05
221	0xba97618a	-0.0011549455
222	0x38c31582	9.302331e-05
223	0xb9a2ed0b	-0.0003107566
224	0xb9f232b5	-0.00046195617
225	0xbb1a8272	-0.0023576287
226	0xb5068ac8	-5.0120843e-07
227	0xbab3c519	-0.0013715356
228	0x3aaffce5	0.0013426809
229	0xba7e4023	-0.0009698888
230	0xbb2a919d	-0.0026026734
231	0x3a4088dc	0.00073446124
232	0x3b831b73	0.004001075
233	0x3b2024c1	0.002443597
234	0x36b57d4d	5.4088073e-06
235	0x396133da	0.00021476988
236	0x38700d0c	5.723261e-05
237	0x3b2a88ce	0.0026021483
238	0xba70bebb	-0.00091836945
239	0x38a48a84	7.84593e-05
240	0xb8b95ee7	-8.8391644e-05
241	0x398a4f13	0.00026380326
242	0x38602145	5.3436746e-05
243	0x393cdad1	0.00018010593
244	0x391c8c27	0.0001492953
245	0xb5ca25e1	-1.5061197e-06
246	0xb31ebbe7	-3.6958138e-08
247	0xb55f452c	-8.317463e-07
248	0xba1fee50	-0.000610088
249	0xb8ff1d55	-0.00012164811
250	0xbaf39b2a	-0.0018585671
251	0x355fe7c7	8.3411254e-07
252	0xba0d5bd3	-0.0005392406
253	0xba1a1371	-0.0005877531
254	0x391937a6	0.00014611948
255	0x36c2ab3e	5.8015858e-06

convs.3.weight f4 [72, 72]
0	0x3b5b77db	0.0033488187
1	0xb4cbfc91	-3.7995463e-07
2	0x3a2a5abd	0.00064985064
3	0x3a380bc3	0.00070207956
4	0xba7a1406	-0.0009539727
5	0xba109501	-0.00055153674
6	0xba085ea9	-0.0005202094
7	0xba224082	-0.0006189422
8	0xbb22f8cc	-0.0024867533
9	0xbb30de54	-0.0026987987
10	0xb44a41e9	-1.8836694e-07
11	0xbb0b7d42	-0.0021284376
12	0xb9f1cfa1	-0.00046121798
13	0xb8a875a1	-8.032774e-05
14	0xba29b91b	-0.0006474421
15	0x3a05b1f1	0.00051000627
16	0x3b6cf8a4	0.0036158944
17	0x3a3dbe70	0.0007238155
18	0xb65963cb	-3.2393607e-06
19	0x39bdad33	0.00036177933
20	0xb922d541	-0.00015528967
21	0x3a2ac000	0.00065135956
22	0xb99088da	-0.00027567783
23	0x3a57822c	0.0008220996
24	0xb99e8848	-0.00030237646
25	0x3bd8d324	0.006616967
26	0xb78a74ea	-1.6505324e-05
27	0xbb24f37f	-0.002516955
28	0x3a254d74	0.0006305792
29	0x35d9be98	1.622323e-06
30	0xb463df73	-2.1222313e-07
31	0xb51d9fe7	-5.8719746e-07
32	0xba53f7ae	-0.00080859184
33	0xba90a934	-0.0011036755
34	0xbb2624c0	-0.0025351495
35	0x3532620b	6.645284e-07
36	0x390405da	0.00012590681
37	0xb92f5101	-0.00016719477
38	0xb9f0adc8	-0.00045905844
39	0x370a5a4e	8.246467e-06
40	0xb78251b3	-1.5535252e-05
41	0x376a5075	1.396622e-05
42	0x340fb621	1.3384171e-07
43	0xbafddd3a	-0.0019368299
44	0x3994003a	0.0002822893
45	0xba691de6	-0.00088927
46	0xba7380af	-0.00092888897
47	0xb8cff6e5	-9.916517e-05
48	0xb92e35f3	-0.00016614031
49	0xba7afcea	-0.00095744303
50	0x393aeb4b	0.00017825996
51	0x3a2ea12e	0.0006661591
52	0x3a4ca0c1	0.00078059366
53	0xbb1d4bdc	-0.0024001515
54	0x348a4909	2.5757643e-07
55	0x3b022849	0.0019860438
56	0xbaa5fb5b	-0.0012663411
57	0x3b5de865	0.0033860442
58	0x39861a11	0.00025577893
59	0xb4631965	-2.1150261e-07
60	0xbb434051	-0.0029792974
61	0xb97637df	-0.00023481202
62	0x35495316	7.499924e-07
63	0x3a268e7b	0.00063536287
64	0xbb151be0	-0.002275221
65	0xb9e1a3f3	-0.00043037496
66	0xbb68ff13	-0.0035552427
67	0x39af7fa7	0.0003347371
68	0xb97fd679	-0.00024398592
69	0xba8b09a0	-0.0010607727
70	0xbad48a65	-0.0016215561
71	0xbb3c7d33	-0.0028761148
72	0x33cff168	9.6831e-08
73	0x3330702b	4.108021e-08
74	0x35b2af48	1.3313047e-06
75	0x3590114d	1.0733871e-06
76	0x34b60228	3.390171e-07
77	0xb514a7cf	-5.537849e-07
78	0x360438ea	1.970266e-06
79	0x3619b232	2.29025e-06
80	0xb4cf8371	-3.865239e-07
81	0x3593c9d7	1.1011097e-06
82	0xb5eede22	-1.7797031e-06
83	0x35e0961e	1.673299e-06
84	0xb5818aa2	-9.651596e-07
85	0xb4756f86	-2.2857975e-07
86	0x35c0d80a	1.436799e-06
87	0xb53c1152	-7.006066e-07
88	0x34278ee3	1.5605069e-07
89	0xb3c97de3	-9.3826905e-08
90	0x34092322	1.27719e-07
91	0xb52eb13b	-6.5077955e-07
92	0xb5329321	-6.652427e-07
93	0x359647bb	1.1196747e-06
94	0x35f4f3a1	1.8250322e-06
95	0x35586e9f	8.0627245e-07
96	0x3447fd91	1.8625566e-07
97	0xb46ec45c	-2.2236912e-07
98	0x35b259c1	1.3288155e-06
99	0x3593f7b0	1.102444e-06
100	0x34ebc056	4.3912104e-07
101	0xb4c1606c	-3.6019208e-07
102	0x35b62dbe	1.3573369e-06
103	0x34307941	1.6435389e-07
104	0x34519001	1.951703e-07
105	0xb5211ffe	-6.002373e-07
106	0xb49e8734	-2.9528167e-07
107	0x332197e9	3.7623895e-08
108	0xb4418b5f	-1.8025229e-07
109	0x33c2f26a	9.077924e-08
110	0x3556706a	7.9884796e-07
111	0xb202a682	-7.604855e-09
112	0x34fdfc54	4.7308515e-07
113	0x3188daf3	3.9830126e-09
114	0x34d359f5	3.9367265e-07
115	0xb4cb3e4b	-3.785702e-07
116	0xb5038fe5	-4.9010697e-07
117	0x348933a8	2.5555823e-07
118	0x34dfc661	4.1681326e-07
119	0x3415bafd	1.3944732e-07
120	0x3559e6c8	8.117463e-07
121	0xb458be99	-2.0185907e-07
122	0xb47439ce	-2.27453e-07
123	0xb60926eb	-2.0437244e-06
124	0x3617f941	2.2645838e-06
125	0xb567d822	-8.636872e-07
126	0x35573eba	8.018502e-07
127	0xb40ca43c	-1.3098264e-07
128	0x3583f4cf	9.831509e-07
129	0x3514fba2	5.550047e-07
130	0xb5c5c805	-1.4735857e-06
131	0xb503b5db	-4.906594e-07
132	0xb59111be	-1.0808506e-06
133	0xb57ba265	-9.37411e-07
134	0xb46535b1	-2.134682e-07
135	0x32eff3e8	2.7934178e-08
136	0x342f6c1a	1.6337472e-07
137	0xb4195ea1	-1.4283661e-07
138	0x350975d1	5.120792e-07
139	0x35667d78	8.586426e-07
140	0x3424b041	1.5337811e-07
141	0xb51b3d4a	-5.7831187e-07
142	0x34fd0469	4.712813e-07
143	0x33357b56	4.225452e-08
144	0xbb175c02	-0.0023095612
145	0xb50020f5	-4.7731675e-07
146	0x39af0c03	0.0003338755
147	0x3a188957	0.0005818805
148	0xb8e5dfb5	-0.000109612396
149	0xba2f34d9	-0.0006683595
150	0x398b8980	0.00026614591
151	0xba5f7214	-0.0008523774
152	0xbb4a6c39	-0.003088726
153	0xbaf81102	-0.0018925967
154	0x3491e95d	2.717815e-07
155	0xbada2587	-0.0016643264
156	0xb9a366c5	-0.00031166352
157	0xba83acf5	-0.0010046052
158	0xb9d57458	-0.0004071321
159	0x3a883f31	0.0010394809
160	0x39835c22	0.0002505491
161	0x39b4910a	0.00034440338
162	0x36e12c05	6.710647e-06
163	0xb974c333	-0.0002334237
164	0xb862419e	-5.394371e-05
165	0xba7f1058	-0.00097299134
166	0xb9cfdf6c	-0.0003964858
167	0xba402610	-0.00073298905
168	0x39be7b64	0.00036331557
169	0x3b672316	0.0035268716
170	0xb71d99fc	-9.3937815e-06
171	0xbb4575b8	-0.003012998
172	0x39db6cda	0.00041852036
173	0xb2779140	-1.4410318e-08
174	0x3516cff3	5.618196e-07
175	0xb5c271f1	-1.4487288e-06
176	0xbac9feb6	-0.0015410993
177	0xbab171f6	-0.0013537991
178	0x3ad18b03	0.0015986863
179	0x359b7ff1	1.1585636e-06
180	0x3921419f	0.00015378602
181	0xba9c26cc	-0.0011913418
182	0xb9909a7a	-0.00027580914
183	0x35c8a2e9	1.4948574e-06
184	0x370c844c	8.375453e-06
185	0x38069506	3.208688e-05
186	0xb4fda716	-4.7246493e-07
187	0xb9d663c3	-0.0004089159
188	0x3a1fcab7	0.00060955755
189	0xba3109c4	-0.00067534694
190	0xba3df36c	-0.00072460505
191	0x39f50423	0.00046733124
192	0xb8b412a5	-8.586542e-05
193	0xb8877345	-6.458772e-05
194	0x3927e0f7	0.00016010167
195	0xba9973b6	-0.0011707458
196	0xb9ae3460	-0.0003322689
197	0xba88621c	-0.0010405215
198	0x342d2f9e	1.6129204e-07
199	0x3a1ac02e	0.0005903271
200	0xba1be2d9	-0.00059465837
201	0x3a7baa88	0.0009600301
202	0x3955b90e	0.00020382201
203	0xbaa4afe4	-0.0012564627
204	0x3a9d6018	0.0012006788
205	0xb9701b7b	-0.00022898421
206	0x3518565a	5.675007e-07
207	0x3a10743c	0.00055104843
208	0xbaff313c	-0.0019469629
209	0xbb713a32	-0.0036808369
210	0xbb4702fa	-0.0030366764
211	0xba90d314	-0.0011049234
212	0xbbe59151	-0.0070058485
213	0x361e6e2d	2.3607965e-06
214	0xbaa87e74	-0.0012855069
215	0x3a60a1e8	0.0008569048
216	0xbb416c8a	-0.0029514157
217	0x3484de5b	2.47487e-07
218	0xba820888	-0.0009920755
219	0xbb1c66b7	-0.0023864934
220	0xba3b5acd	-0.0007147014
221	0xb8e49b06	-0.000109007626
222	0xb9ee855a	-0.00045494252
223	0xbafee154	-0.0019445815
224	0xb92f9a03	-0.00016746674
225	0xba78b75d	-0.00094877725
226	0x34119925	1.3559891e-07
227	0xba88a972	-0.0010426475
228	0xb9835212	-0.00025047414
229	0xba6c7254	-0.0009019722
230	0x39c9d4c6	0.00038496236
231	0xba253b44	-0.0006303082
232	0x39af093c	0.0003338548
233	0x3a5af932	0.0008353173
234	0x33ce2875	9.5999816e-08
235	0x399f48c1	0.0003038105
236	0x38e96b50	0.00011130294
237	0x3a27ba88	0.000639834
238	0xba4623bd	-0.0007558426
239	0x3899d00f	7.3343625e-05
240	0xba447666	-0.00074944494
241	0xba1bce2e	-0.0005943504
242	0xb547084e	-7.414536e-07
243	0xb88e0ee7	-6.7738634e-05
244	0x3a2f42f2	0.0006685696
245	0xb51b156b	-5.7773167e-07
246	0xb5016ac8	-4.821163e-07
247	0x36048f3e	1.975291e-06
248	0xba264b71	-0.0006343639
249	0x392227aa	0.000154643
250	0x3a783871	0.00094688596
251	0x3502a694	4.8671177e-07
252	0x384ac671	4.8345366e-05
253	0x3a68957f	0.00088723743
254	0xb9fc3731	-0.00048106306
255	0xb68e7dca	-4.2465736e-06

convs.4.weight f4 [72, 72]
0	0xbac5807e	-0.0015068201
1	0x3522856b	6.054385e-07
2	0x3a0970b5	0.000524293
3	0x3a30a28b	0.0006738088
4	0xb990f4a5	-0.00027648095
5	0xba975a52	-0.0011547303
6	0xb6dad974	-6.522221e-06
7	0xba1d3fc2	-0.00059985754
8	0xba35e7d7	-0.0006939149
9	0xbada0002	-0.0016632082
10	0x355c6247	8.20994e-07
11	0xbb04343b	-0.0020172733
12	0x3aa57b98	0.0012625335
13	0x39b1e534	0.0003393084
14	0xb8b49278	-8.610351e-05
15	0xb9bb3792	-0.00035708823
16	0x36a32b60	4.862828e-06
17	0xba7a0a14	-0.0009538245
18	0x3725c434	9.8804485e-06
19	0x3a794cea	0.0009510057
20	0x38361b45	4.3417578e-05
21	0xba010d26	-0.0004922919
22	0xb9743dce	-0.00023292677
23	0xb6b3ed38	-5.3622316e-06
24	0xb9e588d9	-0.00043780243
25	0x3b6db1d4	0.0036269324
26	0xb7375d3d	-1.0929359e-05
27	0x3a8ac221	0.0010586419
28	0x3a2f0464	0.00066763745
29	0xb5926b69	-1.0909108e-06
30	0xb5a2bc61	-1.2124766e-06
31	0x35e9e330	1.7425973e-06
32	0xbb8a34aa	-0.004217704
33	0xbb19fb55	-0.0023495753
34	0x3aa031fd	0.0012221929
35	0x34045579	1.2324553e-07
36	0xba1ee9cf	-0.0006062062
37	0x3a38f81f	0.0007056016
38	0x39619a38	0.00021515123
39	0x3705c2d0	7.972776e-06
40	0x36490b1c	2.99578e-06
41	0xb747df83	-1.1913365e-05
42	0x34f6304a	4.5856206e-07
43	0x3b0d6375	0.0021574174
44	0x3a5ec333	0.0008497715
45	0xba19749d	-0.00058538635
46	0xbb009fd1	-0.0019626508
47	0x3ad377dc	0.0016133743
48	0xb93423b4	-0.00017179438
49	0xba600c5e	-0.0008546765
50	0x39a23731	0.0003094017
51	0x3ac73bcb	0.0015200315
52	0x3a48c4c8	0.0007658717
53	0x3a826ac6	0.0009950034
54	0xb231d13a	-1.0350329e-08
55	0xba18d584	-0.0005830156
56	0x3a866ec5	0.00102564
57	0xba788209	-0.0009479826
58	0x37c2d55e	2.3225959e-05
59	0xbac48446	-0.0014993034
60	0xbaa85493	-0.0012842588
61	0xbad03061	-0.0015883559
62	0xb546f6c5	-7.4119845e-07
63	0x3a175de0	0.00057741813
64	0xb9efde40	-0.00045751221
65	0xbb165738	-0.002294017
66	0xbb585dd4	-0.003301491
67	0xb90b694c	-0.00013295299
68	0xb967f0f5	-0.0002211964
69	0xba893bc3	-0.0010470081
70	0x3a96e4ab	0.001151224
71	0x3a354e0b	0.00069162314
72	0xb5258c46	-6.1671415e-07
73	0x35824989	9.707156e-07
74	0xb5ac3adc	-1.2832129e-06
75	0xb3abdb41	-8.00269e-08
76	0x342eff57	1.6297905e-07
77	0xb548c0f4	-7.478659e-07
78	0x34072a4b	1.2588241e-07
79	0x3421940b	1.5048151e-07
80	0xb32baa66	-3.9969017e-08
81	0x34a60d74	3.0929698e-07
82	0xb4a8f830	-3.147302e-07
83	0x35b555ac	1.3510485e-06
84	0xb352e8f2	-4.9106298e-08
85	0xb3f2b056	-1.13010785e-07
86	0xb535cf40	-6.7729343e-07
87	0x3441c950	1.8047763e-07
88	0x34abcfd3	3.2002444e-07
89	0xb3da3d01	-1.01625126e-07
90	0x349f743e	2.9700635e-07
91	0x34bea993	3.551364e-07
92	0x341b8717	1.4484645e-07
93	0x34be958b	3.5499065e-07
94	0xb60defcc	-2.1150217e-06
95	0xb5d2d07c	-1.5706896e-06
96	0xb4b5d441	-3.3868312e-07
97	0x339cadce	7.295931e-08
98	0xb58c6682	-1.0460647e-06
99	0xb49a44bf	-2.8734755e-07
100	0x36131591	2.191726e-06
101	0x341ea39f	1.4774422e-07
102	0x353cadf1	7.0288576e-07
103	0x35397e9e	6.910212e-07
104	0x35aa832c	1.2704163e-06
105	0x3594c306	1.1083619e-06
106	0x3514c129	5.541538e-07
107	0x338e4d19	6.626414e-08
108	0xb5aa6873	-1.2696386e-06
109	0x35a795c8	1.2486062e-06
110	0x33830660	6.1013225e-08
111	0x349f96ec	2.9725868e-07
112	0x3619cbd2	2.2917416e-06
113	0xb5a204c2	-1.2071325e-06
114	0x351d10b6	5.8511375e-07
115	0xb5facd51	-1.8686206e-06
116	0x3148c052	2.9213152e-09
117	0x34fb7192	4.6835027e-07
118	0x341af2e0	1.4430725e-07
119	0xb518b542	-5.688818e-07
120	0xb590f291	-1.0799432e-06
121	0x35c7bf3f	1.4882315e-06
122	0x34d81067	4.024507e-07
123	0x348e546a	2.651098e-07
124	0x3396caf2	7.021835e-08
125	0xb482a077	-2.433114e-07
126	0x35bb42cd	1.3952027e-06
127	0x35dde488	1.6532294e-06
128	0x34bef626	3.5569354e-07
129	0x357e6cc1	9.478063e-07
130	0xb531ea6d	-6.627877e-07
131	0xb5155906	-5.563637e-07
132	0xb616023e	-2.2353047e-06
133	0xb392ad9d	-6.830235e-08
134	0x34959296	2.7860068e-07
135	0xb219f4eb	-8.96146e-09
136	0xb5b76afd	-1.36657e-06
137	0xb429acb1	-1.5802176e-07
138	0x33e169eb	1.0496645e-07
139	0x33e8e650	1.08452355e-07
140	0xb554a378	-7.921403e-07
141	0xb38dd230	-6.604057e-08
142	0xb41fa9b4	-1.4869767e-07
143	0xb45ee69f	-2.075926e-07
144	0xbb31b880	-0.0027118027
145	0x358a4367	1.0301418e-06
146	0x3a52156a	0.0008014055
147	0xbaaf4de4	-0.0013374654
148	0xb9a58980	-0.00031573698
149	0xba24614d	-0.00062706025
150	0x39e1f29d	0.00043096105
151	0xba2703d0	-0.00063711125
152	0xb88d2380	-6.730016e-05
153	0xba895b50	-0.0010479484
154	0x35433e8c	7.273418e-07
155	0xbb26d627	-0.0025457235
156	0xb985fae1	-0.00025554656
157	0xb9e55f03	-0.00043749073
158	0xb944eb0c	-0.00018779578
159	0x3950585d	0.00019869344
160	0x393993be	0.00017698013
161	0xbb884b3d	-0.0041593597
162	0xb707ee97	-8.102178e-06
163	0xb7a769e9	-1.995727e-05
164	0x39cd83dc	0.0003919889
165	0xb983c363	-0.00025131842
166	0xba526462	-0.00080258225
167	0x39217792	0.000153987
168	0x39818ffe	0.0002471208
169	0x3b80f5a6	0.0039355336
170	0x380b4b3f	3.321026e-05
171	0x39a35542	0.00031153305
172	0x3a6eb3b5	0.0009105758
173	0xb57772c3	-9.218167e-07
174	0x35b7d0a6	1.3695287e-06
175	0xb5abf55e	-1.2811904e-06
176	0xb957430e	-0.00020528978
177	0xba9c820d	-0.0011940614
178	0xbb0cd866	-0.0021491288
179	0x359897c2	1.136905e-06
180	0x38f062d1	0.00011462498
181	0xb9fad42f	-0.00047841805
182	0x39919dce	0.0002777413
183	0x374aa3ea	1.20783025e-05
184	0x38097ecb	3.278143e-05
185	0x373510e3	1.0792372e-05
186	0x346d61c1	2.2107908e-07
187	0x3af1af65	0.0018439112
188	0x387cb146	6.024658e-05
189	0xba5e26c1	-0.0008474403
190	0xbae99fba	-0.0017824091
191	0x3a083dd7	0.0005197203
192	0xb4f80a7e	-4.6201234e-07
193	0xba499ca3	-0.0007690882
194	0x39267ff0	0.00015878654
195	0xb85dc142	-5.287049e-05
196	0xb9381f5c	-0.0001755929
197	0x3a6400b2	0.00086976134
198	0x360ed478	2.1283322e-06
199	0xba0e4223	-0.0005426725
200	0xba7161a2	-0.0009207969
201	0xba5e9e55	-0.0008492221
202	0x39ad5612	0.0003306126
203	0xb8e515db	-0.00010923642
204	0x3a491a52	0.00076714635
205	0xba12d2e2	-0.0005600882
206	0xb5085320	-5.078491e-07
207	0xba84e214	-0.0010138177
208	0x3a2456d2	0.0006269041
209	0xba432045	-0.0007443468
210	0xbb161bf8	-0.0022904854
211	0x3a839ffd	0.0010042187
212	0xbb7867a4	-0.0037903572
213	0x3a1e6e00	0.0006043613
214	0xba532177	-0.0008053998
215	0xbb0d16b3	-0.0021528422
216	0x39fcbcae	0.00048205763
217	0xb5789de9	-9.261699e-07
218	0x398a99ee	0.00026436098
219	0x39a06836	0.0003059522
220	0x3845cec0	4.716101e-05
221	0xba69732b	-0.0008905406
222	0x39bdbd6c	0.0003619002
223	0xb9c72329	-0.00037982434
224	0xb90800f9	-0.00012970333
225	0xba1ed596	-0.00060590485
226	0x3582a4eb	9.733752e-07
227	0xba6a63b7	-0.000894125
228	0xb982593f	-0.00024862026
229	0xb8e43b16	-0.00010882893
230	0xba3aa263	-0.00071195344
231	0xbac1d088	-0.0014786879
232	0x3b2b985f	0.002618335
233	0x3ae1665a	0.0017196641
234	0xb5a29e3b	-1.2115992e-06
235	0xb8b55251	-8.646085e-05
236	0xb956d026	-0.00020486172
237	0x3a156321	0.000569867
238	0xb9bf21bc	-0.00036455493
239	0xb8201e3f	-3.817514e-05
240	0xb873d543	-5.813433e-05
241	0x3b8dba88	0.004325215
242	0x3563d2c9	8.487082e-07
243	0xb85b6507	-5.2307758e-05
244	0x3a2d3411	0.0006607185
245	0xb0fa1ea0	-1.8198598e-09
246	0x3570a404	8.964564e-07
247	0x332f9d4e	4.088843e-08
248	0x3aaf3298	0.0013366519
249	0xbada71cc	-0.0016665994
250	0x3a7459ec	0.0009321261
251	0xb38d8392	-6.589757e-08
252	0xb910dec1	-0.00013815892
253	0xb8524cba	-5.013936e-05
254	0xb9d87192	-0.00041283347
255	0x35bdbf8a	1.4137343e-06

convs.5.weight f4 [72, 72]
0	0x39d71c3d	0.00041029035
1	0x35bb8503	1.3971297e-06
2	0xb92da8e7	-0.00016561487
3	0x3a1e8d58	0.00060482835
4	0xb980237f	-0.0002444051
5	0xba82c5dd	-0.0009977181
6	0xb90b3a36	-0.00013277758
7	0xba3c09b7	-0.00071730785
8	0xba7af2a8	-0.0009572902
9	0xbacd7261	-0.0015674346
10	0xb61bfca9	-2.3243867e-06
11	0xbac04690	-0.0014669467
12	0x3a54edf0	0.00081226137
13	0xba463de8	-0.00075623253
14	0xbaede4ed	-0.001814989
15	0xbb1571c9	-0.0022803417
16	0xbaab7064	-0.001307976
17	0xbb41a4a6	-0.00295476
18	0xb5ee5f63	-1.7760143e-06
19	0xb8985a85	-7.2647854e-05
20	0xb92bd4fc	-0.00016387174
21	0xba6aa046	-0.0008950274
22	0xba40b16f	-0.00073506584
23	0x382c3cd7	4.1064657e-05
24	0xbb1a7497	-0.0023568028
25	0xba82c936	-0.0009978178
26	0x34738065	2.2677848e-07
27	0x3996264e	0.0002863877
28	0x38abd583	8.193685e-05
29	0x352829f6	6.264594e-07
30	0x34f5521d	4.5694551e-07
31	0xb5ec579a	-1.7608866e-06
32	0xba97feae	-0.0011596286
33	0xb913c0e7	-0.00014090874
34	0x3a72eb58	0.00092666363
35	0x34b49a65	3.363995e-07
36	0x38bc0d62	8.967031e-05
37	0xb970711a	-0.00022930317
38	0xb9fdfee6	-0.00048445835
39	0x366509a9	3.4129282e-06
40	0x36ba52c9	5.5528694e-06
41	0x3719a65a	9.158242e-06
42	0xb5e686c3	-1.7175556e-06
43	0xba4176bd	-0.0007380059
44	0xb9b8bf2d	-0.00035237652
45	0xbafcc176	-0.001928373
46	0xbadb2d96	-0.001672196
47	0x3952b1b8	0.00020093366
48	0xb96e4a85	-0.0002272521
49	0xb9b94f58	-0.00035345065
50	0x39306614	0.00016822695
51	0x390235de	0.00012417833
52	0x388c0113	6.67592e-05
53	0xbab6609a	-0.0013914288
54	0x3469035f	2.1701042e-07
55	0xba0f825c	-0.0005474442
56	0xba9de4a5	-0.0012046291
57	0x3b7048ff	0.0036664603
58	0x399d09d9	0.0002995271
59	0xbab88532	-0.0014077781
60	0x3a10694b	0.0005508854
61	0xb91b01f0	-0.00014782674
62	0x342bec4c	1.601158e-07
63	0x3a20712f	0.00061203813
64	0x3b70f6ec	0.003676827
65	0xb93cce59	-0.00018005948
66	0xbb3d6e3e	-0.002890482
67	0xba547da3	-0.00081058795
68	0xb9c55569	-0.00037638404
69	0xbac863a0	-0.001528848
70	0xba6f0ac5	-0.0009118731
71	0x3a8c5b9f	0.0010708458
72	0xb5739db1	-9.0754025e-07
73	0xb58bdcc5	-1.0420559e-06
74	0x333755e8	4.268614e-08
75	0xb49f934b	-2.9723228e-07
76	0x32809d79	1.4972771e-08
77	0x34be8e2c	3.5493701e-07
78	0x35ed8544	1.7696661e-06
79	0xb43030e4	-1.6409064e-07
80	0x35d1b985	1.5625707e-06
81	0xb524a353	-6.133243e-07
82	0x3503b447	4.906364e-07
83	0x318b1fda	4.0490535e-09
84	0xb535c4d0	-6.7714154e-07
85	0xb4ae5bdb	-3.247686e-07
86	0x35ffe6e6	1.9066181e-06
87	0x355fc134	8.335512e-07
88	0xb502ce0f	-4.872863e-07
89	0xb24a7c79	-1.1786249e-08
90	0x36126e67	2.1819958e-06
91	0x34369a61	1.7006234e-07
92	0x35c71e65	1.4835501e-06
93	0x3415d8b2	1.395554e-07
94	0x33411672	4.4956728e-08
95	0x34757c56	2.2862636e-07
96	0xb4a5736b	-3.0817623e-07
97	0xb5d637d6	-1.5960493e-06
98	0xb56f4991	-8.914149e-07
99	0x3524dd5a	6.141687e-07
100	0xb5bd931f	-1.4124415e-06
101	0xb4222479	-1.5100694e-07
102	0x3592141f	1.0883704e-06
103	0x35376da4	6.833236e-07
104	0xb5570a98	-8.010916e-07
105	0x33ccbdc7	9.5340106e-08
106	0xb4948732	-2.7665516e-07
107	0xb3b64d6e	-8.48912e-08
108	0x336b2587	5.4749332e-08
109	0x3404a65f	1.2353983e-07
110	0xb5c12d68	-1.4392836e-06
111	0x35878687	1.0097436e-06
112	0x34632362	2.1153895e-07
113	0x35001646	4.771613e-07
114	0x33d5d3c4	9.9571054e-08
115	0x35a2e2fb	1.2136001e-06
116	0xb3a65c41	-7.746758e-08
117	0x34311641	1.6492505e-07
118	0xb5caf79b	-1.5122235e-06
119	0x34efa29b	4.463553e-07
120	0xb59a4500	-1.1493976e-06
121	0xb538183f	-6.8580624e-07
122	0xb560b5a8	-8.371085e-07
123	0x331e2da2	3.6828744e-08
124	0x3221cc9d	9.417957e-09
125	0xb1fb001f	-7.305075e-09
126	0xb5fe5384	-1.8948781e-06
127	0x35db8bb4	1.635743e-06
128	0x35aca1cc	1.2862088e-06
129	0xb5257958	-6.164387e-07
130	0x34ab8ac7	3.1952206e-07
131	0x348be147	2.6054678e-07
132	0xb5d148db	-1.5592917e-06
133	0xb5c3bd2e	-1.4583691e-06
134	0x3464d5bc	2.1311911e-07
135	0xb5dd2142	-1.6475462e-06
136	0x355e500e	8.281794e-07
137	0xb578c4e9	-9.267374e-07
138	0xb61883c6	-2.2726467e-06
139	0xb59c6fbd	-1.1655426e-06
140	0x3446ddb9	1.8520849e-07
141	0xb26c0c65	-1.3739826e-08
142	0x35a0ed5c	1.199001e-06
143	0x354438be	7.309826e-07
144	0xbb76de29	-0.003766904
145	0xb59e5801	-1.179753e-06
146	0x399641d6	0.0002865928
147	0x3a0394f2	0.0005019448
148	0xb9439d8f	-0.00018655344
149	0xba7a8380	-0.0009556338
150	0x38d35bf6	0.00010078393
151	0xba3e7f6c	-0.0007266912
152	0xb99e10c9	-0.00030148614
153	0xbac5f777	-0.0015103657
154	0x36172227	2.2520633e-06
155	0xbb4e0c0e	-0.003144029
156	0xb9c8d15a	-0.00038302952
157	0xba9dd427	-0.0012041376
158	0xbb156505	-0.0022795808
159	0x3a18cd52	0.0005828935
160	0x39236e44	0.00015585969
161	0x3afd37c3	0.0019318986
162	0x36b7a898	5.473452e-06
163	0x39c5b82a	0.0003771198
164	0x399c35b9	0.00029794665
165	0xba47a550	-0.0007615881
166	0xb99f21cb	-0.0003035202
167	0x39334353	0.0001709585
168	0x383caaf8	4.498192e-05
169	0x3bb79515	0.0056024888
170	0x353c682e	7.018706e-07
171	0x392f3e3b	0.00016712483
172	0x38bbcc53	8.954913e-05
173	0x3436c410	1.7021398e-07
174	0xb48b091e	-2.58974e-07
175	0x357dc605	9.4538e-07
176	0xba862753	-0.0010235108
177	0xbaad721b	-0.0013232859
178	0x3aa558f7	0.0012615015
179	0xb52b6f5d	-6.386452e-07
180	0xbae304c0	-0.0017320141
181	0xba485c6e	-0.00076431676
182	0xb9f39479	-0.00046459193
183	0x35dea58b	1.6588468e-06
184	0xb708b835	-8.149121e-06
185	0x376e19bb	1.4191896e-05
186	0xb462f28e	-2.1136131e-07
187	0x38dfaf6f	0.00010666146
188	0x380b7a56	3.3254117e-05
189	0xba0fa9a5	-0.0005480296
190	0xba6c7648	-0.0009020311
191	0x3a4287f1	0.00074207695
192	0xba0f9363	-0.00054769794
193	0xb8e6e694	-0.00011010203
194	0x39dbcc35	0.0004192308
195	0xbaeef0dd	-0.0018229742
196	0x39ca008c	0.0003852885
197	0x3a7dbfc5	0.000967976
198	0x3603bb74	1.9629633e-06
199	0xb9bca0f5	-0.00035978077
200	0xba7c2194	-0.00096180406
201	0x3aa21e09	0.001236857
202	0x3ad554f8	0.0016275933
203	0x3a36f2be	0.00069789204
204	0x3955e86d	0.00020399848
205	0xba686c73	-0.0008866258
206	0xb5d3dfc1	-1.5785846e-06
207	0x3a115ff1	0.00055456074
208	0xbb05979a	-0.002038455
209	0xba9d01bf	-0.001197867
210	0xbaf1b8d8	-0.0018441929
211	0xbb16c726	-0.0023006885
212	0xb8b81192	-8.7770764e-05
213	0xba98cfc2	-0.0011658596
214	0xbb3ba056	-0.0028629503
215	0x3a311eb9	0.0006756592
216	0xba354ce9	-0.00069160626
217	0xb097cfa6	-1.1045713e-09
218	0x3a4abd94	0.0007733938
219	0x3a21f89e	0.00061787094
220	0xb87ce714	-6.029669e-05
221	0xba23ddc6	-0.00062510034
222	0x391a7bf0	0.00014732755
223	0xb994f4b9	-0.00028411092
224	0xbac38922	-0.0014918188
225	0xba401706	-0.00073276495
226	0xb5b4e0e4	-1.3476497e-06
227	0xba8266e3	-0.0009948876
228	0xb9398526	-0.00017692577
229	0xb80890a0	-3.255962e-05
230	0x39c12e48	0.0003684631
231	0x3a25b675	0.00063214387
232	0x396fdff8	0.00022876251
233	0x3a00abdc	0.00049084215
234	0xb52f1504	-6.522316e-07
235	0x3aa4854f	0.0012551936
236	0x39941018	0.0002824075
237	0x3a24534b	0.0006268515
238	0xb93c0d15	-0.0001793395
239	0x38d13ff1	9.9778066e-05
240	0xb8ebd6d6	-0.000112456895
241	0xb9a6a78f	-0.00031786828
242	0x37e30998	2.7064976e-05
243	0xb88f8148	-6.842852e-05
244	0x39c02ab4	0.0003665291
245	0x355a156f	8.124252e-07
246	0x349ab41e	2.8815788e-07
247	0x3485e39b	2.4938785e-07
248	0xba1bf794	-0.0005949673
249	0xb91367b3	-0.00014057643
250	0x3a4209d5	0.0007401978
251	0x355eda03	8.3018693e-07
252	0x37c6651c	2.3650522e-05
253	0x39f3c410	0.0004649465
254	0x3aed5e59	0.0018109783
255	0x3696c6f7	4.493511e-06
