checkpoint/Wikipedia/20231105_160920433424.pth (torch, 180281 bytes, 40 tensors)

convs.0.weight f4 [32, 138]
-8.789051e-07 2.2841172e-07 2.9458326e-07 -1.5551436e-07 -2.1518959e-07 -1.2015012e-07 -5.519708e-07 1.66406e-10
1.0607673e-07 -2.3921544e-07 2.4530902e-07 2.1602631e-07 -2.730486e-07 1.7176185e-07 1.08380135e-07 7.042795e-08
-6.6263645e-08 2.7570405e-07 -5.9943096e-07 2.4433012e-07 -4.5780146e-07 1.4769535e-07 -1.1842676e-07 2.1312792e-07
-2.290816e-07 1.1854318e-07 1.6693326e-07 -2.763638e-07 -8.5350486e-08 5.758608e-08 4.963887e-09 2.227679e-07
2.0846936e-07 -1.2914296e-07 -3.3426332e-07 -1.2096123e-07 2.867251e-07 1.8712466e-07 2.018678e-07 6.76509e-08
-6.8276375e-07 2.7070885e-07 1.2515551e-08 5.1178894e-10 3.6961914e-08 2.4953283e-07 7.1775716e-08 -1.6544774e-08
1.8345084e-07 -1.5102191e-07 2.3986902e-07 1.0458363e-07 1.648778e-07 -2.3035243e-07 1.1762422e-07 5.9580337e-08
-9.093578e-07 -2.5947196e-08 1.3505819e-07 9.540595e-08 1.6563317e-07 -1.8061846e-07 -2.2645908e-07 2.9414704e-07
-5.3942307e-07 1.4527374e-08 -2.7290864e-07 -1.18528924e-07 3.2851256e-07 -3.6406906e-08 7.860294e-08 -1.0283039e-07
-3.3248376e-08 1.8892058e-07 1.037337e-07 9.8188416e-08 2.933317e-07 -1.655192e-08 1.988701e-07 -8.134216e-08
1.1234203e-08 2.7227472e-07 -4.6730494e-07 -3.6530075e-08 -4.8504782e-09 3.278528e-07 -2.1953255e-07 -1.2009221e-07
9.000825e-09 2.0718046e-07 2.0566439e-07 7.549815e-09 1.2257706e-07 6.90837e-08 -2.2958602e-07 -4.6755744e-08
-5.5004847e-07 2.3671388e-08 4.5848157e-07 5.8492628e-08 -2.1372483e-07 -1.6950865e-07 1.1216153e-07 5.764947e-08
-7.630791e-08 1.2168157e-07 3.0966456e-07 2.5284047e-07 -2.0214206e-07 -2.5651667e-07 2.4948392e-07 7.4553235e-08
-3.2833927e-07 5.0298233e-08 -1.463652e-07 1.832046e-08 -4.9678356e-08 -1.5136814e-07 8.575782e-08 5.0265275e-08
4.815014e-07 -1.9785295e-08 -2.1261341e-07 -7.9778275e-08 2.778578e-07 9.6181935e-08 2.2051314e-07 1.2168812e-07
-0.00041646766 2.5072347e-06 3.5675512e-07 8.573038e-07 7.7553767e-07 8.969166e-07 -1.93681e-06 -5.135138e-07
1.4333621e-06 -2.0984194e-08 -0.16869159 -0.17661144 -0.27448675 0.04092088 -0.01843032 -0.10766778
0.08083972 0.027129026 -0.07583121 0.19622286 -0.049463503 -0.043476123 0.038621303 -0.011740958
-0.09904877 -0.1320255 0.009737275 0.16798055 -0.009498313 0.081006095 0.1092487 -0.05645937
-0.03330758 -0.041254636 0.046438936 0.025806235 -0.015746089 -0.21195546 -0.06306021 -0.13553648
-0.045971334 0.10699427 -0.16473104 0.06659789 -0.04393009 -0.002867973 0.18102801 0.15146522
0.0024646127 0.0589221 -0.00024950047 0.031585872 0.04054121 -0.028248988 -0.05421411 -0.06375474
0.139409 0.012484377 -0.09556618 -0.010545564 -0.17587002 -0.15152718 -0.08540799 0.06304464
0.011854535 0.10941953 -0.10302989 0.15162063 -0.0007333125 0.23404966 0.16252448 0.05764411
0.0046398765 -0.01289731 0.053905178 -0.08637552 -0.009064089 -0.09036846 0.05022125 -0.08424735
-0.064676695 -0.07553612 -0.03507868 0.09674633 -0.03856692 -0.09378555 -0.08989675 -0.008694468
-0.05244863 0.00035253254 0.0055031315 0.252984 0.10497161 0.1131473 0.013809841 -0.047269527
0.013802683 0.13535933 0.025187802 -0.10762686 0.008199784 -0.029499805 -0.011245519 -0.00095655763
0.057132743 0.010066073 -0.1099576 -0.018369716 0.0049204165 -0.011884769 0.13776864 0.05425581
0.0966811 -0.014498602 0.12122509 0.06437753 0.035739653 -0.001131361 0.032062083 0.12422541
0.024740584 -0.002363674 0.20768373 0.32698134 -0.06683898 -0.0033330077 0.015579632 -0.03460687
00000000: e6ed 6bb5 5641 7534 3727 9e34 76fb 26b4
00000010: dd0e 67b4 9d02 01b4 252b 14b5 20f7 362f
00000020: 4dcc e333 856d 80b4 04b3 8334 dcf4 6734
00000030: 8497 92b4 8a6d 3834 9cbe e833 2d3e 9733
00000040: d34c 8eb3 7a04 9434 95e8 20b5 7a2c 8334
00000050: c1c7 f5b4 3096 1e34 cd51 feb3 28d8 6434
00000060: 79f9 75b4 cd91 fe33 443e 3334 275f 94b4
00000070: ed49 b7b3 9154 7733 d08e aa31 f931 6f34
00000080: 9fd7 5f34 8caa 0ab4 cd74 b3b4 92e1 01b4
00000090: 33ef 9934 6fec 4834 00c1 5834 7a47 9133
000000a0: 2b47 37b5 f155 9134 fa03 5732 f2ad 0c30
000000b0: 0ec0 1e33 88f7 8534 1e23 9a33 581e 8eb2
000000c0: 95fa 4434 9628 22b4 59c7 8034 7597 e033
000000d0: 4409 3134 cb56 77b4 9998 fc33 46e5 7f33
000000e0: 981a 74b5 7de2 deb2 8304 1134 fae1 cc33
000000f0: e6d8 3134 06f0 41b4 9928 73b4 43eb 9d34
00000100: dfcc 10b5 1194 7932 4784 92b4 f789 feb3
00000110: 6c5e b034 d15d 1cb3 6ccc a833 9bd3 dcb3
00000120: facc 0eb3 18da 4a34 34c4 de33 a7db d233
00000130: 347b 9d34 0f2e 8eb2 ff88 5534 53ae aeb3
00000140: 8c00 4132 272d 9234 e7e1 fab4 3ee5 1cb3
00000150: 42a9 a6b1 bf03 b034 a6b8 6bb4 b2f2 00b4
00000160: 0ca2 1a32 5575 5e34 99d4 5c34 70b4 0132
00000170: ba9d 0334 2a5b 9433 2084 76b4 7cd0 48b3
00000180: 0ba7 13b5 ef55 cb32 3a25 f634 5339 7b33
00000190: 3c7c 65b4 2f02 36b4 74dd f033 439a 7733
000001a0: b8de a3b3 93a7 0234 f93f a634 21be 8734
000001b0: 630c 59b4 62b7 89b4 cff0 8534 131a a033
000001c0: 9b46 b0b4 7e07 5833 8f28 1db4 1e5f 9d32
000001d0: ee5d 55b3 c287 22b4 dc29 b833 41e3 5733
000001e0: 8640 0135 53f4 a9b2 bb4a 64b4 9252 abb3
000001f0: 7c2c 9534 948c ce33 31c6 6c34 60a9 0234
00000200: 5859 dab9 f741 2836 0d88 bf34 7821 6635
00000210: 8b2e 5035 a4c3 7035 24fa 01b6 66d8 09b5
00000220: f261 c035 bb40 b4b2 7dbd 2cbe a1d9 34be
00000230: 8789 8cbe a79c 273d 2ffb 96bc ed80 dcbd
00000240: 4c8f a53d b13d de3c 654d 9bbd a5ee 483e
00000250: 3e9a 4abd 0514 32bd 5f31 1e3d 265d 40bc
00000260: 15da cabd b131 07be 1789 1f3c 1803 2c3e
00000270: d09e 1bbc 86e6 a53d c8bd df3d f141 67bd
00000280: 876d 08bd 9ffa 28bd c136 3e3d 9967 d33c
00000290: f1fd 80bc da0a 59be b625 81bd 13ca 0abe
000002a0: 704c 3cbd d01f db3d 41af 28be 7964 883d
000002b0: 0af0 33bd 9af4 3bbb 685f 393e b319 1b3e
000002c0: 5785 213b 4d58 713d 63cf 82b9 3060 013d
000002d0: 8a0e 263d 6c6a e7bc 9d0f 5ebd d891 82bd
000002e0: 3cc1 0e3e 468b 4c3c 34b8 c3bd 4dc7 2cbc
000002f0: 4517 34be f129 1bbe 62ea aebd 8c1d 813d
00000300: 8639 423c 5917 e03d 5601 d3bd 7042 1b3e
00000310: c53b 40ba b7aa 6f3e d16c 263e 3b1c 6c3d
00000320: 1b0a 983b 3d4f 53bc adcb 5c3d a6e5 b0bd
00000330: 8b81 14bc 1913 b9bd ccb4 4d3d e089 acbd
00000340: 3775 84bd aeb2 9abd a9ae 0fbd f122 c63d
00000350: 59f8 1dbd a312 c0bd ca1b b8bd 3e73 0ebc
00000360: 60d4 56bd 1ed4 b839 9d53 b43b 1e87 813e
00000370: 5bfb d63d c6b9 e73d ac42 623c b19d 41bd
00000380: a624 623c a39b 0a3e a656 ce3c 796b dcbd
00000390: 6358 063c 93a9 f1bc 203f 38bc 7fc1 7aba
000003a0: 0604 6a3d 2cec 243c 7331 e1bd 167c 96bc
000003b0: 723b a13b 56b8 42bc 3913 0d3e 573b 5e3d
000003c0: be00 c63d 8b8b 6dbc dc44 f83d 5ed8 833d
000003d0: be63 123d 2d4a 94ba 8853 033d e469 fe3d
000003e0: c4ac ca3c dfe7 1abb 0bab 543e 196a a73e
000003f0: e0e2 88bd 976e 5abb b641 7f3c efbf 0dbd

convs.0.bias f4 [32]
-0.024187053 0.047806565 -0.09095719 0.054654982 -0.00057352334 -0.0012253298 -0.00588072 -0.07419132
0.010094295 0.011032008 -0.02988168 0.002737177 -0.015741833 -0.013846471 0.044843107 -0.029638538
0.021521915 -0.027001638 0.05589461 0.0031135718 -0.058264747 -0.0040421695 -0.01705118 -0.00056213234
0.03928637 -0.029068299 0.07550285 0.013632553 0.040198136 -0.010516477 -0.066868976 0.07435622
00000000: ed23 c6bc d1d0 433d c347 babd e7dd 5f3d
00000010: 8058 16ba 3f9b a0ba 0eb3 c0bb 9ef1 97bd
00000020: 8b62 253c 98bf 343c 6dca f4bc 3662 333b
00000030: 04f5 80bc 4fdc 62bc 68ad 373d 85cc f2bc
00000040: ba4e b03c 8a32 ddbc bff1 643d 110d 4c3b
00000050: 04a7 6ebd 2d74 84bb ebae 8bbc 105c 13ba
00000060: bfea 203d a420 eebc 3da1 9a3d 125b 5f3c
00000070: cda6 243d 4d4d 2cbc 9af2 88bd 1348 983d

convs.1.weight f4 [32, 32]
2.6377208e-07 -3.61291e-08 3.0293435e-07 -2.4587442e-07 -9.471072e-08 -4.1574705e-07 -2.6015131e-08 1.1614924e-08
-4.907216e-07 4.1930164e-07 1.6787562e-08 1.8154184e-08 -3.9957987e-07 1.4027663e-08 -4.010173e-07 -3.0272935e-07
1.1732252e-07 -2.51479e-07 -2.4074464e-07 -5.9504436e-07 -1.3636291e-07 4.6133647e-07 7.062137e-09 1.2781957e-08
-2.7616218e-07 2.916228e-07 -1.9681232e-07 2.6916702e-08 1.5098786e-08 1.310046e-07 2.2898538e-08 1.5518602e-07
2.9115267e-07 0.001985142 -0.0024284718 -0.00028824978 -3.242066e-07 -1.6626511e-07 -5.3021364e-07 -0.005341355
0.000594807 -0.0033534511 -0.0030504623 -0.003450221 -0.0013728254 0.0015943507 -0.001533315 -2.5903162e-06
-0.0023337298 -3.2321483e-07 -0.001869865 -0.0038061505 -0.001690463 -3.847017e-07 -3.2642592e-07 2.7290517e-08
-0.00067961594 -2.0884376e-07 -0.0075555225 -0.002690845 -0.0012104448 0.0012696616 -0.00062074565 -0.0020086905
4.1650142e-07 0.0012217734 4.6094236e-05 0.0013471589 2.0084713e-07 -7.177075e-08 3.469762e-07 -0.0011079974
0.00088862545 -0.001807977 -0.0023041775 -0.0013373122 -0.0032170154 0.0015604302 -0.0012850254 -8.262154e-07
-6.159573e-05 -8.507908e-08 0.0015887497 -0.006307654 -0.007991333 3.9482387e-08 -7.287496e-08 8.833106e-08
-0.00051057484 -4.7150518e-08 -0.0008042795 -0.0016150515 0.00069438794 0.0014241048 -0.0014229604 0.0010794878
-5.713886e-07 0.0015642551 -0.0016807016 4.874059e-05 -1.7301333e-07 2.0535587e-07 1.4621318e-07 -0.0006589357
0.00030580675 -0.0027429424 -0.0054181437 -0.0019575 -0.002672871 -0.0006838403 -0.0012973502 1.8780613e-05
-0.0019769266 -2.278197e-08 -0.0006847356 -0.0033397188 0.00019530323 3.498755e-07 4.179854e-08 -1.6592087e-07
-0.00044800542 -4.264467e-07 -0.0007820721 -0.0035196983 0.0011648384 0.0010186998 0.00045722254 -0.00078327564
2.9575185e-08 1.8949652e-07 6.05826e-08 4.8252573e-08 5.031535e-07 5.1963184e-07 -4.209112e-07 6.454714e-07
5.83541e-08 -4.1621556e-07 5.1577e-07 1.0439089e-07 -9.71105e-08 3.7394663e-08 -3.6025142e-07 5.9987536e-07
-2.310357e-07 -1.0897563e-07 -1.00718296e-07 4.7408687e-07 5.222643e-07 -2.2166829e-07 -4.869175e-08 8.7266265e-09
7.3514204e-09 -3.123788e-07 -1.8103e-08 -7.572042e-08 -2.0733329e-07 5.8674397e-07 3.462193e-07 2.7825544e-07
1.6650864e-07 -9.1176844e-08 -2.3671913e-07 -2.6669557e-07 -1.1550918e-07 1.3379277e-07 2.7013104e-07 -1.0479777e-07
5.047387e-07 -2.4448704e-07 2.7354955e-07 1.2428387e-07 -2.4735667e-07 -2.3701142e-07 1.1771145e-07 -3.0384132e-07
2.3029838e-07 1.9779176e-07 -1.5420422e-07 2.4094668e-08 -2.454732e-07 3.0228088e-07 -2.531261e-08 5.5550856e-07
3.0741646e-07 -1.10228385e-07 -5.517045e-08 4.696518e-07 2.7231737e-08 -2.5296185e-07 -2.2070269e-07 2.3931494e-07
1.15423035e-07 2.2519805e-07 3.0904098e-07 -1.3706419e-07 1.1661035e-08 -1.09969305e-08 3.4150872e-07 4.1422757e-07
-1.4045085e-07 -2.527476e-07 -6.1939204e-08 3.1027046e-08 5.967286e-07 -4.4599156e-07 -1.243942e-07 1.9438621e-08
-5.979823e-07 6.257317e-08 -1.435516e-07 1.080625e-07 4.5279606e-08 4.1241947e-07 -6.417431e-07 8.496144e-08
-1.3284796e-07 1.5780066e-07 8.95327e-08 -3.6618906e-07 -5.9396655e-08 -2.8169822e-09 -5.8807353e-07 -3.236671e-09
2.4543834e-07 0.0006702391 -0.0025887126 0.00081891206 2.0598256e-07 3.976805e-07 1.0030063e-07 -0.0008161321
0.00083267747 -0.00016545685 -0.0020169336 -0.00093900523 -0.0029522707 0.0019601202 -0.0008056632 -2.0412208e-06
-0.0012477379 1.3824326e-08 -0.0007672201 -0.0014617703 -0.00013847838 2.3126952e-07 -1.4682573e-07 -7.022681e-08
-0.0006638752 -7.6420825e-08 -0.0034753315 -0.0045133326 -0.0007329752 0.001012921 5.4430195e-05 0.001267889
00000000: 8f9c 8d34 5e2c 1bb3 fba2 a234 b900 84b4
00000010: c563 cbb3 d733 dfb4 e177 dfb2 fa8a 4732
00000020: 22ba 03b5 611c e134 3d34 9032 79f1 9b32
00000030: d785 d6b4 50fe 7032 664b d7b4 ce86 a2b4
00000040: bdf2 fb33 0303 87b4 b13f 81b4 23bb 1fb5
00000050: 276b 12b4 9aad f734 37a7 f231 a497 5b32
00000060: 7143 94b4 5590 9c34 5c53 53b4 7436 e732
00000070: 95b2 8132 45aa 0c34 6bb2 c432 35a1 2634
00000080: b84f 9c34 2819 023b ff26 1fbb 3b20 97b9
00000090: 9e0e aeb4 9b86 32b4 0154 0eb5 8906 afbb
000000a0: d2ec 1b3a 93c5 5bbb 44ea 47bb 1a1d 62bb
000000b0: 60f0 b3ba 88f9 d03a 84f9 c8ba 4bd5 2db6
000000c0: 7df1 18bb 4f86 adb4 4216 f5ba 9c70 79bb
000000d0: 8792 ddba 0089 ceb4 a33f afb4 7b6c ea32
000000e0: 4128 32ba 893e 60b4 5194 f7bb e358 30bb
000000f0: caa7 9eba c66a a63a 89b9 22ba 3ca4 03bb
00000100: 859b df34 ea23 a03a 4f55 4138 2793 b03a
00000110: 70a8 5734 6320 9ab3 0c48 ba34 393a 91ba
00000120: a5f2 683a a4f9 ecba af01 17bb c048 afba
00000130: 90d4 52bb 5987 cc3a 4c6e a8ba 17c9 5db5
00000140: f52c 81b8 b8b4 b6b3 983d d03a 70b0 cebb
00000150: 14ee 02bc 5893 2933 6f7f 9cb3 84b0 bd33
00000160: 19d8 05ba 8b82 4ab3 49d6 52ba 23b0 d3ba
00000170: 9607 363a 07a9 ba3a a182 baba 9a7d 8d3a
00000180: 8761 19b5 b107 cd3a fd4a dcba cf6e 4c38
00000190: 8bc5 39b4 cb7f 5c34 c6fe 1c34 6dbc 2cba
000001a0: b054 a039 f0c2 33bb af8a b1bb 6649 00bb
000001b0: 562b 2fbb bf43 33ba d90b aaba 0f8b 9d37
000001c0: 538f 01bb 15b2 c3b2 d47f 33ba 2fdf 5abb
000001d0: 50ca 4c39 86d6 bb34 fb85 3333 fb27 32b4
000001e0: 45e2 eab9 63f2 e4b4 f803 4dba bdaa 66bb
000001f0: 7ead 983a e585 853a 5fb7 ef39 bd54 4dba
00000200: 850c fe32 6878 4b34 a319 8233 443e 4f33
00000210: 7210 0735 d47c 0b35 98f9 e1b4 7544 2d35
00000220: 03a1 7a33 3b74 dfb4 7273 0a35 802d e033
00000230: 108b d0b3 de9b 2033 9468 c1b4 1f07 2135
00000240: 9c12 78b4 fc05 eab3 784a d8b3 0186 fe34
00000250: bb31 0c35 b703 6eb4 2521 51b3 1cec 1532
00000260: c797 fc31 04b5 a7b4 eb80 9bb2 be9b a2b3
00000270: 579f 5eb4 bd80 1d35 05e0 b934 2363 9534
00000280: 8cc9 3234 00cd c3b3 dc2c 7eb4 5c2e 8fb4
00000290: d80d f8b3 ada8 0f34 8706 9134 2f0d e1b3
000002a0: 617d 0735 0b42 83b4 5ddc 9234 e472 0534
000002b0: 71cc 84b4 347d 7eb4 8ec8 fc33 a21f a3b4
000002c0: f047 7734 9660 5434 5593 25b4 bcf8 ce32
000002d0: 94c9 83b4 2b49 a234 056f d9b2 421e 1535
000002e0: ff0a a534 b2b6 ecb3 8df4 6cb3 7424 fc34
000002f0: 39eb e932 d0ce 87b4 4bfa 6cb4 327b 8034
00000300: 7cde f733 f8cd 7134 45ea a534 eb2b 13b4
00000310: c655 4832 03ed 3cb2 9a58 b734 0163 de34
00000320: d6ce 16b4 5eb1 87b4 7003 85b3 9942 0533
00000330: e12e 2035 9d70 efb4 3891 05b4 fbf9 a632
00000340: 0885 20b5 f75f 8633 2a23 1ab4 fd0f e833
00000350: 7479 4233 806a dd34 4044 2cb5 0c74 b633
00000360: f8a4 0eb4 ea6f 2934 1f45 c033 a498 c4b4
00000370: 501b 7fb3 e094 41b1 1bdc 1db5 1e6c 5eb1
00000380: cac4 8334 fcb2 2f3a 64a7 29bb 42ac 563a
00000390: 0e2c 5d34 cb80 d534 db64 d733 b3f1 55ba
000003a0: 0a48 5a3a 7c7e 2db9 882e 04bb 9327 76ba
000003b0: e27a 41bb 5c75 003b 2433 53ba e8fb 08b6
000003c0: 238b a3ba 0780 6d32 451f 49ba df98 bfba
000003d0: 8234 11b9 e252 7834 26a7 1db4 99cf 96b3
000003e0: e907 2eba cb1c a4b3 63c2 63bb 94e4 93bb
000003f0: 2225 40ba fdc3 843a fa4b 6438 4c2f a63a

convs.2.weight f4 [32, 32]
-4.3761673e-08 5.8380596e-07 -1.8830853e-07 3.0516954e-08 -4.505614e-08 3.0046476e-08 1.3788394e-07 4.172288e-07
3.1001772e-08 -4.3205424e-07 -3.1177063e-08 -2.1429985e-07 6.389257e-08 -1.3854375e-07 4.747433e-08 -3.4220113e-07
-3.948303e-07 -3.001177e-07 -4.0222574e-07 1.4416068e-07 1.9352771e-07 -2.5548317e-07 -4.2133106e-08 2.1740018e-08
-2.7644091e-07 1.8422286e-07 -5.115246e-07 3.1410545e-07 1.3549838e-09 5.8698004e-07 -6.949275e-08 -2.8383758e-07
3.985047e-07 0.00017277942 -0.0014436619 0.0002874189 2.952172e-09 -1.8693326e-07 2.7730067e-07 -0.00082917145
0.00062959513 -0.0012817173 -0.0024990474 -0.0010094447 -0.0016985624 -0.00010988482 -0.00037502652 -1.5322529e-06
-0.0011998593 2.2125233e-08 -0.00042664268 -0.002922288 -0.0007000955 6.783012e-08 3.169382e-07 3.2660115e-08
-0.00062140677 5.6493608e-08 -0.00055336923 -0.0017837675 -0.00027077404 0.00081145554 -0.0002874923 -0.00014428263
5.7074274e-08 0.0033406967 -0.0015120945 0.0008636624 -4.2738367e-07 1.4063819e-07 1.2160055e-07 -0.00047102186
0.00046157473 -0.0011589796 -0.0044241683 -0.000758866 -0.0019849972 -0.00027764004 0.00071972236 6.915116e-08
-0.00086086505 5.261952e-07 -0.00041268425 -0.0010313069 -0.00033634732 -6.5650996e-09 1.9796828e-07 5.9461536e-07
-0.00039703224 2.6395415e-07 -0.00035771073 -0.0018743348 0.0003000345 0.00063373987 0.0018710798 -0.00080965314
-5.477494e-09 0.0017443515 -0.00074759696 0.0021226516 -6.889587e-10 -6.828905e-08 5.523061e-07 -0.0003127177
0.0008554253 -0.0011636576 -0.0011729642 -0.00074555964 -0.0014564532 -0.00024650042 -0.0006354233 -5.766889e-07
-0.0014498605 1.923975e-07 3.307949e-05 0.001974035 0.0004116283 6.0159444e-08 3.48241e-07 -4.2296556e-08
-0.00023830203 -3.6056914e-08 -0.0012862629 -0.0036914323 -0.0014905889 0.0009766887 4.1987234e-05 0.00075022114
3.651009e-08 5.7989337e-07 -1.3613156e-07 2.707168e-08 1.5341956e-07 -3.044791e-07 1.556876e-07 1.5711082e-07
-1.13153135e-07 -2.2742803e-07 -8.20957e-08 6.2809505e-08 3.808563e-07 5.251352e-07 -5.250379e-07 2.2937346e-07
-4.1687406e-07 2.3347698e-07 2.8997454e-07 5.3211846e-07 1.5849047e-07 -8.579335e-08 -8.6834245e-10 -4.832728e-07
-3.5423014e-08 -4.3964118e-07 2.296468e-07 -3.6200836e-07 5.419644e-08 3.153657e-08 1.9314346e-07 -8.544966e-08
-2.3366628e-07 -3.259926e-08 1.4538452e-07 1.762847e-07 -2.309456e-07 -3.8712318e-07 -2.1104603e-07 -6.940647e-08
2.418502e-08 1.02522286e-07 -1.5507197e-07 9.6579356e-08 7.650954e-08 -3.8383302e-08 2.6387784e-07 -5.998071e-07
-1.4705865e-08 6.308077e-08 6.733916e-08 1.1881739e-07 -4.4566697e-08 -2.073244e-07 -2.0777387e-07 8.895454e-08
4.9028344e-08 -5.003932e-08 3.0049657e-07 2.471652e-07 -1.5348724e-07 -6.00819e-07 3.7467893e-07 -8.831633e-08
8.41994e-08 1.4430724e-07 3.0925818e-07 -1.6661271e-07 3.7205876e-08 -5.0750433e-08 -8.831685e-08 -2.2346428e-07
-3.1368484e-07 2.5397924e-07 -1.3772865e-07 -9.142147e-08 3.4614327e-09 -5.8951837e-08 -1.7743172e-08 1.1222429e-07
-2.8950296e-07 -6.686479e-08 9.785791e-08 4.6936632e-09 5.5864366e-08 2.327188e-07 1.0518462e-07 5.5907137e-08
1.197601e-07 -2.0556708e-07 -5.0948023e-07 -3.7513607e-07 -4.9863e-07 1.6194029e-07 3.7019042e-08 -4.15037e-07
3.0250766e-07 0.0002931943 -0.001130798 0.00074866344 1.0631315e-07 1.627313e-07 -2.734736e-07 -0.00043032394
0.00036130162 -0.0010590579 -0.0021614672 -0.0005198517 -0.0015716677 -7.291089e-05 -0.00040065363 -1.7898393e-06
-0.0006645468 -3.2943677e-07 0.0008283051 -0.0007411842 -0.0014904597 -1.5633013e-07 -2.776479e-07 4.2688703e-07
-0.0004153992 -5.9060557e-08 -0.00046648114 -0.001780491 -0.00034219187 0.00053746265 -0.001603588 -0.000117519885
00000000: 78f4 3bb3 d7b6 1c35 db31 4ab4 bf11 0333
00000010: c083 41b3 730c 0133 400d 1434 7dff df34
00000020: cf26 0533 15f5 e7b4 8be7 05b3 4b1a 66b4
00000030: 5035 8933 9ec2 14b4 94e6 4b33 c4b7 b7b4
00000040: 10f9 d3b4 dd1f a1b4 7cf1 d7b4 96ca 1a34
00000050: 7ecc 4f34 5729 89b4 d7f5 34b3 cebe ba32
00000060: c069 94b4 cbce 4534 b44f 09b5 53a2 a834
00000070: 413a ba30 f690 1d35 0b3c 95b3 5762 98b4
00000080: 12f2 d534 1f2c 3539 4139 bdba b6b0 9639
00000090: 29df 4a31 d3b7 48b4 eadf 9434 c15c 59ba
000000a0: 6a0b 253a 4cff a7ba 0fc7 23bb 584f 84ba
000000b0: 4ca2 deba f771 e6b8 359f c4b9 cfa7 cdb5
000000c0: 9944 9dba e70d be32 03af dfb9 db83 3fbb
000000d0: 9d86 37ba 01aa 9133 a827 aa34 2d46 0c33
000000e0: e7e5 22ba 61a3 7233 fb0f 11ba 4ecd e9ba
000000f0: adf6 8db9 dcb7 543a 90ba 96b9 934a 17b9
00000100: d421 7533 97ef 5a3b 7931 c6ba 6767 623a
00000110: 2a73 e5b4 5502 1734 4e91 0234 7cf3 f6b9
00000120: 83ff f139 e7e8 97ba 9df8 90bb a3ee 46ba
00000130: ba16 02bb 3790 91b9 c0ab 3c3a 4180 9433
00000140: adab 61ba dc3f 0d35 8b5d d8b9 eb2c 87ba
00000150: c657 b0b9 3a93 e1b1 1b91 5434 a89d 1f35
00000160: c428 d0b9 95b5 8d34 1f8b bbb9 3dac f5ba
00000170: f34d 9d39 9021 263a 053f f53a e73e 54ba
00000180: 8c34 bcb1 b9a2 e43a 62fa 43ba 2f1c 0b3b
00000190: 2961 3db0 4da6 92b3 3042 1435 42f4 a3b9
000001a0: 9f3e 603a df85 98ba 26be 99ba a971 43ba
000001b0: 76e6 beba ba3c 81b9 8992 26ba c2cd 1ab5
000001c0: 3f09 beba d295 4e34 d5be 0a38 d05e 013b
000001d0: d1cf d739 0131 8133 e1f5 ba34 8ea9 35b3
000001e0: b7e0 79b9 ffdc 1ab3 d297 a8ba f5eb 71bb
000001f0: dd5f c3ba 3c04 803a 731b 3038 7daa 443a
00000200: 45cf 1c33 f8a9 1b35 8f2b 12b4 418b e832
00000210: a6bb 2434 4a77 a3b4 152b 2734 4bb2 2834
00000220: 98fe f2b3 f132 74b4 974c b0b3 e4e1 8633
00000230: 7e78 cc34 04f7 0c35 54f0 0cb5 b249 7634
00000240: bcce dfb4 aab1 7a34 ccad 9b34 e7d6 0e35
00000250: 872d 2a34 653d b8b3 2bb0 6eb0 41ba 01b5
00000260: 0424 18b3 d307 ecb4 d594 7634 0d5a c2b4
00000270: 9ec5 6833 d372 0733 df62 4f34 7380 b7b3
00000280: b3e5 7ab4 4403 0cb3 fe1a 1c34 c548 3d34
00000290: d8f9 77b4 ced5 cfb4 e49b 62b4 9c0c 95b3
000002a0: 6cbf cf32 392a dc33 dc81 26b4 1067 cf33
000002b0: 904d a433 e3da 24b3 18ab 8d34 6e02 21b5
000002c0: 14a5 7cb2 0577 8733 189c 9033 8d28 ff33
000002d0: 9a69 3fb3 e69c 5eb4 7218 5fb4 4707 bf33
000002e0: 3c93 5233 d0ea 56b3 ef53 a134 20b2 8434
000002f0: 40ce 24b4 f847 21b5 7b27 c934 6aa8 bdb3
00000300: 1cd1 b433 dff2 1a34 1f08 a634 27e6 32b4
00000310: 4bcc 1f33 b1f8 59b3 b4a8 bdb3 65f1 6fb4
00000320: 8468 a8b4 a45a 8834 90e2 13b4 7c53 c4b3
00000330: 2bde 6d31 3b32 7db3 a669 98b2 f5ff f033
00000340: fc6c 9bb4 4f97 8fb3 f425 d233 e645 a131
00000350: 85ef 6f33 42e1 7934 dbe1 e133 8c1e 7033
00000360: 6897 0034 d9b9 5cb4 37c3 08b5 4f66 c9b4
00000370: 98d9 05b5 cfe1 2d34 defe 1e33 40d2 deb4
00000380: 5668 a234 dfb7 9939 4937 94ba f441 443a
00000390: 464e e433 3dbb 2e34 edd1 92b4 1a9d e1b9
000003a0: 156d bd39 16d0 8aba 67a7 0dbb a846 08ba
000003b0: 6b00 ceba bce7 98b8 d20e d2b9 693a f0b5
000003c0: fb34 2eba 72dd b0b4 9d22 593a 084c 42ba
000003d0: 875b c3ba b3db 27b4 a30f 95b4 e82e e534
000003e0: f0c9 d9b9 c5a9 7db3 0a92 f4b9 5d5f e9ba
000003f0: 3768 b3b9 82e4 0c3a 7c2f d2ba 0275 f6b8

convs.3.weight f4 [32, 32]
-1.5928505e-07 8.6003574e-08 9.573844e-08 2.7959442e-07 2.8011775e-09 -4.6290504e-07 -3.5129574e-08 -1.5369497e-07
-1.6301622e-07 3.2792272e-07 2.0380007e-07 3.42798e-09 5.35924e-07 -1.7875499e-07 5.096172e-08 2.1718267e-07
-2.3357286e-08 -9.413195e-08 1.6376884e-08 3.1298455e-08 2.6083845e-07 5.9201165e-07 7.648129e-08 1.8604565e-08
3.988587e-07 7.4562976e-08 4.113548e-07 7.764804e-08 2.299327e-08 -5.880981e-07 6.749877e-09 -3.077974e-08
-1.5842106e-08 0.00035080698 -0.0010391824 0.0011193948 6.570775e-08 1.218703e-07 -3.0906358e-07 -0.0006053792
0.00038242628 -0.0009277573 -0.001392857 -0.0008974094 -0.0019864934 -0.000507052 -0.0004310507 -8.6974586e-07
-0.00082118454 5.220342e-09 -0.00033169595 -0.0010833433 -0.00034638497 4.2399847e-07 -4.265233e-08 5.3126695e-07
-0.00020138152 -4.2435602e-07 -0.0019313832 -0.00050957577 4.3680568e-05 0.0005337821 -0.0005023437 -0.00060098537
-1.51101e-07 0.00054220227 -0.0007350846 -0.0013031957 5.244822e-07 3.023933e-07 1.9976703e-07 -0.00043066285
0.00057529274 -0.00080051075 -0.0010488156 -0.00050276116 -0.0012207221 -0.00024686195 -0.00032105265 -9.388426e-07
-0.0011078784 -2.8168419e-08 -0.0008394049 -0.0012944601 -0.00053843483 -2.2742323e-07 -2.881708e-07 -1.4852945e-07
-0.0002603207 3.252169e-08 -0.00031253978 -0.00060238986 -0.0008727556 2.5817955e-05 0.0008855677 0.0006585073
-1.6288578e-07 0.0013865442 -0.0006488204 0.0004653528 3.9765527e-07 -2.8805073e-07 3.868818e-07 -0.00030713846
0.0006401985 -0.00088874385 -0.0014702877 -0.0016700446 -0.0012274194 -2.7292763e-05 -0.0005033797 -1.0923678e-06
-0.00064456154 -2.9728838e-07 -0.002637734 -0.0011547126 -0.0026897804 1.6915133e-07 1.4428128e-09 5.3295236e-07
-0.00026778184 -1.8254767e-07 -7.3957606e-05 -0.00035445116 -0.00034017293 0.00056774635 -0.0012220955 -0.00045278884
-2.7962098e-08 -7.100084e-09 9.311462e-08 6.9878375e-10 7.162939e-08 1.1605863e-07 -1.2074747e-09 -2.5207476e-09
9.06232e-09 -2.3926798e-08 -2.1531227e-07 1.1522721e-07 -7.547004e-08 -2.3430228e-07 1.8903906e-08 -1.5914138e-07
-6.200079e-08 -5.0656524e-07 4.9291266e-08 -1.768582e-08 -4.0294685e-07 5.6129025e-08 -4.32986e-09 2.4421084e-07
1.0256322e-07 3.222524e-07 1.2312584e-07 -1.2854719e-07 7.093332e-08 3.7497384e-07 -6.868115e-08 -2.6479196e-07
1.6252098e-08 -5.324086e-07 4.4852263e-07 -1.2235007e-08 4.2394424e-07 7.9460506e-08 -1.3437863e-08 -3.0888808e-07
6.881123e-07 3.2497407e-08 3.6653762e-07 -4.258358e-07 -1.6357676e-07 -5.811894e-07 -2.7765836e-07 -8.741269e-08
-5.276828e-07 -6.878429e-08 1.518402e-07 1.3772646e-07 -5.9448105e-08 1.4689164e-07 8.2952745e-08 2.0344174e-07
-1.8588034e-08 -3.2092885e-08 2.6862548e-07 -3.3353413e-07 1.845199e-08 3.432637e-07 -2.1189224e-07 -1.7903982e-07
3.326333e-07 1.2798476e-07 -6.2033746e-07 -2.0717246e-07 -3.8219767e-07 1.3537641e-07 -5.6273603e-07 3.0242097e-07
-1.5006894e-07 -7.355759e-08 -1.16460264e-07 2.1696035e-08 -1.5452962e-08 1.6812105e-07 -5.227111e-07 -7.772933e-08
2.1903155e-08 -3.884018e-08 -1.2758734e-07 4.8245397e-07 -1.9733574e-07 -1.6668933e-07 -2.8374455e-07 4.8380866e-07
1.0059849e-08 -6.6020284e-08 -3.714433e-07 -2.4344269e-09 -6.0257065e-07 -5.2079514e-07 -1.7540214e-07 -1.4005947e-08
2.1301108e-07 0.00040311893 -0.0006423108 -0.0017994887 3.2010806e-07 3.5727095e-07 -4.33797e-07 -0.0004887428
0.0002892488 -0.0007602477 -0.0009882924 -0.00053021655 -0.00088800525 -0.00026508828 -0.0003230796 -1.3032463e-06
-0.00048352344 -1.9288575e-07 -0.00024760776 -0.0019892962 -0.00044724217 -2.8261292e-07 9.63049e-08 -5.1226117e-08
-0.00021327438 -4.40587e-07 -0.0017876622 -0.00056191295 0.00021922206 0.00015557885 0.0006123393 0.00017626985
00000000: f107 2bb4 f7b0 b833 c498 cd33 2a1b 9634
00000010: d67e 4031 2f85 f8b4 60e1 16b3 5a07 25b4
00000020: 8f09 2fb4 5b0d b034 23d4 5a34 a991 6b31
00000030: 6bdc 0f35 ccef 3fb4 01e1 5a33 b832 6934
00000040: 37a3 c8b2 9625 cab3 26ad 8c32 046d 0633
00000050: 5d09 8c34 bbea 1e35 093e a433 dfcf 9f32
00000060: b922 d634 6e1f a033 2cd8 dc34 76bf a633
00000070: bc82 c532 cbdd 1db5 8cec e731 af32 04b3
00000080: 2915 88b2 84ec b739 2d35 88ba a8b8 923a
00000090: 381b 8d33 74db 0234 60ed a5b4 4fb2 1eba
000000a0: 6380 c839 bd34 73ba 8790 b6ba 2040 6bba
000000b0: d42f 02bb afeb 04ba a5fe e1b9 7b78 69b5
000000c0: c344 57ba 9d5e b331 7ae7 adb9 f8fe 8dba
000000d0: 019b b5b9 e8a1 e334 bc30 37b3 639c 0e35
000000e0: f129 53b9 0cd3 e3b4 7726 fdba 0d95 05ba
000000f0: a735 3738 83ed 0b3a b7af 03ba 728b 1dba
00000100: 543e 22b4 9422 0e3a b1b2 40ba fecf aaba
00000110: 24ca 0c35 9e58 a234 8b7f 5634 97ca e1b9
00000120: 3ecf 163a 5ed9 51ba 6978 89ba bbcb 03ba
00000130: a300 a0ba 406d 81b9 f552 a8b9 c604 7cb5
00000140: 3b36 91ba 02f7 f1b2 820b 5cba e0aa a9ba
00000150: c025 0dba 9f31 74b4 e5b5 9ab4 777b 1fb4
00000160: a77b 88b9 faad 0b33 61dc a3b9 b3e9 1dba
00000170: a3c9 64ba a393 d837 7125 683a ad9f 2c3a
00000180: b4e5 2eb4 b4bc b53a 9a15 2aba 98fa f339
00000190: 537d d534 64a5 9ab4 a1b4 cf34 6d07 a1b9
000001a0: fed2 273a 97fa 68ba abb6 c0ba 66e5 daba
000001b0: 5ce1 a0ba c3f2 e4b7 3df5 03ba 799d 92b5
000001c0: cbf7 28ba 019b 9fb4 d5dd 2cbb ba59 97ba
000001d0: 0747 30bb f79f 3534 764c c630 3510 0f35
000001e0: 1265 8cb9 5202 44b4 b019 9bb8 a1d5 b9b9
000001f0: 3d59 b2b9 d0d4 143a b82e a0ba 4a64 edb9
00000200: 4e31 f0b2 00f5 f3b1 4ef6 c733 8914 4030
00000210: acd2 9933 e83b f933 3df4 a5b0 7639 2db1
00000220: 81b0 1b32 9687 cdb2 9630 67b4 d472 f733
00000230: 1812 a2b3 8594 7bb4 2162 a232 73e0 2ab4
00000240: 4b25 85b3 e6fa 07b5 52b4 5333 88eb 97b2
00000250: 9854 d8b4 8412 7133 dac5 94b1 151c 8334
00000260: ba40 dc33 0802 ad34 9334 0434 c806 0ab4
00000270: 0154 9833 0350 c934 dd7d 93b3 bb28 8eb4
00000280: be9a 8b32 d7ea 0eb5 7bcc f034 2132 52b2
00000290: 749a e334 e0a3 aa33 59dc 66b2 41d5 a5b4
000002a0: b8b6 3835 4793 0b33 8cc8 c434 6d9e e4b4
000002b0: a3a3 2fb4 0803 1cb5 1311 95b4 a2b7 bbb3
000002c0: 16a6 0db5 90b6 93b3 8409 2334 f6e1 1334
000002d0: e253 7fb3 44b9 1d34 c123 b233 a471 5a34
000002e0: 85ab 9fb2 80d6 09b3 9b37 9034 9510 b3b4
000002f0: 5b80 9e32 ce49 b834 7f84 63b4 173e 40b4
00000300: c694 b234 2f6c 0934 4485 26b5 2273 5eb4
00000310: d930 cdb4 fc5b 1134 ed0e 17b5 6c5c a234
00000320: a322 21b4 b6f6 9db3 b518 fab3 165e ba32
00000330: 6cbd 84b2 c384 3434 6f50 0cb5 27ec a6b3
00000340: 8c25 bc32 3bd1 26b3 f1fe 08b4 fc81 0135
00000350: 3ce3 53b4 37fb 32b4 8e55 98b4 14df 0135
00000360: afd3 2c32 09c7 8db3 c76a c7b4 e44a 27b1
00000370: 57c0 21b5 c5cc 0bb5 2c56 3cb4 ce9e 70b2
00000380: 0ab8 6434 b559 d339 c060 28ba d2dc ebba
00000390: 51db ab34 f2ce bf34 9be4 e8b4 f91e 00ba
000003a0: 51a6 9739 5c4b 47ba 9789 81ba 3bfe 0aba
000003b0: 06c9 68ba 8cfb 8ab9 0363 a9b9 34eb aeb5
000003c0: 6b81 fdb9 081c 4fb4 5ad1 81b9 da5e 02bb
000003d0: d47b eab9 06ba 97b4 2ed0 ce33 b603 5cb3
000003e0: 68a2 5fb9 d189 ecb4 fd4f eaba 574d 13ba
000003f0: f9de 6539 e122 2339 6585 203a 14d5 3839

convs.4.weight f4 [32, 32]
9.906272e-08 -1.0285142e-07 5.9320286e-08 2.7751716e-08 1.0427963e-07 -3.2552975e-07 3.9788855e-08 -5.092312e-07
-1.6757306e-07 2.9175565e-08 -4.2286553e-07 -3.4011381e-07 -5.3639405e-07 1.5670119e-07 -9.5234665e-09 -1.8670985e-07
-7.299773e-09 2.0064974e-07 -4.2960195e-07 5.04904e-09 2.830806e-08 2.1913118e-08 -5.445289e-07 3.670283e-07
-4.1120256e-07 2.5294688e-07 6.6678746e-07 1.5052723e-07 1.3613274e-07 5.8652955e-07 1.1344906e-07 3.1198616e-07
-2.1616785e-08 0.00031165796 -0.00091422483 0.00015139995 -2.2078657e-07 2.9904808e-07 -6.1149177e-07 -0.0005445925
0.00035378803 -0.00080986036 -0.0034245746 -0.000113256094 -0.0010960335 -0.0026722844 0.002335281 -2.2425115e-06
-0.00072158885 -1.5591441e-08 -0.00081326376 -0.0010740263 -0.0003472983 -4.17368e-07 4.3695707e-08 -9.853088e-08
-0.0007294798 -1.0104566e-08 -0.00040799673 -0.00077668426 -0.00028080994 0.00061899837 -0.0005042186 -0.0002728727
-3.1849662e-08 2.9920798e-06 -0.00067370856 -0.00031501305 -2.7854978e-07 -7.485388e-09 3.7815445e-07 -0.00074094936
0.00030862947 -0.00074605073 -0.0009533675 -0.00048685196 -0.00097382755 -0.00024053133 0.0016483128 -1.2325484e-06
-0.00064840226 2.8858471e-08 0.0003707342 -0.0009895571 -6.0630297e-05 4.757676e-08 1.1953931e-07 -1.3176314e-08
-0.00026715206 1.4966878e-08 6.0670147e-05 -0.0016564177 0.00033034376 -0.0010509335 -9.927574e-06 -0.00022449881
-1.7088679e-08 0.0005057024 -0.00074415177 0.00019677605 -4.368871e-08 5.2735544e-07 3.3732294e-07 -0.00039281102
-0.0023505893 -0.0012098636 -0.0012339754 -0.00039066246 -0.0013458348 -0.0015546386 -0.00039301216 5.888829e-06
-0.0005615529 -1.7346071e-08 -0.00040428672 -0.0026314368 -0.0037376205 1.8580809e-07 4.858168e-07 8.647144e-08
-0.00012879107 -3.700065e-07 -0.00015898935 -0.00069841684 0.00021623811 0.0005661876 -0.0004289485 -0.0006943312
-2.5668172e-08 1.2993384e-07 4.5989435e-07 1.2911942e-08 1.9775257e-08 -1.8456844e-07 -4.4764008e-07 2.727501e-08
2.3333692e-07 7.335778e-08 -7.864917e-08 -2.1780076e-07 -5.906672e-07 9.99284e-08 -1.1393799e-07 3.5028776e-07
-6.766747e-07 3.4490085e-07 4.295362e-07 1.3636985e-08 -4.771239e-08 -3.0906702e-07 5.0112004e-07 -8.247006e-08
-6.4495964e-08 2.420066e-07 5.9596236e-08 -3.179314e-08 2.7352518e-08 3.841454e-07 -3.896137e-08 -5.842206e-08
-5.0277606e-08 1.2294578e-07 -1.18925165e-07 1.3181948e-08 5.688033e-08 1.9680837e-08 -3.6754372e-08 1.05575566e-07
3.8407833e-07 -1.3160188e-07 -8.640241e-09 -2.4446572e-07 4.2751438e-07 -1.9509524e-07 -6.009848e-07 6.483417e-08
-2.3693052e-07 -2.641843e-07 -1.00662156e-07 -2.1255784e-07 6.215891e-07 3.1578512e-07 -1.07768116e-07 3.6969715e-07
9.788991e-09 -1.5427418e-07 -3.8361424e-08 2.8728453e-08 -1.8593578e-07 -5.415396e-08 -3.461265e-07 2.75156e-07
1.6707638e-07 5.6568346e-08 -3.16104e-07 -1.9370454e-07 3.7947126e-07 2.782742e-07 5.2939014e-10 -5.579278e-07
1.858005e-07 -3.735942e-07 -4.6528436e-07 2.7526509e-08 -3.457269e-07 -1.4263213e-07 7.8518774e-08 -1.5964371e-08
-9.91907e-08 1.9983742e-07 1.1031704e-08 1.4056107e-07 1.1947706e-07 -4.600586e-07 5.036932e-07 5.297926e-07
5.4758626e-08 1.9219677e-07 -3.3242583e-07 4.1712315e-07 9.7162335e-08 3.0871863e-08 3.4392968e-07 6.880856e-07
4.6953753e-07 0.0007643599 -0.00057014916 0.00022331189 1.8349475e-07 3.166538e-07 -1.3679951e-07 -0.0012756921
0.00012029713 -0.0006598154 -0.001610909 0.0007484124 -0.0008106397 0.00062837906 -0.00029031976 -1.2623977e-06
-0.00048272344 4.3253624e-07 -0.00033871105 -0.000830409 -6.8919646e-05 -5.1616155e-07 -3.4705408e-07 -1.2355035e-07
-0.00070329517 7.375585e-09 -0.0006375702 -0.000685148 7.688074e-05 0.00047279702 0.00049579947 -3.52333e-05
00000000: 4ebc d433 2bdf dcb3 58c7 7e33 ab62 ee32
00000010: 55f0 df33 78c4 aeb4 4fe4 2a33 1ab2 08b5
00000020: 22ee 33b4 bf9d fa32 3206 e3b4 e398 b6b4
00000030: b8fc 0fb5 b241 2834 a69c 23b2 6a7a 48b4
00000040: 7bd1 fab1 2e72 5734 0ba4 e6b4 d37b ad31
00000050: 152a f332 753b bc32 be2b 12b5 fc0b c534
00000060: 40c3 dcb4 c1cc 8734 49fd 3235 9ca0 2134
00000070: e22b 1234 0172 1d35 48a1 f333 0d7f a734
00000080: d0af b9b2 0666 a339 97a8 6fba 1dc1 1e39
00000090: 5a11 6db4 db8c a034 6525 24b5 fcc2 0eba
000000a0: a07c b939 cf4c 54ba d46e 60bb e783 edb8
000000b0: c8a8 8fba 7e21 2fbb 840b 193b 0e7e 16b6
000000c0: 0229 3dba f1ed 85b2 3531 55ba 58c6 8cba
000000d0: 9715 b6b9 9f12 e0b4 f0ab 3b33 ed97 d3b3
000000e0: 903a 3fba 5a98 2db2 65e8 d5b9 669a 4bba
000000f0: ac39 93b9 4744 223a 8a2d 04ba 5b10 8fb9
00000100: 13cb 08b3 8acb 4836 d19b 30ba 5628 a5b9
00000110: 978b 95b4 1699 00b2 2705 cb34 453c 42ba
00000120: 8ccf a139 9e92 43ba 69eb 79ba 2a40 ffb9
00000130: 7648 7fba 2337 7cb9 330c d83a 0a6e a5b5
00000140: 8af9 29ba 73e4 f732 1a5f c239 07b4 81ba
00000150: 494d 7eb8 3357 4c33 b75a 0034 0b5e 62b2
00000160: 8b10 8cb9 8390 8032 1378 7e38 281c d9ba
00000170: fd31 ad39 7abf 89ba 9b8e 26b7 7167 6bb9
00000180: 67ca 92b2 1d91 043a 2e13 43ba ab55 4e39
00000190: 3fa4 3bb3 978f 0d35 5019 b534 34f2 cdb9
000001a0: 580c 1abb 4994 9eba 58bd a1ba d4d1 ccb9
000001b0: b966 b0ba 04c5 cbba 330d ceb9 a898 c536
000001c0: 2d35 13ba 6a00 95b2 72f6 d3b9 2f74 2cbb
000001d0: def2 74bb 8a82 4734 1469 0235 2db2 b933
000001e0: 170c 07b9 4ea5 c6b4 61b6 26b9 f615 37ba
000001f0: fabd 6239 356c 143a 7ee4 e0b9 c703 36ba
00000200: e87c dcb2 f183 0b34 66e7 f634 52d3 5d32
00000210: 40de a932 c92d 46b4 2f53 f0b4 624a ea32
00000220: 2a8b 7a34 de88 9d33 d7e5 a8b3 9edc 69b4
00000230: 578e 1eb5 3898 d633 13ae f4b3 2f0f bc34
00000240: bba4 35b5 d02a b934 019b e634 1848 6a32
00000250: 54ec 4cb3 d9ed a5b4 b584 0635 651a b1b3
00000260: 0881 8ab3 22ed 8134 c1f6 7f33 ed8c 08b3
00000270: d3f4 ea32 8b3c ce34 7b56 27b3 bceb 7ab3
00000280: d0f0 57b3 1403 0434 cd63 ffb3 d276 6232
00000290: 964c 7433 9e0e a932 dcdb 1db3 c8b8 e233
000002a0: 5333 ce34 734e 0db4 2f70 14b2 1d3f 83b4
000002b0: 2185 e534 5f7b 51b4 5c53 21b5 f63a 8b33
000002c0: f766 7eb4 37d5 8db4 9b2b d8b3 743b 64b4
000002d0: 47db 2635 2d89 a934 266e e7b3 ca7a c634
000002e0: 702c 2832 90a6 25b4 d5c2 24b3 89c6 f632
000002f0: a3a5 47b4 e996 68b3 44d3 b9b4 27b9 9334
00000300: 9b65 3334 8ef5 7233 01b5 a9b4 19fd 4fb4
00000310: 22ba cb34 b765 9534 8584 1130 82c4 15b5
00000320: 7480 4734 6592 c8b4 32cc f9b4 6f73 ec32
00000330: 589c b9b4 6c26 19b4 279e a833 0622 89b2
00000340: aa02 d5b3 e492 5634 f385 3d32 22ed 1634
00000350: 9b49 0034 f9fd f6b4 8835 0735 1237 0e35
00000360: bf2f 6b33 a55e 4e34 4278 b2b4 f8f0 df34
00000370: 8fa7 d033 f997 0433 56a5 b834 e2b4 3835
00000380: bf14 fc34 535f 483a 1076 15ba d428 6a39
00000390: a706 4534 9100 aa34 2ae3 12b4 2035 a7ba
000003a0: 0848 fc38 76f7 2cba 2325 d3ba 1b31 443a
000003b0: 1c81 54ba ceb9 243a 0f36 98b9 a86f a9b5
000003c0: 0b16 fdb9 5437 e834 0795 b1b9 ceaf 59ba
000003d0: f488 90b8 5a8e 0ab5 c052 bab4 43a9 04b4
000003e0: 575d 38ba 556c fd31 9d22 27ba 819b 33ba
000003f0: 083b a138 bee1 f739 8af8 013a 78c7 13b8

convs.5.weight f4 [32, 32]
8.4551374e-08 -4.883436e-08 -6.5296454e-08 4.863194e-07 -6.7235625e-08 4.186254e-07 -3.153217e-07 1.1387272e-07
1.361609e-07 1.479454e-07 2.6654473e-07 -1.5361061e-07 -1.1866277e-07 -5.3926567e-07 -1.0152842e-07 -3.3634578e-08
-3.804965e-07 -3.0313603e-07 -5.311708e-08 -4.6695726e-07 -7.6667924e-08 5.7099123e-07 -5.913534e-07 -2.78246e-07
-1.1839575e-07 1.8817374e-07 2.62568e-08 2.4439183e-07 8.8807425e-08 2.5918578e-07 -9.923711e-08 4.193548e-09
-5.3036894e-07 0.0013340072 -0.0008513926 -0.00022353236 -4.457091e-07 2.7701708e-07 -1.09733435e-07 -0.00019201553
-4.2298496e-05 -0.0007485375 -0.0010654789 -0.0006265326 -0.0018282766 -0.0021424459 -0.00037813556 -1.2947226e-06
-0.001299634 2.2204176e-07 -0.0004656004 -0.0027095675 -0.0029306868 -3.6262517e-07 -2.656127e-07 -3.1209257e-07
-0.00032339225 3.9058264e-07 -0.00032080637 -0.0011476551 -0.00016241151 0.00060142827 0.0009816892 -0.0001877785
-3.5799513e-08 0.00032821763 -0.0009514487 -0.00030718942 8.6239474e-08 -5.4447096e-08 5.3286834e-07 -0.00044159297
0.00033069993 -0.00035898102 -0.0011990294 -0.0011077715 -0.0014001799 0.000599383 -0.0004097438 -1.7567698e-06
-1.0934328e-05 -1.24086e-07 -0.0007370959 -0.001388054 4.453024e-05 2.0661572e-07 -1.730243e-07 -2.2271941e-07
-0.00018514086 5.3468324e-07 -0.00016099306 -0.00075744576 -0.00020282742 0.00049116707 -8.232862e-05 -0.00015373388
2.9295922e-08 0.0012741771 0.0019586761 0.0003032236 3.1209922e-07 -1.2364289e-07 -3.7375725e-07 -0.00024220649
-3.6452668e-05 -0.0011379533 -0.00080789 -0.0014264239 0.003732013 0.0011990103 -0.00039040792 -1.6565737e-06
-0.00096337625 -2.905359e-07 0.0015638863 -0.0015608794 -0.0012891155 4.4430354e-07 4.0685684e-08 2.6064657e-07
-0.00017314784 -2.7950028e-07 0.00015005734 -0.0003931416 0.00032754263 0.0008373767 8.902407e-05 -0.0009136285
2.0112763e-09 3.1647002e-07 2.2799102e-07 1.3224977e-07 -5.874525e-07 -3.032992e-08 6.285624e-08 9.77499e-09
-4.3462288e-07 -3.141057e-07 -5.010797e-07 -3.3796474e-07 2.896605e-08 1.0118846e-07 1.0531617e-07 1.0584795e-07
-6.705916e-07 3.6074013e-07 6.0038576e-07 -9.9495416e-08 3.1663214e-07 2.443826e-08 -2.5207338e-08 -7.359515e-08
1.9465315e-07 -2.6249182e-07 -2.9848394e-07 -1.233497e-09 -2.8985571e-08 4.1033528e-07 2.7057513e-07 -7.826155e-08
-2.060144e-07 9.147122e-08 -3.9446726e-07 -1.6852917e-08 -1.4593539e-07 -1.4197228e-07 -1.2747006e-08 1.502389e-07
-2.876472e-07 7.715996e-08 1.9984031e-07 4.0713059e-07 -2.150409e-08 -2.7312242e-07 -5.576232e-07 3.4559923e-07
-5.2616094e-09 -1.5013855e-07 -3.05483e-07 -3.1327053e-07 3.1769e-08 -4.4375395e-07 1.4178582e-08 1.359772e-07
7.173316e-09 2.8050474e-07 3.0587756e-07 -9.533236e-08 1.3315889e-07 -3.5448105e-07 5.9503382e-08 2.6406553e-07
2.2689306e-08 -4.7209858e-07 3.94976e-09 6.8519626e-07 -3.990967e-08 -3.6069647e-08 1.03512534e-07 3.018176e-07
-3.8170043e-07 -2.2473571e-07 -1.8992647e-07 -2.2049467e-07 -9.549014e-08 7.0205445e-08 -4.4973484e-07 3.0697646e-07
-1.1816355e-07 3.9054104e-08 3.7250793e-08 1.7482513e-07 -3.1664823e-07 6.616135e-08 -2.3909658e-07 3.9078625e-08
1.362777e-07 8.216762e-08 -1.2259378e-07 -1.9954706e-07 1.6877973e-08 -7.779979e-09 1.19087254e-07 1.9391977e-07
-5.113412e-07 -2.48624e-05 0.00019313686 -0.00029830352 -2.8660557e-07 -5.6633972e-08 -5.6999816e-08 -0.0016890569
0.0002745035 -0.0005453266 -0.00074060186 -0.00037875818 0.00033667157 -0.00018285768 0.00046586522 7.691572e-07
-0.0007439308 -1.6514518e-09 -0.00043528352 -0.00097126205 -6.6405744e-05 3.0201875e-07 -4.401942e-07 -3.4925878e-07
-0.00012377302 -9.529072e-08 -0.0015617647 -0.0005143183 -0.00019355494 0.00044448345 -0.00017796915 -0.0005207326
00000000: 9c92 b533 f2bd 51b3 1b39 8cb3 9d8b 0235
00000010: 2d63 90b3 70bf e034 7c49 a9b4 318a f433
00000020: a033 1234 ecda 1e34 a119 8f34 2af0 24b4
00000030: 8cd3 feb3 0ec2 10b5 d707 dab3 9c75 10b3
00000040: 0a47 ccb4 b3be a2b4 d922 64b3 1eb2 fab4
00000050: a3a4 a4b3 3846 1935 7fbd 1eb5 d761 95b4
00000060: c040 feb3 ce0c 4a34 508b e132 f534 8334
00000070: 66b6 be33 3926 8b34 2e1c d5b3 d716 9031
00000080: ad5e 0eb5 dbd9 ae3a fd2f 5fba 0364 6ab9
00000090: cb49 efb4 f0b8 9434 98a6 ebb3 c757 49b9
000000a0: aa69 31b8 8039 44ba 8aa7 8bba e43d 24ba
000000b0: c8a2 efba 4768 0cbb 7f40 c6b9 54c6 adb5
000000c0: 7b58 aaba 606a 6e34 d41b f4b9 0093 31bb
000000d0: c410 40bb d3ae c2b4 8899 8eb4 ad8d a7b4
000000e0: f98c a9b9 45b1 d134 e731 a8b9 ea6c 96ba
000000f0: 024d 2ab9 2ba9 1d3a 06ac 803a 68e6 44b9
00000100: fbc1 19b3 a014 ac39 a46a 79ba 440e a1b9
00000110: a732 b933 37d9 69b3 6f0a 0f35 9b85 e7b9
00000120: cb61 ad39 9e35 bcb9 c028 9dba a532 91ba
00000130: 3e86 b7ba ea1f 1d3a e2d2 d6b9 27ca ebb5
00000140: 9572 37b7 803c 05b4 ab39 41ba 5def b5ba
00000150: fbc5 3a38 19da 5d34 8fc8 39b4 a524 6fb4
00000160: 5f22 42b9 2787 0f35 3fd0 28b9 538f 46ba
00000170: 12ae 54b9 aac1 003a d7a7 acb8 a033 21b9
00000180: 6aa6 fb32 4a02 a73a 225d 003b fcf9 9e39
00000190: 978e a734 b3c2 04b4 cea8 c8b4 cff8 7db9
000001a0: c1e4 18b8 6027 95ba 95c8 53ba d8f6 baba
000001b0: ca94 743b 1c28 9d3a aaaf ccb9 7057 deb5
000001c0: 168b 7cba f3fa 9bb4 51fb cc3a 6c96 ccba
000001d0: 8af7 a8ba 9d88 ee34 62be 2e33 feee 8b34
000001e0: 058f 35b9 3a0e 96b4 b658 1d39 931e ceb9
000001f0: 07ba ab39 6683 5b3a 6fb2 ba38 9280 6fba
00000200: bf36 0a31 4fe7 a934 b2cd 7434 8a00 0e34
00000210: 6eb1 1db5 1a44 02b3 95fb 8633 dcee 2732
00000220: 1d56 e9b4 5ca2 a8b4 ef81 06b5 8571 b5b4
00000230: 04d1 f832 f24c d933 2d2a e233 874e e333
00000240: b402 34b5 bfab c134 322a 2135 2faa d5b3
00000250: 97fd a934 4dec d132 8687 d8b2 5d0b 9eb3
00000260: da01 5134 9aec 8cb4 523f a0b4 d187 a9b0
00000270: f2fb f8b2 0d4c dc34 9043 9134 be10 a8b3
00000280: cf34 5db4 d66e c433 2bc7 d3b4 f5c3 90b2
00000290: 6ab2 1cb4 0b71 18b4 edfd 5ab2 5b51 2134
000002a0: ee6d 9ab4 23b3 a533 b093 5634 9a93 da34
000002b0: feb7 b8b2 a9a1 92b4 93af 15b5 cc8a b934
000002c0: 9bc9 b4b1 c535 21b4 4401 a4b4 932f a8b4
000002d0: 6372 0833 143d eeb4 1096 7332 2101 1234
000002e0: 2879 f631 4798 9634 7e37 a434 85b9 ccb3
000002f0: 70fa 0e34 814f beb4 a990 7f33 e4c4 8d34
00000300: 50e6 c232 bc74 fdb4 75b6 8731 54ee 3735
00000310: 2569 2bb3 ffea 1ab3 9e4a de33 7f09 a234
00000320: 82ec ccb4 e24e 71b4 97ee 4bb4 1dc1 6cb4
00000330: 4210 cdb3 dac3 9633 1673 f1b4 86ce a434
00000340: 19c1 fdb3 71bc 2733 aefd 1f33 91b7 3b34
00000350: cdff a9b4 9614 8e33 2f5d 80b4 67d7 2733
00000360: bb53 1234 2074 b033 52a2 03b4 1443 56b4
00000370: 0efb 9032 b6a8 05b2 e9bc ff33 4338 5034
00000380: 1a43 09b5 998f d0b7 c884 4a39 9f65 9cb9
00000390: c5de 99b4 b63d 73b3 f6cf 74b3 5863 ddba
000003a0: 3ceb 8f39 40f4 0eba f324 42ba 1094 c6b9
000003b0: 4b83 b039 7cbd 3fb9 5f3f f439 1578 4e35
000003c0: 5a04 43ba 4bf9 e2b0 c436 e4b9 4b9c 7eba
000003d0: 5043 8bb8 2425 a234 d553 ecb4 c381 bbb4
000003e0: 11c9 01b9 a1a2 ccb3 21b4 ccba 51d3 06ba
000003f0: 02f5 4ab9 8f09 e939 3b9d 3ab9 c681 08ba

convs.6.weight f4 [32, 32]
-7.416904e-09 5.8174866e-08 8.00006e-08 -3.4138895e-07 -3.6447503e-07 -7.3707746e-08 -2.4704935e-08 -4.7535661e-07
4.404587e-08 2.9962757e-07 3.5842928e-07 1.1797796e-07 -1.3946587e-07 4.2939362e-07 3.0609596e-07 -1.1975114e-07
-5.3033966e-07 -3.738263e-07 -1.3789517e-09 1.9382432e-07 -3.069593e-08 -2.073028e-07 -3.4439879e-07 1.3874345e-07
-1.401877e-07 3.224507e-07 -2.065029e-07 -6.996606e-08 -3.4888775e-08 3.8125086e-07 2.158649e-07 -1.4812697e-07
1.7685166e-07 0.00038256493 -0.0011676147 -0.00014246724 -1.5950096e-07 2.1195869e-07 -2.3404951e-07 -0.0012909949
0.00029986745 -0.00078200473 -0.0021411548 -0.0006519197 -0.0016865726 0.00094049715 -0.0004362359 -1.3092188e-06
-0.0014152657 -2.1556997e-07 -0.00036651533 -0.00066559156 -0.000251415 9.888896e-08 2.8503983e-08 2.3592732e-07
-0.00030417193 4.6977985e-07 -0.00041536253 -0.0018267935 -0.00046446014 0.0013862187 -0.0022280843 -0.00011404558
-1.493017e-07 0.00026513782 -0.00095781684 -0.0016015774 -1.2732994e-07 -4.104947e-08 -2.1358773e-08 -0.0004231966
0.00013059781 0.0005301122 -0.0013185347 -0.0011470445 -0.0011898952 -0.0006508425 -0.00039564868 -1.2585425e-06
-0.0012501368 2.6445792e-07 -0.0006946503 -0.00011451126 -0.0017662857 -4.0110243e-07 2.8679457e-07 1.7408834e-07
-0.00017519007 1.5875784e-07 -0.00022557746 -0.0015645976 -0.00014369909 0.00017488554 -5.9355385e-05 -0.00023477069
3.067603e-07 0.00066119415 -0.0006972716 0.00019338929 -2.8127658e-07 -5.5434402e-08 -3.9460424e-08 -0.000420256
-0.000101737336 -0.0012180961 -0.0023299817 -0.0007706993 -0.001126628 -0.0021916777 -0.00045625563 -2.3536556e-06
-0.00079770875 -5.0984534e-07 -0.0012767813 -0.0009547344 0.00017434 -2.1033354e-07 1.9858399e-07 -5.3120016e-07
-0.00015484783 3.445422e-07 -0.00023904345 -0.0011883981 5.937968e-05 0.0023155345 -3.2206477e-05 0.0005891511
1.8271274e-07 3.478983e-07 1.5199602e-09 5.8314495e-08 -6.514041e-08 -4.0373793e-09 3.877878e-07 6.200883e-08
1.1924864e-07 -1.7390123e-08 4.986057e-07 -1.1204348e-08 -1.7227259e-07 3.093905e-08 3.8478884e-08 -2.531483e-07
-1.5081696e-07 -5.183258e-07 1.095554e-07 -5.349742e-08 -6.288506e-07 5.284286e-07 3.0805097e-07 -5.821668e-08
-8.826336e-08 -1.9120316e-07 -2.5631806e-07 6.068663e-08 -2.7221503e-07 -8.9509484e-08 3.0871112e-09 5.138898e-07
6.134492e-08 -5.602822e-07 5.3607927e-08 -2.1439936e-07 -3.1325092e-07 3.9534925e-08 6.130141e-09 -1.1735554e-07
-1.4307479e-07 3.422508e-08 2.0351322e-08 9.3953204e-08 -2.641753e-07 -5.933697e-07 -3.477302e-07 4.7576165e-08
-5.2887077e-07 3.509318e-08 2.3661785e-07 -2.0128635e-08 -5.283666e-07 4.825598e-07 1.8979233e-07 -4.4591332e-07
1.9525505e-08 -4.5523458e-07 6.0142656e-07 -6.8580405e-08 -4.923146e-07 -5.8271677e-08 -5.260501e-07 -1.4404262e-07
3.648787e-08 -6.860092e-07 -1.0923268e-07 -3.0662696e-07 -1.8406752e-07 -2.424935e-08 8.7174946e-08 2.187635e-07
-1.3592141e-07 1.4941289e-08 5.8517912e-08 -4.7209602e-07 -2.2410725e-07 4.1427532e-07 1.9306609e-07 2.183654e-07
-1.8343559e-07 -3.8201708e-07 -1.8623919e-07 6.153039e-08 -3.6469853e-08 -3.2922856e-07 -2.9157e-08 3.4707816e-07
-1.16345696e-07 4.626331e-07 2.2517066e-08 1.3955675e-07 -5.319471e-07 -5.7979554e-07 4.769106e-07 3.381612e-08
-2.0263892e-07 0.0002585161 -0.001113311 -0.0003053881 4.6249298e-07 -1.6664607e-07 2.7168062e-07 -0.00041835892
0.00062513346 -0.0006561308 -0.0006979921 -0.00037302743 -0.0007734166 -0.00021100807 -0.00036937455 -9.1593597e-07
-0.00047400253 -3.1978413e-08 -0.00030879772 -0.0014266827 -0.00091162056 -8.1781856e-08 4.901846e-07 2.857838e-07
-0.00025677914 3.6268955e-07 -0.00022823147 -0.0006157061 -0.00022660712 4.8404752e-05 0.00095109106 -0.0001093066
00000000: c7d7 feb1 f1db 7933 cccc ab33 2448 b7b4
00000010: 11ad c3b4 4349 9eb3 ba36 d4b2 8434 ffb4
00000020: f22c 3d33 80dc a034 256e c034 125b fd33
00000030: 16c0 15b4 6987 e634 8255 a434 f194 00b4
00000040: aa5c 0eb5 4cb2 c8b4 8d85 bdb0 061e 5034
00000050: 88d6 03b3 f696 5eb4 cfe5 b8b4 82f9 1434
00000060: 8086 16b4 491d ad34 16bb 5db4 4040 96b3
00000070: 9dd8 15b3 b8ae cc34 7ec8 6734 d50c 1fb4
00000080: 9de4 3d34 ff92 c839 a60a 99ba 4263 15b9
00000090: 4a43 2bb4 c396 6334 0a4f 7bb4 9a36 a9ba
000000a0: 8737 9d39 73ff 4cba 9e52 0cbb 97e5 2aba
000000b0: fc0f ddba b28b 763a 97b6 e4b9 6ab8 afb5
000000c0: 7080 b9ba 6c77 67b4 db28 c0b9 187b 2eba
000000d0: 5ad0 83b9 c85c d433 ecd8 f432 3553 7d34
000000e0: 4479 9fb9 0d36 fc34 04c5 d9b9 0571 efba
000000f0: c982 f3b9 c8b1 b53a 0d05 12bb c12b efb8
00000100: bd4f 20b4 3202 8b39 0016 7bba 05ec d1ba
00000110: 30b8 08b4 5f4e 30b3 7078 b7b2 7ce0 ddb9
00000120: 15f1 0839 3af7 0a3a afd2 acba 6d58 96ba
00000130: 42f6 9bba 4d9d 2aba 116f cfb9 31eb a8b5
00000140: a1db a3ba d2fa 8d34 3119 36ba c425 f0b8
00000150: b782 e7ba 1957 d7b4 bff8 9934 0aed 3a34
00000160: 3ab3 37b9 0677 2a34 fd88 6cb9 2f13 cdba
00000170: eead 16b9 7b61 3739 5cf4 78b8 c72c 76b9
00000180: d1b0 a434 fd53 2d3a 1bc9 36ba 8bc8 4a39
00000190: 5c02 97b4 c516 6eb3 327b 29b3 ce55 dcb9
000001a0: d15b d5b8 86a8 9fba 9bb2 18bb c108 4aba
000001b0: 5dab 93ba 40a2 0fbb 9835 efb9 7ff3 1db6
000001c0: 541d 51ba 4edc 08b5 ac59 a7ba 2447 7aba
000001d0: 0acf 3639 0bd8 61b4 5a3a 5534 cc97 0eb5
000001e0: a65e 22b9 85f9 b834 bda7 7ab9 06c4 9bba
000001f0: 720e 7938 39c0 173b 7115 07b8 4371 1a3a
00000200: b22f 4434 c7c6 ba34 d8e6 d030 7775 7a33
00000210: 52e3 8bb3 2ab9 8ab1 2631 d034 b729 8533
00000220: d10a 0034 4961 95b2 ecd7 0535 3e7d 40b2
00000230: eef9 38b4 d8e1 0433 fb43 2533 70e8 87b4
00000240: 40f0 21b4 1423 0bb5 b844 eb33 09c5 65b3
00000250: 49ce 28b5 56d9 0d35 3462 a534 eb09 7ab3
00000260: 4c8b bdb3 864d 4db4 169c 89b4 d452 8233
00000270: f324 92b4 5c38 c0b3 0925 5431 3df2 0935
00000280: babc 8333 4d66 16b5 8a3e 6633 a635 66b4
00000290: e12c a8b4 1ccd 2933 4aa1 d231 e404 fcb3
000002a0: 19a0 19b4 e0fe 1233 08d1 ae32 52c3 c933
000002b0: fad3 8db4 0e48 1fb5 adaf bab4 8c56 4c33
000002c0: b9f7 0db5 5cb9 1633 0511 7e34 56e7 acb2
000002d0: 14d5 0db5 4289 0135 b8c9 4b34 dc65 efb4
000002e0: 0ab9 a732 f766 f4b4 b871 2135 7a46 93b3
000002f0: 9a27 04b5 6346 7ab3 e335 0db5 22aa 1ab4
00000300: d6b6 1c33 3126 38b5 4d93 eab3 7d9e a4b4
00000310: 18a4 45b4 e24c d0b2 ef34 bb33 41e5 6a34
00000320: cbf1 11b4 3e58 8032 2055 7b33 6274 fdb4
00000330: 22a2 70b4 9169 de34 9a4d 4f34 d377 6a34
00000340: 64f6 44b4 0718 cdb4 0af9 47b4 b122 8433
00000350: 07a3 1cb3 d4c0 b0b4 ec74 fab2 0f56 ba34
00000360: b9d9 f9b3 cf5f f834 8d6b c132 11d9 1534
00000370: 20cb 0eb5 3fa3 1bb5 0c05 0035 383d 1133
00000380: f694 59b4 7289 8739 85ec 91ba 7f1c a0b9
00000390: 8d4c f834 53ef 32b4 80db 9134 2f57 dbb9
000003a0: ffdf 233a 3100 2cba 75f9 36ba e592 c3b9
000003b0: 1cbf 4aba 0c42 5db9 9da8 c1b9 a4de 75b5
000003c0: 8b83 f8b9 a358 09b3 21e6 a1b9 87ff baba
000003d0: d2f9 6eba 0da0 afb3 3b95 0335 d46d 9934
000003e0: 50a0 86b9 acb7 c234 6b51 6fb9 5667 21ba
000003f0: 639d 6db9 3506 4b38 a452 793a 893b e5b8
