checkpoint/Wikipedia/20231105_161458297033.pth (torch, 760995 bytes, 38 tensors)

convs.0.weight f4 [72, 138]
0.15011619 -0.09015222 -0.26297396 -0.018092623 0.0484068 0.16479564 -0.1197173 0.022993848
-0.13568425 -0.042912472 -0.078789964 0.010160368 0.08560193 0.044379883 0.26123393 0.46186373
0.017522821 0.26765418 -0.3171507 0.06297583 -0.11285789 0.09228743 0.050174322 0.19869219
-0.10486134 0.08665819 0.0031278385 0.46058923 0.07399362 0.33316672 0.08218051 -0.07257665
0.0028050872 -0.12839241 -0.2895137 0.049549963 -0.2025485 0.007780735 -0.13930598 0.08333009
-0.03537624 0.08617476 -0.15111624 -0.03317228 0.15664826 0.37770465 -0.10368752 0.03701247
0.09036903 -0.006411959 -0.17708723 0.023422712 0.032207318 0.19763269 0.01871494 0.20763837
-0.11312647 0.22503726 0.072364435 0.14882302 -0.1419021 -0.02565347 0.050215058 0.011167724
-0.10888807 0.116401486 -0.17481536 -0.05280274 -0.06909002 0.3159788 -0.099410504 -0.12514432
-0.11947209 -0.08335333 0.07599688 0.12908551 -0.14321204 0.08317993 -0.12484909 -0.007834273
0.06165574 0.13556182 -0.14069505 0.17437151 0.010614094 -0.017585171 -0.18065433 0.116142474
-0.18121435 0.022953052 -0.07270273 0.24708746 0.011066942 -0.021509508 -0.14077288 -0.014070976
-0.11209727 0.13725848 -0.058208626 0.068937704 -0.17884268 -0.016838806 0.062516324 0.023209047
-0.16716433 0.09359062 -0.0992358 0.0229562 0.030081281 0.20515634 0.019920545 0.055828597
-0.041138705 0.20690611 -0.13578644 0.13267682 0.039395094 0.3125589 0.05167561 0.38718987
-0.24320875 0.04912674 0.022613125 0.30460185 -0.17938602 0.014031185 0.069426894 0.072744265
-0.25630862 -0.16989791 0.72477406 -0.02053667 -0.27466282 1.0868793 -0.035066526 -0.2147379
-0.26535 0.9183871 1.34520815e-05 -1.21062185e-05 3.7816467e-06 3.2483536e-07 -2.7066887e-06 -5.4991567e-08
6.178895e-06 2.0714947e-06 7.1788586e-06 5.245359e-07 -3.0625445e-06 3.132976e-06 -2.0108505e-06 4.4998976e-07
-4.837078e-06 3.942564e-06 -6.291898e-06 5.2567157e-06 -8.638067e-06 -9.107491e-07 -7.377218e-07 3.1358552e-06
-9.2406947e-07 -2.0919401e-06 1.7061229e-06 -1.199772e-06 -4.6958876e-06 -3.3929857e-06 4.174242e-06 -1.7484606e-06
-4.414059e-06 2.8253382e-08 -4.203168e-06 5.1798406e-07 9.480144e-06 -3.878806e-06 8.92195e-07 -4.3143177e-06
-1.1328563e-06 1.6497304e-06 3.0860488e-06 -3.0245037e-06 -5.3301214e-06 -1.1135412e-07 -3.051752e-07 3.052897e-06
5.7552775e-06 -1.1870137e-06 -5.8433216e-07 1.2181854e-05 4.011363e-06 -2.314757e-06 6.709588e-06 1.6107306e-07
1.14811996e-07 -4.1843032e-07 1.6823362e-05 -3.4778418e-06 2.4405465e-06 -6.4844477e-07 -4.628046e-07 4.685255e-06
-1.1355369e-07 -4.2754743e-07 1.5018587e-07 -1.3361283e-05 1.0650075e-05 2.5152926e-06 -5.5561486e-06 -1.1506227e-07
-7.726891e-06 3.9351507e-06 3.4082998e-06 -2.4886847e-06 3.4412826e-06 -6.531636e-07 -9.823204e-07 3.842123e-06
-2.412991e-06 -8.3640106e-07 9.862402e-06 2.6787723e-06 3.1533161e-06 1.4355841e-06 -3.395837e-06 -7.059717e-07
5.935819e-06 -1.2031112e-06 6.380971e-07 4.0421814e-06 7.8070406e-07 1.030833e-06 -9.847731e-08 1.4731295e-06
-8.9151746e-07 -6.9338705e-07 -4.696497e-06 3.296873e-06 -2.3275104e-06 2.2977315e-06 -1.0753386e-06 1.1366375e-06
-8.615841e-07 4.2085261e-07 -2.132344e-06 -7.1238964e-07 6.181946e-06 1.4148985e-06 -3.912832e-07 -1.1840194e-06
-5.202711e-06 -1.2160206e-06 -2.2489824e-06 -7.1000595e-06 8.6444766e-07 3.152771e-06 -1.9934064e-06 -9.071914e-07
00000000: 0fb8 193e baa1 b8bd 86a4 86be fb36 94bc
00000010: 3546 463d 30c0 283e 582e f5bd 985d bc3c
00000020: d0f0 0abe fdc4 2fbd a25c a1bd ac77 263c
00000030: 1150 af3d aec7 353d 74c0 853e 6779 ec3e
00000040: 058c 8f3c f809 893e 9461 a2be 79f9 803d
00000050: 0a22 e7bd 3101 bd3d 9783 4d3d f775 4b3e
00000060: 8bc1 d6bd d979 b13d 6cfc 4c3b 5ad2 eb3e
00000070: f889 973d d494 aa3e 414e a83d 11a3 94bd
00000080: 8ed5 373b 4d79 03be 243b 94be e7f4 4a3d
00000090: e068 4fbe 89f5 fe3b 3aa6 0ebe f7a8 aa3d
000000a0: ade6 10bd 647c b03d 37be 1abe a8df 07bd
000000b0: 6768 203e 8162 c13e 1f5a d4bd 639a 173d
000000c0: 6613 b93d 691b d2bb 5b56 35be fde0 bf3c
000000d0: d2eb 033d 3960 4a3e 1350 993c 279f 543e
000000e0: daae e7bd 2b70 663e ce33 943d 1065 183e
000000f0: c94e 11be 3a27 d2bc 4eae 4d3d d4f8 363c
00000100: b500 dfbd e763 ee3d cc02 33be b047 58bd
00000110: 127f 8dbd f9c7 a13e bc97 cbbd d525 00be
00000120: c8ad f4bd 27b5 aabd 41a4 9b3d fe2e 043e
00000130: 2da6 12be 3d5a aa3d e1b0 ffbd 535b 00bc
00000140: bb8a 7c3d b8d0 0a3e 5d12 10be 728e 323e
00000150: bde6 2d3c c70e 90bc 73fd 38be 1bdc ed3d
00000160: 4190 39be 0a08 bc3c 2be5 94bd 7f04 7d3e
00000170: 1e52 353c b534 b0bc c426 10be f389 66bc
00000180: 4193 e5bd 7d8d 0c3e 2b6c 6ebd 362f 8d3d
00000190: 8922 37be 89f1 89bc 8f08 803d e620 be3c
000001a0: 202d 2bbe 70ac bf3d 243c cbbd a40e bc3c
000001b0: 056d f63c 8114 523e 6930 a33c 87ac 643d
000001c0: 0f81 28bd 32df 533e 9a0b 0bbe 6fdc 073e
000001d0: c05c 213d b807 a03e cea9 533d c03d c63e
000001e0: b70b 79be 1f39 493d 293f b93c c6f4 9b3e
000001f0: f8b0 37be 0ee3 653c b02f 8e3d f2fa 943d
00000200: e23a 83be b8f9 2dbe cb8a 393f 853c a8bc
00000210: 9ba0 8cbe dc1e 8b3f eba1 0fbd 41e4 5bbe
00000220: f5db 87be 6b1b 6b3f 40b0 6137 d01b 4bb7
00000230: 32c8 7d36 0865 ae34 8fa4 35b6 de2f 6cb3
00000240: 4e54 cf36 0204 0b36 ede1 f036 d5cd 0c35
00000250: 1d86 4db6 1e40 5236 26f2 06b6 1f96 f134
00000260: 2f4e a2b6 5e4a 8436 fe1e d3b6 d862 b036
00000270: 37ec 10b7 347a 74b5 db07 46b5 9571 5236
00000280: 920d 78b5 4263 0cb6 f0fd e435 da07 a1b5
00000290: 5e91 9db6 0db3 63b6 7710 8c36 a6ac eab5
000002a0: 7a1c 94b6 d8b1 f232 f008 8db6 980b 0b35
000002b0: e90c 1f37 b126 82b6 2c7f 6f35 b5c3 90b6
000002c0: a50c 98b5 4e6c dd35 ea19 4f36 94f8 4ab6
000002d0: 65d9 b2b6 9321 efb3 f6d6 a3b4 5fe0 4c36
000002e0: 751d c136 7b51 9fb5 00db 1cb5 aa60 4c37
000002f0: 5999 8636 3957 1bb6 ec22 e136 6df3 2c34
00000300: 908e f633 a0a4 e0b4 e51f 8d37 de64 69b6
00000310: 45c8 2336 c910 2eb5 6177 f8b4 0936 9d36
00000320: cdda f3b3 ac89 e5b4 c742 2134 462a 60b7
00000330: b9ad 3237 66cc 2836 f46e bab6 2718 f7b3
00000340: bfa2 01b7 b00a 8436 25ba 6436 4703 27b6
00000350: c9f0 6636 1055 2fb5 46d8 83b5 96eb 8036
00000360: dfee 21b6 0b85 60b5 b276 2537 f5c4 3336
00000370: 8f9d 5336 4bae c035 09e4 63b6 0182 3db5
00000380: 4c2c c736 967a a1b5 b349 2b35 13a2 8736
00000390: 9391 5135 275b 8a35 797a d3b3 58b8 c535
000003a0: 9d50 6fb5 3221 3ab5 9a96 9db6 d93f 5d36
000003b0: 5332 1cb6 ba32 1a36 5a54 90b5 918e 9835
000003c0: 9c47 67b5 8bf1 e134 6419 0fb6 0b3b 3fb5
000003d0: 836e cf36 8be7 bd35 8e11 d2b4 99ea 9eb5
000003e0: f292 aeb6 2636 a3b5 39ed 16b6 0c3d eeb6
000003f0: 640c 6835 3194 5336 76c6 05b6 b885 73b5

convs.0.bias f4 [72]
0.09887829 -7.083888e-05 0.06370426 0.063899234 0.108127736 0.13260162 0.019135708 0.11602828
0.057469007 0.051963788 -0.0003776701 0.016550882 0.010135994 0.07002717 -0.010173364 0.102488674
0.10779297 0.0039595915 -0.028359715 0.08828403 -0.036234792 0.048930448 0.013985317 0.117442116
0.052155666 0.023676252 0.0039808406 0.092086166 0.116081625 -0.00024945894 -0.0008316744 -0.03264893
0.021698808 0.09204339 0.062955886 -0.028317817 0.09366422 0.02401376 0.015562049 -0.025629543
-0.006985917 -0.030673118 -0.0057752663 0.07660679 0.0696279 0.03244577 0.15824234 0.110065706
0.11576367 0.058586333 0.095717646 0.056790546 -0.013502767 -0.06465603 -0.0017901093 0.040059563
0.2175768 -0.009739686 0.014454303 0.033114124 -0.016330613 0.18482785 -0.029827673 0.03108787
0.051212285 0.11548797 -0.021241482 0.043000057 -0.03189104 0.081910186 0.104147024 0.092692584
00000000: b380 ca3d 568f 94b8 6177 823d 9add 823d
00000010: 1372 dd3d b8c8 073e 7dc2 9c3c 3ca0 ed3d
00000020: 9f64 6b3d fbd7 543d 0602 c6b9 b795 873c
00000030: 7111 263c 686a 8f3d 2eae 26bc 95e5 d13d
00000040: 90c2 dc3d 76bf 813b a252 e8bc 42ce b43d
00000050: ef6a 14bd 4b6b 483d ac22 653c 7e85 f03d
00000060: 2ea1 553d b3f4 c13c b671 823b ac97 bc3d
00000070: 34bc ed3d d0c9 82b9 b904 5aba e2ba 05bd
00000080: b3c1 b13c 3f81 bc3d 04ef 803d c4fa e7bc
00000090: 07d3 bf3d 81b8 c43c f7f7 7e3c 0cf5 d1bc
000000a0: 1fea e4bb 3146 fbbc 723e bdbb 05e4 9c3d
000000b0: 1399 8e3d dbe5 043d 480a 223e 216a e13d
000000c0: 8115 ed3d 39f8 6f3d 9d07 c43d 349d 683d
000000d0: b63a 5dbc 616a 84bd 1aa2 eaba 7f15 243d
000000e0: 74cc 5e3e 3493 1fbc bed1 6c3c ada2 073d
000000f0: c7c7 85bc 8343 3d3e 2a59 f4bc fdab fe3c
00000100: f9c3 513d f584 ec3d 9e02 aebc d420 303d
00000110: 2ea0 02bd 87c0 a73d 094b d53d 9cd5 bd3d

convs.1.weight f4 [72, 72]
-0.008914387 4.890266e-07 0.004646536 0.0017132814 -0.0031515711 -0.0028837977 0.0021665792 -7.8887584e-05
-0.0068990802 -0.0052099703 4.5119313e-07 -0.011211318 0.0043637734 -0.0029427668 -0.00050896616 0.0032120051
0.0010368417 0.0050927275 1.5892458e-05 -0.0011432768 0.00094629085 -0.0017922645 -0.0010585312 0.00035116877
-0.007618239 0.0072341426 -6.453531e-05 -0.00027718922 0.00299366 -2.1065047e-07 -9.3138607e-07 -1.3074725e-06
-0.00023860132 0.0010146152 0.005275202 -3.1656523e-07 0.00041571702 0.00051740464 0.00034108936 5.060281e-05
1.7957833e-05 2.8962215e-06 5.5074163e-09 -0.0047038994 0.00052831904 -0.0026197156 -0.0066117654 -0.00043420625
-0.00020811537 0.004775263 0.00026648561 -0.0061555235 -0.00041984994 0.0023934739 9.839218e-07 -0.00221333
-0.0034396108 -0.0062506697 -0.0009854224 -0.0027661745 -0.0012126598 -0.00016053667 3.0951642e-07 0.0023258338
-0.015730793 -0.009134456 -0.012312444 0.0029614249 0.00041331057 0.001740725 -0.005035883 -0.0031357298
-1.4720153e-08 -5.528322e-07 -1.5339452e-06 1.28576625e-08 7.8037857e-07 8.537713e-08 -6.9696415e-07 2.072305e-06
1.7161815e-06 -3.4690837e-07 -3.16947e-07 9.5004924e-07 -2.1852324e-07 -1.7194425e-07 -5.8336486e-08 -2.2495044e-06
-5.6719523e-07 8.8962133e-07 -2.90452e-07 2.6519163e-07 -5.9547403e-07 -2.079555e-06 1.5355322e-06 8.6594866e-07
3.904793e-08 1.833672e-06 1.7879587e-07 9.114433e-07 -1.7483048e-08 -8.6776356e-07 1.0130017e-06 -3.8639598e-07
-4.3458898e-10 -1.8112155e-06 1.7738435e-08 -1.5349716e-06 1.636449e-06 7.043938e-08 1.7008384e-06 3.7587045e-09
4.7326432e-07 1.8628257e-06 6.3711485e-07 8.701216e-07 2.6611755e-08 3.8907595e-07 1.0720994e-06 1.0433811e-06
-1.8407331e-07 -1.4679891e-06 -4.5784344e-07 -1.6295043e-06 1.3517667e-06 -2.3804982e-06 9.412967e-08 2.5617666e-07
4.6519312e-07 -5.0747907e-08 4.6499446e-07 -2.4092057e-07 -1.898129e-06 7.471303e-07 -1.7426797e-07 3.793623e-07
3.4409337e-07 1.3585501e-06 1.9577922e-06 4.7356448e-08 1.3539636e-06 3.5006738e-07 1.9609375e-07 2.0062815e-07
-0.01339318 -5.681776e-07 -0.0016445119 0.0018536372 -0.0020105669 -0.003345694 0.0022663688 -0.00082308025
0.0010820766 -0.004799527 -2.0872606e-06 -0.0033207189 -0.0012173913 -0.003258162 0.001845105 0.0015147959
0.0012603494 0.007936707 -6.650822e-06 0.0015353835 0.0013387598 0.0018984256 -0.0027122153 -0.0030239562
0.000301612 0.00916005 -5.6642126e-05 0.0030752353 -0.0011430592 1.0192039e-06 -1.5670295e-06 -7.135985e-07
-0.00117651 -0.00559826 0.005742449 -1.0906898e-06 0.000590007 -0.0004312468 0.00031372515 3.138068e-05
-1.8042712e-06 1.864052e-05 6.8359276e-07 -0.0066838805 -0.00035488087 -0.009398852 -0.0028448314 -0.0006103891
0.00027522852 -0.0036705262 -7.228895e-05 -0.0016844014 0.0028140806 0.0020140514 7.5603293e-07 -0.00088807807
-0.0033456741 -0.003017837 0.0025977667 -0.0042964453 0.0035792112 -0.0009905178 -9.37352e-07 0.00035276994
-0.014324505 0.0007726151 -0.004861909 -0.00093161664 -0.00038218862 0.00018203662 -0.0049768286 0.0043179262
-0.0048040645 -2.4317196e-06 0.0009578603 0.0008649983 0.00012679647 0.000457184 0.002899987 0.001302033
0.00077587826 -0.0047640204 1.5693279e-06 -0.0036499414 0.002349991 0.0004295474 -0.0020223917 -0.002455594
0.00032845422 0.0015089402 3.5402825e-06 0.00045563915 6.5888044e-06 -0.0025739549 -0.0009428343 -0.0014814622
0.0007640979 0.0053303083 -3.5357547e-07 0.0011778887 0.00084605825 3.9899035e-07 2.2595525e-07 -9.781296e-07
-0.0006734878 0.0006024036 0.00013338422 1.8106157e-06 0.00034456956 0.00017924784 0.002788301 1.4172824e-05
00000000: a60d 12bc a745 0335 f841 983b 2f90 e03a
00000010: 978a 4ebb 19fe 3cbb 2bfd 0d3b 7370 a5b8
00000020: ae11 e2bb 66b8 aabb 833b f234 adaf 37bc
00000030: fcfd 8e3b 6fdb 40bb 246c 05ba 8180 523b
00000040: a2e6 873a e5e0 a63b cb50 8537 01da 95ba
00000050: 8110 783a 6bea eaba 6abe 8aba 131d b839
00000060: 6ca2 f9bb 630c ed3b 2157 87b8 b553 91b9
00000070: 4831 443b 292f 62b4 5d04 7ab5 6a7c afb5
00000080: 0e31 7ab9 d6fc 843a 9adb ac3b 65f4 a9b4
00000090: 98f4 d939 70a2 073a 3dd4 b239 5a3e 5438
000000a0: 27a4 9637 b55c 4236 bf3b bd31 2b23 9abb
000000b0: e47e 0a3a 89af 2bbb 82a7 d8bb 2da6 e3b9
000000c0: 8b39 5ab9 cf79 9c3b 18b7 8b39 46b4 c9bb
000000d0: 4e1f dcb9 d4db 1c3b 4c0f 8435 840d 11bb
000000e0: 186b 61bb 6bd2 ccbb 4a29 81ba b548 35bb
000000f0: 1cf2 9eba bc55 28b9 9d2b a634 046d 183b
00000100: dddd 80bc afa8 15bc 22ba 49bc 7714 423b
00000110: 9bb1 d839 0a29 e43a 0c04 a5bb d180 4dbb
00000120: ebe3 7cb2 5766 14b5 f5e1 cdb5 99e4 5c32
00000130: 357b 5135 9358 b733 0317 3bb5 ee11 0b36
00000140: 8c57 e635 b93e bab4 dd28 aab4 e306 7f35
00000150: 36a3 6ab4 ad9f 38b4 a58d 7ab3 31f6 16b6
00000160: 5c41 18b5 50ce 6e35 6bef 9bb4 a95f 8e34
00000170: aad8 1fb5 7c8e 0bb6 7c18 ce35 8a73 6835
00000180: a7b5 2733 7d1c f635 09fb 3f34 e8a9 7435
00000190: a12d 96b2 42f0 68b5 79f6 8735 dc71 cfb4
000001a0: f6ea eeaf e418 f3b5 3b5f 9832 3905 ceb5
000001b0: f6a3 db35 7544 9733 5d48 e435 ea25 8131
000001c0: f414 fe34 3406 fa35 3306 2b35 4d92 6935
000001d0: de97 e432 31e2 d034 0ee5 8f35 4d0a 8c35
000001e0: b0a5 45b4 b907 c5b5 86cd f5b4 57b5 dab5
000001f0: 5a6e b535 a6c0 1fb6 5524 ca33 a788 8934
00000200: a8bf f934 eaf5 59b3 5aa4 f934 df57 81b4
00000210: 37c3 feb5 678e 4835 6a1e 3bb4 28ab cb34
00000220: d5bb b834 6d57 b635 9d62 0336 f764 4b33
00000230: d6b9 b535 e5f0 bb34 d78d 5234 3f6c 5734
00000240: 126f 5bbc de84 18b5 aa8c d7ba bef5 f23a
00000250: b7c3 03bb 6e43 5bbb 5c87 143b fbc3 57ba
00000260: 77d4 8d3a 5a45 9dbb dd12 0cb6 6ba0 59bb
00000270: e090 9fba e386 55bb 73d7 f13a 1e8c c63a
00000280: 4f32 a53a f608 023c 202a dfb6 ec3e c93a
00000290: 5379 af3a 98d4 f83a 6cbf 31bb 912d 46bb
000002a0: ad21 9e39 0914 163c 0593 6db8 e389 493b
000002b0: b4d2 95ba 94cb 8835 b952 d2b5 1e8e 3fb5
000002c0: 2035 9aba 9c71 b7bb 272b bc3b d163 92b5
000002d0: b3aa 1a3a f718 e2b9 7a7b a439 c09e 0338
000002e0: 492a f2b5 365e 9c37 2380 3735 7404 dbbb
000002f0: 4e0f bab9 a4fd 19bc 5a70 3abb 8502 20ba
00000300: 8c4c 9039 368d 70bb d699 97b8 22c7 dcba
00000310: 706c 383b 2dfe 033b 30f2 4a35 e9cd 68ba
00000320: 1943 5bbb e7c6 45bb 4b3f 2a3b 32c9 8cbb
00000330: 3391 6a3b 43d4 81ba 579e 7bb5 fbf3 b839
00000340: 54b1 6abc 5289 4a3a a650 9fbb bc37 74ba
00000350: 7d60 c8b9 15e1 3e39 aa14 a3bb 647d 8d3b
00000360: 6a6b 9dbb a030 23b6 eb18 7b3a 0ec1 623a
00000370: abf4 0439 33b2 ef39 b50d 3e3b faa8 aa3a
00000380: 4f64 4b3a 801b 9cbb b2a1 d235 db33 6fbb
00000390: 4e02 1a3b e034 e139 1a8a 04bb 08ee 20bb
000003a0: 6134 ac39 a2c7 c53a 9795 6d36 dae2 ee39
000003b0: 6615 dd36 ccaf 28bb 8a28 77ba 9f2d c2ba
000003c0: be4d 483a dea9 ae3b 0bd3 bdb4 6363 9a3a
000003d0: 02ca 5d3a d134 d634 1b9e 7234 4748 83b5
000003e0: 008d 30ba 9fea 1d3a 0edd 0b39 4804 f335
000003f0: 58a7 b439 7af4 3b39 eebb 363b d1c7 6d37

convs.2.weight f4 [72, 72]
-0.00075310393 -1.1525167e-06 0.00079495576 0.0012503779 -0.0006273807 -0.00083534705 -0.002216765 -0.0006287762
0.00019561355 -0.0025618337 -2.119539e-06 -0.005423293 -0.00062012696 -0.0013893909 0.0011830244 0.00095700246
0.0052532787 0.0028896437 -4.055884e-06 -0.00018489057 -0.00045636453 -0.0005571785 0.00017722517 6.459484e-05
-0.004199975 -0.0026706443 -3.4476518e-05 0.0021379092 0.0004931232 4.972254e-07 -5.926126e-07 -5.425575e-07
-2.6785316e-05 -5.596001e-06 0.002110808 -1.5867888e-06 0.0001544505 -0.0012697811 -0.0005726676 1.0927069e-05
1.1408071e-05 1.31314255e-05 -1.1351763e-06 -0.0012187088 0.0006286558 -0.002531554 -0.0021707704 0.0007450743
0.0007931475 -0.0021710612 6.578906e-05 -0.0046558627 -0.0027813162 0.0015934429 1.2333007e-06 0.0064343354
-0.0016164336 -0.0036339825 -0.0008373383 -0.001080102 0.0007414229 -0.00010466254 -1.5013222e-06 0.0008229909
-0.002260974 -0.0060412013 -0.006164506 0.0016196208 -0.00014898574 -0.0025325036 -0.0009904732 0.0019497306
3.254576e-07 2.2198737e-06 1.271373e-07 1.3267971e-06 -1.0530545e-06 -8.28404e-07 -2.1491478e-07 1.0650979e-07
-2.9825952e-07 -1.7658974e-06 -1.4611576e-06 -4.7414332e-07 -2.2310549e-07 -1.5231133e-07 -6.4963004e-08 1.5783996e-06
2.1409517e-07 1.4345726e-06 -2.0476555e-06 -7.4880677e-07 -4.211423e-07 2.0970785e-07 -4.6224878e-07 -5.8875185e-07
-2.7841062e-07 1.209966e-06 1.302381e-06 7.1992696e-07 1.1713722e-06 6.2981337e-07 5.225054e-07 -9.948e-08
-1.4006014e-06 -3.4190046e-09 8.054708e-08 1.2141855e-06 -2.1694585e-07 -1.16443516e-07 -1.4051554e-06 -6.788557e-07
2.0212643e-07 4.3794145e-07 -1.34223e-07 -9.4057094e-07 -2.2634774e-07 1.4998346e-06 -4.6193512e-07 2.8817183e-07
2.0765297e-06 1.3490569e-06 -2.0248807e-07 -2.5254934e-07 3.6438254e-07 -5.9463304e-07 -5.9750465e-07 5.018729e-07
-1.8533079e-06 -1.0655584e-06 -1.2255105e-06 1.6293202e-06 -7.789375e-07 3.2500108e-07 -1.2762544e-07 -2.423774e-07
-6.489702e-08 -2.552619e-07 2.4744368e-08 -1.3946419e-06 1.7823675e-06 -2.5443484e-07 1.5159274e-06 5.044031e-07
-0.006998433 -2.3216872e-07 1.147231e-05 0.0009107687 -0.0021504494 -0.0018071706 0.0019583022 -0.0007815822
-0.0036769914 -0.0027212023 1.8563101e-06 -0.0030945495 0.0034709962 -0.00036689278 -0.0011325598 -0.00029795052
-0.0031495942 0.00067762955 -1.2610435e-05 7.9865276e-05 0.0007698953 0.0013242703 -0.00031633605 0.00016772767
0.0007163128 0.002189121 -2.1034386e-05 5.5691777e-05 0.001157953 -7.397544e-08 -1.1899012e-08 2.0316303e-07
0.0006434115 -6.5578846e-05 0.0021517456 5.3153656e-07 0.00022059983 -0.0007317783 0.0002544299 3.135301e-05
9.005639e-06 -4.3183085e-05 1.449849e-06 -0.001799272 0.0015947358 -0.0028889356 -0.0009923347 -0.00033647084
-0.0018469354 0.0031712118 -4.9078906e-05 -0.0031041747 0.00086620485 0.00015053761 6.64291e-08 0.005030707
-0.0014275034 0.005344378 0.0023531066 0.00010837181 0.00069218973 -0.000113986796 -5.0818744e-07 0.00094814354
-0.005962485 0.0012144293 -0.006101067 -0.00026472186 0.001286731 -0.0011448113 -0.0018234533 0.00057236804
-0.0048801717 2.0951231e-07 0.00047124975 0.00041279235 -3.42778e-05 -0.00119412 0.00016140725 -0.00039469008
0.00028907 -0.0021172138 -1.6613633e-07 -0.0012247645 0.002028009 -0.00079577236 -0.0017170247 0.00083601096
0.0029782357 0.0030871893 3.7680852e-06 -4.475324e-05 0.00088191516 0.0010632903 -0.0005636349 7.668698e-05
0.00046192633 -0.0005787261 2.7579275e-05 0.00088132423 -0.00018843869 -1.7043349e-06 -5.282657e-07 -9.0374635e-07
-0.00033464064 0.0006172395 -0.00066058454 8.5652385e-07 -0.00069910643 -0.00088510086 0.00018830085 9.503334e-06
00000000: f36b 45ba 2cb0 9ab5 9464 503a b8e3 a33a
00000010: ce76 24ba 31fb 5aba 2547 11bb 75d4 24ba
00000020: 9d1d 4d39 70e4 27bb 673d 0eb6 e1b5 b1bb
00000030: 0490 22ba 391c b6ba b60f 9b3a 59df 7a3a
00000040: b223 ac3b 2d60 3d3b c717 88b6 2fdf 41b9
00000050: 3644 efb9 9e0f 12ba 85d5 3939 1777 8738
00000060: f29f 89bb fa05 2fbb e19a 10b8 2a1c 0c3b
00000070: f044 013a 1279 0535 0714 1fb5 44a4 11b5
00000080: 07b1 e0b7 48c5 bbb6 7b55 0a3b a6f9 d4b5
00000090: fef3 2139 c96e a6ba 121f 16ba 6753 3737
000000a0: 4b65 3f37 0b4f 5c37 5c5c 98b5 15bd 9fba
000000b0: 60cc 243a 6ee8 25bb 7c43 0ebb 1751 433a
000000c0: 3aeb 4f3a 5d48 0ebb 3cf8 8938 3590 98bb
000000d0: be46 36bb 12db d03a e487 a535 1ed7 d23b
000000e0: 83de d3ba 1c28 6ebb d280 5bba 3692 8dba
000000f0: 0c5c 423a 467e dbb8 0a81 c9b5 fcbd 573a
00000100: d92c 14bb 45f5 c5bb a0ff c9bb 7549 d43a
00000110: 0e39 1cb9 5cf8 25bb c4d2 81ba 1a8e ff3a
00000120: 8dba ae34 24f9 1436 3c83 0834 6714 b235
00000130: ad56 8db5 7d5f 5eb5 53c3 66b4 60ba e433
00000140: 7a20 a0b4 c603 edb5 fe1c c4b5 c38d feb4
00000150: c58e 6fb4 058b 23b4 ca81 8bb3 66d9 d335
00000160: 08e2 6534 8a8b c035 746a 09b6 9c01 49b5
00000170: 5b19 e2b4 0e2c 6134 fd2a f8b4 b80a 1eb5
00000180: 7778 95b4 1d66 a235 78cd ae35 0141 4135
00000190: 0b38 9d35 7210 2935 4c42 0c35 b5a1 d5b3
000001a0: 4cfc bbb5 c4f3 6ab1 3af9 ac33 19f7 a235
000001b0: 9ff1 68b4 800f fab3 c698 bcb5 9c3a 36b5
000001c0: 1708 5934 371e eb34 f01e 10b4 8b7b 7cb5
000001d0: fe09 73b4 ed4d c935 e1ff f7b4 09b6 9a34
000001e0: 825a 0b36 3e11 b535 7f6b 59b4 1e96 87b4
000001f0: 5ba0 c334 df9e 1fb5 3564 20b5 71b8 0635
00000200: 2dbf f8b5 4f04 8fb5 387c a4b5 04af da35
00000210: 2d18 51b5 cf7b ae34 6a09 09b4 1920 82b4
00000220: 845d 8bb3 ee0a 89b4 718d d432 882f bbb5
00000230: ae39 ef35 4299 88b4 de76 cb35 5166 0735
00000240: 1c53 e5bb 0d4a 79b4 3279 4037 a7c0 6e3a
00000250: 8eee 0cbb 95de ecba dc56 003b 18e3 4cba
00000260: aef9 70bb 3356 32bb 5426 f935 edcd 4abb
00000270: a779 633b 845b c0b9 6772 94ba 3e36 9cb9
00000280: 6c69 4ebb f3a2 313a 6891 53b7 587d a738
00000290: cdd2 493a 2393 ad3a e8d9 a5b9 0ee0 2f39
000002a0: f0c6 3b3a 5b77 0f3b 0073 b0b7 9796 6938
000002b0: 75c6 973a 6edc 9eb3 696c 4cb2 0725 5a34
000002c0: 9daa 283a 6087 89b8 4d04 0d3b eaae 0e35
000002d0: d150 6739 cfd4 3fba 0165 8539 0a81 0338
000002e0: ed16 1737 7c1f 35b8 6f98 c235 8dd5 ebba
000002f0: 7406 d13a 4c54 3dbb 3a11 82ba 5a68 b0b9
00000300: de14 f2ba 1bd4 4f3b 13da 4db8 696f 4bbb
00000310: 0612 633a a2d9 1d39 c9a7 8e33 a1d8 a43b
00000320: 111b bbba e41f af3b 9436 1a3b ac45 e338
00000330: 1174 353a 320c efb8 606a 08b5 d68c 783a
00000340: f360 c3bb 7c2d 9f3a 76eb c7bb 5eca 8ab9
00000350: 87a7 a83a 7e0d 96ba f100 efba f80a 163a
00000360: d9e9 9fbb 4ef6 6034 1212 f739 0d6c d839
00000370: 82c5 0fb8 0584 9cba 6e3f 2939 68ee ceb9
00000380: 528e 9739 f4c0 0abb 3563 32b4 4788 a0ba
00000390: 58e8 043b 619b 50ba ca0d e1ba bf27 5b3a
000003a0: 812e 433b 7152 4a3b 36df 7c36 6db5 3bb8
000003b0: 5330 673a 1a5e 8b3a e6c0 13ba 02d3 a038
000003c0: b42e f239 a7b5 17ba 0b5a e737 ab08 673a
000003d0: a097 45b9 80c0 e4b5 24ce 0db5 fa98 72b5
000003e0: b572 afb9 3ece 213a 142b 2dba dfeb 6535
000003f0: 3d44 37ba 1d06 68ba a072 4539 8270 1f37

convs.3.weight f4 [72, 72]
-0.0013379904 -5.818095e-07 0.00019301116 0.0009359721 -0.0008153637 -0.00031013307 -0.0016644102 -0.0004910854
-0.0028563442 -0.003069044 -4.473545e-08 -0.0019478311 -0.00049156515 7.181443e-05 -0.0008006544 0.0012756741
0.0016652904 0.00073112 -1.3038572e-05 9.482998e-05 -0.00032025893 0.00031702517 -7.2007744e-05 4.8907274e-05
-0.0003858314 0.00753828 -1.9254856e-05 -0.0029892088 0.00046371165 1.9740294e-06 -4.260508e-07 -8.927615e-07
-0.000594144 -0.002153806 -0.0018502604 1.0201637e-06 0.00016431915 -0.00027012493 -0.0007400985 9.797912e-06
-1.0615745e-05 1.04130095e-05 -4.766849e-07 -0.0016018009 0.00025701083 -0.0007717201 -0.0015539674 -0.00014646597
-8.717457e-05 -0.0017395106 9.7373704e-05 -0.0013827604 0.0019116454 -0.0014251183 -2.0246341e-07 0.0010889001
-0.0012954982 0.001606679 -0.00029070428 -0.0010083298 0.000858457 -5.6019922e-05 2.4960843e-07 0.00085279904
-0.0021910397 0.0004911604 -0.0043111136 -0.00021150958 2.3520037e-05 -0.0010041501 -0.0013808755 -0.0006386598
6.536953e-07 -1.3292184e-07 1.0191422e-06 1.3984491e-06 3.333282e-07 8.6845454e-11 1.8320472e-06 2.3815296e-06
-2.6650898e-07 1.1402404e-06 -2.0683513e-06 1.8845037e-06 -7.9227937e-07 1.8907053e-07 1.7683606e-06 -9.28821e-07
7.240272e-08 2.3333769e-07 2.2635632e-07 -1.2254844e-06 -4.206384e-07 9.0540107e-07 1.8307901e-06 2.478402e-07
2.8115502e-07 1.335909e-07 1.3586135e-06 1.5826674e-06 4.918717e-07 -1.1036394e-07 9.943922e-07 4.1456124e-07
7.199894e-07 -2.4212048e-07 2.0257065e-08 1.7859375e-07 3.2128332e-07 -3.008928e-07 1.0668731e-06 -4.3182686e-07
1.021452e-06 1.4425643e-07 4.9226514e-07 -2.3616245e-07 -7.4249874e-07 6.0471103e-07 6.502521e-07 2.0017957e-07
6.355753e-07 -3.0651896e-07 -3.2041189e-07 -2.0988375e-06 2.393051e-06 -7.848939e-07 3.4334138e-07 -1.14893396e-07
6.022612e-07 1.0673614e-07 -1.246337e-06 -5.854322e-07 -1.1332869e-06 -6.724209e-07 1.2136333e-07 1.6112143e-07
3.2629987e-07 3.8382782e-07 4.1974374e-07 1.4175039e-06 2.0051557e-08 -5.775456e-08 7.67023e-07 -4.401173e-07
-0.0019717466 -2.673919e-07 -0.00011363183 0.0006171841 -3.4801207e-05 -0.00039663116 0.00082562974 -0.000694483
-0.0026301409 -0.0019766693 5.3334276e-07 -0.001485316 -0.0003294912 -0.0012294789 -0.0005342414 0.0011288481
0.00019626443 0.00040404865 5.513477e-06 -0.00043207212 0.00063020375 -0.0014210335 -3.2835767e-05 -0.00058063725
0.0005248393 0.0020449532 -1.5160604e-05 -0.0014482659 0.00021757995 2.3523879e-07 1.10521896e-07 -9.936828e-07
-0.0012574921 -0.002094183 0.0023596056 9.132795e-07 0.0001866263 -0.00083562353 -0.00026366455 3.753594e-06
5.775921e-06 1.4691623e-05 -5.743512e-07 -0.00011612273 0.0012993779 -0.00055970636 -0.0013492131 0.00037949343
-0.00011066269 -0.0002979279 -4.7089372e-05 -0.00094167126 -0.0003186753 -8.0943435e-05 1.9843306e-07 -3.0094132e-05
-0.0009769576 0.0020672309 -0.0003051945 -0.0016466152 0.0016737566 -4.5948058e-05 6.420285e-07 0.0009963973
-0.0019435857 -0.0023791322 -0.0029683565 -0.00090049126 -0.00311589 -0.0006818892 -0.0010174273 0.0016499785
-0.003518159 -5.1826206e-08 -0.00042171712 -0.0008550691 -0.0013061402 -4.987571e-05 -0.000105719475 -0.001205653
-0.0001109372 -0.00081828766 -2.8351334e-07 -0.00094344805 -0.00036847932 -0.0008814563 0.0011246029 -0.00060864125
0.000292594 0.0009807337 3.2397654e-07 0.0001521208 8.54462e-05 0.0002667493 -0.00044644202 7.3273644e-05
0.00010116129 -0.0010027135 -3.7014865e-06 -0.00012539855 0.00070461474 -2.5095815e-07 -1.6268635e-07 2.301491e-06
-0.00041367713 0.00028880403 0.00096927956 5.88954e-08 7.642795e-05 0.00082803547 -0.00065373204 2.8294678e-06
00000000: 825f afba a52d 1cb5 0a63 4a39 065c 753a
00000010: 22be 55ba 5b99 a2b9 5728 daba 2fbc 00ba
00000020: 8131 3bbb 0422 49bb 2623 40b3 5e4e ffba
00000030: 61dc 00ba 149b 9638 02e3 51ba 8534 a73a
00000040: e045 da3a a2a8 3f3a 3ec0 5ab7 75df c638
00000050: 6de8 a7b9 6636 a639 dd02 97b8 c921 4d38
00000060: 6a49 cab9 ad03 f73b 7d85 a1b7 9ae6 43bb
00000070: 531e f339 9179 0436 fabb e4b4 1aa6 6fb5
00000080: 54c0 1bba de26 0dbb 7084 f2ba 8fec 8835
00000090: 164d 2c39 8e9f 8db9 2b03 42ba b661 2437
000000a0: 471a 32b7 89b3 2e37 13eb ffb4 85f3 d1ba
000000b0: 69bf 8639 424d 4aba 7eae cbba a994 19b9
000000c0: 7ed1 b6b8 4a00 e4ba 1c35 cc38 bd3d b5ba
000000d0: 2d90 fa3a 09cb baba b864 59b4 6db9 8e3a
000000e0: b5cd a9ba 3497 d23a ab69 98b9 ef29 84ba
000000f0: 130a 613a eff6 6ab8 ec01 8634 608e 5f3a
00000100: 8c97 0fbb 37c1 003a 3e44 8dbb acc8 5db9
00000110: e54c c537 b09d 83ba 7efe b4ba bc6b 27ba
00000120: 9979 2f35 47b9 0eb4 76c9 8835 58b2 bb35
00000130: 47f4 b234 a5f9 be2e aae4 f535 5ed2 1f36
00000140: b714 8fb4 5d0a 9935 01ce 0ab6 0eef fc35
00000150: 06ad 54b5 5003 4b34 6858 ed35 1854 79b5
00000160: d17b 9b33 608b 7a34 5a0c 7334 537b a4b5
00000170: 1ad4 e1b4 b00a 7335 78b9 f535 e60e 8534
00000180: a7f1 9634 3071 0f34 9b59 b635 0a6c d435
00000190: 2a09 0435 3801 edb3 0e77 8535 dd90 de34
000001a0: 4b45 4135 c9fc 81b4 c201 ae32 7ac3 3f34
000001b0: d87c ac34 648a a1b4 7b31 8f35 d5d5 e7b4
000001c0: d318 8935 e8e4 1a34 3424 0435 d793 7db4
000001d0: 2050 47b5 6d53 2235 fc8c 2e35 f1f0 5634
000001e0: 679c 2a35 a58f a4b4 1305 acb4 c1d9 0cb6
000001f0: 4e98 2036 80b1 52b5 7b54 b834 50bb f6b3
00000200: 13ab 2135 d036 e533 d047 a7b5 9826 1db5
00000210: 711b 98b5 6a80 34b5 1950 0234 b900 2d34
00000220: 502e af34 e510 ce34 2459 e134 1041 be35
00000230: d73d ac32 cf0d 78b3 6be5 4d35 4349 ecb4
00000240: 6b38 01bb 108e 8fb4 a04d eeb8 86ca 213a
00000250: 83f7 11b8 eff2 cfb9 136f 583a f70d 36ba
00000260: 715e 2cbb 028b 01bb 092b 0f35 efae c2ba
00000270: 8fbf acb9 7726 a1ba 550c 0cba dbf5 933a
00000280: 55cc 4d39 7ed6 d339 6800 b936 bd87 e2b9
00000290: 4234 253a f941 baba 23b9 09b8 e835 18ba
000002a0: 5f95 093a 9f04 063b 4c5a 7eb7 bdd3 bdba
000002b0: 2c26 6439 f295 7c34 0e58 ed33 ae5e 85b5
000002c0: 6fd2 a4ba 8f3e 09bb 9da3 1a3b 1728 7535
000002d0: 1eb1 4339 bf0d 5bba 753c 8ab9 41e6 7b36
000002e0: c9ce c136 0a7c 7637 1d2d 1ab5 ea86 f3b8
000002f0: e34f aa3a 42b9 12ba 14d8 b0ba bff6 c639
00000300: 9413 e8b8 3533 9cb9 d481 45b8 7dda 76ba
00000310: e013 a7b9 2dc0 a9b8 dd10 5534 a872 fcb7
00000320: 420d 80ba 617a 073b 8302 a0b9 3dd3 d7ba
00000330: f461 db3a 5ab8 40b8 dd57 2c35 8c99 823a
00000340: eabf feba 37eb 1bbb c288 42bb f20e 6cba
00000350: f633 4cbb cfc0 32ba 325b 85ba 1744 d83a
00000360: ea90 66bb 8497 5eb3 ea19 ddb9 b726 60ba
00000370: cb32 abba a331 51b8 b6b5 ddb8 0007 9eba
00000380: f5a6 e8b8 5b82 56ba c735 98b4 ba51 77ba
00000390: 7530 c1b9 8811 67ba 6967 933a 398d 1fba
000003a0: 4d67 9939 f68b 803a ffee ad34 9e82 1f39
000003b0: 9431 b338 7cda 8b39 6f10 eab9 7daa 9938
000003c0: 8e26 d438 7b6d 83ba 0e67 78b6 6b7d 03b9
000003d0: e5b5 383a 6dbb 86b4 e2ae 2eb4 5073 1a36
000003e0: cee2 d8b9 9f6a 9739 4017 7e3a 2df4 7c33
000003f0: f147 a038 8510 593a 375f 2bba e3e1 3d36

convs.4.weight f4 [72, 72]
-0.0012244494 2.7158174e-07 0.0006963448 0.0007012717 -0.00019656931 -0.00119839 0.00018050298 -0.0004792106
-9.667868e-05 -0.0017948452 1.4068195e-06 -0.0018477574 0.00092056126 0.0010370995 0.0019685675 -0.000495616
-1.6381573e-05 0.002188836 7.799965e-06 0.0007292895 -9.9817866e-05 -0.0012687164 -5.168375e-05 9.9651865e-05
4.0668227e-05 0.0026559446 -1.6639697e-05 0.001560626 0.000527715 -1.4664247e-06 -7.838573e-07 1.9264744e-06
-0.00041439245 -0.0024617782 0.0022083106 -1.5422131e-08 -0.00063819013 0.00054149 0.00016725485 8.735136e-06
9.39708e-07 -8.294479e-06 1.8799273e-07 0.0030574293 0.00059619214 -0.002612366 -0.001673346 0.0028590257
-0.00016411005 -0.0010951055 6.302928e-05 0.000584395 0.0010151726 0.0010257801 6.331793e-08 -0.0007434729
0.0005226893 -0.0020091867 0.00040202297 -0.0018860936 0.0016346191 -0.001593777 -6.6888515e-07 0.00056231354
-0.0019491122 -0.003718347 -0.0032753174 2.1196924e-05 0.00085254153 -0.0009947818 0.00188541 0.00065135077
-4.0812554e-07 4.3224856e-07 -8.9974964e-07 -4.0709315e-07 7.414697e-09 -1.2369161e-06 -2.0095534e-07 1.2894054e-07
2.416388e-07 7.0937415e-07 1.3495055e-07 8.787005e-07 1.4115601e-07 -1.4216711e-07 -1.1035004e-06 7.127126e-08
2.4924623e-07 2.2102888e-07 4.7204847e-07 7.26776e-08 -3.1466e-07 -2.4379742e-07 -2.375531e-06 -1.2939583e-06
-1.4630233e-07 -1.07957774e-07 -1.5855197e-06 1.6322954e-07 2.4017475e-06 2.513829e-07 2.2796705e-07 7.717312e-07
9.3346495e-07 7.183703e-07 1.0965133e-06 -1.8935309e-07 -1.3898946e-06 9.079794e-07 2.0294043e-07 9.1706374e-07
2.3837338e-06 -1.1179606e-06 7.608083e-07 -2.2375725e-06 4.109645e-07 5.6203464e-07 -1.397654e-07 -4.0036403e-07
-1.6654004e-06 1.7960409e-06 1.9989713e-07 -2.8865077e-08 -2.647441e-07 -1.8850318e-07 9.852267e-07 1.9929166e-06
1.9460755e-07 1.1366149e-06 -7.711169e-07 -4.6238563e-07 -2.1059745e-06 2.7257062e-07 -1.9482431e-07 1.9027426e-07
-8.9423014e-07 -3.5162807e-07 -4.97554e-08 -1.0186962e-07 -7.2219945e-07 1.3181572e-07 3.334728e-07 -7.6620097e-07
-0.002470755 5.0824616e-07 0.0009253723 -0.00041271994 -0.0011450774 -0.00079513143 0.0013209387 -0.0004853485
0.0002941991 -0.0009369135 3.7128703e-07 -0.0023417328 -0.00026479684 -0.00022165601 0.0010457174 0.0010634909
9.4694245e-05 -0.0010705949 1.6942438e-05 -0.0008195586 0.0005239032 -0.0008193727 -0.00089863775 0.00020911226
0.00028464213 0.0029060536 9.100611e-06 0.0010651593 0.0010051593 -1.4775283e-06 1.340055e-06 -1.3389208e-06
-0.00021133178 -0.001802729 -0.0010888679 1.2113377e-06 0.00018258074 -0.00055088056 0.0016158622 3.5011082e-05
2.2915034e-05 -7.571059e-06 1.2309016e-07 0.0017498157 6.450347e-05 -0.0009760682 -0.0021118983 0.0003969821
-2.4219222e-05 -0.0009775095 -3.507036e-05 -0.00023719385 0.0016888201 0.0009416599 2.4164115e-06 0.0015875085
-0.0009689776 -0.0018209604 0.0009030094 -0.00035851847 0.0008675461 -0.00016982439 -4.3291443e-08 -5.7468995e-05
-0.00077076623 0.00024186098 -0.0034985626 0.0006225576 -0.0004324322 0.00026339342 -0.0007545423 -0.0036817347
-0.0013745892 -1.3506219e-06 0.0010550686 0.0003639221 -0.0005181207 -0.00090616907 0.00046348214 -0.00026445257
-7.74781e-05 -0.00062546245 7.8830396e-07 -0.0014864774 -0.0002570874 3.522024e-05 -0.000109595036 -0.0011527363
0.0015823761 0.0023690874 -2.8356633e-06 -0.0002275863 0.0002742764 0.00022179485 -0.0004956088 6.713223e-05
0.00014779565 0.0038770519 -1.1540333e-06 -5.977152e-05 0.0006581837 1.9535499e-07 1.2305394e-06 1.5501872e-07
0.003214207 -0.001099965 0.0012349616 -3.1259782e-07 -2.125758e-05 -0.0003622558 -0.00058765686 2.9061034e-06
00000000: b47d a0ba e9cd 9134 e98a 363a 8cd5 373a
00000010: 2c1e 4eb9 4c13 9dba 6645 3d39 8f3e fbb9
00000020: f9bf cab8 0341 ebba f3d1 bc35 7330 f2ba
00000030: d251 713a 49ef 873a 1503 013b 3aec 01ba
00000040: 296b 89b7 9372 0f3b 98dc 0237 ca2d 3f3a
00000050: 4f55 d1b8 0f4b a6ba 01c7 58b8 30fc d038
00000060: 2d93 2a38 5b0f 2e3b 7a95 8bb7 eb8d cc3a
00000070: 5b56 0a3a f8d1 c4b5 436a 52b5 9448 0136
00000080: d042 d9b9 c955 21bb 4eb9 103b a079 84b2
00000090: 374c 27ba c7f2 0d3a 2261 2f39 208d 1237
000000a0: 3e40 7c35 8428 0bb7 0cdb 4934 275f 483b
000000b0: c749 1c3a 3b34 2bbb 2d54 dbba 7e5e 3b3b
000000c0: f514 2cb9 a589 8fba 962e 8438 1632 193a
000000d0: 8a0f 853a 7873 863a 66f9 8733 9fe5 42ba
000000e0: 1605 093a 8fac 03bb 9cc6 d239 cd36 f7ba
000000f0: b740 d63a 48e6 d0ba 708d 33b5 3968 133a
00000100: 5a79 ffba 83af 73bb b5a6 56bb 0cd0 b137
00000110: 187d 5f3a 5763 82ba dd1f f73a 69bf 2a3a
00000120: 591c dbb4 ca0f e834 5386 71b5 758e dab4
00000130: 5dc4 fe31 1d04 a6b5 2fc6 57b4 e872 0a34
00000140: 95ba 8134 d26b 3e35 ede6 1034 d7df 6b35
00000150: ab90 1734 99a6 18b4 fc1b 94b5 ca0d 9933
00000160: 24d0 8534 f553 6d34 d96d fd34 ef12 9c33
00000170: 8bee a8b4 43e3 82b4 506b 1fb6 12ac adb5
00000180: 4717 1db4 6ad6 e7b3 0bce d4b5 3244 2f34
00000190: b52d 2136 cdf5 8634 1bc7 7434 f728 4f35
000001a0: 3993 7a35 08d6 4035 e92b 9335 fb50 4bb4
000001b0: 6a8c bab5 dfbb 7335 d7e7 5934 242c 7635
000001c0: 3cf8 1f36 d50c 96b5 593a 4c35 3429 16b6
000001d0: 88a2 dc34 bade 1635 6c12 16b4 9df1 d6b4
000001e0: b986 dfb5 7f0f f135 4ea3 5634 faf2 f7b2
000001f0: 2722 8eb4 5c67 4ab4 223c 8435 0cbe 0536
00000200: 51f5 5034 ca8d 9835 c0fe 4eb5 cc3d f8b4
00000210: 5e54 0db6 d255 9234 e630 51b4 314e 4c34
00000220: 070b 70b5 65c7 bcb4 a4b2 55b3 6ac3 dab3
00000230: 2bdd 41b5 3b89 0d34 2708 b334 eeac 4db5
00000240: 64ec 21bb 696e 0835 af94 723a 5562 d8b9
00000250: 6c16 96ba 5e70 50ba 5923 ad3a 5f76 feb9
00000260: bc3e 9a39 339b 75ba 4d55 c734 c277 19bb
00000270: 6ed4 8ab9 556c 68b9 7410 893a d564 8b3a
00000280: 9696 c638 3453 8cba 9c1f 8e37 a6d7 56ba
00000290: 8c56 093a 2ccb 56ba 8f92 6bba 2545 5b39
000002a0: 053c 9539 7d73 3e3b d4ae 1837 d19c 8b3a
000002b0: 8dbf 833a 7c4f c6b5 f0db b335 f8b4 b3b5
000002c0: f198 5db9 8c49 ecba 58b8 8eba 3f95 a235
000002d0: 2573 3f39 f868 10ba 57cb d33a ddd8 1238
000002e0: a939 c037 e70a feb6 c42a 0434 125a e53a
000002f0: 0946 8738 d4de 7fba c667 0abb 0922 d039
00000300: 622a cbb7 c71f 80ba 8318 13b8 3db7 78b9
00000310: 665b dd3a bad9 763a a229 2236 f213 d03a
00000320: fc02 7eba 4bad eeba efb7 6c3a 89f7 bbb9
00000330: 096c 633a e312 32b9 72ef 39b3 dd0a 71b8
00000340: 3f0d 4aba 109c 7d39 2448 65bb 2233 233a
00000350: 11b8 e2b9 1118 8a39 7acc 45ba 4249 71bb
00000360: 8f2b b4ba 0447 b5b5 3a4a 8a3a cccc be39
00000370: 7ed2 07ba fa8b 6dba 85ff f239 39a6 8ab9
00000380: bd7b a2b8 13f6 23ba d69b 5335 e8d5 c2ba
00000390: b0c9 86b9 72b9 1338 63d6 e5b8 6917 97ba
000003a0: bb67 cf3a b142 1b3b 534c 3eb6 3ba4 6eb9
000003b0: c1cc 8f39 9a91 6839 beeb 01ba 57c9 8c38
000003c0: 98f9 1a39 2316 7e3b 48e4 9ab5 2eb3 7ab8
000003d0: f689 2c3a c5c2 5134 0329 a535 3973 2634
000003e0: 72a5 523b b32c 90ba 6fde a13a 1ed3 a7b4
000003f0: 4e52 b2b7 27ed bdb9 fc0c 1aba 7a06 4336

convs.5.weight f4 [72, 72]
-0.002887955 9.814158e-07 -0.0017578121 0.0007071425 -0.00017701143 -0.0008008684 0.00014768746 -0.00059431075
-0.00023812312 -0.0015288484 -2.3369514e-06 -0.0013135247 0.0009836297 -0.0005633253 -0.0010565728 -0.002709392
-0.0021749712 0.00010472061 -3.3412787e-06 -0.00027611482 -0.00031730562 -0.0013189839 -0.00041187156 6.506598e-05
-0.0016001106 -0.0016981537 -1.06951065e-05 0.00014258563 -0.0004157272 7.909909e-08 7.894916e-07 -1.86317e-06
-0.0011251234 2.8172366e-05 0.0008694991 1.912035e-08 0.00014480723 -0.00038093835 -0.00013299492 4.6886757e-06
8.315029e-06 1.0743228e-05 -2.0308387e-06 -0.00044677182 0.00067066454 -0.001597924 -0.001338339 -1.4636904e-05
-7.905353e-05 -0.0005727412 1.7359826e-05 -0.00014359642 7.199478e-05 -0.0013123896 5.9986047e-07 -0.00069365726
-0.0012039689 0.0036989825 0.00068846165 -0.001377181 0.00058843696 -2.0529376e-05 -1.7410242e-07 0.00061525096
-0.002750195 0.0005675588 -0.0026136166 -0.0011330778 0.000912093 -0.001723136 -0.0007110076 0.0013452591
-6.765784e-07 -5.543556e-07 -2.5660768e-07 1.3418594e-07 -3.7685103e-07 1.0709703e-07 1.6337009e-06 2.0285786e-09
1.2804451e-06 -3.639669e-07 3.8442586e-08 -2.164788e-07 -9.180535e-07 -7.011241e-07 2.1181525e-06 1.0922856e-06
-1.7890093e-07 -2.9902506e-07 2.3983866e-06 1.9620597e-07 1.8786976e-06 3.401581e-07 -3.7838194e-07 5.991519e-07
-4.6811653e-07 -1.3360012e-06 -1.174222e-06 9.7211775e-08 -1.8287634e-06 -4.0441456e-08 1.1414664e-06 1.0364381e-06
-7.3572045e-07 5.149601e-07 -3.2346804e-07 -6.4243716e-07 -2.7598466e-07 -4.5859642e-07 -1.5308335e-06 1.0270263e-06
7.1375375e-08 9.0396435e-07 3.5791817e-07 1.1691831e-06 -5.609707e-07 8.012124e-08 -1.1348623e-06 4.762299e-07
-1.7286276e-06 -5.805901e-07 -6.8784925e-07 1.9911155e-07 -3.6443856e-07 2.1210677e-07 -1.6912012e-06 1.6429145e-06
1.5107091e-06 -6.477809e-07 3.4150725e-07 3.024086e-07 -1.7015032e-06 -1.360319e-06 6.2492325e-07 -1.2447347e-06
5.132265e-07 -1.3883075e-06 -2.1856624e-06 -6.56514e-07 7.696439e-07 -3.1962603e-07 1.2402951e-06 4.0951798e-07
-0.004088873 -7.7272404e-07 9.1790855e-05 0.0006578989 -0.000107527594 -0.0007465328 -0.0001529099 -0.00057610375
0.00021881444 -0.001622197 2.2194902e-06 -0.0031728852 -0.00046539644 -0.0011977674 -0.0012507377 0.001192627
0.000403828 0.002329943 -1.8808803e-06 9.9064484e-05 0.00057213695 -0.0021015923 -0.0001256869 0.00020955695
-3.6223238e-07 0.00478972 -1.8254714e-06 3.0911455e-05 -0.00035707327 -3.9620307e-08 -2.891008e-07 1.1516647e-06
-0.0010571616 -0.0020684565 0.0012623123 -1.0748923e-06 -0.0010079042 7.80824e-05 0.0009341547 3.7313348e-06
-3.377825e-05 -5.1508446e-06 1.579441e-08 -0.00046614438 5.004445e-05 -0.0004829235 -0.0012614661 0.00055545545
-0.0004675015 -0.00020016059 0.00010536268 -0.0017214533 0.00053178094 0.0010288899 1.9866761e-06 -0.000766783
-0.0010037099 -0.00029176063 0.001105244 7.103456e-05 0.00023546246 -0.0004930239 -1.2210365e-06 0.00074611075
-0.0020374337 -0.0001358057 -0.003148901 -0.0011475557 0.00021812889 -0.0011427966 -0.0030433051 0.0006540362
-0.00057447964 3.4229112e-07 0.0007706659 0.00081617146 -4.3357915e-05 -0.00045306192 -1.4544252e-05 -0.00017353713
-0.00077080255 -0.00078377494 -9.848088e-07 -0.00089200353 -0.00013303464 9.979727e-05 0.0009505774 0.00063549384
0.00091795216 0.0023514125 -2.138618e-06 1.15739795e-05 0.00036094442 0.0002923185 3.6958647e-06 9.438536e-05
0.00017420024 -0.00068650144 1.518814e-05 -9.602159e-05 0.00024785026 6.9603215e-07 -6.082847e-11 2.798336e-07
-0.0003950515 -7.849572e-05 0.0014836747 4.1243928e-07 5.1114337e-05 0.00022115686 0.0020808047 6.8278323e-06
00000000: d843 3dbb 31b9 8335 6366 e6ba 885f 393a
00000010: 259c 39b9 5ef1 51ba 8ddc 1a39 85cb 1bba
00000020: b0b0 79b9 a463 c8ba 85d4 1cb6 932a acba
00000030: 23ed 803a 1fac 13ba b37c 8aba 0e90 31bb
00000040: f689 0ebb 739d db38 bb3a 60b6 81c3 90b9
00000050: 0a5c a6b9 c1e1 acba 77f0 d7b9 0874 8838
00000060: cdba d1ba 9594 deba 226f 33b7 0a83 1539
00000070: f6f5 d9b9 2fdd a933 73ed 5335 0912 fab5
00000080: e078 93ba b253 ec37 19ef 633a 183e a432
00000090: 65d7 1739 aeb8 c7b9 8d74 0bb9 6b53 9d36
000000a0: c780 0b37 d03d 3437 8b49 08b6 b33c eab9
000000b0: 89cf 2f3a 6f71 d1ba 346b afba 0691 75b7
000000c0: 8ac9 a5b8 0324 16ba f19f 9137 5f92 16b9
000000d0: e7fb 9638 7d04 acba 1906 2135 8dd6 35ba
000000e0: 7ece 9dba a16a 723b e179 343a 8782 b4ba
000000f0: 5641 1a3a 8036 acb7 e9f0 3ab4 cb48 213a
00000100: 9e3c 34bb 3ac8 143a 3649 2bbb c883 94ba
00000110: 8619 6f3a dada e1ba ea62 3aba 6853 b03a
00000120: 1d9e 35b5 07cf 14b5 e4c3 89b4 c014 1034
00000130: 0352 cab4 37fd e533 8945 db35 2267 0b31
00000140: c2db ab35 3b67 c3b4 121c 2533 3d71 68b4
00000150: 2870 76b5 e234 3cb5 9525 0e36 a69a 9235
00000160: ea17 40b4 b189 a0b4 f8f3 2036 b0ac 5234
00000170: 8f27 fc35 f99e b634 6b24 cbb4 68d5 2035
00000180: 7251 fbb4 a750 b3b5 f699 9db5 bdc2 d033
00000190: d573 f5b5 dab1 2db3 7d34 9935 be1b 8b35
000001a0: 537e 45b5 ca3b 0a35 1ca9 adb4 f273 2cb5
000001b0: 0b2b 94b4 0335 f6b4 0a77 cdb5 5bd8 8935
000001c0: 0747 9933 f5a7 7235 e627 c034 d3ec 9c35
000001d0: 9d95 16b5 1e0f ac33 9251 98b5 8aac ff34
000001e0: 3103 e8b5 d9d9 1bb5 a4a4 38b5 5ecb 5534
000001f0: 0ea8 c3b4 77bf 6334 3bfd e2b5 1d82 dc35
00000200: 92c3 ca35 2ae3 2db5 6658 b734 b95a a234
00000210: 345f e4b5 3494 b6b5 66c0 2735 c210 a7b5
00000220: a8c4 0935 e255 bab5 65ad 12b6 4c3b 30b5
00000230: 8799 4e35 1199 abb4 3778 a635 b9db db34
00000240: f4fb 85bb 316d 4fb5 d77f c038 d976 2c3a
00000250: 7080 e1b8 f8b2 43ba 7056 20b9 ab05 17ba
00000260: 8e71 6539 e69f d4ba 8df2 1436 2ef0 4fbb
00000270: 7400 f4b9 68fe 9cba cbef a3ba ec51 9c3a
00000280: e0b8 d339 f5b1 183b 8e72 fcb5 d7c0 cf38
00000290: 76fb 153a deba 09bb d2ca 03b9 84bc 5b39
000002a0: d778 c2b4 15f3 9c3b b802 f5b5 eca6 0138
000002b0: 9035 bbb9 fd2a 2ab3 b635 9bb4 e692 9a35
000002c0: 7590 8aba f18e 07bb 2c74 a53a 0545 90b5
000002d0: a71b 84ba 2bc0 a338 10e2 743a d867 7a36
000002e0: 1fad 0db8 6bd5 acb6 46ac 8732 d764 f4b9
000002f0: d2e6 5138 e530 fdb9 c757 a5ba fc9b 113a
00000300: fd1a f5b9 33e2 51b9 28f6 dc38 63a2 e1ba
00000310: 3767 0b3a d1db 863a d652 0536 f001 49ba
00000320: ea8e 83ba 73f7 98b9 d6dd 903a 64f8 9438
00000330: 79e6 7639 463e 01ba 7fe2 a3b5 a596 433a
00000340: 7786 05bb 1167 0eb9 cb5d 4ebb 9469 96ba
00000350: 87b9 6439 e4c9 95ba 3072 47bb a073 2b3a
00000360: ad98 16ba 22c4 b734 8306 4a3a 57f4 553a
00000370: 35db 35b8 f188 edb9 1603 74b7 85f7 35b9
00000380: af0f 4aba 3f76 4dba c62d 84b5 58d5 69ba
00000390: 377f 0bb9 404a d138 2b30 793a 4597 263a
000003a0: baa2 703a 281a 1a3b 2d85 0fb6 dd2d 4237
000003b0: 243d bd39 5342 9939 7906 7836 c1f0 c538
000003c0: 85a9 3639 55f6 33ba 91d0 7e37 335f c9b8
000003d0: e6f1 8139 f7d6 3a35 62c3 85ae 0a3c 9634
000003e0: ea1e cfb9 129e a4b8 dd77 c23a 396d dd34
000003f0: 9a63 5638 58e6 6739 1c5e 083b a21a e536

convs.6.weight f4 [72, 72]
-0.004293847 -1.6519838e-06 -0.00046151617 0.0007298795 -0.0011248708 -0.0009029603 0.0011486644 -0.00026289403
4.922288e-05 -0.0020035703 -2.2682077e-07 -0.0013888553 -0.00041813223 -0.000109566696 -0.0010009716 -0.0006929035
-0.00010027214 -0.0004733894 5.79245e-06 -0.00035706031 0.00052783295 -0.0008357289 -0.00058427756 0.00011909529
0.0002278441 -0.0019624326 -1.0587008e-05 0.00037544782 -0.00022734789 2.0364757e-06 1.3705505e-06 1.8541695e-06
0.0018719194 -0.0031769169 0.0008643479 -8.511044e-07 -0.00023824729 -0.0002452619 -0.0005512672 7.660517e-06
1.0423411e-05 8.5687925e-06 -4.7678725e-07 -0.002322954 -7.767467e-05 -0.0006178975 -0.0015971423 0.003037261
-0.00022891078 0.0013752761 9.812398e-05 1.3718478e-05 -0.0012975065 0.0013987339 2.3813152e-07 -0.0008452593
-0.0012518108 0.0013044744 -0.00092779903 -0.0019061501 6.783655e-05 -0.0015035586 3.8758236e-07 -0.00052461465
-0.0026867278 -0.0037210772 -0.0054722945 0.00068690296 -0.001587828 4.3884917e-05 -0.0011782837 0.0008049942
-1.6803942e-06 -1.077027e-06 1.2441606e-06 -6.796212e-07 1.4592106e-06 -4.531745e-07 -4.890559e-07 -9.587206e-07
-8.525311e-07 3.8891108e-07 1.053122e-06 2.1165595e-06 2.4389576e-07 3.3459156e-07 -1.770596e-06 -1.0015224e-06
1.598463e-08 1.9761738e-07 -3.8269198e-07 -9.923686e-08 -7.1412165e-07 1.036581e-06 7.8755085e-07 8.4402257e-07
-1.0051242e-06 -4.4438846e-07 5.287899e-07 -1.9451054e-06 4.163348e-09 -1.1544871e-06 8.0631906e-07 1.947189e-06
1.2091969e-06 1.9542006e-07 -6.8333117e-07 -1.0186178e-07 -8.440907e-07 5.922449e-07 1.149748e-06 1.4444757e-06
1.5378947e-06 -1.2742861e-06 4.1597567e-10 -3.6925942e-07 6.9572354e-07 -1.1345553e-06 -3.5004393e-07 7.006249e-07
1.1601687e-08 1.5103623e-07 1.2345691e-07 6.112197e-08 -1.661459e-07 3.526411e-07 7.722692e-07 1.3570369e-06
-1.8645075e-06 1.0255986e-06 9.106256e-08 2.9991497e-07 -5.2521773e-07 1.2077197e-06 7.0201037e-07 -8.1141474e-07
-6.70685e-07 2.0217287e-06 -2.060306e-06 -2.5176888e-08 -1.3213938e-06 1.7281087e-07 -1.6527939e-06 -3.0543154e-07
-0.0035842434 1.8166345e-06 0.00031697133 -0.0015946452 -0.0006737444 -0.00020525363 0.0011852058 0.0012661311
-0.00010814474 -0.0022136401 1.2262278e-06 -0.0027858596 0.0011707043 -0.00094909273 0.0012036959 -0.0008826006
0.0002138891 -0.0007470606 3.8921394e-06 4.959064e-05 0.0005263961 -0.0012212715 -0.00029350264 0.00017003616
-0.0025130794 -0.0014832626 1.8482182e-05 0.0010519113 0.00038780452 1.0394593e-06 -1.6959244e-06 -6.953075e-08
0.004394953 -3.0130022e-05 0.0022327087 -2.071923e-06 0.00015998469 -0.0002742454 0.0014715701 7.527016e-06
2.2233942e-06 1.0045247e-05 -1.0138546e-06 -8.636745e-05 0.00086868583 -0.00048546525 -0.0022688264 -0.00016783188
0.0007974008 -0.0007855533 -0.00021649648 -0.0023881195 -0.0022248365 0.0014120035 -9.668454e-08 -0.0008453367
-0.0011203701 0.0023694686 -0.00018664861 -0.0015753122 4.7243843e-06 -0.0013718897 -2.9836062e-07 0.0008579523
-0.004547399 0.0009284709 -0.002900745 -0.0011899068 0.00082764 -0.0008956524 -0.0010631796 -0.0030815373
-0.003388016 1.3982666e-06 -7.7015255e-05 -0.0014473661 -0.00019298178 -0.0008542223 -0.0011246135 -0.00017734517
-0.0005319555 -0.0014857686 -1.0499585e-07 -0.001437408 0.0005874499 -0.00061126146 0.00030835214 0.00071445457
0.00045797235 0.00016640192 1.9189545e-06 7.156603e-05 8.4962136e-05 4.6952893e-05 -0.00014717087 -0.00039291405
0.00023028815 0.00054613076 -1.9745853e-06 0.00038812542 -0.00035268132 -4.9861893e-07 -1.6910255e-06 -9.2769625e-07
-0.00014476894 -4.9645085e-05 0.00019945278 -1.5312673e-06 0.000104470324 -0.0003167639 0.0001223134 3.8453636e-06
00000000: 66b3 8cbb bbb9 ddb5 a7f7 f1b9 6255 3f3a
00000010: 6770 93ba a4b4 6cba c88e 963a 0ad5 89b9
00000020: aa74 4e38 554e 03bb 058c 73b4 400a b6ba
00000030: c238 dbb9 2cc7 e5b8 0933 83ba f7a3 35ba
00000040: 3249 d2b8 4031 f8b9 c45c c236 d333 bbb9
00000050: 455e 0a3a d114 5bba 342a 19ba ccc2 f938
00000060: 6fe9 6e39 289c 00bb da9e 31b7 c1d7 c439
00000070: 3c64 6eb9 63aa 0836 c2f3 b735 c7dc f835
00000080: 315b f53a d233 50bb 6895 623a 7377 64b5
00000090: 05d2 79b9 7f96 80b9 ea82 10ba ac85 0037
000000a0: 36e0 2e37 afc2 0f37 24f9 ffb4 b33c 18bb
000000b0: 45e5 a2b8 66fa 21ba 3457 d1ba c90c 473b
000000c0: c507 70b9 9c42 b43a e9c7 cd38 6a28 6637
000000d0: 1811 aaba b955 b73a 18b1 7f34 6494 5dba
000000e0: cd13 a4ba e6fa aa3a 8a37 73ba c9d7 f9ba
000000f0: 7843 8e38 0e13 c5ba ea14 d034 4b86 09ba
00000100: d013 30bb 51dd 73bb ef50 b3bb 4711 343a
00000110: ab1e d0ba 1211 3838 a470 9aba 3f06 533a
00000120: e889 e1b5 5e8e 90b5 08fd a635 376f 36b5
00000130: 18da c335 d44b f3b4 aa47 03b5 64ad 80b5
00000140: 7ed9 64b5 88cb d034 ff58 8d35 370a 0e36
00000150: c7f0 8234 eaa1 b334 37a5 edb5 0c6c 86b5
00000160: 934e 8932 a730 5434 c974 cdb4 0a1c d5b3
00000170: 11b2 3fb5 a720 8b35 1568 5335 ca90 6235
00000180: cee7 86b5 4994 eeb4 2af2 0d35 a888 02b6
00000190: 320d 8f31 e0f3 9ab5 d371 5835 74ac 0236
000001a0: b04b a235 a8d4 5134 296e 37b5 1bbf dab3
000001b0: 7995 62b5 c2fa 1e35 0a51 9a35 cfdf c135
000001c0: a969 ce35 2308 abb5 5faf e42f a13e c6b4
000001d0: c2c1 3a35 0647 98b5 aced bbb4 9412 3c35
000001e0: c250 4732 862c 2234 948f 0434 2942 8333
000001f0: d665 32b4 a052 bd34 ef4d 4f35 6f23 b635
00000200: fd3f fab5 4da7 8935 2c8e c333 0004 a134
00000210: b0fc 0cb5 ef18 a235 c971 3c35 ffcf 59b5
00000220: 1f09 34b5 09ad 0736 ca43 0ab6 9044 d8b2
00000230: bf5a b1b5 e48d 3934 91d5 ddb5 31fa a3b4
00000240: a0e5 6abb 16d3 f335 2c2f a639 6a03 d1ba
00000250: 399e 30ba 5a39 57b9 e858 9b3a 4ff4 a53a
00000260: c4cb e2b8 b812 11bb de94 a435 f892 36bb
00000270: 5172 993a 89cc 78ba 55c5 9d3a 535e 67ba
00000280: 6b47 6039 63d6 43ba 3999 8236 8bff 4f38
00000290: d8fd 093a 1213 a0ba 42e1 99b9 bc4b 3239
000002a0: 7ab2 24bb 096a c2ba 2f0a 9b37 49e0 893a
000002b0: 3e52 cb39 8d83 8b35 859f e3b5 ef50 95b3
000002c0: 8a03 903b bbbf fcb7 a352 123b 5e0b 0bb6
000002d0: 90c1 2739 98c8 8fb9 b3e1 c03a 9390 fc36
000002e0: 9f35 1536 0288 2837 c713 88b5 2c20 b5b8
000002f0: 85b8 633a 0b86 feb9 97b0 14bb 07fc 2fb9
00000300: a908 513a 97ed 4dba 5503 63b9 ff81 1cbb
00000310: 90ce 11bb fa12 b93a e3a0 cfb3 9699 5dba
00000320: 62d9 92ba 1649 1b3b 1bb7 43b9 b57a ceba
00000330: 2786 9e36 fbd0 b3ba 5f2e a0b4 34e8 603a
00000340: 5902 95bb a164 733a 6d1a 3ebb a6f6 9bba
00000350: fbf5 583a 37ca 6aba 635a 8bba 9ef3 49bb
00000360: 7a09 5ebb 13ac bb35 4083 a1b8 8cb5 bdba
00000370: 275b 4ab9 e3ed 5fba c467 93ba bbf5 39b9
00000380: ee72 0bba 1fbe c2ba 147a e1b3 6967 bcba
00000390: 18ff 193a 103d 20ba 53aa a139 3c4a 3b3a
000003a0: 021c f039 2d7c 2e39 63c7 0036 b815 9638
000003b0: b32d b238 49ef 4438 e151 1ab9 0800 ceb9
000003c0: 8179 7139 372a 0f3a 1e83 04b6 507d cb39
000003d0: 16e8 b8b9 d5d8 05b5 32f7 e2b5 cd06 79b5
000003e0: 1ecd 17b9 013a 50b8 3324 5139 f285 cdb5
000003f0: 1417 db38 5513 a6b9 4141 0039 6c07 8136
