checkpoint/Wikipedia/20231105_160009835295.pth (torch, 339335 bytes, 18 tensors)

convs.0.weight f4 [72, 138]
00000000: 408d 813c e624 473c 321e 1b3e 74d8 8e3d
00000010: 085c 673d 43d3 c03b 1ca6 033e d852 263d
00000020: 9dc3 493d 0df8 843d 8443 c23d f6d1 40bd
00000030: 6760 ea3c ec61 413d 36f1 343d b71e 11bd
00000040: 373c 713d ba8e 93bd 4ef0 083e cea7 8a3c
00000050: eefd 903d 189e 9c3d c465 af3d 0b70 9d3c
00000060: 43a0 ed3c 1d5b e23c 2adb c93c ff44 b3bd
00000070: 7052 a03d c661 ad3d da1e 983d 4870 283d
00000080: 7fe7 123d bace 433d af84 b53d c7e2 7ebc
00000090: b185 0a3e e82b 103e d8a9 963c b7b9 c23d
000000a0: 2185 fc3d 9317 8d3c 91ba ba3d 3b6b 2d3b
000000b0: da11 863c b6cc a5bd 128f 8c3d f99f 7d3b
000000c0: 3728 303d 18d1 29bd b61d 173e b117 863d
000000d0: 4438 573d 03c8 3d3d 412f 7b3b 2b55 583d
000000e0: 359f b83d 791e 3ebc 5bf5 8c3c ff17 883d
000000f0: f6ff d03d 7a58 c7bb 4cee 7b3c aea8 90bc
00000100: 367a fd3b b9e2 f2bc f3b4 9a3d 7b9f e53d
00000110: d89f df3d 37ba acbc 437f a83d 3503 1f3d
00000120: 4fa9 d73c 6278 a03d 3ced 7c3d 208c 65bd
00000130: b229 be3d 70f9 033d e3bc 7e3d d535 e3bc
00000140: c6e9 7c3d 7ce9 48bd 5356 dd3d 4402 093d
00000150: 71f7 a23b 9d59 b33c da04 b23d 58db 543d
00000160: 4f2a 5b3d 9527 fdbc bf29 a53d 7203 04bd
00000170: 815a a73c 2e1e ffbc 02b3 513d 1bc3 0d3c
00000180: 9cc2 923d e9c6 573c 52bf ca3c ca7a d8bc
00000190: e4d3 0c3e 0c31 7f3d 63e8 01bd fc70 2a3d
000001a0: c21f 923d 2a12 403a cea5 a13d 3038 03bc
000001b0: e339 2bbb 3688 4fbd 9876 07bd 06dd ccbb
000001c0: 8ff8 c23d 0e48 d1bd d670 003e e727 aa3c
000001d0: 4f41 093c 7c70 3fbd ebfd 2cbb 3a86 653d
000001e0: 869f 963d e43a 7ebc 0c1b 45bc 20a8 1f3a
000001f0: a758 d83d 7281 58bd 53b5 b1bb 114e c6bd
00000200: a4bb ea3d 34b6 643d 512f 67bc 023e bd3d
00000210: 4eca e73b fe02 a3bd 44ec 223d d64b 9c3e
00000220: 5dfa 473d 4620 04bd 53eb 443d d394 123e
00000230: 6f14 233e a334 e03d a47a 003d a0d1 8a3c
00000240: d159 1a3e 6022 b73d a9ac 953d 7388 b33d
00000250: 28c9 883d 8d36 9ebc c335 cc3c 7939 e43d
00000260: 60d5 dd3d 8ebc dfbc 64cf 763d b76d b2bd
00000270: 5ee0 293e 5a04 f2bb f5cf b33d 6d4d 7c3d
00000280: 3c48 5d3d 15f9 313d 4315 b43d 7172 843d
00000290: 3973 5a3d 7bd4 08bd 3942 5a3d 1f55 863d
000002a0: 74d7 843d 170e 3a3d 2d5d 0b3e b784 5a3d
000002b0: 13c2 d53d c694 93bb d662 4a3e aa28 2c3e
000002c0: 6c7b 943d 451b 083d 713c 5c3e 21d3 ef3d
000002d0: 5de3 3d3d 5433 bdbc 9783 153d b50c bfbd
000002e0: 2c4d ad3d 0760 51bb 6a47 9b3c 017c 3abd
000002f0: 6baf 543e 9d59 543d 3502 20bc 1d90 5a3c
00000300: 47f0 21bc 502c ce3d 00fa b13d 7efe 523b
00000310: 804f febb b9be 8c3d e043 8a3d f593 17bc
00000320: 9dd2 c43b 723e 97bd da7a 883d fc01 f83c
00000330: 4fed bb3d 53da 293d 4dad 513d 1109 7cbc
00000340: bc83 d43d 922b 213c d6c8 a63d edd8 133e
00000350: 1e0e 173c 5c9c 2dbd d02f ae3d 9102 623c
00000360: 9673 813c ffd3 71bc e5fa 6b3d 2f8f 89bd
00000370: 7990 3b3e 795b b53b 0bf4 2e3d a59e 71bc
00000380: 155d 4f3d 3f2e de3d f4a5 d53d 4252 2abc
00000390: 494d 633c d523 84bd a43e 1bbb 7fb4 97bd
000003a0: 6af3 203d c4c8 a7bb 7221 a63d bb76 09bd
000003b0: f17e 453d 0a82 37bd f210 253e af63 e33d
000003c0: e52b a13b 86a4 283c 6816 ce3d a3e4 1f3b
000003d0: 1518 983d a78f 2abb ddd7 79bc 3c6e f938
000003e0: 3a05 e4bc b434 2ebc a45a 353e 7970 ecbd
000003f0: e347 ec3d 76be 533d d92e a5bc f499 27bd
0.015814424 0.012154793 0.15148237 0.06974879 0.056484252 0.0058845594 0.12856334 0.04060635
0.049258817 0.064926244 0.09485534 -0.047075234 0.028610421 0.047212526 0.04417535 -0.035429683
0.058895316 -0.07204957 0.13372919 0.016925719 0.07079683 0.076473415 0.08564332 0.019218465
0.029007083 0.027631337 0.024640638 -0.08753394 0.07828224 0.084659144 0.074277595 0.041122705
0.035865303 0.04780457 0.08863198 -0.015556998 0.13527562 0.14079249 0.018391535 0.095080785
0.1233008 0.017223155 0.09117616 0.002646162 0.016365934 -0.08095686 0.06863226 0.0038700087
0.043007102 -0.041459173 0.14757428 0.065474875 0.052543893 0.046333324 0.0038327726 0.052815598
0.09014741 -0.011603945 0.017206838 0.06645202 0.10205071 -0.0060835453 0.015376639 -0.017658558
0.007735516 -0.029649125 0.075540446 0.11212059 0.1091916 -0.021084888 0.08227398 0.038821418
0.02632585 0.07835461 0.06174968 -0.056041837 0.092852965 0.032220304 0.062191855 -0.02773563
0.06174638 -0.049050793 0.10807481 0.033449426 0.004973345 0.021893317 0.086923316 0.051966995
0.053507145 -0.030902663 0.08064603 -0.03222985 0.020428898 -0.03114232 0.051196106 0.008652474
0.07166025 0.0131699825 0.024749432 -0.026425738 0.13752705 0.062302634 -0.031715762 0.041611657
0.071349636 0.00073269254 0.07892953 -0.008009002 -0.0026127032 -0.05066701 -0.033072084 -0.006251934
0.09520065 -0.102188215 0.12543043 0.02077098 0.008377387 -0.046738133 -0.0026396464 0.05603621
0.073546454 -0.01551697 -0.012030374 0.0006090421 0.10563784 -0.052857824 -0.005423227 -0.09682859
0.11461571 0.055837825 -0.014110402 0.09240343 0.007073677 -0.07959555 0.0397761 0.30526608
0.04882275 -0.03225734 0.048075985 0.14314584 0.15925764 0.1094754 0.03136696 0.01694566
0.15073325 0.089421034 0.07308323 0.0876626 0.066789925 -0.019313121 0.02492798 0.111437745
0.10831714 -0.02731159 0.060256377 -0.08712333 0.16589496 -0.0073857727 0.08779899 0.061597276
0.054023966 0.043450434 0.08793118 0.064671405 0.05333254 -0.033405762 0.05328581 0.06559204
0.06486407 0.045423593 0.13609762 0.053349223 0.10437407 -0.004503819 0.19764265 0.16812387
0.07250103 0.03322913 0.21507432 0.117101915 0.04635941 -0.023095764 0.036502447 -0.093285955
0.08461985 -0.0031948106 0.018954951 -0.045528416 0.20770042 0.051843274 -0.009766151 0.013340023
-0.009883947 0.10067046 0.08690262 0.0032195146 -0.007760942 0.06872315 0.067512274 -0.009251584
0.0060065524 -0.073849574 0.06664057 0.030274384 0.091761224 0.041467976 0.051190663 -0.015383021
0.10376689 0.009837048 0.08143775 0.1443822 0.009219674 -0.042385444 0.08505213 0.013794557
0.015802186 -0.014760016 0.05761232 -0.06716763 0.1831683 0.005534586 0.042713206 -0.014747296
0.05062588 0.108486645 0.10432044 -0.010395588 0.013873407 -0.06452147 -0.002368846 -0.07407474
0.039294638 -0.0051203687 0.08111848 -0.033560496 0.048216764 -0.04480175 0.16119745 0.111029975
0.0049185627 0.010293132 0.100628674 0.0024397753 0.07426468 -0.0026025565 -0.01524922 0.00011893778
-0.027834523 -0.010632683 0.17710358 -0.1154489 0.11537149 0.05169531 -0.02016394 -0.040918306

convs.0.bias f4 [72]
00000000: 6a24 453d e318 383e efb8 a0bd 38be 913a
00000010: 0120 b7bc 15a2 a7bd 38ef a63d 3dab 01bd
00000020: 584a 403d 6bdc 1c3d 2c28 1fbd 7506 6d3d
00000030: 8855 81bd f781 1c3e 7a9b 9c3d 1776 0f3d
00000040: 364b 0a3d 3f23 843b 71bd 0dbd d7f7 133e
00000050: 9312 953d 76f3 9d3d 30ef ea3d 9e5a 113e
00000060: 1041 c03d 4337 233d 71c9 fa3c f6e7 423d
00000070: 2ed3 d4bc 5a74 f13a 99c7 80bb 3ad6 673d
00000080: 04f8 983d 538f c83d 33c8 883d 403d 183d
00000090: ab69 423d 0245 a6bc 206e 483d c569 1f3d
000000a0: b492 a03d 61ca 103d f788 523c 5954 f73d
000000b0: e825 0d3e 73a9 c83d 765e 933d b8f4 c3bd
000000c0: 349f 0cbd 8440 7ebb faf9 a73c 890e 2e3d
000000d0: 549e 3a3d a0da 303e 6ce3 9e3d f7bf f3ba
000000e0: 85fe 4d3d b4e5 1a3e 94a7 803d 3d4b 69bd
000000f0: 9f7c a4bd 692f 0b3e 650a db3d 8bbf ab3d
00000100: 16c4 31b9 7bb3 a2bc 9a6b 87bd ca86 8dbd
00000110: 7ef7 0c3e 4de0 11bb 1693 2d3c 5e82 f63d
0.04813043 0.17978244 -0.07847773 0.0011119312 -0.022354128 -0.081852116 0.08151096 -0.031657446
0.0469459 0.038296144 -0.03885667 0.057867486 -0.06315142 0.15283953 0.07646842 0.03502473
0.033763133 0.004032522 -0.034604494 0.14450012 0.072789334 0.07712452 0.11471403 0.14194724
0.0938741 0.039847624 0.030613633 0.047584496 -0.025979605 0.0018421516 -0.003930044 0.056600787
0.0746918 0.09792962 0.0667881 0.037167788 0.047464054 -0.020296577 0.04893315 0.03891923
0.078404814 0.035349254 0.012850038 0.12076635 0.13783991 0.09797945 0.07195751 -0.09568161
-0.034331515 -0.0038795779 0.02050494 0.04249433 0.04556115 0.17270899 0.07758221 -0.0018596639
0.050291557 0.15126687 0.06281963 -0.05695652 -0.08031582 0.13592304 0.10695342 0.08386143
-0.00016953083 -0.019860974 -0.0661232 -0.069104746 0.13766286 -0.0022258938 0.01059415 0.12036584

convs.1.weight f4 [72, 72]
00000000: f314 373b 328a ebbb ea0c bc3b 3b90 1bba
00000010: dee2 8bb9 28af c43a 7f82 193b 0035 a1bb
00000020: b577 fd3b 85fb 6fbb 1d85 b53b 8cb4 92ba
00000030: 2adc 133c 3b89 a83b 9668 49b9 6b12 9d3b
00000040: a631 14bc 5aac 5dbc 6dc4 2abc e71b 913c
00000050: d496 f6ba 58ff 823b 5396 37bc 7b8c 1f3c
00000060: 3f44 9cbc 2409 fc3b 905e d53b ba4e 3f3c
00000070: ff5e 87b7 d2ec 4bbb c7d7 ea3a a973 14ba
00000080: 8651 deb9 7b49 ba3b ec05 1dbc acb7 bb3b
00000090: ffd5 fcbb 1e07 303c bac3 c5bb 0892 073b
000000a0: c055 66bb f44f edba fc02 2ebc 6aa8 43bb
000000b0: 52d4 51bb 719f 323c 522b 0f3b 4878 c53b
000000c0: 49fd 00bc 1478 313a 369c 7b3b 5391 d7ba
000000d0: 586e 183b 92c5 07ba f5b3 bcbb 8432 9838
000000e0: f0e1 363c c0c1 c33b a835 b739 545d 3a3b
000000f0: 24ec 96bb b496 0d3b 1064 a4bc 2222 14ba
00000100: 95c0 92bb 4893 04bc 0e2e a53b fd6c c5b8
00000110: 6e4e a33a 7a87 56bb 83be 49bb b792 acbb
00000120: 8f1f 7abc f8f3 853b b893 9c3a cbc9 d43b
00000130: 63a3 d4b9 340c 2ebb de90 af3b 2b48 44ba
00000140: c8e6 7abb 360d e7bb 9abe beba c25f 07bb
00000150: eb2d 8bbb 7346 efbb 9986 083c 1586 e93b
00000160: 6726 a8bc 660f 81bc 9362 973b 82c9 b23c
00000170: 1db7 3d3a 42aa 19ba 8415 113c 4cb0 9aba
00000180: 90b2 d8bc 7f33 893b fde0 873b e015 1d39
00000190: cba2 62bb 07b0 20bc e7ad c1ba a015 c3bb
000001a0: 4b08 47bc b7ae 8cbc f6ee 5b3b d1d4 2dbc
000001b0: 4e60 2a3b 4feb 103b bbd9 cbbb 1e0a 5fba
000001c0: b0b0 2bbc 18ef e3bb bc65 8d3b 71ab 203c
000001d0: 8329 5ebc d128 c03b c220 f3bb 2e08 de3b
000001e0: 75e0 e2bb cb38 0abb fb34 bb3b e8ee 2e3c
000001f0: 713d db3b b215 a0bb 1891 4cba f917 c2bb
00000200: 6a9a 21bb 2ad0 03bc 18a0 483b bd9b 873a
00000210: 8651 ccba 1c58 c2bb aea4 65bc 6601 29bc
00000220: 15e1 1c3b 9816 8bbc 4bfc 843b d571 623b
00000230: 0964 ac39 9bd0 c5bb 2b58 d9bb b79f 6f3c
00000240: 58a0 c4ba fd6d 2e3c 16c4 923b 91d9 cbba
00000250: eed8 5b3b b0d7 ff3b ccfe 8cbb eaf5 a23b
00000260: d55d 123c b053 01bc 64bf 9b3a 268a 2e3c
00000270: 9cc2 1339 7aa4 1ebb 262b 323a e199 1f3c
00000280: c9eb 2a3b 0846 753a f68c 11bc 6404 543b
00000290: 455d 7c3a a8d3 2c3c e59a e13b abdc 183c
000002a0: 2cd1 1d3b bf02 b6bb be9c 86bb 8fa1 0f3c
000002b0: 8217 6538 c28a 2bbc d302 2bbc 0f62 d8ba
000002c0: da40 2ebc 67fe 163c 93bb 83bb d78a 263b
000002d0: 64f5 2ebc 5bcf 95bb e71c a8ba e187 1dbb
000002e0: 3978 d4bb 0347 7f3a f5c8 0f3a f33f 30bc
000002f0: a934 2eb9 e71c 5d3a 1536 483b 0342 b0bb
00000300: d09b f3ba 6eee 40ba 4175 b33b 665d 423b
00000310: 5d33 69bb 8dc9 183c dd79 88bb 6fec 2d3c
00000320: 2b82 53bb 7a78 263c f06c 053c 9d8b 233c
00000330: c57e acbb 8519 bf3b 37b7 0b3c 585e ceb9
00000340: 58d9 903b 67d9 613a 2b53 04bc b03d 55bb
00000350: 5b21 c539 9e05 a13b fb08 1a3b a206 30bc
00000360: 2503 213c 0d91 aebb cd86 d63a beb8 323b
00000370: f1f9 b3bb 4e94 3c3a 1f07 1dbc 19e7 b43b
00000380: 5b6b b2bb 6b98 10bc 5376 b4bb 8269 a73a
00000390: 889c 403b a866 2cbb cbf9 beba d1a1 5dbb
000003a0: 31c9 9ebb 8f90 58ba 7999 263c 0de1 29bc
000003b0: e181 8a3b b978 31bc baec acbb 657d 5dbb
000003c0: ec71 8e3a eb5b 0c3c 832e aa3b 868a 26bc
000003d0: 735b 20bc 81d3 963b 13d7 2bbc 15e1 c6ba
000003e0: 73e2 c9bb f0f8 993b 977d a33a b530 c23b
000003f0: 65f6 0dbb 30df 26bb b97e 64bb 1d6d b8ba
0.002793607 -0.007188105 0.005738844 -0.0005934273 -0.00026681175 0.0015005814 0.002342373 -0.004919648
0.0077352175 -0.0036618423 0.00553955 -0.0011192723 0.009024659 0.0051433123 -0.00019207815 0.0047934554
-0.00904504 -0.013529861 -0.010422808 0.0177135 -0.0018813261 0.0039977245 -0.011205274 0.009738083
-0.019075511 0.0076915193 0.006511517 0.011676485 -1.613749e-05 -0.0031116498 0.001791709 -0.00056629867
-0.0004240388 0.005685029 -0.009583931 0.0057286825 -0.00771594 0.010743884 -0.0060352953 0.0020686407
-0.0035146326 -0.0018105493 -0.010620829 -0.0029855021 -0.0032017422 0.010902272 0.002184589 0.0060263015
-0.007872888 0.0006769907 0.003839267 -0.0016446508 0.002325913 -0.00051792816 -0.0057587572 7.257334e-05
0.011162266 0.0059740245 0.00034944457 0.0028436976 -0.004605787 0.0021604719 -0.020067245 -0.0005650838
-0.004478524 -0.008091755 0.0050408905 -9.413993e-05 0.0012459287 -0.003273456 -0.003078372 -0.005266513
-0.015266313 0.004087921 0.0011945879 0.006493782 -0.00040557524 -0.0026557567 0.0053578457 -0.00074875605
-0.003828453 -0.0070511354 -0.0014552653 -0.0020656441 -0.004247417 -0.0073020994 0.008332872 0.0071265795
-0.020526124 -0.015754413 0.0046199053 0.021824602 0.0007237064 -0.0005861857 0.008855227 -0.0011801808
-0.026452333 0.004187047 0.0041466937 0.00014980836 -0.0034581895 -0.009807593 -0.0014776558 -0.0059535056
-0.012147973 -0.017173154 0.003355918 -0.010609821 0.0025997343 0.002211291 -0.006221024 -0.00085082825
-0.010479137 -0.0069559924 0.004315106 0.0098065 -0.013559702 0.0058642407 -0.0074196765 0.0067758774
-0.00692373 -0.002109098 0.005713103 0.010677077 0.006690674 -0.004885399 -0.0007803603 -0.005923268
-0.0024658688 -0.008045236 0.0030613001 0.0010346096 -0.0015588261 -0.0059309136 -0.0140163135 -0.010315275
0.002393787 -0.016978547 0.004058396 0.0034552712 0.00032880928 -0.0060368306 -0.006632825 0.014625481
-0.00150014 0.01064634 0.0044789417 -0.0015552511 0.0033546048 0.0078076944 -0.004302835 0.004973163
0.008933504 -0.007893488 0.00118826 0.010653054 0.0001409151 -0.0024206922 0.0006796591 0.009741277
0.002608048 0.0009356444 -0.008883705 0.003235125 0.00096269354 0.01054851 0.00688492 0.009329955
0.0024080975 -0.0055545266 -0.0041080406 0.008766546 5.4619748e-05 -0.010470094 -0.010437685 -0.0016508716
-0.010635579 0.009215928 -0.0040201633 0.0025412345 -0.010678623 -0.004571838 -0.0012825996 -0.002403729
-0.006484058 0.00097380596 0.0005484962 -0.010757434 -0.0001661355 0.0008434788 0.0030549814 -0.005378963
-0.0018585864 -0.00073597475 0.0054766242 0.002965772 -0.0035583593 0.009325397 -0.004164918 0.010615452
-0.003227363 0.01016056 0.0081436485 0.009982017 -0.0052641355 0.0058318996 0.008527569 -0.00039361673
0.0044204406 0.00086154643 -0.008076469 -0.003253799 0.0003759962 0.0049139997 0.0023503888 -0.010743769
0.00982741 -0.00532735 0.0016367078 0.002727076 -0.005492442 0.000719373 -0.009584217 0.005520713
-0.0054449267 -0.008825402 -0.0055072694 0.0012772533 0.0029390175 -0.0026306305 -0.0014570294 -0.0033818374
-0.004845761 -0.0008261287 0.010168427 -0.010368598 0.0042269086 -0.010832005 -0.0052772434 -0.0033796665
0.0010867692 0.008566837 0.005193533 -0.0101648625 -0.009787428 0.00460285 -0.010488289 -0.0015173281
-0.006161028 0.004698865 0.0012473342 0.0059262165 -0.0021661755 -0.002546262 -0.0034865572 -0.0014070604

convs.2.weight f4 [72, 72]
00000000: a9ea 5abc 202b 293c dc7f 133c 5013 fbbb
00000010: ee80 19bb 3c64 423b 37a2 143b 001e a0ba
00000020: b508 72ba 6672 01ba cf76 ddba c3e2 d2ba
00000030: 6e35 b03a 8c09 07bb 63bf b4bb ed73 9bba
00000040: d9e2 b138 9d32 a63a 1440 92ba f1ac 4bbb
00000050: 36e1 9dbb 9940 9abb bc76 18bc 05ee 22bc
00000060: 5ab9 80ba a472 30bb c3a6 d43b 8d96 223c
00000070: c0e0 e7bb fe3a 533b 419b b3bb 0843 033b
00000080: 131f faba a424 0a3c 48cd 2b3b 6f1e 1f3c
00000090: e8f1 d0bb 9eca 4cbb a66c 9fbb f427 63bb
000000a0: 3a54 47bc 6f90 5d3b 2d8c 053c 91cc 463c
000000b0: 5ffe 9bbb c434 10bc 7fc1 e8bb 3a5e 19bc
000000c0: 16d2 b43b 23fc 853a 44a2 40b9 9018 df3b
000000d0: b41e f7bb c7b6 0b3c 5259 6abb 69b4 68ba
000000e0: 951a 813b 5c7d 9bba 0db3 8138 4d3b 35ba
000000f0: f438 8d3b 9d03 263c da21 25bb 17ac 14ba
00000100: e40f ad3b ef84 5fbc 5dbd 9e3a c310 253a
00000110: 49fa 443b 06ce 363c edc8 9b38 0bea 243c
00000120: 2c26 cabb 2e68 fa3a 071c a7bb 1b0d 2cbc
00000130: 8628 1cbc 80a6 a33b c478 aabb 1ebd 013c
00000140: 3d3d c5bb f740 8039 b49f 353b 3291 433b
00000150: cf1c d6bb a665 a93a 042b 9c3a 363c aabb
00000160: ad7e b5bc befa c03b 0a36 00bc a174 91ba
00000170: 7d79 7cbb f383 24bc ebce f4bb a216 2bbc
00000180: a728 a3bc c8cc 933b e3a3 f1bb dcf9 60ba
00000190: bdc5 01bc adb7 f73b d9d4 21bc eca5 883b
000001a0: 3992 21bc a104 d4bb 94d7 163b a258 7ebb
000001b0: 55b3 8ebc 89de 2fbb 107a ccbb 9d00 a93b
000001c0: 3bd0 38bc 7c2f b13b 8099 2bbc 2685 d3b9
000001d0: 1ccb 3bbc cb3e 503b b5ae 02bc 3313 373c
000001e0: e21e b43b 5401 55bb 0350 68bb 8862 063b
000001f0: 22e2 b73a ef45 253c 590c 5dbc 94b6 44bb
00000200: aeed 73bb 4dec 7e3b d423 b1bb 7cb6 0b3b
00000210: afdc f03b 73de 533a c08f 81bc d02e 9b3b
00000220: d45f 51bc f690 fdbb 63d7 503b 050e 143c
00000230: 85a3 2f3a f8c9 903b 5ddf 9f3b fb71 11bc
00000240: e066 2dbc 735c 26bb dbb2 12bb 501d 1cbc
00000250: 3c61 8c3b c0da 2d3b fa8f 1dbb 45df dcbb
00000260: 6747 e73b 47d4 b63b 2a43 25bc 1a56 05bc
00000270: 0af8 213c c692 fc3b b0e4 2a3b d731 23bc
00000280: 4e3d 67bb 388f b93a 7f41 aaba d4d0 21bc
00000290: 29e0 00bc ff4a ec3b f537 7aba 32b6 9e3a
000002a0: 31f7 aeb7 90bd a43b 378a 1e3c b99f 2f3c
000002b0: ce83 2cbc 5d2a cebb a36f fc3b 3894 19bc
000002c0: 2c22 4abb fc1a 2ebc 6507 523a be10 373b
000002d0: ecf2 51bb 19ae 8a3a 011e c63a 779a e8bb
000002e0: 158e 313b 9fcc 11bb b6db 23bc 3213 293c
000002f0: d5e1 8cbb 400f e5ba 8996 0cbb 7cd9 2f3c
00000300: 99ec 143c f2b6 d839 d2d6 ecbb 016c 2d3c
00000310: 2c61 2bbc ed24 6f39 d915 833b 5c59 003a
00000320: 3741 86bb b67d 16bc 9714 0eba 0461 543b
00000330: f027 2dbc a485 2d3b 6240 863b 72a1 eb3a
00000340: 36de b5bb 3b81 21bc 99ef c6bb 4af9 31bb
00000350: c29e 0e3c ed6c 8ebb f36e 9cbb 6207 183c
00000360: 9783 c6bb 3173 7bb9 0ef6 04bb bc55 0f3c
00000370: 2f1c 1eb9 1d9c 17bb f2b0 a6bb c627 103b
00000380: f318 2eba 2b31 d23b 67eb bcb9 6033 03bc
00000390: d0b0 4bba 904a 1d3a 5568 3f3a e0f9 bb3b
000003a0: 971b 8e3b 2670 0c3b 4abf a83b db3f 723b
000003b0: 5cb9 faba b35a 29bb 0c3c 2c3c 1f3b 2a3c
000003c0: 06aa d4ba 9540 2dbc a961 6ebb b372 b7b9
000003d0: b45f a33b 3aea 303c b7ae 1abc adf2 38bb
000003e0: 4084 b13b 9dae 14bc 2088 ef38 4d3f 423a
000003f0: 5771 3cbb 724d 98bb 1558 10bc 41bd c9bb
-0.013361611 0.010325223 0.009002652 -0.0076622143 -0.0023422795 0.0029661795 0.0022679695 -0.0012215972
-0.0009232865 -0.0004938006 -0.001689637 -0.0016089309 0.0013443658 -0.0020605056 -0.005515979 -0.001186011
8.4822714e-05 0.0012679879 -0.0011158013 -0.0031078423 -0.004818107 -0.0047074077 -0.009305652 -0.009944444
-0.0009820864 -0.00269238 0.006489606 0.009923589 -0.007076353 0.0032231207 -0.005481154 0.0020028967
-0.0019082747 0.008431587 0.0026214886 0.009711846 -0.0063764937 -0.00312487 -0.004865247 -0.0034661265
-0.012166077 0.0033808013 0.008151096 0.012133733 -0.004760548 -0.008801643 -0.0071031447 -0.009360844
0.0055182083 0.0010222237 -0.00018370996 0.006808348 -0.007541502 0.008527464 -0.0035758805 -0.0008876981
0.0039399364 -0.0011862922 6.18455e-05 -0.00069134386 0.004309768 0.010132697 -0.002519718 -0.00056713953
0.0052814353 -0.013642534 0.0012110878 0.0006296748 0.0030056408 0.011157518 7.428401e-05 0.010065566
-0.006169101 0.0019104534 -0.0050997767 -0.010501171 -0.009531146 0.0049942136 -0.0052023847 0.007918624
-0.006019263 0.00024462465 0.0027713599 0.0029841182 -0.006534196 0.001292397 0.0011914675 -0.005195166
-0.02215513 0.005889266 -0.007825384 -0.001109738 -0.003852456 -0.010041225 -0.0074709556 -0.010442408
-0.019916845 0.004510496 -0.007374273 -0.0008582154 -0.00792068 0.0075597377 -0.009877407 0.00417017
-0.009861522 -0.0064702784 0.0023016678 -0.0038810153 -0.017419497 -0.0026835522 -0.006240137 0.005157544
-0.011280115 0.005407272 -0.010473609 -0.0004034426 -0.011461999 0.0031775709 -0.007976224 0.011174011
0.0054968456 -0.0032502012 -0.0035448081 0.0020505507 0.0014029185 0.010087474 -0.013491713 -0.0030016052
-0.0037220526 0.003889817 -0.0054058824 0.0021318486 0.0073505263 0.0008082159 -0.015815616 0.004735805
-0.012779195 -0.007738228 0.0031866662 0.009036546 0.00067000865 0.004418608 0.004878922 -0.008877273
-0.010583609 -0.0025384694 -0.0022384438 -0.009528473 0.004284052 0.002652809 -0.0024042116 -0.006740483
0.0070580724 0.0055795047 -0.010086814 -0.008138204 0.009885797 0.0077079264 0.002607625 -0.009960613
-0.0035284343 0.0014157062 -0.001298949 -0.009876449 -0.007865944 0.0072110887 -0.00095450814 0.0012108742
-2.0857524e-05 0.0050274804 0.009676508 0.010719233 -0.010529472 -0.006291671 0.007703738 -0.009373717
-0.0030843122 -0.010626551 0.0008011966 0.0027933563 -0.0032035662 0.001058045 0.0015115143 -0.007098492
0.0027092744 -0.0022247208 -0.010001114 0.010319518 -0.004299382 -0.0017475858 -0.002145203 0.010733005
0.009089612 0.00041335035 -0.007227757 0.010584832 -0.010460179 0.00022806572 0.004000407 0.0004896128
-0.0040971297 -0.009185245 -0.0005419938 0.0032406459 -0.010568604 0.002647736 0.0040970305 0.0017977192
-0.0055501712 -0.009857471 -0.0060710427 -0.0027156645 0.008704843 -0.004346481 -0.0047739684 0.009279104
-0.006058167 -0.00023980137 -0.0020288262 0.008748468 -0.00015078553 -0.0023133822 -0.0050870115 0.0021996363
-0.0006641291 0.0064145527 -0.00036033543 -0.008007854 -0.00077701826 0.00060001854 0.00073016185 0.0057365745
0.004336785 0.002142915 0.0051497566 0.003696433 -0.0019128728 -0.0025841414 0.010512363 0.010390072
-0.0016224987 -0.01057448 -0.0036374128 -0.00034989938 0.004985774 0.010798031 -0.009441069 -0.0028220818
0.0054173768 -0.009074834 0.00011421763 0.0007409945 -0.002875408 -0.004647904 -0.008810063 -0.006156594

convs.3.weight f4 [72, 72]
00000000: 8e93 75ba 132b a4bb 58c5 953b b2c0 55bb
00000010: f171 41bb 19e5 ac3b 3b16 213b 15ce 03b9
00000020: 5571 8dbb c35f 083b 81d6 a2bb 18c1 19bc
00000030: 1075 98bb 8bea 90ba 0f49 1cbc 4241 3239
00000040: f755 36bb 1478 8cbb 56e2 c83a 6861 02bc
00000050: cd4b d23b 8227 a3bb 0519 cbbb 8df4 153c
00000060: fa17 11bc 286f 573b 2e77 833b 0181 e5bb
00000070: a9e2 263c f6f0 43ba 5b91 61ba d76a 1cbc
00000080: 9946 1dbb 9007 c93b 490e b9bb b64f 64bb
00000090: 9587 0cbc 480b 28bb d6d7 913a c74a c03b
000000a0: 155f d3bb f5b8 f03b f62a 123a 029a a7bb
000000b0: ff10 e83b 860d 11bc eea7 f5ba 3b1b 4f3b
000000c0: 36ce 253c 9fa0 113c 0d09 7abb f6d2 77bb
000000d0: 605e 75bb 4f8b d13b 0308 20bc f867 b0bb
000000e0: 0651 5b3b 75af a03a 1a92 053c 5c3a ee39
000000f0: f2cf 1f3b 33c5 383c 376e 153c 4c34 45bc
00000100: 76e3 f039 b205 91bb ee1e 2ebc d52c b1bb
00000110: 51d3 3f3b ee00 12bc 9906 59bb 3a0d 0e3c
00000120: 96f9 053c a2bd 33ba bb9d 393c 4928 bbb9
00000130: d193 313c 4e20 273b 239b 293c e1aa b1bb
00000140: 8023 2abc 385f 3ebc c5a5 2736 302a 033c
00000150: 99e2 713b d526 a2bb f877 e6bb 93ff e33b
00000160: 743a eebb daeb 28bc f39b c038 1b2c 87bb
00000170: 3f61 573b 8ee2 04bc d205 ad3b c549 9f3a
00000180: 3bd8 6bbc 0d70 55bb 118b af3b d242 92bb
00000190: 6c28 a33a 97ee febb c68d f83b 509d 283c
000001a0: 871c babb 42d3 73bb f62b 19bb 0a69 253c
000001b0: 0210 b4bb 13f3 e23b a147 8d39 8fa8 71bb
000001c0: dc32 b3bb 0e64 423c d2f9 31bc 52f9 75bb
000001d0: a058 003c ccb6 c93b cca8 10ba d8d1 023b
000001e0: cad2 9f3b c00b 3bbb 8ee3 d4bb 9015 31bb
000001f0: 1b6d 10bc eab0 1c3b 4ffc 89bb 9c9d f43b
00000200: 87b5 973b cb50 003c 6d6c 3dbc 7f50 71ba
00000210: b46c 23bc dba3 edba 2fba ebbb ea0f bc39
00000220: 379b 01bc 1cbd a33a d7a8 2cbb e28e 2fbc
00000230: fa9a d6bb 481a 05bc 6343 bc3b 5cf0 95ba
00000240: ef8f ba3a b0d3 893a 72b6 013c 2334 123c
00000250: a705 323c c903 d0ba fcdc 30bb 4bf1 b9ba
00000260: 1b05 993b aeb8 ecb9 0427 05bc d719 03bc
00000270: 6a9e dd38 cce3 35bb a71e d7ba 99d8 28bb
00000280: d3d2 1fbc 6fa2 4c3b fa98 24bc cb10 853a
00000290: 6e84 183c a566 29bc 3b72 383c 711c b33b
000002a0: df90 7c39 a15a 693b 1675 fe3b cf01 18bb
000002b0: 3f92 a5bb d5ac 6eba 75a6 103c 53f0 b23b
000002c0: f048 0c3c 50bb 0d3b eb21 bf3b 33c2 2cbc
000002d0: c08e a03a 116a 523b e6ad 3c3b 6db8 953a
000002e0: beb9 e5bb ffd7 be39 a2ad acbb a175 d7bb
000002f0: cc38 2b3c 8578 aaba b253 2a3c a3b7 a93b
00000300: 16be a239 e0fd 4a3a d32f 0cbb 63ce b33b
00000310: 4e6d 9fb9 3f79 9bbb 90e9 1bbc ba13 0a3b
00000320: 625b 583b 2894 913b 1fab 223b 91f1 2dbc
00000330: 6c3f baba 0903 2bbb 119e 973b bd05 5b3b
00000340: 425a 52ba 0b8d c6bb 413e 25bb fdfa 183b
00000350: 5943 563b 67cc 91bb 7498 cbbb 5e2c d4ba
00000360: 0726 2f3c 135f 30bc acb7 a0b9 0bd4 803a
00000370: 7e92 b83b c921 093c 9aff 1d3c 8ef9 983a
00000380: 1892 edbb 3352 88ba d88c e03a 3f26 2e3c
00000390: 547d 2e3c 0b12 1f3b ad68 50ba a62f 85ba
000003a0: afde a8bb 277f 443b 1ce8 563b 8bc0 30bb
000003b0: fb77 13bb 796a e53b da08 bfba fd25 c2ba
000003c0: 6491 28bc 7313 453b e039 30bc b063 2f3c
000003d0: 3e25 d93a 7fb0 64ba 58ea 2e3c 8c8a 1abb
000003e0: 226c e73b aa4b 43bc 2258 193c cda9 243c
000003f0: 9e1a 293c 576f 1d3c 2e04 65bb 03f9 5e3a
-0.00093679957 -0.0050100177 0.0045706443 -0.0032616076 -0.0029517377 0.005276334 0.00245799 -0.00012569905
-0.0043164887 0.0020809032 -0.0049694185 -0.009384416 -0.004652627 -0.0011056227 -0.009538903 0.00016999713
-0.0027822235 -0.0042867754 0.0015326242 -0.007957794 0.0064177276 -0.004979075 -0.006198051 0.009152544
-0.008855814 0.003287265 0.00401201 -0.007003904 0.010185876 -0.00074745656 -0.00086047285 -0.009546957
-0.0023998378 0.0061349347 -0.005647455 -0.003483755 -0.008577247 -0.002564149 0.0011126946 0.005868289
-0.0064505436 0.0073462673 0.00055758597 -0.0051147947 0.007082104 -0.008853322 -0.0018742064 0.0031601924
0.010119965 0.008888393 -0.0038152367 -0.0037814952 -0.0037440285 0.0063947807 -0.009767535 -0.005383488
0.0033465042 0.0012259322 0.008152509 0.0004543838 0.002438542 0.011277485 0.009120516 -0.012036394
0.0004594584 -0.0044257278 -0.010627491 -0.0054069557 0.0029270242 -0.0089113545 -0.0033115505 0.008670146
0.008177182 -0.00068565656 0.01132911 -0.00035697434 0.010838465 0.0025501433 0.010351929 -0.0054219817
-0.01038444 -0.011619382 2.498143e-06 0.008005664 0.0036908744 -0.004948477 -0.0070333444 0.006957957
-0.0072701517 -0.010310138 9.184321e-05 -0.004125131 0.003286436 -0.0081106555 0.005280235 0.0012152722
-0.014394815 -0.0032568008 0.005357154 -0.004463532 0.001244796 -0.007779907 0.00758526 0.0102914125
-0.0056796703 -0.0037204777 -0.002337215 0.010095844 -0.0054950723 0.0069259494 0.00026946983 -0.003687415
-0.0054687094 0.011864675 -0.010862784 -0.003753264 0.00783363 0.0061558243 -0.0005518317 0.0019961502
0.004877423 -0.002854094 -0.006496853 -0.002702091 -0.008815075 0.002390916 -0.0042109857 0.0074650776
0.004629794 0.007831763 -0.011561495 -0.0009205415 -0.009974647 -0.0018130498 -0.0071938257 0.0003587001
-0.007910541 0.0012492272 -0.0026345754 -0.010715218 -0.0065492364 -0.008123942 0.005745338 -0.001143943
0.0014233569 0.0010515358 0.0079170335 0.008923563 0.010865605 -0.0015870269 -0.0026987186 -0.0014186291
0.004669798 -0.00045151025 -0.008126978 -0.008001766 0.00010567608 -0.0027754186 -0.0016412333 -0.0025763868
-0.009754854 0.0031224748 -0.010046238 0.00101521 0.009308917 -0.010339414 0.011257703 0.005466037
0.00024086561 0.0035606998 0.0077654226 -0.0023194437 -0.0050528343 -0.00091047335 0.008828749 0.005460778
0.0085623115 0.002162654 0.0058329008 -0.010544348 0.0012249574 0.0032106678 0.0028790175 0.0011422761
-0.0070106676 0.00036400554 -0.005269722 -0.0065753018 0.010450553 -0.0013005888 0.010395931 0.005179362
0.00031040673 0.0007743519 -0.002139081 0.0054872497 -0.00030408282 -0.0047446783 -0.009516135 0.0021068887
0.0033013453 0.0044427104 0.0024821234 -0.010616676 -0.0014209575 -0.0026094338 0.0046269973 0.0033420168
-0.0008024314 -0.006059294 -0.0025214108 0.002334296 0.003269395 -0.0044494155 -0.006213242 -0.0016187539
0.010690219 -0.010764855 -0.00030654424 0.0009828819 0.0056326976 0.008369871 0.00964346 0.0011671053
-0.0072500817 -0.0010400474 0.0017131818 0.010629236 0.010649998 0.002427223 -0.0007950168 -0.0010161295
-0.005153499 0.0029983015 0.0032792157 -0.0026970233 -0.0022501934 0.007001218 -0.0014574782 -0.0014812347
-0.01028857 0.0030071407 -0.010755986 0.01070492 0.0016566885 -0.000872381 0.010675989 -0.0023581116
0.007062451 -0.011919895 0.009359391 0.010050249 0.010321287 0.009609065 -0.0034945118 0.00085057336

convs.4.weight f4 [72, 72]
00000000: 46de 2f3c fe24 72bb cd55 b73b baa3 813a
00000010: 234a b93b 03ce f7ba c366 ff3b 5a71 283b
00000020: 361d 2cbc d1e5 4d39 5343 5cbb f76b 9bbb
00000030: 5834 113c 3a86 13ba 8627 2e3c ab65 b13b
00000040: d9a8 65bb f372 9b3a bcbc 8c3b 80da 2d3b
00000050: 8a81 173c 667c 91bb 58e8 eeba 0385 cfbb
00000060: 8d9d 69bc f48c 7a3b c7ab 01bc fa1b e23a
00000070: edf8 dfb8 efcd a03b d74e 2dbc c57d c93b
00000080: 66dd 073c 4ace 3dbc 9a97 323b e910 eabb
00000090: 0ecc 7b3b 05bb c7bb f2b4 25bc be6c b0ba
000000a0: 3593 a3bb 0480 f83a c2cd 91bb e7f5 eebb
000000b0: 36c7 a5bb 647b 273c 84cb 08ba e1ec 1eba
000000c0: 83e6 50bb 1107 9eba 2769 abba 5280 63bb
000000d0: 9ae6 f33b 5196 c8bb df79 bcbb acd4 d0bb
000000e0: 2c8a 503b 75f0 d9ba fc08 e03b b9fd c5ba
000000f0: d9c6 343c 62dc 73bb 2953 25bc 566d e83b
00000100: a564 d5ba e924 42bc 7816 0f39 5d2f 5aba
00000110: 6315 d53b ba12 acb9 5046 46ba 69da 223c
00000120: ecf7 923b f6aa e23b 7cba ce3b 6877 1bbc
00000130: d322 2b3a 2e20 4a3b 993f 173c 2155 f439
00000140: e07b 053c c643 5abb f0fe 34bc f7c5 f0bb
00000150: f3dd 873b bf89 7f3b bd06 d5bb d62c 073c
00000160: c266 8dbc cc74 983b 00be 0dbc acba 733c
00000170: 87a9 2937 10be 47bb 042b ddbb 61b5 dbbb
00000180: af42 39bc 5837 edbb e325 063c 9d04 4b3c
00000190: 7709 23bc 3d0a f63b e02b 523b 3b40 acbb
000001a0: 193e 873b 2120 ca3b 3f04 aabb 3d1e 15ba
000001b0: b85a afba 7d3a 983a 5c82 0c3b 0171 9cbb
000001c0: 4f43 adbb b325 3c3c b3fc a13b 89fd f03a
000001d0: b4e1 143c 8495 ab3b b53d 7bbb e078 8c3a
000001e0: 0349 8f3b 445d ba3b cdad 573b f1cd a43a
000001f0: d945 be3a 942b 363b f332 87bb f688 f4bb
00000200: d396 60bb a5da c1bb ca1d a93b 189b 9fbb
00000210: 89f9 bd3b 13a5 aa3b 9016 65bc 51e9 8bbb
00000220: abe0 c63a 02f3 b1bb 22f4 0d3b 2672 833b
00000230: 8eef fabb ec9a b33b 8f4e 0bbc e8f8 e2bb
00000240: 3e2d 20bb 7dcd b5bb 55ef 9ebb 1899 7fba
00000250: abf7 7b3a 0d86 bfbb 78cc 2cbc bdb3 453b
00000260: 4ef8 0a3c e643 063b f8a3 3f3c 3edb 1f3a
00000270: 72b6 463b 5ae5 d2ba 985b 523b cd98 2f3c
00000280: 8273 0d3c bf01 443c 7a30 00bc dd1e 89ba
00000290: ff0f 84bb 0734 4eba aca0 043c ea83 1bbc
000002a0: a7a7 9b3a 1bb7 8fba 08a6 a43a d24a 18bb
000002b0: c9aa 0bbc 9a64 003b 2779 673b 478d 373b
000002c0: ffc9 22bc 5964 80ba 349a 82ba 439b 1cbc
000002d0: d6b9 d1bb 5ab2 2fbc 5109 303c 05b9 c53b
000002e0: 61fe d13a b5d4 373b 1cf4 893a f6d4 d13a
000002f0: 22e3 aeba 3a0d ecba 227b 01bb 7553 1ebc
00000300: d316 7639 d22f e6ba 232f b53b bd96 acbb
00000310: de60 25bc f2ee 973a 636e 52bb 3e8f 38bc
00000320: e177 223c c34f 593b 16b7 ad3b ee18 54ba
00000330: 89b1 1fbc 1e1b 163c 6b83 80bb 2eec 2e3c
00000340: d618 b83b a466 80bb 3b7b 243a 4b6a 98bb
00000350: dc6e a9bb 2d48 6abb 4fb7 09bb 00c3 18bc
00000360: ed67 18ba bec8 263b e550 1a3c 41fd 09bb
00000370: 850d 8439 6af7 bfb9 fad4 663b 77ce ecbb
00000380: 6870 f0b9 58ff 00bb 035c 93b9 11a6 45bc
00000390: 1ecf 703a 1f0b 23bb f831 2cbc f299 1c3c
000003a0: fa3f feb8 f1b7 213c 5b1a c9bb 9932 5f39
000003b0: 47de b0ba 7b1f 6a3b eda9 6838 57dd 01bc
000003c0: 860e 9eba 8b8c 86bb d9d8 563b b908 153c
000003d0: 684e 06bc ae1a df3a 1ffc 24ba 1cde f1bb
000003e0: 58b1 1fbc b83f adbb 5f31 fe3b 5c48 953b
000003f0: 1327 ffb9 66eb ac3a afce 273c 9104 ce3b
0.010734146 -0.0036948319 0.005594945 0.0009890713 0.0056545897 -0.0018906001 0.0077942326 0.0025702328
-0.010505011 0.00019635937 -0.0033609464 -0.004743095 0.008862577 -0.00056276063 0.01062954 0.005413731
-0.0035043268 0.0011859819 0.00429496 0.0026527941 0.009247193 -0.0044398783 -0.0018227203 -0.006332995
-0.014258754 0.0038230987 -0.00791449 0.0017250769 -0.00010679835 0.0049073617 -0.010577879 0.006149026
0.008292532 -0.011584828 0.0027251006 -0.007143129 0.0038421187 -0.0060952925 -0.0101139415 -0.0013460142
-0.0049919137 0.001895905 -0.004449577 -0.0072924974 -0.005059148 0.01022229 -0.00052183145 -0.00060625194
-0.0031875677 -0.0012056549 -0.0013077602 -0.0034713936 0.0074432613 -0.0061214347 -0.005751833 -0.0063730087
0.0031820638 -0.0016627448 0.0068370085 -0.0015105522 0.011033737 -0.0037210216 -0.010090628 0.007093112
-0.0016280605 -0.01184962 0.00013645913 -0.0008323098 0.0065027936 -0.0003282035 -0.0007563578 0.009939768
0.004485121 0.006917353 0.0063088518 -0.009488918 0.00065283215 0.0030841934 0.009231471 0.00046602733
0.00814721 -0.0033304556 -0.01104711 -0.007347818 0.0041463315 0.0038992015 -0.0065010474 0.008250436
-0.017260913 0.004652595 -0.008651257 0.014876049 1.0112656e-05 -0.0030478276 -0.0067495126 -0.0067049717
-0.0113074025 -0.0072392635 0.008187744 0.012391237 -0.009950987 0.0075085447 0.0032069609 -0.0052566803
0.0041272757 0.006168381 -0.0051884945 -0.0005688405 -0.0013378477 0.001161411 0.0021440005 -0.0047742133
-0.005287565 0.011483598 0.004943454 0.0018386106 0.009087015 0.0052363295 -0.003833634 0.0010717176
0.0043727173 0.0056873877 0.003290999 0.0012573582 0.0014516666 0.002779697 -0.0041259467 -0.007462616
-0.0034269586 -0.005915957 0.005161022 -0.0048707835 0.005797569 0.0052076667 -0.01398243 -0.004269757
0.0015173157 -0.00543058 0.0021660407 0.0040114103 -0.0076579517 0.0054811146 -0.008502617 -0.0069266446
-0.002444103 -0.0055481778 -0.004850308 -0.0009750291 0.00096117955 -0.0058448375 -0.010546796 0.0030166947
0.008482052 0.0020487248 0.011696808 0.0006098038 0.0030321148 -0.0016090081 0.003209805 0.010717583
0.008633496 0.011963307 -0.007824058 -0.0010461468 -0.004030227 -0.0007866029 0.008094948 -0.0094919
0.0011875526 -0.0010964604 0.0012561688 -0.0023237956 -0.008524605 0.0019591213 0.0035320015 0.0028007792
-0.009935855 -0.0009795531 -0.0009964169 -0.009558502 -0.006400327 -0.010723675 0.010744409 0.006034019
0.0016021245 0.0028050367 0.0010525021 0.0016008902 -0.0013342837 -0.0018009313 -0.001975723 -0.009663452
0.00023468891 -0.0017561859 0.005529301 -0.005266993 -0.010093896 0.0011591597 -0.0032109253 -0.01126462
0.009916277 0.0033159114 0.0053013666 -0.0008090873 -0.0097469175 0.009161739 -0.0039219162 0.010676427
0.005618195 -0.0039184857 0.0006274466 -0.004651343 -0.005170686 -0.0035748587 -0.0021013801 -0.009323835
-0.0005813826 0.0025449242 0.009418701 -0.0021055492 0.00025187075 -0.00036614697 0.0035222159 -0.007226761
-0.00045860116 -0.0019683447 -0.0002810658 -0.012063519 0.00091861363 -0.0024878455 -0.01050996 0.009558188
-0.000121235804 0.009870515 -0.006137175 0.00021285786 -0.0013493978 0.003572433 5.5471366e-05 -0.007926307
-0.0012058772 -0.0041061095 0.003278306 0.009096318 -0.008197404 0.0017021501 -0.00062936725 -0.007381214
-0.009746872 -0.005287137 0.0077573503 0.004555745 -0.00048666503 0.0013192713 0.010242148 0.0062871655

convs.5.weight f4 [72, 72]
00000000: 5b27 08bc da36 d93b 3274 1f3c 4ec8 933b
00000010: d9ed df3b b5e2 993a c3a5 82bb 95b1 a4bb
00000020: a05f d0b8 8eed 13bc fe4d 2b3c fd2f 15bc
00000030: 042c a73b 77da ef3b 67d8 79bb 9d63 2a3c
00000040: 0df2 cb3b fa24 5cba 3c0f 8e3a 3bba edbb
00000050: 4afb a03a ad2c 063c 8885 87bb d332 e83b
00000060: 74c0 5f3a 0279 8b3a 1914 2d3b 9b09 f1bb
00000070: 1f37 703b bfc0 d4bb 334c aaba 38b3 d63b
00000080: 1176 aa3a 6e3e f83b fc0c a4ba de77 803b
00000090: a509 17bb 8051 a63a aeec ffbb 9aec 3b3c
000000a0: d84f beba 34a9 a73b c4b1 e5b9 0594 243c
000000b0: 5653 1b3c 88af ee3b 92ac c3bb d475 90bb
000000c0: 2533 fa3a 18d4 03bb e7c0 ed3b 97ee 5439
000000d0: aac5 a0bb d108 6fbb 4558 81bb 4848 18bb
000000e0: 8791 bc3b 4b1b e03b 9ce2 163c ea90 b4bb
000000f0: a564 9dbb 5f71 1cbc ae91 173a c048 763b
00000100: 821e 853b 1400 c8bb 0803 abbb 3eb9 5f3b
00000110: 5fff 23bb 0dad ffba c907 2d3b ea7e ab3b
00000120: 4afe f5bb cbb8 b23b e5ef c63a 82de f13b
00000130: 3d70 2d3c a4a3 273a 7124 c73b cfb8 d6ba
00000140: 95cc e73a e182 893b f264 a63b fbf4 0b3c
00000150: 29a4 523b f094 3b3b 55f6 ed3a a225 0b3c
00000160: 91dd 8dbc e93d 80bb 731d 00bc 33c6 573c
00000170: c507 f33a 89ac 0d3c 7c1d 24bc f3f2 223c
00000180: 17ae 77bc 048b 283c 98fd 223c 1489 e33b
00000190: 9234 21bc 7915 a6bb 3805 c0ba 183b 05bc
000001a0: c938 8bbb 91ff e3ba cff2 0dbb 139a 18bc
000001b0: 615a 78bc b60f 2dbc 6e02 063c b35e ccba
000001c0: 2417 a8bb 6bcd ad3b 0975 3939 8aa4 87bb
000001d0: 38b7 8f3a a692 d93b 02e4 37bc 077f 1b3c
000001e0: 21e3 223b fa97 9537 413c 68bb a30e 02bc
000001f0: 6c92 d2bb 2b53 2d3c f7af 9c3b 7464 6ebb
00000200: 375d 7f3b 33dd f93b 1b12 a1bb 0b2a 38bb
00000210: 665c 233c f13c 25bc 1965 ee3b f9ca edbb
00000220: cc4d e4bb f501 60bc 08c7 04bb 0b7f db3a
00000230: df20 96bb fb51 81b8 faf0 363b d856 32bb
00000240: 9172 b73b d045 ce3b ef10 27bc 6dc1 2fbc
00000250: d912 5bbb dfaa 0dbb 032d b739 5956 22bc
00000260: 078e b23a 50ea 19bc fa76 183c b85c bd39
00000270: 36c3 16ba 013f b53b e058 eb39 4485 423c
00000280: c338 e8b9 5a9b 7f3b 75c2 5c3a d81c 3a3c
00000290: 06fe 3d3b ba53 a53b 8c3a 58b9 cc4d 99bb
000002a0: 7771 d1bb 341e 163c 9aa9 8e3b 7a5c 88bb
000002b0: fe07 303c 7a69 2abc 3cd5 98bb f210 513b
000002c0: 5abe a23a a7d3 bf3b 3ff1 8639 6289 1dbc
000002d0: 58ba 53bb 0ecd 0cbb 5735 03bb 8934 6ebb
000002e0: 2802 8438 5f57 323a 9c81 923a eaa0 1cbc
000002f0: 2bb6 3dbb 747b 703b 57ba afba e8f7 16bc
00000300: d978 063b f2ae e639 48ff 6fbb 562e e23a
00000310: b0d1 9ebb 082d 13bc 9bf0 023c 337d 703b
00000320: c202 1dbc ae04 9839 d144 30bc c8a4 20bc
00000330: e66a 0fbc ab00 12bc 7144 e93b a529 473b
00000340: 6a65 9cbb b984 83ba aa72 b33b 7aaa 29bc
00000350: 395d 0a3b 3bca 9cba 7890 adbb f961 1139
00000360: 5ba6 0abc b3b1 8b3b 113a fdba 40fe ea3a
00000370: 1500 ad3b cb28 22bc 80d1 d4b9 a844 a538
00000380: e075 813a c7cf 2ebc beba 2c3c 7d1d ea3b
00000390: 37c8 10bc 9cfd 97b9 3f9b 2fbc fc80 453b
000003a0: c762 5c3b 3366 eeba 5928 c3ba e234 81ba
000003b0: 8bfa 04bc a921 03bc e761 d2bb a0f4 3eba
000003c0: 3973 f1ba 9113 9abb 0e24 0fbc c785 fe3b
000003d0: 391a c93b 9719 5339 fee7 96bb 6e6c 8cbb
000003e0: a11c 273c ab34 38bb 96ce 99bb ed6d 263b
000003f0: c443 213a 14b4 0d3c 22a7 6d3a edb5 063b
-0.008310164 0.0066288533 0.009732293 0.004509962 0.0068337736 0.0011740538 -0.0039870455 -0.0050260522
-9.9360244e-05 -0.009028805 0.0104556065 -0.00910568 0.0051016826 0.007319744 -0.003812337 0.010399726
0.006223923 -0.0008397844 0.001083828 -0.0072548664 0.0012281921 0.0081893625 -0.004135791 0.007086137
0.00085354527 0.0010640922 0.0026409684 -0.0073558814 0.0036653948 -0.0064927037 -0.001299268 0.0065521263
0.0013005157 0.0075758016 -0.0012516077 0.0039205393 -0.002304652 0.0012689084 -0.007810197 0.011469984
-0.0014519645 0.005116606 -0.0004381073 0.010045056 0.009480318 0.0072841085 -0.0059714997 -0.0044085775
0.0019088729 -0.0020115431 0.0072556618 0.00020306777 -0.004906376 -0.003647376 -0.00394729 -0.0023236442
0.005754653 0.006839191 0.009209301 -0.005510439 -0.0048032575 -0.009548514 0.0005781901 0.0037579983
0.0040624747 -0.006103525 -0.005218867 0.0034137513 -0.002502404 -0.0019506529 0.0026402345 0.005233635
-0.0075071203 0.005454158 0.0015177695 0.0073812613 0.010585842 0.0006394929 0.006077342 -0.0016381982
0.0017684872 0.00419651 0.0050779516 0.008542295 0.0032141304 0.002862271 0.0018155078 0.008492859
-0.017317565 -0.0039136303 -0.007819521 0.013169813 0.0018541744 0.008647093 -0.010016795 0.009945619
-0.01511719 0.01028705 0.009948157 0.006943831 -0.009839194 -0.0050684777 -0.0014649993 -0.008131765
-0.0042487127 -0.001739489 -0.0021659618 -0.009314078 -0.015158267 -0.010562828 0.00817929 -0.0015592187
-0.0051297117 0.0053040287 0.00017686574 -0.0041394876 0.0010964638 0.0066397963 -0.011223795 0.009490735
0.0024854618 1.7832954e-05 -0.0035436305 -0.00793806 -0.0064261463 0.010578911 0.004781719 -0.0036375793
0.0038965472 0.007625246 -0.0049154884 -0.0028101231 0.00997076 -0.01008533 0.0072752354 -0.0072568622
-0.006967282 -0.013672342 -0.0020260233 0.0016746236 -0.0045815553 -6.1664694e-05 0.002791463 -0.0027212407
0.005598374 0.0062949434 -0.010196908 -0.010727269 -0.0033427982 -0.002161674 0.00034938016 -0.009908282
0.001362265 -0.009394243 0.00930571 0.0003611797 -0.00057511346 0.0055311923 0.0004488891 0.011872593
-0.0004429278 0.003900251 0.00084213103 0.011359416 0.002899052 0.0050453814 -0.00020621176 -0.0046784636
-0.0063917 0.009162474 0.004353714 -0.0041614147 0.010744093 -0.010401124 -0.0046640914 0.003190097
0.0012416348 0.0058540883 0.00025738214 -0.009615274 -0.0032307114 -0.0021484527 -0.0020020807 -0.0036347231
6.294652e-05 0.00068031804 0.0011177543 -0.009559849 -0.0028947692 0.0036694678 -0.0013406974 -0.009214379
0.0020518808 0.00043999363 -0.0036620665 0.0017256241 -0.004846774 -0.008982904 0.007991935 0.0036695718
-0.009583177 0.00028995186 -0.010758595 -0.009804912 -0.008753514 -0.008911292 0.0071187546 0.0030389812
-0.0047728317 -0.0010034061 0.0054763155 -0.010355586 0.0021112694 -0.0011962125 -0.005296763 0.00013864775
-0.008462514 0.0042631268 -0.0019319673 0.0017928556 0.005279551 -0.009897421 -0.0004059188 7.880601e-05
0.0009877048 -0.010669655 0.01054257 0.0071446286 -0.008836797 -0.00028989918 -0.010718166 0.0030136695
0.0033628212 -0.0018188417 -0.0014889344 -0.0009857679 -0.008116375 -0.008003631 -0.0064203623 -0.0007284377
-0.001842118 -0.0047020395 -0.008736623 0.0077674123 0.006137159 0.00020132061 -0.0046052923 -0.0042853868
0.010199697 -0.0028107564 -0.0046938164 0.002539511 0.00061517605 0.008648891 0.0009065737 0.0020555214

convs.6.weight f4 [72, 72]
00000000: ab97 48bc dff2 0f3c d7ce af3b 862c 333c
00000010: a189 abbb 7313 ad3a eb05 2e3a 7904 74bb
00000020: d5b2 ee39 3e20 083c 3ac3 06bb e896 4f3b
00000030: c9fb a53b 7c6d 8c3a 5e33 77bb becc c7ba
00000040: 72ca 33bc bdc4 14bb 8906 953b 7bb1 c73b
00000050: 2734 18bc 4e70 583a 8d5c c1ba 2978 973a
00000060: b211 1fbb 689e da3b 6b6c 113c ea97 793b
00000070: abec 1c3b 1097 893b 06e3 32bc 24d1 223c
00000080: e5fc 00bc 28f4 11bc 630f 483b b267 87bb
00000090: cfdb 1ebc 90c8 2cbc 9b3c eaba c0f9 a93b
000000a0: b0a7 993b 7450 383c 5d24 aa3b 5b2e 57bb
000000b0: 788a 1c3c 4a56 4f3a 837a c53b 9530 36bc
000000c0: 7db0 12ba 9f78 36bc 9c5f a639 289c a3bb
000000d0: 4138 18bc 7101 e1bb b7af a63a e8d2 37bb
000000e0: 0b3c 7e3b 8350 7abb 3119 1e3c 22f7 07bb
000000f0: d65c 083c b428 0b3c 1a4d fcbb b18e c43b
00000100: 531d 32bb 2f53 e73b 7222 c8ba a8f5 8a3b
00000110: 83ba 65ba 4531 04bc 5629 39bc 09bc 853b
00000120: 46e8 4dbb e859 003c cb54 e0bb e9fc 743b
00000130: 78b2 1bbb c74c ed3b e4bb 6f3b 7be0 e73b
00000140: 86c6 073c 248b 84bb 4e3c 18bc 7f6f 26bc
00000150: 25c9 36bb ad4f 9abb a376 f9bb 90b0 c8ba
00000160: 25d3 053b 92ee ce39 e3ea b7bb a1a2 713c
00000170: 2c31 f03b 9b4f 63bb f4a7 48bb e8cb 9b3b
00000180: 6db7 7cbc 0e5b 13bc d49f e03b 05d1 dabb
00000190: 9c4e 09bc 0865 fdbb 356c f8ba 0dd5 ab3b
000001a0: fadb 44bb d54f c7bb b334 dbbb c263 f2ba
000001b0: cd8b edbb 3a27 263c 97e0 b1ba fa7b e3ba
000001c0: 79a1 67bc d283 e7ba f2b2 263c 670a 95bb
000001d0: a4bf 083a 85d8 e3bb bbd0 23bb 8e57 a63b
000001e0: 554b 14bb df30 253b 2492 fb3b 2790 433c
000001f0: 7ebb d1bb 48ce b63b 7ef9 c6ba 301f bbba
00000200: b39d 24bb e9c1 45bc 3a85 44bb 11c8 ac3b
00000210: 2fc8 33bc b1cb a3bb 449f 4bbc ac97 223a
00000220: dd52 1b3b 745e 2bbc 5358 a53b f392 1b3b
00000230: 3024 16bc c010 e73b 887c 2abc e80c ba3b
00000240: 1c1e 2b3c fb34 053c 7716 b33b 9a1f 303c
00000250: bed4 ecbb efbf 2abc 3c7a ccba 4da4 6eba
00000260: 0943 b93a 4f57 293c 91e3 97bb 7f99 1fbb
00000270: ca7e 163b e938 33bb 2d59 a9ba b1c9 4d3b
00000280: 275c 053c d722 07bc 6fd5 5abb e1e6 853b
00000290: 4836 ffba 5639 d2ba ec2e 78bb 0e71 0439
000002a0: d7f5 aabb cd0e f4bb 6678 f2bb 6cf4 9eba
000002b0: 5d97 2abc d3f5 2bbc 4154 2fbc bf4d 5c3b
000002c0: d41d 4d3b a1c9 03bc b0f9 27bc 04df c93a
000002d0: 1b07 8dbb 56cf c7bb 4625 303c f354 38bc
000002e0: 74f9 c9bb de3a 85bb ca9e 2a3c a568 a2bb
000002f0: fb82 df3b 4981 e7b8 3f6d 2fbc 6865 f6bb
00000300: 60a0 12bc 04f4 a6ba a4a9 1d3c b734 973b
00000310: 72c7 b63b 9408 abbb befe a83b f6d3 e4bb
00000320: 7063 89ba 8168 283b 9821 0738 093c 133c
00000330: 3df5 eb3a 1208 34bc e53a 253c 1f55 0dbc
00000340: ee21 a33b 1135 5bbb 2a18 a23b e80c aebb
00000350: ffcc d3bb 5cc2 14bb 4b77 fd3b 6cf9 713b
00000360: 5e04 b6bb 306b 1bbc 290f 423a 5b2b 69bb
00000370: 90ce 273c 4aa4 1b3c 99b4 28bc 34fd 2b39
00000380: dd38 b53a d5da 1ebb 0a00 2ebc d4fc ebbb
00000390: 866c 3e3a a171 2d39 3667 afba 2dae 3dbc
000003a0: bb10 0dbb 0b49 093c 4949 b63b 8b13 2a3c
000003b0: 2acb 48ba 8c0f 2dbc f7c7 25bc b58a ccbb
000003c0: 51a7 ac37 adbd b4ba 27d6 27bb d780 623b
000003d0: 9cc9 41bb e7ae 913b 675f 2ebc 89b9 23bc
000003e0: 6ee4 e7ba 4762 5a3a b2d0 053c eaf2 25bb
000003f0: c557 52ba bf04 33bc eb35 b0ba 983a 3abc
-0.012243192 0.008785932 0.0053652334 0.010935908 -0.0052349125 0.0013204649 0.0006638455 -0.0037234111
0.00045528138 0.008308468 -0.0020563141 0.003167564 0.0050654155 0.0010713781 -0.0037719826 -0.0015243513
-0.01097356 -0.0022700273 0.004547898 0.0060941554 -0.009289778 0.0008256481 -0.0014752314 0.0011556196
-0.0024272022 0.0066717155 0.0088759465 0.0038084933 0.0023944776 0.0041989163 -0.010918384 0.009937558
-0.007872795 -0.008908309 0.003052675 -0.0041322345 -0.009695961 -0.010545865 -0.0017870845 0.005187243
0.0046891794 0.01124965 0.005192323 -0.0032834026 0.009554498 0.00079092814 0.0060265674 -0.011119981
-0.0005595757 -0.011137157 0.00031733222 -0.0049929805 -0.009290756 -0.006866627 0.0012717162 -0.0028049294
0.0038793113 -0.0038194961 0.009649561 -0.0020746668 0.008322915 0.008493591 -0.007699621 0.0059984555
-0.0027178123 0.007059477 -0.0015269055 0.0042407103 -0.0008763449 -0.008068387 -0.011301359 0.0040812534
-0.0031418963 0.007833935 -0.0068460456 0.0037382192 -0.0023757499 0.0072418186 0.0036580497 0.0070763207
0.008287078 -0.004044907 -0.0092917215 -0.010158419 -0.0027890888 -0.004709205 -0.0076130196 -0.0015311409
0.0020420041 0.0003946913 -0.0056127175 0.014748246 0.0073300805 -0.00346849 -0.0030617686 0.004754532
-0.0154245915 -0.008993877 0.0068549905 -0.006677749 -0.008380558 -0.007732991 -0.0018953147 0.0052439035
-0.0030038343 -0.0060825148 -0.006689632 -0.0018492865 -0.0072493316 0.010141188 -0.0013570961 -0.0017355673
-0.014137619 -0.0017663187 0.0101745 -0.004548359 0.0005216545 -0.0069533014 -0.002499624 0.0050763553
-0.002262791 0.0025206131 0.0076773334 0.011936224 -0.0064005246 0.00557879 -0.0015180556 -0.0014276262
-0.002511841 -0.012070158 -0.0029986636 0.005272873 -0.01097302 -0.004998647 -0.012428109 0.00062024104
0.0023700513 -0.010459531 0.0050459295 0.0023738712 -0.009163901 0.0070515573 -0.010405667 0.005677808
0.01044419 0.008130307 0.0054653245 0.010749722 -0.0072275093 -0.010421737 -0.0015600394 -0.0009103462
0.0014134358 0.010335757 -0.0046352823 -0.0024352965 0.0022963756 -0.0027347154 -0.0012920253 0.0031400735
0.008139647 -0.008248053 -0.0033391376 0.004086361 -0.0019471133 -0.0016038816 -0.0037869764 0.00012630617
-0.0052172947 -0.0074480535 -0.0073996065 -0.0012127287 -0.010412064 -0.010495621 -0.01070124 0.0033615676
0.0031298297 -0.008043678 -0.010252401 0.0015401547 -0.0043038256 -0.0060977144 0.010751074 -0.011250722
-0.0061637703 -0.0040658554 0.010413835 -0.0049563223 0.006821034 -0.000110390196 -0.010707199 -0.007519413
-0.008949369 -0.0012737517 0.009622965 0.0046144384 0.005577975 -0.0052195285 0.0051573208 -0.0069832755
-0.0010481905 0.0025697055 3.2217795e-05 0.008986481 0.0018002164 -0.010988252 0.010084842 -0.0086262515
0.00497841 -0.0033448378 0.0049467282 -0.005311597 -0.0064636464 -0.0022698855 0.007735168 0.0036922349
-0.00555472 -0.009486005 0.0007402772 -0.003557882 0.010242119 0.009499619 -0.010296964 0.00016402156
0.0013826151 -0.002423932 -0.0106201265 -0.0072017703 0.0007264096 0.00016540896 -0.00133822 -0.011577171
-0.0021524865 0.008379231 0.0055629355 0.010380636 -0.00076596683 -0.010562789 -0.010118476 -0.006242121
2.058191e-05 -0.0013789438 -0.0025609822 0.0034561658 -0.0029569631 0.004445899 -0.010642863 -0.0099929655
-0.0017691979 0.00083306845 0.008167433 -0.002532179 -0.0008023943 -0.0109264245 -0.0013443803 -0.011366509
