checkpoint/Wikipedia/20231105_161455064051.pth (torch, 760995 bytes, 38 tensors)

convs.0.weight f4 [72, 138]
0.1547147 -0.11339444 -0.26635435 -0.07949725 0.033788994 0.12969868 -0.14354086 -0.03260669
-0.1452183 -0.056655176 -0.09427818 -0.044326447 0.014616035 -0.030081283 0.18589199 0.40079612
-0.06653955 0.16879976 -0.2734178 0.061042577 -0.14420307 -0.0029163857 0.028917497 0.11258328
-0.13562578 0.0056893826 -0.04184357 0.35190842 -0.0048682243 0.18595858 0.07709008 -0.13204955
-0.08805118 -0.14667651 -0.25572658 -0.041018434 -0.17629786 -0.025943842 -0.16488187 0.044248335
-0.07951583 0.020750117 -0.1375656 -0.032921985 0.08873386 0.29999357 -0.07525734 0.019966753
0.053018685 -0.021230951 -0.16232954 -0.0047053676 0.014874514 0.09098643 -0.010345325 0.1474189
-0.09397179 0.18611783 0.025923595 -0.017930089 -0.10636139 -0.0064622043 0.03945604 0.001477164
-0.106331006 0.05718299 -0.1520102 -0.07584587 -0.06542162 0.2348269 -0.1372061 -0.09271035
-0.15122476 -0.13401939 0.027953487 0.063281775 -0.108598925 0.0377841 -0.11305663 -0.0069746897
-0.02784865 0.09050276 -0.1652141 0.12455055 -0.026401127 -0.041589957 -0.09746411 0.040746354
-0.14313088 0.01902605 -0.09417442 0.24911866 -0.009057465 -0.052434094 -0.0695901 -0.038540907
-0.163206 0.013111566 -0.05655408 0.03537648 -0.16539985 -0.060048606 0.03785584 0.0026287325
-0.20083685 0.029296663 -0.16116215 -0.0009921266 0.006608523 0.04110909 -0.0009971353 0.04028313
-0.065410785 0.11659816 -0.100294285 0.124757536 0.011637726 0.27573535 0.024364378 0.45248646
-0.2273965 -0.0067761927 -0.009002353 0.19563489 -0.21536876 -0.03192549 0.044252906 0.03504228
-0.24315716 -0.1598554 0.54437685 -0.01573215 -0.22853914 0.85055065 -0.043827973 -0.2200409
-0.25003257 0.68082756 -9.57487e-06 -2.7980882e-06 3.1187296e-06 1.5559677e-05 9.409009e-06 -3.942578e-06
-1.1788944e-05 9.633709e-07 -1.9764055e-05 9.413171e-06 -7.138782e-06 -8.820522e-06 -6.3290463e-07 1.0666485e-05
-9.651304e-07 -1.489587e-05 7.004499e-07 7.5406483e-06 1.15799085e-05 -6.5826684e-06 -3.614497e-06 -1.3840471e-06
-2.3367922e-06 7.735988e-06 -9.90236e-06 -7.0669785e-06 -8.303159e-06 -1.1781513e-05 1.5113186e-05 -1.9753608e-05
4.2747893e-06 -3.2767218e-07 -1.1065694e-05 7.61304e-06 -6.0984185e-06 -1.1380383e-05 -4.628562e-06 5.0687213e-06
4.7215235e-06 1.6671083e-05 -2.8490572e-06 -1.05882145e-05 8.242746e-08 5.857783e-06 1.0676052e-05 1.8699133e-06
-1.4001922e-05 3.6150689e-06 1.2550014e-05 -1.2538456e-05 1.8157834e-06 1.0082163e-05 8.3050054e-07 6.582402e-06
5.4063444e-06 -5.701275e-06 1.5350943e-05 1.8257842e-06 -1.3447948e-05 -3.1403683e-06 -1.1009716e-05 6.1221667e-06
-3.9030033e-07 1.00115885e-05 2.1277552e-05 -8.04248e-06 7.952922e-06 3.0195106e-06 3.0596068e-06 5.831041e-06
5.286222e-06 -7.740049e-06 -6.178965e-06 2.353199e-06 -5.4664447e-06 1.6497777e-05 -8.26853e-06 -4.1642847e-06
1.0741886e-05 3.7459338e-06 -4.9785476e-06 -1.9551042e-05 1.8493345e-06 5.7684485e-07 -8.194004e-06 4.372835e-06
1.6297181e-05 7.5060902e-06 -4.1511846e-08 3.5343794e-06 3.5574826e-06 4.9797736e-06 -2.2498075e-06 1.5082114e-06
5.45437e-06 -2.4704133e-07 1.3244296e-05 -7.2474822e-06 -2.0238851e-06 -1.954004e-05 1.3168582e-05 -1.0930446e-05
-1.4368994e-05 1.09353405e-05 1.1663612e-06 1.4835348e-05 1.7164895e-05 3.9007177e-06 1.7819624e-05 -7.7644945e-06
-2.757523e-06 5.5498467e-06 -1.2379281e-05 -5.012117e-06 -1.4212078e-05 2.9403839e-06 8.407084e-07 4.8219704e-06
00000000: 886d 1e3e 583b e8bd 995f 88be 74cf a2bd
00000010: 5466 0a3d bbcf 043e 60fc 12be 988e 05bd
00000020: 1bb4 14be 420f 68bd eb14 c1bd a68f 35bd
00000030: 1878 6f3c 066d f6bc 785a 3e3e 2635 cd3e
00000040: e345 88bd d8d9 2c3e 6bfd 8bbe c807 7a3d
00000050: f8a9 13be d520 3fbb 63e4 ec3c 1092 e63d
00000060: 7ce1 0abe 006e ba3b 2a64 2bbd 572d b43e
00000070: a085 9fbb ed6b 3e3e 67e1 9d3d ff37 07be
00000080: 2d54 b4bd 5e32 16be 98ee 82be f202 28bd
00000090: 6d87 34be 2e88 d4bc cbd6 28be be3d 353d
000000a0: 32d9 a2bd 26fc a93c ffdd 0cbe 34d9 06bd
000000b0: 19ba b53d c298 993e 8520 9abd 5191 a33c
000000c0: 1f2a 593d 88ec adbc b739 26be 7c2f 9abb
000000d0: 3cb4 733c 1857 ba3d 707f 29bc fbf4 163e
000000e0: 4874 c0bd ac95 3e3e b85d d43c 1fe2 92bc
000000f0: 00d4 d9bd e6c0 d3bb a89c 213d 669d c13a
00000100: 12c4 d9bd b638 6a3d 90a8 1bbe 1455 9bbd
00000110: c5fb 85bd 7676 703e c27f 0cbe edde bdbd
00000120: aada 1abe 613c 09be b6fe e43c e099 813d
00000130: 1d69 debd 80c3 1a3d 3c8a e7bd f08b e4bb
00000140: da22 e4bc 8359 b93d e32d 29be 5c14 ff3d
00000150: 2d47 d8bc 3b5a 2abd 439b c7bd a6e5 263d
00000160: e790 12be 85dc 9b3c 85de c0bd f618 7f3e
00000170: c365 14bc 22c5 56bd 4185 8ebd 12dd 1dbd
00000180: 791f 27be e5d1 563c 40a5 67bd eee6 103d
00000190: 945e 29be 87f5 75bd ba0e 1b3d d046 2c3b
000001a0: 2da8 4dbe 8eff ef3c b107 25be 3f0a 82ba
000001b0: 4f8c d83b 0162 283d 4fb2 82ba ecff 243d
000001c0: 17f6 85bd 04cb ee3d 1767 cdbd e180 ff3d
000001d0: 29ac 3e3c 2f2d 8d3e ce97 c73c 4eac e73e
000001e0: a1da 68be d30a debb 9b7e 13bc 8354 483e
000001f0: a189 5cbe 4dc4 02bd 8942 353d 7e88 0f3d
00000200: 31fe 78be 22b1 23be 485c 0b3f b6e0 80bc
00000210: 2a06 6abe b0bd 593f f684 33bd 6752 61be
00000220: 4504 80be b74a 2e3f c1a3 20b7 cac6 3bb6
00000230: 5e4b 5136 2786 8237 63db 1d37 7d4a 84b6
00000240: 21c9 45b7 2c4d 8135 fcca a5b7 43ed 1d37
00000250: ac89 efb6 dbfb 13b7 e0e4 29b5 34f4 3237
00000260: a189 81b5 46e9 79b7 8d06 3c35 ad05 fd36
00000270: 5447 4237 b1e0 dcb6 9690 72b6 7fc3 b9b5
00000280: c9d1 1cb6 d1c9 0137 5022 26b7 e220 edb6
00000290: cc4d 0bb7 37a9 45b7 a48e 7d37 8db4 a5b7
000002a0: 2970 8f36 ecea afb4 cba6 39b7 8473 ff36
000002b0: 04a1 ccb6 5fee 3eb7 0b4f 9bb6 fc13 aa36
000002c0: 946d 9e36 e1d8 8b37 6e32 3fb6 09a4 31b7
000002d0: fa02 b133 f98d c436 4b1d 3337 bbf9 fa35
000002e0: cce9 6ab7 699a 7236 e68d 5237 425c 52b7
000002f0: d8b5 f335 8f26 2937 90ef 5e35 67de dc36
00000300: 2568 b536 944d bfb6 e6c5 8037 780d f535
00000310: 7f9e 61b7 1ebf 52b6 5fb6 38b7 036d cd36
00000320: 788a d1b4 72f7 2737 327d b237 30ee 06b7
00000330: 8a6d 0537 cca2 4a36 a553 4d36 43a8 c336
00000340: 4d60 b136 42db 01b7 e854 cfb6 a7eb 1d36
00000350: 676c b7b6 b564 8a37 11b9 0ab7 efba 8bb6
00000360: 0d38 3437 a762 7b36 660d a7b6 8b01 a4b7
00000370: a636 f835 7ad8 1a35 fb78 09b7 5eba 9236
00000380: eeb5 8837 d3dc fb36 c24a 32b3 2d30 6d36
00000390: 16bd 6e36 ee17 a736 66fb 16b6 c06d ca35
000003a0: ae04 b736 1aa1 84b4 d133 5e37 662f f3b6
000003b0: 15d2 07b6 ebe9 a3b7 a1ee 5c37 e861 37b7
000003c0: 5c12 71b7 ee76 3737 de8b 9c35 56e5 7837
000003d0: 55fd 8f37 e9e2 8236 5a7b 9537 4044 02b7
000003e0: e20d 39b6 d238 ba36 9bb0 4fb7 c22d a8b6
000003f0: 6970 6eb7 6953 4536 0bad 6135 69cc a136

convs.0.bias f4 [72]
0.052632064 -0.00031462414 0.07613447 0.10184604 0.081600286 0.17039075 0.06870344 0.1236124
0.08570603 0.050860353 -0.0032831768 0.074233755 0.034682855 0.112704225 0.061762255 0.09734207
0.11099983 0.04952939 -0.039590415 0.088500805 -0.0010450197 0.08750903 0.039630737 0.082142875
0.14885029 0.038212776 -0.006203428 0.12645137 0.061149575 -0.0030417475 -0.004889839 -0.043890204
0.01770139 0.10120367 0.06328486 -0.040308483 0.15800728 0.03410953 0.068377785 9.592908e-05
-0.015166014 -0.034590717 -0.014607237 0.13031392 0.11151838 0.05716913 0.15780787 0.11842406
0.18568365 0.13980708 0.08528847 0.096959606 0.069058105 -0.039803118 -0.0073255193 0.038557515
0.1632673 0.07257752 0.071609415 0.08716576 0.101072356 0.13868035 -0.035266664 0.08368948
0.07706183 0.14578664 0.024199992 0.07597448 0.03393496 0.09396953 0.10910685 0.09264057
00000000: b894 573d 23f4 a4b9 64ec 9b3d a894 d03d
00000010: 0d1e a73d ea7a 2e3e 64b4 8c3d 7f28 fd3d
00000020: a586 af3d f252 503d 912a 57bb de07 983d
00000030: 9c0f 0e3d 79d1 e63d 6bfa 7c3d 475b c73d
00000040: e153 e33d 54df 4a3d 8f29 22bd e93f b53d
00000050: 0bf9 88ba ef37 b33d d753 223d 863a a83d
00000060: 366c 183e 0085 1c3d 2046 cbbb 787c 013e
00000070: fa77 7a3d 0e58 47bb f13a a0bb 37c6 33bd
00000080: 8102 913c df43 cf3d 7e9b 813d 821a 25bd
00000090: a9cc 213e 6fb6 0b3d a709 8c3d 882d c938
000000a0: e07a 78bc ffae 0dbd 3153 6fbc 0371 053e
000000b0: c063 e43d 2d2a 6a3d 6398 213e 5088 f23d
000000c0: db23 3e3e 9629 0f3e b9ab ae3d c292 c63d
000000d0: 566e 8d3d 9808 23bd e90a f0bb 7cee 1d3d
000000e0: 8b2f 273e 86a3 943d f5a7 923d f683 b23d
000000f0: 06ff ce3d 3902 0e3e c773 10bd 6465 ab3d
00000100: 98d2 9d3d 1849 153e 103f c63c 8298 9b3d
00000110: 62ff 0a3d 1973 c03d 6a73 df3d 57ba bd3d

convs.1.weight f4 [72, 72]
0.0003886412 -5.92703e-06 -0.0027494752 -0.0012363986 -0.00035768037 0.0013191154 -0.0005616655 -0.0003841801
0.0016001165 -0.0018742835 -2.9844921e-05 -0.00036157045 0.000898584 -0.00044458493 -0.00048125707 -0.002926137
0.0060118665 0.0006504565 -1.4540101e-06 0.00030152555 -0.0023367228 -0.00338971 0.00017480362 -0.0016835028
0.0029588672 -0.00018059895 -1.2663485e-05 -0.0003750058 0.0012291 -6.126732e-07 3.4225955e-06 2.6364096e-05
-0.002629619 -0.00073140394 -0.0010954773 -3.1024913e-06 -0.00043298508 0.0013876063 -0.0019532794 3.5817293e-06
5.1918278e-06 -3.594622e-05 -8.379472e-06 0.0029158052 0.00024743457 0.00012178484 -0.00034211346 0.00016747382
-0.0019165843 0.0027445455 0.00039742558 -0.002085161 -0.0025361183 -0.001172356 -2.7692104e-05 0.0003455615
-0.0011680651 -0.0019061245 0.00081474474 -0.0020857018 -0.0008004012 -2.224437e-05 -4.9820187e-06 0.00079657324
-0.0035935447 -0.0016675809 -0.00093869586 0.0019952005 0.0016170045 -0.0013665534 0.0008282389 0.004446686
1.4156834e-06 -2.7795593e-06 1.4814942e-05 -4.3298755e-06 6.351552e-06 8.983346e-07 1.9026145e-05 2.5650179e-05
-2.406568e-05 -4.8404736e-06 1.46294615e-05 1.2998665e-05 -1.0287813e-05 -3.1668926e-06 -1.6372486e-06 -1.096616e-05
9.86691e-07 1.8388208e-06 -5.038629e-06 1.6121325e-05 1.8884204e-05 -7.5551534e-06 -1.4388192e-05 -5.224757e-07
-1.1236949e-06 2.7515558e-05 -4.0207448e-07 1.2577922e-06 4.4081693e-07 -1.9432957e-05 2.03435e-05 -6.611759e-06
-4.7473445e-06 -3.6570502e-06 1.3900659e-07 1.4436561e-05 -6.050964e-06 -5.086851e-06 -3.4993898e-06 2.0188738e-06
4.5992124e-06 -2.2991682e-05 7.16042e-06 -1.3127395e-05 -4.867038e-07 3.066353e-05 -1.9078567e-05 -4.778827e-06
1.0941105e-05 1.725684e-05 2.9530443e-05 -8.723944e-06 -1.5551563e-05 -1.5236804e-05 -4.3950267e-06 -2.7209294e-06
1.5097726e-05 -1.4555532e-05 -8.313441e-06 7.743398e-06 -1.6634596e-05 -3.3490267e-06 3.4375978e-06 -2.1058129e-06
3.545995e-06 7.645048e-06 2.3823783e-05 9.305906e-06 -1.6706728e-05 1.3447025e-06 -9.597696e-07 1.4318614e-05
0.0027514368 -2.1294869e-05 -0.004067838 -0.00042210286 -0.00064879877 0.0040457565 4.5028355e-05 -0.0007879517
0.0010971808 -0.0028513242 4.780843e-06 0.0006300167 0.0012967114 -8.052097e-05 0.0006097375 -0.00245126
-0.0035470463 0.0017338475 -2.0310119e-05 0.00040228295 -0.00415665 -0.000718135 -0.0031249758 -0.0034806957
0.00084228936 -0.0029803673 1.0611301e-05 -0.004986305 0.005599605 2.843769e-06 -9.04128e-06 2.7783485e-06
-0.0039595533 0.0021615191 -0.00031452256 1.249623e-05 -0.00081079867 0.0016444041 -0.002928287 2.4969945e-06
-1.89886e-05 -9.81381e-07 -9.657741e-06 -0.00063574873 0.0010267358 0.0006347525 0.0019354264 0.00010159707
-0.0032917708 -0.0030911092 0.000332571 -0.0006220881 -0.0037145962 -0.0014480893 -7.2126054e-06 0.0009980416
-0.0019329234 -0.0054688742 -0.0005826909 -0.0028535284 -0.0011561665 -0.00064738 -1.0222046e-05 -0.0018432713
-0.004747856 -0.0011275662 0.0010284135 -0.0011274894 0.00050457875 -0.0029736916 0.0015940885 0.00097223365
0.0004256857 -1.9106279e-05 0.005578848 -0.0013893383 -0.001206272 0.0015364826 0.001240045 -0.0018722819
0.0010962868 -0.002375393 -2.598402e-05 -0.0003248682 -0.002804138 -0.0010174803 0.009261279 -0.0009581709
-0.0019894831 -0.00019531195 2.0991247e-06 0.00010831815 -0.00089618406 -0.0022486 0.00038445165 -0.0005324169
0.003123489 -0.0015128173 -7.534516e-06 0.0013118542 0.00022978675 -4.7831204e-06 5.8657142e-06 -1.306523e-05
-0.00019579673 -0.0001719186 -0.00021680057 1.7216016e-05 -0.000808203 0.0014359421 -0.0057225553 -1.2382205e-05
00000000: 8ac2 cb39 cde0 c6b6 8a30 34bb a70e a2ba
00000010: 0c87 bbb9 2be6 ac3a bc3c 13ba c86b c9b9
00000020: 00bb d13a 85aa f5ba 7b5b fab7 2a91 bdb9
00000030: f48e 6b3a 2e17 e9b9 3b51 fcb9 6fc4 3fbb
00000040: 31ff c43b 6683 2a3a 6827 c3b5 1316 9e39
00000050: b423 19bb e625 5ebb 7d4b 3739 fba8 dcba
00000060: 8ee9 413b 295f 3db9 4175 54b7 6d9c c4b9
00000070: c119 a13a 9576 24b5 beaf 6536 7728 dd37
00000080: b055 2cbb b0bb 3fba 1e96 8fba 6534 50b6
00000090: 4602 e3b9 57e0 b53a 9702 00bb a45d 7036
000000a0: 7635 ae36 f6c4 16b8 8f95 0cb7 1817 3f3b
000000b0: 1bba 8139 bd66 ff38 b15d b3b9 e99b 2f39
000000c0: e635 fbba d5dd 333b 8f5d d039 32a7 08bb
000000d0: 0135 26bb bda9 99ba 574c e8b7 7b2c b539
000000e0: c319 99ba edd6 f9ba 9894 553a 45b0 08bb
000000f0: 04d2 51ba 6c99 bab7 372b a7b6 20d1 503a
00000100: ad81 6bbb bb92 daba d012 76ba e9c1 023b
00000110: abf1 d33a ec1d b3ba 2c1e 593a 81b5 913b
00000120: 8302 be35 7788 3ab6 b18d 7837 5949 91b6
00000130: 6b1f d536 1525 7135 569a 9f37 572b d737
00000140: a7e0 c9b7 5a6b a2b6 0f71 7537 d714 5a37
00000150: d299 2cb7 cd86 54b6 6fbf dbb5 4cfb 37b7
00000160: 726e 8435 67cd f635 7e11 a9b6 483c 8737
00000170: 8569 9e37 4682 fdb6 d064 71b7 4240 0cb5
00000180: ddd1 96b5 36d1 e637 b2dc d7b4 69d1 a835
00000190: 6ba9 ec34 f503 a3b7 55a7 aa37 94da ddb6
000001a0: 614b 9fb6 a56b 75b6 d741 1534 8f34 7237
000001b0: 6309 cbb6 b8af aab6 0fd7 6ab6 fd7b 0736
000001c0: ef52 9a36 43de c0b7 8a43 f036 bb3d 5cb7
000001d0: 08a6 02b5 b79c 0038 e90a a0b7 d059 a0b6
000001e0: b08f 3737 c8c2 9037 25b8 f737 0e5d 12b7
000001f0: ba74 82b7 93a1 7fb7 fe78 93b6 3699 36b6
00000200: 3d4c 7d37 8933 74b7 f579 0bb7 a4e9 0137
00000210: 868a 8bb7 d7bf 60b6 7bb1 6636 9751 0db6
00000220: bbf7 6d36 3b43 0037 2fd9 c737 9020 1c37
00000230: 6d25 8cb7 a07b b435 6fd1 80b5 fb39 7037
00000240: 7351 343b 62a2 b2b7 804b 85bb b04d ddb9
00000250: 2614 2aba 4492 843b d4dc 3c38 8b8e 4eba
00000260: 47cf 8f3a 48dd 3abb 216b a036 b427 253a
00000270: 6af6 a93a 5edd a8b8 cad6 1f3a 52a5 20bb
00000280: 9075 68bb 4542 e33a a65f aab7 81e9 d239
00000290: 8234 88bb 3941 3cba 65cc 4cbb 621c 64bb
000002a0: 15cd 5c3a 4452 43bb 3107 3237 2864 a3bb
000002b0: e47c b73b 94d7 3e36 00b0 17b7 aa73 3a36
000002c0: 24bf 81bb 46a8 0d3b 81e6 a4b9 e6a6 5137
000002d0: c78b 54ba 0c89 d73a 81e8 3fbb 0a92 2736
000002e0: b549 9fb7 ffb7 83b5 af07 22b7 60a8 26ba
000002f0: 8993 863a 8565 263a 22ae fd3a 8310 d538
00000300: c0ba 57bb 3594 4abb ed5c ae39 a013 23ba
00000310: 9570 73bb d0cd bdba cf03 f2b6 b8d0 823a
00000320: 265a fdba 3e34 b3bb b9bf 18ba 4302 3bbb
00000330: 838a 97ba f0b4 29ba 5a7f 2bb7 ec99 f1ba
00000340: e793 9bbb d8ca 93ba d5cb 863a 44c8 93ba
00000350: b545 043a 44e2 42bb bcf0 d03a 7fdd 7e3a
00000360: 912e df39 6c46 a0b7 c5ce b63b 751a b6ba
00000370: c61b 9eba cd63 c93a 0189 a23a 5b67 f5ba
00000380: 48b1 8f3a 7bac 1bbb 42f8 d9b7 1253 aab9
00000390: a1c5 37bb f95c 85ba 9fbc 173c c32d 7bba
000003a0: fd61 02bb a7cc 4cb9 b0de 0c36 dd28 e338
000003b0: e5ed 6aba 3f5d 13bb 3a90 c939 e591 0bba
000003c0: 73b3 4c3b ba49 c6ba 00d1 fcb6 86f2 ab3a
000003d0: e9f2 7039 b17e a0b6 1ad2 c436 bc32 5bb7
000003e0: c94e 4db9 0c45 34b9 f654 63b9 1d6b 9037
000003f0: 96dd 53ba 3936 bc3a 4684 bbbb 2abd 4fb7

convs.2.weight f4 [72, 72]
-0.00086329563 7.221245e-06 0.0013827357 0.00028439553 -0.00021540788 -0.00013952832 -0.0019182878 -0.000354444
0.0003496155 -0.00094626396 -2.5874293e-05 -0.00025740638 0.0006872 0.00027150774 0.0008244832 -0.0012311422
-0.0007500115 0.00010326342 -4.304054e-06 0.00044020318 -0.00039869334 -0.00024144759 0.0001529198 -0.00082761754
0.0010432461 -0.00028314776 1.3446399e-06 -0.001123529 0.00012844148 6.195259e-08 5.679039e-06 -1.4570851e-06
-0.0014427422 -0.0006179865 -0.0014672116 2.4555457e-05 -0.00026842253 0.00037047634 -0.00059650023 -1.46906195e-05
-1.8287592e-05 1.2692233e-05 -2.1188836e-05 -0.0004915477 -0.00034214035 0.0009925583 0.00047682537 -0.00012985771
0.0008873247 -0.00049650326 0.00012061609 -0.00018538377 -0.002252453 -0.0005750834 -1.2936504e-05 0.0009123001
-0.0004936816 -0.0010875463 0.0004587405 -0.00033270722 -0.00021668515 0.00010621142 1.5568452e-05 -0.00021426711
-0.0022150862 -0.001092625 -0.00050835055 0.0007400741 0.00029528397 -0.0005531033 0.00076541305 0.00040497293
9.156384e-06 2.394417e-05 1.4641309e-05 4.5909796e-06 -1.6016759e-06 6.598958e-06 3.942667e-06 -2.4578776e-06
-2.8927534e-06 -1.118839e-05 1.2048083e-05 -1.1147881e-05 -4.2203606e-06 -1.0145562e-05 -2.0587888e-05 -7.609258e-06
2.6737787e-06 5.903339e-06 -2.5901563e-05 1.0077148e-05 -6.825827e-06 2.0967565e-05 4.901847e-06 -6.7530236e-06
4.863507e-06 2.1512413e-05 -1.6663784e-05 -3.09073e-06 -2.942822e-06 4.377712e-06 1.3354912e-05 -3.2243404e-06
1.0454191e-05 -1.7742093e-06 -2.6529924e-06 2.2053324e-05 1.9968888e-06 -6.5266167e-06 1.0864141e-05 -3.063661e-05
3.6377892e-07 1.659221e-05 1.0768402e-06 2.8041655e-05 -6.1287838e-06 2.9040672e-05 7.633299e-06 2.0443638e-06
2.5851665e-05 -1.6592603e-05 1.1057757e-05 5.3387803e-06 6.6393213e-06 8.290957e-06 2.9167737e-05 -3.7737987e-06
-1.31670395e-05 -1.678151e-06 4.5053816e-06 1.3376879e-06 9.408967e-06 -4.0025943e-06 -2.270673e-06 7.723421e-06
1.0223557e-05 -3.3602757e-06 1.4912666e-06 1.6244163e-05 1.9677593e-05 7.536076e-07 2.900697e-05 -8.01388e-06
0.0012045152 -3.0380702e-06 0.00010100933 -0.00052746624 -0.0002791307 0.00090008246 -3.4229764e-05 -0.0010554513
-0.00072296883 0.00047693404 2.5260297e-05 -0.00021344243 0.00047361484 -0.00066192803 0.0036713744 -0.0014286161
-0.001826934 9.474908e-06 -9.470748e-06 0.00088402577 -0.001923468 -0.005167661 0.0007623273 -0.0013454446
0.001961011 0.0008168078 3.00039e-05 0.00024066727 0.0013651858 -1.40114935e-05 2.1456908e-06 -2.9776606e-06
-0.003980082 -0.0013329933 -0.0026438418 6.7531614e-06 -0.00027821228 0.00036785295 -0.0014918606 6.173801e-06
-2.2303711e-05 5.84819e-05 -2.5829762e-05 -0.0012015951 -0.0006228821 -0.0009217114 -0.00019063368 4.899882e-05
0.00042101345 0.0012571204 0.000176178 -0.0011661734 -0.0007172627 0.0024935391 7.6743606e-07 0.0007002465
-0.00058625976 1.7278639e-05 0.0015770858 0.0010820773 -0.00033181746 0.00022455916 3.724469e-06 0.00025593373
-0.0016227516 -0.0015402024 -0.0005233065 -0.0005361316 0.0009094064 6.6162014e-05 0.0009582634 0.0002671885
0.0009964472 -3.1921406e-06 0.0005262556 -0.00052316644 -0.0005340992 0.0019809706 -0.0012595945 0.0005444625
-2.6764186e-05 0.0010195648 -4.4064286e-06 0.00074722845 -0.00090459053 -0.00034090073 0.0041256077 -0.0019836135
0.0032826632 0.0010049242 2.5661824e-05 0.00065393583 0.00071634905 -0.0047365907 9.2682174e-05 -0.0011746438
0.0017882609 -0.0013911983 -4.8172724e-06 -0.0019195745 -4.23802e-05 1.3941472e-07 5.1269526e-06 -8.5173974e-07
-0.0020381042 1.3684343e-05 -3.4423763e-05 7.796852e-06 -8.634807e-05 0.00054419256 -0.0015425346 -1.4624336e-05
00000000: ca4e 62ba 064e f236 e93c b53a ec1a 9539
00000010: 1ddf 61b9 594e 12b9 0f6f fbba abd4 b9b9
00000020: 994c b739 b30e 78ba 9f0c d9b7 80f4 86b9
00000030: 3625 343a 2759 8e39 2222 583a 475e a1ba
00000040: 6b9c 44ba 208f d838 8b6b 90b6 12cb e639
00000050: b707 d1b9 182d 7db9 1959 2039 79f4 58ba
00000060: 88bd 883a 7373 94b9 7a79 b435 6143 93ba
00000070: 3fae 0639 cc0a 8533 938e be36 1091 c3b5
00000080: 651a bdba 5f00 22ba 744f c0ba 71fc cd37
00000090: 10bb 8cb9 7e3c c239 745e 1cba bb77 76b7
000000a0: 4e68 99b7 baf0 5437 aebe b1b7 35db 00ba
000000b0: 4d61 b3b9 bb18 823a 6bfe f939 6a2a 08b9
000000c0: 5a9b 683a c527 02ba 45f3 fc38 9463 42b9
000000d0: e49d 13bb 32c1 16ba dd09 59b7 6c27 6f3a
000000e0: 696a 01ba 008c 8eba 1c83 f039 356f aeb9
000000f0: fa35 63b9 d2bd de38 ff98 8237 e4ac 60b9
00000100: fb2a 11bb 6936 8fba d442 05ba 8801 423a
00000110: 58d0 9a39 22fe 10ba 00a6 483a 8c52 d439
00000120: 5f9e 1937 b7db c837 f1a3 7537 370c 9a36
00000130: 2af9 d6b5 9e6c dd36 404b 8436 04f2 24b6
00000140: 2021 42b6 c5b5 3bb7 1f22 4a37 c907 3bb7
00000150: 9f9c 8db6 db36 2ab7 27b4 acb7 0753 ffb6
00000160: 2b6f 3336 4c15 c636 2f47 d9b7 0511 2937
00000170: 6809 e5b6 81e3 af37 8c7a a436 0898 e2b6
00000180: 3531 a336 8e75 b437 34c9 8bb7 566a 4fb6
00000190: 4c7d 45b6 42e4 9236 e90e 6037 bf61 58b6
000001a0: 6964 2f37 5e21 eeb5 100a 32b6 27ff b837
000001b0: 4a02 0636 36ff dab6 2145 3637 cf7f 00b8
000001c0: 654d c334 802f 8b37 f387 9035 ff3a eb37
000001d0: daa5 cdb6 5e9c f337 c510 0037 e731 0936
000001e0: 07dc d837 5830 8bb7 b484 3937 c623 b336
000001f0: 56c7 de36 6419 0b37 3dad f437 5e41 7db6
00000200: 01e8 5cb7 d43c e1b5 ef2c 9736 9b8a b335
00000210: 35db 1d37 064e 86b6 dd61 18b6 d793 0137
00000220: d885 2b37 1981 61b6 8827 c835 1344 8837
00000230: 4f11 a537 854b 4a35 fe53 f337 5a73 06b7
00000240: d3e0 9d3a a6e1 4bb6 f9d4 d338 a945 0aba
00000250: 4a58 92b9 83f3 6b3a ee91 0fb8 1257 8aba
00000260: 9e85 3dba 010d fa39 13e6 d337 84cf 5fb9
00000270: 824f f839 3d85 2dba 719b 703b 6740 bbba
00000280: bc75 efba 6cf6 1e37 8ee4 1eb7 f7bd 673a
00000290: e01c fcba 7b55 a9bb ebd6 473a a159 b0ba
000002a0: 4e84 003b 0b1f 563a e2b0 fb37 a15b 7c39
000002b0: 09f0 b23a e812 6bb7 b0fe 0f36 d2d3 47b6
000002c0: 596b 82bb d5b7 aeba 4e44 2dbb 3799 e236
000002d0: 05dd 91b9 63dc c039 898a c3ba 8c28 cf36
000002e0: db18 bbb7 764a 7538 feac d8b7 d77e 9dba
000002f0: e948 23ba 019f 71ba d7e4 47b9 1584 4d38
00000300: 78bb dc39 f6c5 a43a 6cbc 3839 49da 98ba
00000310: af06 3cba a56a 233b ce01 4e35 bf90 373a
00000320: 3aaf 19ba 98f1 9037 38b6 ce3a 7dd4 8d3a
00000330: c9f7 adb9 a477 6b39 e4f1 7936 d82e 8639
00000340: 82b2 d4ba 9ee0 c9ba 812e 09ba 2f8b 0cba
00000350: 3b65 6e3a 76c0 8a38 f833 7b3a 6f15 8c39
00000360: 389b 823a 8f38 56b6 6af4 093a 1b25 09ba
00000370: ca02 0cba 2cd3 013b fa18 a5ba 43ba 0e3a
00000380: a783 e0b7 eba2 853a efda 93b6 a7e1 433a
00000390: 0b22 6dba ecba b2b9 1b30 873b 83ff 01bb
000003a0: f321 573b a9b7 833a 5944 d737 e46c 2b3a
000003b0: 5fc9 3b3a 6735 9bbb 5d5e c238 81f6 99ba
000003c0: 1464 ea3a de58 b6ba 0ea4 a1b6 3b9a fbba
000003d0: 65c1 31b8 07b2 1534 3008 ac36 1ca3 64b5
000003e0: b791 05bb ce95 6537 3c62 10b8 39cf 0237
000003f0: c415 b5b8 25a8 0e3a df2e caba 0b5b 75b7

convs.3.weight f4 [72, 72]
0.0008244144 -5.114271e-06 -0.0011401122 0.00013516517 -0.00013793213 -0.000103728635 -0.0005419036 -0.00027312196
0.00040206008 -0.00018576135 -7.4876294e-07 2.5676329e-05 0.00030227454 -0.0002626013 -0.00025080194 -0.001208999
5.4984965e-05 -0.00013482744 -8.142206e-07 0.00034808269 -0.0004007302 -0.00024350829 0.0003799701 -0.00048148053
9.381297e-05 0.0044792714 -3.019352e-05 0.0009806437 0.00010996858 2.3949762e-05 -6.301719e-06 -9.437115e-06
-0.0012496222 0.0007569184 0.00070309156 -1.220099e-05 -0.00012945812 0.00041665402 -0.0005273669 5.399142e-06
2.5247282e-06 7.327898e-06 2.940533e-05 -0.00049947033 8.5400876e-05 -0.00035726308 0.000430059 -1.4923621e-06
-0.0007350035 -0.0004751358 0.00014380677 -0.0007185801 -0.0009720513 7.18776e-05 1.5082079e-05 -0.0004370719
-0.00023849476 0.00030361398 0.00045271945 0.000106463136 0.0012026184 9.503567e-05 -6.099977e-06 0.00026824532
-0.000125561 -0.00031394215 0.0003205802 0.0007981135 0.00026957053 -0.00033581778 -0.00021616596 0.0010869633
1.3506195e-05 -2.0856296e-06 -1.4597938e-05 -1.0768611e-05 -2.6180946e-06 -1.3470352e-05 2.4914907e-05 2.0071413e-05
-5.041929e-06 7.184273e-06 -2.4854198e-05 1.7351414e-05 -1.2820497e-05 -8.098575e-06 1.9728934e-05 -1.117962e-05
-8.3211876e-07 1.2649236e-06 1.491294e-06 3.047497e-06 1.0162157e-05 1.4468645e-06 1.2585062e-05 3.0557687e-05
-2.6467908e-06 -4.599054e-06 -1.5636619e-05 2.0783385e-05 -3.6448816e-06 6.4254777e-06 9.61982e-07 -1.5866436e-07
2.1928265e-05 -1.0727145e-05 -6.472322e-06 -2.2489567e-06 1.5871183e-05 -1.0619682e-05 1.4927131e-06 6.300518e-06
1.6394306e-05 -1.21766e-06 -5.8322394e-06 -5.0800268e-06 3.6574945e-06 7.393714e-06 -7.355169e-06 -6.9009695e-07
-4.411338e-06 3.3321892e-06 5.0463655e-07 -2.5919815e-05 1.8954028e-05 2.2378651e-06 -1.8884615e-05 -1.3799249e-06
-1.891883e-05 -4.7100107e-06 1.2383976e-05 -6.683375e-06 -6.9666644e-06 -1.2669179e-05 -8.3266605e-06 -1.552287e-06
-3.9440242e-06 2.1385109e-05 -5.393554e-06 -1.0120789e-06 -4.7776615e-07 7.735566e-06 5.8693904e-06 9.574279e-08
-7.6255295e-05 -7.0643e-06 -0.0019854058 -0.0005246408 -0.0005067055 -0.00028727547 6.167739e-05 -0.0007073546
0.0009982435 -0.0009893919 6.5310705e-06 0.00025351509 0.0007300174 -7.7471035e-05 -0.00028272392 -0.0019628725
-0.00081099255 2.6314696e-05 -1.143894e-06 0.00024626032 0.0008641817 -0.0011459148 0.00019892372 -0.00045419548
0.00027670624 0.00034845574 -6.0592033e-06 0.00047374162 0.0002990414 -3.1914788e-06 -5.8913706e-06 -3.0415438e-05
-0.0010977635 0.0013972778 -0.0016153862 -1.1485058e-05 -0.00020623337 -0.00029676934 -0.000890615 -1.3363842e-06
2.1183812e-05 8.086611e-06 -2.0956563e-06 -0.00040255333 -0.00039489174 1.2108463e-05 -0.00045954608 -0.00052987254
-0.0010071591 -2.2198978e-05 0.00011056867 -0.00032263386 -0.00129183 0.001862364 -1.5413902e-06 0.00044249085
-0.000878509 0.0005995701 0.00058056385 -0.0010064398 -0.00075705914 9.254041e-05 6.9307575e-06 0.00010883753
-8.221916e-05 -0.0008250253 0.00010536462 -0.0003214984 0.0006342759 0.000102930855 -0.00045233077 0.00022837208
0.00022652293 -3.808222e-06 -0.0012752448 -0.00061375316 0.0012955717 0.0007694137 8.0590034e-05 -0.0001534448
0.0007415988 -0.00025378555 7.25061e-07 0.00045322374 0.0004103472 1.3849736e-05 0.0013570136 -0.00089550944
-0.000621678 -0.00019518423 -1.12155585e-05 2.3909923e-05 -0.0002709838 -0.0018568999 -0.0007540875 -0.000881046
0.0009618677 -1.2637594e-05 1.012856e-05 -0.00022700806 5.7900226e-05 -1.2089918e-06 -8.70267e-06 1.2373772e-05
-0.0013949531 -9.00928e-06 -0.0019860093 -1.0512653e-05 -0.00022019571 -0.0012993987 -0.0004153676 -3.4303073e-06
00000000: 841d 583a 419b abb6 d16f 95ba 20bb 0d39
00000010: e0a1 10b9 e388 d9b8 890e 0eba cf31 8fb9
00000020: 97cb d239 efc8 42b9 99fe 48b5 7f63 d737
00000030: 9a7a 9e39 c0ad 89b9 117e 83b9 4677 9eba
00000040: a89f 6638 7760 0db9 d090 5ab5 de7e b639
00000050: 1919 d2b9 4256 7fb9 b936 c739 396f fcb9
00000060: 74bd c438 dac6 923b 1748 fdb7 f188 803a
00000070: ef9e e638 b9e7 c837 5b73 d3b6 1a54 1eb7
00000080: 5dca a3ba ef6b 463a ad4f 383a dab2 4cb7
00000090: 26bf 07b9 5b72 da39 fe3e 0aba 472a b536
000000a0: 806e 2936 2ae2 f536 77ab f637 e3ee 02ba
000000b0: 3f19 b338 0a4f bbb9 8b79 e139 2c4d c8b5
000000c0: 40ad 40ba a61b f9b9 d6ca 1639 185f 3cba
000000d0: 42d1 7eba febc 9638 0909 7d37 cc26 e5b9
000000e0: 7314 7ab9 612e 9f39 fa5a ed39 f644 df38
000000f0: 2da1 9d3a e34d c738 67ae ccb6 47a3 8c39
00000100: 06a9 03b9 9a98 a4b9 8c13 a839 7e38 513a
00000110: 2555 8d39 b310 b0b9 9caa 62b9 7078 8e3a
00000120: aa98 6237 d8f6 0bb6 abe9 74b7 d5aa 34b7
00000130: 86b2 2fb6 b9fe 61b7 5b00 d137 085f a837
00000140: d72d a9b6 6f10 f136 fc7d d0b7 e18d 9137
00000150: 9e17 57b7 1ddf 07b7 907f a537 1a90 3bb7
00000160: c45e 5fb5 72c6 a935 7928 c835 9a83 4c36
00000170: 227e 2a37 e331 c235 6e24 5337 112b 0038
00000180: 859f 31b6 9351 9ab6 622b 83b7 fb57 ae37
00000190: 979a 74b6 6f9a d736 731d 8135 545d 2ab4
000001a0: 97f2 b737 bdf8 33b7 d32c d9b6 c8ec 16b6
000001b0: 1b23 8537 302b 32b7 3b59 c835 0a69 d336
000001c0: 8186 8937 7b6e a3b5 8eb2 c3b6 1975 aab6
000001d0: 4773 7536 8517 f836 6ccc f6b6 1a3f 39b5
000001e0: 1b05 94b6 939e 5f36 5c76 0735 616e d9b7
000001f0: 77ff 9e37 3b2e 1636 676a 9eb7 dc35 b9b5
00000200: e1b3 9eb7 af0a 9eb6 c6c4 4f37 c141 e0b6
00000210: 31c3 e9b6 b68d 54b7 bcb2 0bb7 2d58 d0b5
00000220: e956 84b6 2c64 b337 47fa b4b6 c4d6 87b5
00000230: d73f 00b5 01c8 0137 aef1 c436 289b cd33
00000240: 40eb 9fb8 e009 edb6 951d 02bb 0c88 09ba
00000250: 6ed4 04ba 769d 96b9 cc58 8138 c36d 39ba
00000260: 7ed7 823a 7cae 81ba 7825 db36 38ea 8439
00000270: a35e 3f3a f277 a2b8 903a 94b9 89a3 00bb
00000280: ca98 54ba 61be dc37 e687 99b5 801c 8139
00000290: 418a 623a 8532 96ba 2e96 5039 1621 eeb9
000002a0: e212 9139 f0b0 b639 2950 cbb6 8660 f839
000002b0: a8c8 9c39 302d 56b6 7dae c5b6 a824 ffb7
000002c0: d5e2 8fba dd24 b73a 5ebb d3ba f3af 40b7
000002d0: 5940 58b9 b597 9bb9 2978 69ba d05d b3b5
000002e0: e4b3 b137 bbab 0737 1aa3 0cb6 cb0d d3b9
000002f0: 7909 cfb9 7425 4b37 3bef f0b9 25e7 0aba
00000300: a702 84ba f137 bab7 1ae1 e738 2f27 a9b9
00000310: 9f52 a9ba 911a f43a c4e1 ceb5 1efe e739
00000320: be4b 66ba 782c 1d3a fb30 183a 84ea 83ba
00000330: 6175 46ba 4112 c238 c18e e836 b43f e438
00000340: 136d acb8 8346 58ba 33f7 dc38 c98e a8b9
00000350: 8945 263a 95dc d738 cf26 edb9 2a77 6f39
00000360: c986 6d39 c190 7fb6 1d26 a7ba 47e4 20ba
00000370: 2cd0 a93a 7bb2 493a 7202 a938 06e6 20b9
00000380: da67 423a 850e 85b9 d0a1 4235 a99e ed39
00000390: de23 d739 2a5c 6837 d2dd b13a 9fc0 6aba
000003a0: 1bf8 22ba 5eaa 4cb9 752a 3cb7 2b92 c837
000003b0: d412 8eb9 3963 f3ba f5ad 45ba fff5 66ba
000003c0: d925 7c3a 0e06 54b7 d5ed 2937 0309 6eb9
000003d0: e5d9 7238 a444 a2b5 af01 12b7 f298 4f37
000003e0: dcd6 b6ba 9026 17b7 b527 02bb 805f 30b7
000003f0: 56e4 66b9 9650 aaba b2c5 d9b9 3b34 66b6

convs.4.weight f4 [72, 72]
-0.0002852356 1.4264904e-06 0.0008787899 -0.0003234841 -0.00031505234 0.00028115098 -0.00039044095 -0.00031334083
8.956196e-05 -0.0006601144 -1.095235e-06 -1.28396205e-05 -1.9749454e-05 0.0005665961 0.0011238748 -0.00073931005
-0.00073368225 7.042408e-05 -6.952987e-07 0.00014161665 -0.0005854064 -0.00060540816 0.0002921609 -0.00042926453
0.000903401 0.00020410786 2.1345131e-05 -0.0007843625 7.830086e-05 -6.087621e-06 -1.7932645e-05 1.6722524e-05
0.0005500209 0.00067486474 -0.00043946088 -6.3964893e-07 -0.00014178528 2.0335536e-05 -0.0005771335 1.4469231e-05
1.1417642e-05 3.2544252e-05 7.329011e-06 0.00014424218 -0.00014596865 -0.00011064971 -0.00052127003 -0.0015358019
-0.0004908522 -0.00024763995 0.00013996761 -0.00069212867 -0.0014387349 -0.00045637615 5.993191e-07 0.00024683733
-0.00070155255 -0.0008643481 -5.493424e-05 -0.00052096753 0.0012034038 0.00011882978 8.774751e-06 4.630158e-05
-0.0012439634 -0.0002782174 -0.0008081028 -0.00018466286 0.00042821345 -0.0003381211 0.0004527877 -4.533259e-05
-7.874791e-08 3.067528e-05 9.592564e-09 8.436046e-06 1.4747014e-06 -2.2020957e-05 5.375202e-06 1.2851986e-06
-3.385279e-06 -3.7993013e-06 -1.0596087e-05 3.0469913e-05 2.0740545e-06 -1.3063543e-06 6.816705e-06 1.962154e-06
1.5140376e-06 1.0839517e-06 -5.418714e-06 1.4631365e-06 1.1720973e-05 2.9945162e-05 -1.486594e-05 -4.2787324e-06
-4.066112e-06 -1.7460178e-06 -8.491931e-07 -1.0772563e-05 1.6525799e-05 -1.743205e-07 -1.9407318e-05 -9.355673e-06
-1.5315987e-05 -1.6848337e-05 1.6976937e-05 -3.7935752e-06 1.6280303e-05 -1.5430202e-05 1.7496409e-06 -2.8138771e-05
2.0076917e-05 1.8329213e-06 -9.224518e-06 -1.0651709e-05 4.742757e-06 2.2741654e-06 2.4605433e-06 -7.758773e-06
2.437074e-05 1.9300998e-05 -4.905394e-06 -6.4845403e-06 8.431332e-06 1.8652792e-06 2.0171348e-05 2.4203406e-05
2.9386335e-06 3.591539e-06 9.428477e-06 -5.0057483e-06 -2.5452275e-05 -8.503872e-06 -2.1464114e-06 -1.9232498e-06
-3.051202e-05 -3.3904396e-06 -1.994789e-06 -2.462915e-06 8.953837e-06 -2.823337e-06 9.5315926e-07 -1.4442043e-05
1.0406654e-06 3.0329078e-05 0.001301772 0.0011211563 -4.9148657e-05 0.00077504525 -0.0011067166 -0.00055303035
0.00045246628 -0.00041134813 1.1739024e-05 -0.00020542153 0.00067374454 -0.00047967 0.0014870078 -0.00177031
-0.00078152906 0.00092865113 -4.5830016e-05 0.001196448 -0.0015149282 -0.0014857283 -0.0005465688 -0.0008461692
0.00027722603 0.00054483215 6.003173e-06 -0.0014686073 0.0004241975 4.0364134e-07 -1.7392376e-05 1.5932304e-05
-0.0017513868 0.0013112786 0.0015045925 6.6633374e-06 -0.0002752343 0.00029280718 0.00031291824 -2.3595062e-06
-8.965637e-06 6.7509565e-05 -1.5218698e-06 -4.0669085e-05 0.0003027456 0.00034700794 -0.00096062705 -0.00047608328
-0.0010270741 -0.00035525227 0.00010013658 -0.0015291224 -0.0016219296 -0.00047029907 1.4813389e-05 -0.00028222785
-0.0005105419 -0.0013479353 0.0014856043 -0.001001238 -0.00029854488 -0.00012693222 1.7094222e-05 2.038924e-05
-0.0022166397 -0.00029772878 -0.0012206958 0.0010000335 0.0015740541 -0.0006836916 0.0017347421 -0.00039871735
0.00110455 -7.912511e-06 0.00029829715 -0.0005703182 -0.0001933235 0.0004514742 -0.0009908876 -0.00048311823
0.00069160364 -0.0010688354 1.2945779e-05 -0.001385894 0.00033336328 -0.00038215762 0.0018496936 0.00022336016
0.00023191799 0.0008042905 9.105728e-06 0.00013794587 -0.0008188229 -0.00162862 0.00017412515 -0.00011678788
0.00030721584 0.0042940765 -2.3673024e-06 -0.00030174977 -3.428256e-05 2.7059286e-06 -1.022979e-05 1.673111e-07
-0.003083656 0.0003690962 -0.002150463 3.6738759e-06 -0.00012334976 0.00048842875 -0.00036157106 -3.064849e-05
00000000: ad8b 95b9 d675 bf35 985e 663a 4d99 a9b9
00000010: 9c2d a5b9 7267 9339 19b4 ccb9 e547 a4b9
00000020: 36d3 bb38 870b 2dba fdff 92b5 c069 57b7
00000030: a1ab a5b7 9f87 143a fb4e 933a 42ce 41ba
00000040: 9554 40ba a4b0 9338 90a4 3ab5 ee7e 1439
00000050: f575 19ba 41b4 1eba 2c2d 9939 e90e e1b9
00000060: 37d2 6c3a c905 5639 520e b337 ad9d 4dba
00000070: 7435 a438 4444 ccb6 106e 96b7 5947 8c37
00000080: 472f 103a 68e9 303a 7167 e6b9 57b4 2bb5
00000090: 32ac 14b9 3b96 aa37 c64a 17ba e0c0 7237
000000a0: 668e 3f37 2080 0838 baeb f536 b73f 1739
000000b0: 290f 19b9 9c0c e8b8 d7a5 08ba f64c c9ba
000000c0: 89ac 00ba acd5 81b9 45c4 1239 f86f 35ba
000000d0: ef93 bcba c545 efb9 e5e0 2035 f269 8139
000000e0: 65e8 37ba 6b95 62ba 3169 66b8 8a91 08ba
000000f0: 88bb 9d3a 4134 f938 4537 1337 f133 4238
00000100: 7c0c a3ba b5dd 91b9 dcd6 53ba 0fa2 41b9
00000110: d681 e039 d945 b1b9 2364 ed39 7f23 3eb8
00000120: 1f1c a9b3 55a9 0038 8bcc 2432 8b88 0d37
00000130: 5bee c535 a5b9 b8b7 a25c b436 167f ac35
00000140: a62e 63b6 80f7 7eb6 d9c5 31b7 a499 ff37
00000150: fc2f 0b36 fe55 afb5 0dbb e436 8dad 0336
00000160: f035 cb35 4c7c 9135 66d2 b5b6 fd60 c435
00000170: 32a5 4437 bf32 fb37 ba68 79b7 0892 8fb6
00000180: a36f 88b6 b758 eab5 1bf4 63b5 cebb 34b7
00000190: e2a0 8a37 db2c 3bb4 e6cc a2b7 4ff6 1cb7
000001a0: d57a 80b7 8755 8db7 b269 8e37 2095 7eb6
000001b0: af91 8837 1b70 81b7 34d5 ea35 8d0b ecb7
000001c0: da6a a837 b202 f635 01c3 1ab7 beb4 32b7
000001d0: f923 9f36 dd9d 1836 d01f 2536 ad2b 02b7
000001e0: c46f cc37 94e8 a137 0399 a4b6 c795 d9b6
000001f0: 4c74 0d37 815a fa35 a435 a937 6b08 cb37
00000200: 5735 4536 2c06 7136 002f 1e37 0df7 a7b6
00000210: 5882 d5b7 daab 0eb7 110b 10b6 2e11 01b6
00000220: 10f4 ffb7 4f87 63b6 37de 05b6 8f48 25b6
00000230: 7038 1637 8f78 3db6 9bdc 7f35 1a4c 72b7
00000240: feac 8b35 336b fe37 38a0 aa3a c3f3 923a
00000250: f824 4eb8 682c 4b3a 3f0f 91ba 3df9 10ba
00000260: ff38 ed39 36aa d7b9 b9f2 4437 6c66 57b9
00000270: 3b9e 303a 387c fbb9 b4e7 c23a bf09 e8ba
00000280: 87df 4cba b970 733a 9b39 40b8 22d2 9c3a
00000290: 8e90 c6ba c5bc c2ba 9c47 0fba 74d1 5dba
000002a0: a658 9139 11d3 0e3a dd6e c936 497e c0ba
000002b0: d366 de39 0bb4 d834 d8e5 91b7 5da6 8537
000002c0: ca8e e5ba 35df ab3a bf35 c53a a295 df36
000002d0: 534d 90b9 ea83 9939 2d0f a439 0258 1eb6
000002e0: 1e6b 16b7 ec93 8d38 0c43 ccb5 1994 2ab8
000002f0: d4b9 9e39 9eee b539 97d2 7bba d19a f9b9
00000300: e39e 86ba 2741 bab9 6b00 d238 d56c c8ba
00000310: ed96 d4ba 7992 f6b9 0587 7837 fbf7 93b9
00000320: e3d5 05ba 34ad b0ba 9cb8 c23a f93b 83ba
00000330: 0486 9cb9 1c19 05b9 9065 8f37 8f09 ab37
00000340: 0b45 11bb 7b18 9cb9 c1ff 9fba 8e13 833a
00000350: 7e50 ce3a c439 33ba 4960 e33a f00a d1b9
00000360: 8cc6 903a fabf 04b7 c464 9c39 6881 15ba
00000370: e2b6 4ab9 d7b3 ec39 ace0 81ba 084b fdb9
00000380: bc4c 353a 2a18 8cba b331 5937 e3a6 b5ba
00000390: 43c7 ae39 545c c8b9 6b71 f23a c935 6a39
000003a0: 032f 7339 06d7 523a cec4 1837 90a5 1039
000003b0: 46a6 56ba 6b77 d5ba 5d95 3639 04ec f4b8
000003c0: d011 a139 53b5 8c3b f2dd 1eb6 2b34 9eb9
000003d0: 9eca 0fb8 8097 3536 9da0 2bb7 20a6 3334
000003e0: 2a17 4abb 4183 c139 c8ee 0cbb b58c 7636
000003f0: 7357 01b9 e609 003a 3f91 bdb9 918c 00b8

convs.5.weight f4 [72, 72]
0.00014390824 2.0298952e-05 0.00019960484 -0.00029437334 -0.00032967687 -6.184173e-05 -0.00028783386 -0.00033054478
3.3199678e-06 0.00010609203 -2.1478425e-05 0.0001053686 -0.00071241765 -0.00035296354 0.0017642056 -0.00083856314
-0.0008627159 0.001096037 1.5734317e-05 0.00018331502 -0.00046073657 -0.00067737006 4.1948984e-05 -0.0005771004
0.00048425965 -0.00032169902 1.1917485e-05 0.00010393652 0.00018895752 1.4041253e-05 -2.3417704e-06 -1.495218e-05
-0.0005175037 -0.00030233496 -0.00073047524 -7.6686e-06 -0.00015182591 0.00032403177 0.0008802268 1.5271507e-05
7.28735e-06 7.730021e-06 -2.4590634e-05 -0.00032943298 -6.511461e-05 -6.146992e-07 -0.00039591748 6.297759e-05
-0.00078146945 0.00011454052 0.00011481079 -0.0004690357 -0.0010232625 0.001984809 1.1858902e-05 0.00027288983
-0.0001848541 0.000107370855 0.0008676837 -3.8403992e-05 -0.0002402548 6.064103e-05 -6.5649795e-07 4.79446e-05
5.1340947e-05 -0.00034060318 1.0906716e-05 0.0004547713 0.00041338292 -0.00043913125 -0.0002859859 9.525213e-05
-1.2475499e-05 -1.7383625e-05 -6.042716e-06 -1.4661385e-05 -1.0877745e-05 -6.35828e-06 8.778366e-06 -1.4295139e-06
4.058711e-06 6.8484255e-06 -4.14417e-06 3.8000335e-06 -1.1176751e-05 -7.393668e-06 2.5465451e-05 1.8473025e-06
5.4876928e-06 -1.3196988e-06 1.6348455e-05 1.1699094e-06 2.3143859e-05 4.566195e-06 6.703279e-06 1.1450898e-05
4.8460934e-06 -4.800832e-06 1.0407189e-05 -7.3541146e-06 -2.2763865e-05 1.0664274e-06 6.922116e-06 -1.20011e-05
8.892391e-06 -5.611272e-06 3.0945903e-06 -1.3423631e-05 4.972121e-06 9.900175e-06 1.5881235e-05 1.2816176e-05
1.6361562e-06 -1.5131074e-05 -4.284523e-06 -2.9329742e-06 1.1384853e-06 1.8324198e-06 -2.1085252e-05 -5.9695944e-06
2.3961034e-05 2.0650343e-06 3.778448e-06 1.8138933e-06 -8.930057e-06 -2.5538575e-06 -2.4224444e-05 -5.811595e-06
-1.3401953e-05 -2.7436386e-06 -2.3548662e-06 3.4423955e-08 1.909667e-06 1.824616e-05 -4.6012274e-06 -2.986108e-05
1.34255515e-05 -2.1754135e-05 -2.446417e-05 -3.0654355e-05 -7.2811445e-06 -6.4873834e-06 -4.940432e-06 1.1505062e-05
0.00013927267 1.3889002e-06 0.00010410865 -0.00026841418 -0.00040421652 -0.00022523646 -0.00047102192 -0.00064227544
0.0003780273 -0.00089988054 2.3839411e-05 -0.00050022046 0.00062251056 7.4894747e-06 0.0030520938 -0.0020276036
-0.0013735892 0.00044957068 1.5200231e-06 0.00058948935 -0.0016211492 -0.0020858634 0.0004618804 -0.0008560508
0.00024815576 0.0055320673 -2.4751977e-05 0.00011591969 0.00021650532 -2.4726592e-06 -5.378507e-06 3.820237e-06
-0.00069099764 -0.00089388824 -0.0016824735 6.3444027e-06 -0.00049138017 -0.0008439308 -0.00080375816 1.4323813e-05
1.8733488e-05 5.4339584e-05 2.9978544e-06 -0.0021162434 0.00030528067 0.0007001678 0.00063042686 -0.000112652095
-0.00048046635 0.000638973 0.00013377597 -0.00032252652 -0.0020700507 -0.0005666017 2.5682755e-05 0.00033568498
-0.00045541886 -0.0018513635 0.0012275544 0.00011819116 -0.0005064992 -0.0005255705 -2.1669737e-05 0.00042555665
-1.270419e-06 -0.00038695545 -0.0015687959 0.00031286004 0.00036900275 -0.00061961566 0.0017377132 0.00036419072
-6.9050315e-05 7.197677e-06 0.00095237925 0.00064357853 -0.00034788798 -0.00046916495 -0.00042842235 -0.0003059873
-0.00061980827 -0.0009572121 1.5838246e-05 0.00048246875 0.00076060765 -0.00035592343 0.0012497681 -0.0013195428
0.0019443448 0.0002743777 2.2618322e-06 0.00028632424 -0.0009396628 -0.0009095611 0.00036142522 -0.0007916128
0.000957076 -0.00028903544 -1.4783258e-06 -0.00026588346 0.00010263149 -9.551821e-06 1.5702072e-07 -8.349037e-07
-0.0012253735 -0.0008523905 6.901332e-06 -1.8504299e-05 -0.00018799146 -0.0006080172 -0.0012204289 1.0342495e-05
00000000: 13e6 1639 ab47 aa37 044d 5139 1f56 9ab9
00000010: 7bd8 acb9 07b1 81b8 68e8 96b9 f84c adb9
00000020: 9dcc 5e36 ba7d de38 912c b4b7 56f9 dc38
00000030: 8ac1 3aba f70d b9b9 eb3c e73a 05d3 5bba
00000040: e227 62ba e6a8 8f3a 30fd 8337 4038 4039
00000050: 048f f1b9 8991 31ba 61f2 2f38 8d48 17ba
00000060: 3be4 fd39 b6a9 a8b9 35f1 4737 7ff8 d938
00000070: e622 4639 b992 6b37 4f27 1db6 20db 7ab7
00000080: 16a9 07ba b682 9eb9 5d7d 3fba 63a8 00b7
00000090: 7533 1fb9 cfe2 a939 05bf 663a 501b 8037
000000a0: dc85 f436 30b0 0137 fc47 ceb7 bfb7 acb9
000000b0: 248e 88b8 cf01 25b5 2593 cfb9 d612 8438
000000c0: 87db 4cba 7935 f038 93c6 f038 e8e8 f5b9
000000d0: fe1e 86ba 9213 023b 99f5 4637 a712 8f39
000000e0: 65d5 41b9 4a2c e138 4475 633a f913 21b8
000000f0: e8ec 7bb9 cf58 7e38 323a 30b5 1f18 4938
00000100: ec56 5738 fc92 b2b9 fdfb 3637 5f6e ee39
00000110: 51bb d839 333b e6b9 61f0 95b9 19c2 c738
00000120: dc4d 51b7 0dd3 91b7 89c2 cab6 2bfa 75b7
00000130: 8f7f 36b7 3659 d5b6 cb46 1337 b9dd bfb5
00000140: 1030 8836 87cb e536 260e 8bb6 1404 7f36
00000150: c883 3bb7 2017 f8b6 a49e d537 d5f0 f735
00000160: ec22 b836 8120 b1b5 0a24 8937 c805 9d35
00000170: 0f25 c237 5137 9936 baec e036 3b1d 4037
00000180: a09b a236 d516 a1b6 899a 2e37 5dc3 f6b6
00000190: 07f5 beb7 2b22 8f35 8644 e836 5558 49b7
000001a0: 8730 1537 7648 bcb6 a8ac 4f36 0e36 61b7
000001b0: 32d6 a636 ee18 2637 b138 8537 0f05 5737
000001c0: e699 db35 78db 7db7 c6c3 8fb6 1dd4 44b6
000001d0: 0fce 9835 77f1 f535 3ce0 b0b7 6d4e c8b6
000001e0: eeff c837 0595 0a36 3e91 7d36 e674 f335
000001f0: 4ed2 15b7 f062 2bb6 9935 cbb7 3901 c3b6
00000200: f3d8 60b7 5a1f 38b6 4b08 1eb6 8ad9 1333
00000210: d427 0036 550f 9937 3e64 9ab6 2e7e fab7
00000220: 4e3e 6137 a67c b6b7 6838 cdb7 dd92 00b8
00000230: 8e50 f4b6 33ae d9b6 fdc5 a5b6 dd05 4137
00000240: b909 1239 3f6a ba35 e854 da38 f1b9 8cb9
00000250: 06ed d3b9 742d 6cb9 7ef3 f6b9 605e 28ba
00000260: f731 c639 f6e5 6bba bffa c737 3a21 03ba
00000270: fa2f 233a 194e fb36 a305 483b 8be1 04bb
00000280: 010a b4ba 5bb4 eb39 9903 cc35 f687 1a3a
00000290: be7c d4ba fbb2 08bb 8a28 f239 9968 60ba
000002a0: e71a 8239 5846 b53b 77a2 cfb7 e919 f338
000002b0: b405 6339 f6ef 25b6 0679 b4b6 962f 8036
000002c0: 1124 35ba d353 6aba 7186 dcba 01e2 d436
000002d0: f7cf 00ba 3d3b 5dba 4cb3 52ba 4f50 7037
000002e0: dc25 9d37 afea 6338 bf2e 4936 acb0 0abb
000002f0: 140e a039 778b 373a 3b43 253a a23f ecb8
00000300: 1ae7 fbb9 c180 273a 3746 0c39 c718 a9b9
00000310: b0a9 07bb ff87 14ba 4c71 d737 e0fe af39
00000320: 49c5 eeb9 73a9 f2ba e4e5 a03a 65dd f738
00000330: 96c6 04ba 70c6 09ba 68c7 b5b7 3f1d df39
00000340: 4483 aab5 48e0 cab9 0ea0 cdba 5d07 a439
00000350: b676 c139 b46d 22ba fbc3 e33a daf0 be39
00000360: 1bcf 90b8 9383 f136 17a9 793a d3b5 283a
00000370: bc64 b6b9 41fa f5b9 e09d e0b9 ec6c a0b9
00000380: a17a 22ba 6bed 7aba 60dc 8437 dcf3 fc39
00000390: 8463 473a 3c9b bab9 42cf a33a 82f4 acba
000003a0: 63d9 fe3a 5ada 8f39 fbc9 1736 ca1d 9639
000003b0: b453 76ba 9d6f 6eba ac7d bd39 3c84 4fba
000003c0: 48e4 7a3a ae89 97b9 e36a c6b5 4666 8bb9
000003d0: dd3b d738 c240 20b7 8799 2834 251e 60b5
000003e0: b69c a0ba f572 5fba fe91 e736 ae39 9bb7
000003f0: 931f 45b9 5863 1fba ccf6 9fba ae84 2d37

convs.6.weight f4 [72, 72]
-1.382272e-05 -9.030847e-06 -0.00082752114 -0.00033107013 -4.7871044e-06 -0.00075414614 -1.221899e-05 1.9577497e-05
0.00023043045 -0.0005643094 1.04656465e-05 -9.002284e-05 0.0004046216 -0.00030154752 0.0017910443 -0.0007006935
-0.00072485174 -0.0014535568 -1.7603927e-06 0.00016573312 -0.00057111983 -0.00026685934 -8.767056e-05 -0.00054466387
0.00015775947 -0.00021138953 -4.9287323e-06 0.00026383586 0.00075041095 2.5718175e-05 -1.220355e-05 1.8735615e-05
-0.0029681684 0.0007252422 -0.00072054245 -1.4599472e-06 0.0003860269 -3.2647375e-05 -0.0005153752 -6.979329e-06
-1.1264316e-05 2.5421014e-06 -4.766415e-06 9.768433e-05 0.00014226319 -0.00036071858 0.000121022764 -0.0015492265
-0.0007958325 -8.887168e-05 7.036524e-05 -0.00080932985 -0.0010231234 -0.0005866895 -1.0345092e-05 0.00025082167
-0.00020042669 0.000105044826 0.00029253215 -0.0004668167 -0.00031101023 -0.00023929849 -1.0547036e-05 -0.00085070333
-6.144968e-05 -0.0005493423 0.0005959746 0.0001575856 0.00045752365 -0.00040230463 -0.00025215364 7.443142e-05
-6.4686833e-07 6.4440837e-06 2.9825987e-05 3.8476064e-06 6.2811287e-06 -1.5125979e-05 5.7942552e-06 -3.0380585e-05
-1.253117e-05 4.5207116e-06 -1.5817937e-05 2.542135e-05 -5.851552e-06 4.894528e-06 -1.1271598e-05 1.4743475e-05
6.6673497e-06 -5.360735e-06 -1.816569e-06 -9.021573e-06 1.4128516e-05 9.374919e-06 -3.3339575e-06 -1.915762e-05
-2.0331468e-05 -7.841839e-06 -9.327223e-06 -2.5425057e-05 -9.671979e-06 1.6226442e-05 -1.9148413e-06 2.6732878e-05
-3.1894967e-06 2.8785298e-06 -3.0623665e-05 -2.198767e-06 -1.1474928e-05 -7.8568455e-06 6.3263815e-06 -2.5742527e-05
-1.5470681e-05 8.926534e-06 -2.3208433e-07 -2.5246384e-06 -9.313792e-06 1.6164044e-05 -2.037414e-06 -8.78555e-06
-1.4388966e-06 2.5063005e-06 -5.252251e-06 -3.0794874e-07 -3.6766742e-06 4.861268e-06 1.2770248e-05 2.1802343e-05
-4.3500713e-06 1.2707068e-06 1.5538435e-06 3.0658444e-05 -4.988311e-06 -3.7818136e-06 -9.188779e-06 1.804241e-06
9.41045e-06 6.593079e-06 -2.5883044e-05 -1.132853e-06 1.52234e-05 -5.2864475e-06 5.406291e-06 4.7649446e-06
0.00094197993 4.2967254e-06 -0.0013068914 -0.00013179453 0.0002783489 0.00089179 -0.0012590997 -0.0013288071
0.0006564657 0.00034495836 -1.752996e-05 -0.0003194248 -0.0018910652 -0.00019003001 0.00097436964 -0.0024113012
-0.0008543663 0.0009864694 -1.966794e-05 0.0006888928 0.002140283 -0.000542448 -2.5552667e-05 -0.00088455813
0.00069644925 -0.00031144594 4.000353e-06 -0.00019491708 0.00027164214 8.851065e-06 1.0616629e-05 -6.9941184e-06
-0.004033264 -0.0006791554 -0.00054346694 -2.5062018e-05 -0.00028431203 0.00032254288 -0.001330839 -1.3567904e-05
6.8397105e-07 -1.1321252e-05 -2.2133141e-05 0.00085582415 -0.000417275 -1.2746082e-05 -0.0010449972 4.3617794e-05
0.00067606056 -0.00024327745 0.00015403908 -0.00037372718 -0.0018593452 -0.000889213 1.0052968e-05 0.00050889864
-0.00033670693 -0.00015799826 0.00024263203 0.0007494749 -0.000502355 -0.00039807972 4.736153e-06 0.00045844645
-0.0020044926 -0.00060210616 -0.0009011318 -0.0009691945 0.00048391236 -0.00046214476 -0.00026897836 0.0029297709
0.0005550557 -1.6784874e-05 0.00031258014 -0.0007424928 0.00011098616 0.00035603833 -0.000775889 -0.0003279687
-0.0028808897 0.00063358067 -2.2236165e-06 -0.00010906944 -0.0015417782 -0.00026847734 -8.474935e-05 -0.0014075569
-0.0009430152 -0.00015118132 3.66498e-05 0.00054217415 -0.00028873302 -0.0011659304 0.00033398982 -0.0005824975
0.0011711825 7.86034e-05 2.0792553e-05 0.00040880192 0.0012414902 1.4080728e-05 -2.0112258e-05 -3.3308042e-06
-0.0017211215 -0.00076551834 -0.0006545085 -7.3006186e-06 -0.00028528585 0.00027106475 -0.001111296 6.9174966e-08
00000000: 21e8 67b7 3183 17b7 01ee 58ba 7b93 adb9
00000010: eaa0 a0b6 e4b1 45ba 2a00 4db7 5b3a a437
00000020: b49f 7139 2aee 13ba 9c95 2f37 a5ca bcb8
00000030: 6423 d439 0619 9eb9 79c1 ea3a bfae 37ba
00000040: fa03 3eba 4685 beba a246 ecb5 a5c8 2d39
00000050: 34b7 15ba 41e9 8bb9 c6db b7b8 c6c7 0eba
00000060: 3c6c 2539 72a8 5db9 7d61 a5b6 7353 8a39
00000070: 3ab7 443a 5cbd d737 d9bd 4cb7 6d2a 9d37
00000080: 9a85 42bb 2e1e 3e3a c9e2 3cba 67f3 c3b5
00000090: a763 ca39 daee 08b8 3f1a 07ba fb2f eab6
000000a0: defb 3cb7 f898 2a36 31ef 9fb6 e0db cc38
000000b0: 7c2c 1539 d41e bdb9 9acd fd38 6a0f cbba
000000c0: 6a9f 50ba 9f60 bab8 0d91 9338 3529 54ba
000000d0: 531a 86ba 11cc 19ba d58f 2db7 b780 8339
000000e0: a129 52b9 834b dc38 005f 9939 14bf f4b9
000000f0: 160f a3b9 33ec 7ab9 2df3 30b7 bc01 5fba
00000100: 8cde 80b8 bd01 10ba 2e3b 1c3a 903d 2539
00000110: c9df ef39 6aec d2b9 7d33 84b9 1018 9c38
00000120: 74a4 2db5 423a d836 d232 fa37 b01a 8136
00000130: 7cc2 d236 96c5 7db7 466c c236 cfd9 feb7
00000140: f73c 52b7 9eb0 9736 c3b0 84b7 ef3f d537
00000150: 7358 c4b6 ad3b a436 251b 3db7 be5a 7737
00000160: 19b8 df36 5de0 b3b6 d6d0 f3b5 5c5b 17b7
00000170: 8409 6d37 f848 1d37 f4bc 5fb6 adb4 a0b7
00000180: 7f8d aab7 7190 03b7 1e7c 1cb7 e547 d5b7
00000190: d544 22b7 051e 8837 b980 00b6 6b40 e037
000001a0: 230b 56b6 c42c 4136 e971 00b8 888e 13b6
000001b0: 7184 40b7 e5d0 03b7 3447 d436 a8f1 d7b7
000001c0: 09c7 81b7 2cc3 1537 db32 79b4 f56c 29b6
000001d0: 6f42 1cb7 0598 8737 82ba 08b6 a665 13b7
000001e0: 1c20 c1b5 ea31 2836 7e3c b0b6 2754 a5b4
000001f0: c8bc 76b6 f91d a336 cc3f 5637 2de4 b637
00000200: d4f6 91b6 278d aa35 a88d d035 4197 0038
00000210: 4461 a7b6 10cb 7db6 8129 1ab7 4029 f235
00000220: 93e1 1d37 1e3a dd36 6a1f d9b7 880c 98b5
00000230: 0168 7f37 3d62 b1b6 b067 b536 90e2 9f36
00000240: 34ef 763a 972c 9036 004c abba 5332 0ab9
00000250: 5bef 9139 04c7 693a 6008 a5ba 5e2b aeba
00000260: ab16 2c3a 87db b439 4d0d 93b7 7978 a7b9
00000270: 9edd f7ba cb42 47b9 d76c 7f3a ec06 1ebb
00000280: 8df7 5fba 6c4c 813a 94fc a4b7 d096 343a
00000290: fd43 0c3b 1233 0eba ef59 d6b7 b1e1 67ba
000002a0: eb91 363a 9149 a3b9 c53a 8636 a862 4cb9
000002b0: 316b 8e39 097f 1437 131e 3237 05af eab6
000002c0: 7829 84bb 5909 32ba 7377 0eba 463c d2b7
000002d0: b70f 95b9 f91a a939 8c6f aeba b4a1 63b7
000002e0: 229a 3735 68f0 3db7 8faa b9b7 6359 603a
000002f0: b4c5 dab9 01d8 55b7 4af8 88ba 40f2 3638
00000300: a839 313a 4b18 7fb9 8d85 2139 d0f0 c3b9
00000310: 46b5 f3ba 131a 69ba 2ba9 2837 9c67 053a
00000320: 0a88 b0b9 56ac 25b9 0a6b 7e39 6978 443a
00000330: 79b0 03ba 5bb5 d0b9 3feb 9e36 a45b f039
00000340: ce5d 03bb a9d6 1dba ee39 6cba 8b11 7eba
00000350: 9eb5 fd39 054c f2b9 aa05 8db9 6601 403b
00000360: 2881 113a 3ecd 8cb7 cce1 a339 d9a3 42ba
00000370: 3ec1 e838 a8aa ba39 0865 4bba 37f3 abb9
00000380: 4fcd 3cbb e116 263a 7139 15b6 36bc e4b8
00000390: 7e15 caba 6bc2 8cb9 76bb b1b8 c67d b8ba
000003a0: ae34 77ba 6d86 1eb9 6cb8 1938 b120 0e3a
000003b0: 1761 97b9 22d2 98ba 5b1b af39 bfb2 18ba
000003c0: 5d82 993a e1d7 a438 ab6b ae37 7754 d639
000003d0: 80b9 a23a 443c 6c37 bfb6 a8b7 c886 5fb6
000003e0: 4197 e1ba 11ad 48ba 5293 2bba d6f7 f4b6
000003f0: 6b92 95b9 b21d 8e39 e8a8 91ba 578d 9433
