checkpoint/Wikipedia/20231105_160017370315.pth (torch, 339335 bytes, 18 tensors)

convs.0.weight f4 [72, 138]
0	0x3d07a1e1	0.033113364
1	0xbde6a121	-0.11261202
2	0x3ef920a3	0.48657712
3	0xbcdd70e7	-0.027031375
4	0xbc2c8f3a	-0.010532195
5	0xbdfdfcb2	-0.124017134
6	0x3e5bf275	0.21479209
7	0x3ce3573d	0.02775156
8	0xbd5d29f2	-0.05399508
9	0x3d5061cc	0.050874516
10	0x3a46fa6b	0.0007590416
11	0xbd85760d	-0.06516657
12	0x3cc5cb39	0.024144756
13	0x3c974701	0.018466474
14	0x3c9e50d3	0.01932565
15	0xbe15e710	-0.14638925
16	0x3b026262	0.0019895067
17	0xbe65ccf8	-0.2244147
18	0x3ec14dc7	0.37754652
19	0xbd13e780	-0.036109447
20	0xbd5f3604	-0.054494873
21	0x3e1ab173	0.15106754
22	0xbc932859	-0.017963575
23	0xbd358287	-0.044313934
24	0xbd1e8c83	-0.03870822
25	0xbd613e5e	-0.05499112
26	0xbceb0e3f	-0.028693317
27	0xbddbfc78	-0.10741514
28	0xbd99bde9	-0.075069256
29	0x3c93484d	0.017978812
30	0xbc930229	-0.017945366
31	0xbb8d18a6	-0.004305917
32	0x3d60ab01	0.054850582
33	0xbd353d2c	-0.04424779
34	0x3d84d9ba	0.064868405
35	0xbd9ac252	-0.07556595
36	0x3e7b36eb	0.24532668
37	0x3e0d540b	0.13801591
38	0xbdd8f842	-0.105942264
39	0x3e0f4910	0.13992715
40	0x3dec1b41	0.11528636
41	0xbb45097e	-0.0030065472
42	0x3c017f69	0.007903912
43	0xbb7617a5	-0.0037550714
44	0xbcf21d57	-0.029555006
45	0xbe57ebec	-0.21086091
46	0x3d0585d4	0.03259833
47	0xbbab5bd7	-0.005229454
48	0xbe139a49	-0.14414324
49	0xbd49c00e	-0.049255423
50	0x3e0be8ce	0.13663027
51	0x3c5ca037	0.013465933
52	0xbdaf6a78	-0.08565229
53	0xbceebe53	-0.029143488
54	0xbbe979ed	-0.0071251304
55	0xbdb648f3	-0.08900633
56	0x3e509b4f	0.20371746
57	0x3cd4452c	0.02591189
58	0xbd1e709b	-0.038681608
59	0x3c732009	0.014839181
60	0xbd8fdb19	-0.070242114
61	0x3cc5e48c	0.024156831
62	0x3b527c02	0.0032117371
63	0xbda7f847	-0.08201652
64	0xbe377043	-0.17913918
65	0xbe11eb1a	-0.1424984
66	0xbe172fd4	-0.14764339
67	0x3e0b5653	0.13607149
68	0x3da4e704	0.08051875
69	0xbd9e48e1	-0.07728744
70	0x3dfda9e7	0.12385922
71	0xbca9c8d8	-0.020725653
72	0x3c8407de	0.016117033
73	0x3e5bb574	0.21455938
74	0xbcc7d3c0	-0.024392962
75	0xbd6b8503	-0.057499897
76	0x3cbbf035	0.022941688
77	0x3c580c1a	0.013186479
78	0x3d32e53f	0.043675657
79	0xbb9d7c19	-0.0048060534
80	0xbda06caf	-0.0783323
81	0xbdc79407	-0.09745031
82	0x3e7e4415	0.24830659
83	0x3d1aec57	0.037823047
84	0xbe0d5a07	-0.13803874
85	0xbcd3ead7	-0.025868816
86	0xbd83f4fa	-0.0644321
87	0xbca2aac6	-0.019856822
88	0xbb2ada94	-0.0026070224
89	0xbd8db966	-0.069201276
90	0x3d06216f	0.03274673
91	0xbd895d1a	-0.06707211
92	0xbb1252c4	-0.0022327164
93	0xbd8fda62	-0.07024075
94	0xbc28c4f2	-0.010300862
95	0xbd19500c	-0.037429854
96	0x3d4b4a91	0.04963166
97	0xbd56c87b	-0.052437287
98	0xbea87efe	-0.32909387
99	0xbd931480	-0.071816444
100	0x3d9e7232	0.07736625
101	0x3d1647c4	0.036689535
102	0xbc47c0f8	-0.012192003
103	0x3c9779b3	0.018490648
104	0x3ddb9b15	0.10722939
105	0xbd4e4996	-0.050363146
106	0x3cb38200	0.021912575
107	0xbc44290c	-0.011972677
108	0xbc23f415	-0.010006924
109	0xbdf31655	-0.11869494
110	0xbd683d10	-0.05669886
111	0xbcc0803d	-0.023498649
112	0x3df693ad	0.12039886
113	0xbe13100d	-0.14361592
114	0x3ccca00d	0.024978662
115	0x3c54ffd7	0.01300045
116	0xbcda677b	-0.026660671
117	0xbcfda406	-0.030962002
118	0xbc204e5f	-0.00978431
119	0xbcca15c3	-0.02466858
120	0x3c42d259	0.011890971
121	0xbdb6bf0f	-0.0892316
122	0xbc46d365	-0.012135361
123	0x3c7525f9	0.014962667
124	0xbc911331	-0.017709346
125	0xbe20811c	-0.15674251
126	0xbcd4ab01	-0.025960447
127	0xbe0a6cb7	-0.13518034
128	0x3bb13110	0.00540746
129	0x3ea599ec	0.32343996
130	0xbe3e57bd	-0.18588157
131	0xbea1cf78	-0.316036
132	0xbe9013e2	-0.2814017
133	0xbe7b074f	-0.24514507
134	0xbe29a5fa	-0.16567221
135	0x3fbff97a	1.4998009
136	0xbd91b654	-0.071148545
137	0xbd9d742c	-0.07688174
138	0xbe20d7c6	-0.15707311
139	0x3d1ace2b	0.037794273
140	0x3d567980	0.052361965
141	0x3d1e51fc	0.038652405
142	0xbe0a133a	-0.13483897
143	0xbdca7359	-0.09885282
144	0x3e5d27a5	0.21597154
145	0xbbc66c52	-0.0060553933
146	0xbdb35680	-0.08756733
147	0x3dcf2f4d	0.10116444
148	0xbdd7a9f3	-0.10530462
149	0xbd9be525	-0.07612065
150	0x388569d6	6.361648e-05
151	0x3c8b73d5	0.017023006
152	0x3d4bf7b4	0.049796775
153	0xbe377400	-0.17915344
154	0xbc5a16f1	-0.013311134
155	0xbe52d1a3	-0.20587783
156	0x3cd313f8	0.025766358
157	0xbdc750cf	-0.0973221
158	0xbd18931f	-0.03724968
159	0xbbab045e	-0.0052190265
160	0xbe0c2732	-0.13686827
161	0xbcdd19a3	-0.026989764
162	0xbc8d3c9f	-0.01724082
163	0xbab0e677	-0.0013496418
164	0x3ac9c097	0.0015392479
165	0xbe067e6c	-0.13134164
166	0xbd9bc690	-0.07606232
167	0xbcbbe2ca	-0.02293529
168	0xbdd21a3a	-0.102589086
169	0x3db2d181	0.08731366
170	0x3de24b47	0.11049514
171	0xbd4111b5	-0.047136027
172	0xbe353924	-0.17697579
173	0xbd6cd471	-0.057819787
174	0x3e7cd03e	0.24688813
175	0x3e4eb38f	0.20185684
176	0xbdb97c3d	-0.090569
177	0xb9cfbcbb	-0.00039622732
178	0x3e985a9f	0.29756638
179	0x3dd9a107	0.10626417
180	0xbdbe5fbb	-0.09295603
181	0xbc6471de	-0.013943164
182	0xbd06eadd	-0.032938827
183	0xbe1ead7e	-0.1549587
184	0xbce80c27	-0.028326107
185	0x3c7a7282	0.01528609
186	0xbe864704	-0.26226056
187	0xbe1a0d24	-0.15044075
188	0x3e4e252a	0.20131364
189	0xbd869f2b	-0.06573328
190	0xbdd85e40	-0.10564852
191	0xbcab25d6	-0.020892065
192	0xbc178821	-0.009248764
193	0x3c41380e	0.01179315
194	0xbc4642bb	-0.012100871
195	0xbd748fc8	-0.059707433
196	0xbd4d708d	-0.050156165
197	0x3dc499d7	0.09599655
198	0xbe169523	-0.14705329
199	0x3c82302e	0.015892114
200	0x3c3da9c7	0.011576123
201	0xbe385bab	-0.18003719
202	0xbe1afdad	-0.15135832
203	0x3e4a5202	0.19757846
204	0xbe85b5d3	-0.26115283
205	0xbd78b503	-0.0607195
206	0xbd75a9ae	-0.059976272
207	0xbe31f6ac	-0.17379254
208	0x3d5b9b6e	0.053615026
209	0xbcc05fde	-0.023483213
210	0x3c9d6452	0.019212876
211	0x3ebbc324	0.36672318
212	0xbd657e42	-0.056028612
213	0xbd629864	-0.055321112
214	0xbdbd7225	-0.09250287
215	0xbdcaaf2d	-0.098966934
216	0xbd95b252	-0.073094025
217	0xbaac022d	-0.0013123207
218	0xbde27e15	-0.110592045
219	0xbe21078a	-0.15725532
220	0x3e5c5c33	0.21519546
221	0xbd0e6835	-0.03476735
222	0xbdb9230f	-0.0903989
223	0xbe052cb1	-0.1300533
224	0xbd3831f3	-0.04496951
225	0x3daef86d	0.08543477
226	0xbe0a3f55	-0.13500722
227	0xbcef4803	-0.029209143
228	0xbd7b9d37	-0.06142923
229	0xbd9abdb7	-0.075557165
230	0xbc8c562f	-0.01713094
231	0xbde6c0c9	-0.112672396
232	0x3d196046	0.03744533
233	0xbd2cfe47	-0.042234685
234	0x3cf7910d	0.030220533
235	0xbe119d66	-0.14220199
236	0xbebaeff0	-0.36511183
237	0xbe051b0e	-0.12998602
238	0x3e5065e5	0.2035137
239	0x3dc51969	0.09623987
240	0xbc9fc7f2	-0.019504521
241	0xbc6d191a	-0.014471317
242	0x3e0f6ebc	0.14007086
243	0xbc4160bf	-0.011802851
244	0x3c8251d8	0.015908167
245	0x3bb7d77d	0.005610405
246	0x3c811524	0.015757151
247	0xbd8b5643	-0.068035625
248	0xbda75a10	-0.08171475
249	0xbc1f1f4f	-0.009712054
250	0x3eda66ea	0.42656642
251	0xbea6d1f7	-0.32582065
252	0xbc276364	-0.010216568
253	0x3d3cc3df	0.046085235
254	0xbc2de992	-0.0106147695
255	0xbd9ca4ea	-0.07648642

convs.0.bias f4 [72]
0	0x3cb84255	0.022492567
1	0x3d304403	0.04303361
2	0x3db8bc4c	0.0902029
3	0x3cc2a8ba	0.023762096
4	0x3d94df22	0.07269122
5	0xba7c136f	-0.0009615933
6	0x3d8030f6	0.062593386
7	0x3d863fa4	0.06555107
8	0x3df60710	0.12013066
9	0x3d87d161	0.06631733
10	0xbc40199a	-0.011724854
11	0x3dcbc487	0.09949594
12	0xbd0fc85e	-0.035103194
13	0x3dc5cc04	0.096580535
14	0x3de6c989	0.112689085
15	0x3ccd891b	0.025089791
16	0xbb00021f	-0.0019532514
17	0x3e0509e4	0.12992054
18	0x3d448a95	0.047983725
19	0x3dfa003d	0.12207077
20	0x3cb95e94	0.022628106
21	0x3da5cfcd	0.080962755
22	0x3e16079d	0.14651342
23	0x3da59da1	0.08086706
24	0x3da2b58e	0.07944785
25	0xbc804109	-0.015656011
26	0x3d65a48b	0.056065124
27	0x3dc9ea09	0.09859092
28	0x3d55251a	0.052037336
29	0x3db04db1	0.086085685
30	0x3d98cf68	0.074614346
31	0x3ddad967	0.106859975
32	0x3dd4900d	0.10379038
33	0x3d171359	0.036883686
34	0x3c54dadf	0.012991636
35	0x3dd92903	0.106035255
36	0x3d2e9335	0.042620856
37	0xbc13b9c6	-0.00901646
38	0x3d0b6328	0.03403011
39	0x3dc70f97	0.097197704
40	0x3c63ea62	0.013910862
41	0x3d7d8efe	0.061903946
42	0x3d837f04	0.06420711
43	0x3d9ea79c	0.07746813
44	0x3e280964	0.16409832
45	0x3e030446	0.12794599
46	0x3da7ffa3	0.08203056
47	0xbacb4466	-0.0015508055
48	0x3d3a8203	0.045534145
49	0x3d91bf65	0.07116584
50	0x3ca99b86	0.020704042
51	0xbc06baf5	-0.008223285
52	0x3d8d3402	0.06894685
53	0x3d61224b	0.054964345
54	0x3db4b004	0.08822635
55	0x3d3a79e4	0.0455264
56	0x3e07c20c	0.13257617
57	0x3db4d48e	0.08829604
58	0x3ce5c989	0.028050201
59	0x37b20bc5	2.1224734e-05
60	0xbc9290b6	-0.01789127
61	0x3da7ec05	0.08199314
62	0x3da60c80	0.08107853
63	0x3bfdb488	0.0077424683
64	0xbc78af32	-0.015178489
65	0x3d812657	0.06306141
66	0x3dd080ef	0.10180842
67	0xbca63374	-0.020288207
68	0x3dd4a40b	0.10382851
69	0x3d00ca40	0.03144288
70	0x3da4f469	0.0805443
71	0x3ddbc1a2	0.10730292

convs.1.weight f4 [72, 72]
0	0xbc777a0a	-0.01510478
1	0xbc9c8475	-0.01910613
2	0xba894840	-0.0010473803
3	0xbc9a6cb4	-0.018850662
4	0xbc0fa1d5	-0.008766611
5	0x38f29855	0.00011567833
6	0xbb4b5c25	-0.0031030264
7	0xbc118080	-0.008880734
8	0xbaab96f3	-0.0013091251
9	0xbc1e85e0	-0.009675473
10	0xb7007b85	-7.658154e-06
11	0xbc0ac5b1	-0.008469985
12	0xbae8357d	-0.0017716136
13	0xbd0a8c4f	-0.033825215
14	0x3a634f7a	0.0008671206
15	0xbcc0f97f	-0.023556469
16	0xbc76a37b	-0.015053625
17	0xbbac92cb	-0.0052665225
18	0x3cad0371	0.021119805
19	0xbd130595	-0.035893995
20	0xbb2477c5	-0.0025095802
21	0x3bec632c	0.0072139706
22	0xbbdd7709	-0.006758575
23	0xbbc6311e	-0.0060483357
24	0xbbd6ba47	-0.0065529677
25	0xbcdf01f5	-0.027222613
26	0xbcb29bc0	-0.021802783
27	0xbc34bd62	-0.0110314805
28	0xbcdbd4f6	-0.026834946
29	0xbb48aa86	-0.0030619218
30	0xbc83d4f9	-0.016092764
31	0x3c0738c3	0.008253279
32	0xbcd02aea	-0.025411088
33	0xbc801019	-0.015632676
34	0xbc8b9b86	-0.017041933
35	0xbc75d42c	-0.015004199
36	0x3b965e6f	0.004588894
37	0xb78a5a2a	-1.6492868e-05
38	0x3bdacb19	0.006677043
39	0xbc254304	-0.010086779
40	0xbba6c982	-0.0050899396
41	0xbcb5e642	-0.022204522
42	0x3c7aac7b	0.015299912
43	0xbc1115ac	-0.008855265
44	0x3a71526b	0.00092057016
45	0x3d0861c7	0.033296373
46	0xbca033fb	-0.019556036
47	0xb69a8b7f	-4.605797e-06
48	0xbb76df18	-0.0037669595
49	0xbb46864f	-0.0030292457
50	0xbc611e31	-0.013740108
51	0xbcd3211f	-0.02577263
52	0xbb978a9e	-0.0046246788
53	0xbc26719a	-0.010158921
54	0xba8fb010	-0.0010962505
55	0x3b88e284	0.0041773934
56	0xbca92e2f	-0.020651905
57	0xbc0e896c	-0.008699756
58	0x3bf7f134	0.0075665955
59	0xb91dab8b	-0.00015036592
60	0xb902da13	-0.00012479005
61	0x3b9ef332	0.0048507685
62	0x3b86a4dd	0.0041090087
63	0xbb6e39e4	-0.0036350423
64	0xbcab2616	-0.020892184
65	0xbc0a42e5	-0.0084388
66	0xbbdcced3	-0.0067385226
67	0xbc8ee1dd	-0.017441684
68	0xbc04ff16	-0.008117458
69	0xbd0e9457	-0.034809437
70	0x3bb11164	0.0054036845
71	0xbc537e48	-0.012908526
72	0xbc679d4a	-0.014136622
73	0xbc1e7598	-0.009671591
74	0x3a0fc9e3	0.00054851006
75	0xbc950dca	-0.018195052
76	0xbc113e2c	-0.008864921
77	0xb8c75f5e	-9.506823e-05
78	0xbb952976	-0.0045520617
79	0xbc50dfc3	-0.012748661
80	0xbb96fbd6	-0.004607658
81	0xbbcd8180	-0.006271541
82	0x387f5af9	6.0881463e-05
83	0xbc205280	-0.0097852945
84	0x3b4a8ea3	0.0030907772
85	0xbce0b66c	-0.027430736
86	0x3a539202	0.0008070768
87	0xbced7ca4	-0.028990097
88	0xbc850cd0	-0.016241461
89	0xbbed06eb	-0.0072334907
90	0x3c803169	0.01564856
91	0xbcf1cc31	-0.029516311
92	0xba41ca2c	-0.00073924917
93	0x3b7d44c7	0.003864573
94	0xbbaf2ea9	-0.0053461385
95	0xbc4a05de	-0.0123305
96	0xbba13812	-0.004920014
97	0xbcc587ba	-0.024112571
98	0xbc09c2a2	-0.0084082205
99	0xbc4819fe	-0.012213228
100	0xbcd922b1	-0.0265058
101	0xbc353bc8	-0.011061616
102	0xbc766fa7	-0.015041268
103	0xba463387	-0.0007560779
104	0xbcc82a22	-0.024434153
105	0xbc69508e	-0.014240397
106	0xbc7dd7f1	-0.015493379
107	0xbc8f568b	-0.017497322
108	0xb7fb7eea	-2.998063e-05
109	0xb95cf31b	-0.00021071399
110	0x394f739d	0.00019784128
111	0xbc842af9	-0.016133772
112	0xbc022056	-0.00794228
113	0xbc964c8e	-0.018347051
114	0x3c543048	0.012950964
115	0xbc94c839	-0.01816188
116	0xba2d0179	-0.0006599646
117	0x3cd5076a	0.026004512
118	0xbc788471	-0.015168295
119	0xb7a1b7fb	-1.9278368e-05
120	0xbbe194d1	-0.0068841954
121	0xbbacfa69	-0.0052788747
122	0xbc6964ac	-0.014245193
123	0xbcb2a454	-0.021806873
124	0xbc54eb6a	-0.01299558
125	0xbc019135	-0.007908155
126	0xbba3fbb5	-0.005004371
127	0x3b6099bd	0.0034271323
128	0xbc3aa087	-0.011390812
129	0xbc711cd5	-0.014716347
130	0x3b3dbdc6	0.0028952225
131	0xb7841d57	-1.5749289e-05
132	0x3badea88	0.0053074993
133	0x3b7b9457	0.0038387978
134	0x3bc29ee2	0.0059393505
135	0xbbcc77de	-0.006239875
136	0xbc9e1ff1	-0.01930234
137	0xbc1de191	-0.009636299
138	0xbc039ea7	-0.008033431
139	0xbc6df30b	-0.014523278
140	0xbc3fd4bd	-0.011708436
141	0xbd048857	-0.032356586
142	0x3c118e54	0.008884031
143	0xbc6b942c	-0.014378589
144	0xbc3845a0	-0.011247069
145	0xbcb22227	-0.0217448
146	0xba9beb81	-0.0011895747
147	0xbca17a9e	-0.019711789
148	0xbbe47757	-0.006972234
149	0xb7e1dd44	-2.6925125e-05
150	0xbc2b2e0c	-0.01044799
151	0xbc7080eb	-0.014679174
152	0xbb7902cb	-0.003799605
153	0xbbd5f29b	-0.006529165
154	0xb89ce36a	-7.481019e-05
155	0xbc3bc94e	-0.011461569
156	0xbaaecfc7	-0.0013337069
157	0xbd187fb6	-0.03723117
158	0x39609d2c	0.00021420856
159	0xbcf3f774	-0.02978108
160	0xbca5da65	-0.02024574
161	0xbc50cb68	-0.012743808
162	0x3bf52cf1	0.007482164
163	0xbd0f5b23	-0.034999024
164	0xbc31d5f3	-0.010854232
165	0x3b5b5c24	0.0033471668
166	0xbc0b75d3	-0.008511978
167	0xbc73ddda	-0.0148844365
168	0xbbf1013f	-0.007354885
169	0xbcd15109	-0.025551336
170	0xbc4da762	-0.012552114
171	0xbc72db7e	-0.014822839
172	0xbce0ef3e	-0.02745783
173	0xbc9a2129	-0.01881464
174	0xbc8ed6e0	-0.017436445
175	0xbb2a2d6c	-0.0025967015
176	0xbd1b26ab	-0.037878674
177	0xbca259a4	-0.019818135
178	0xbc73928d	-0.014866483
179	0xbcac52d1	-0.021035584
180	0xbb0f34eb	-0.002185161
181	0xb89a02fc	-7.343848e-05
182	0xbba63aa7	-0.00507291
183	0xbc966c75	-0.018362263
184	0xbc76708b	-0.015041481
185	0xbce17013	-0.027519261
186	0x3c8e4843	0.017368441
187	0xbcdb94db	-0.026804378
188	0x3b09c73d	0.0021023296
189	0x3d1b7cfc	0.03796099
190	0xbc889fe7	-0.01667781
191	0xb7eb3783	-2.8040033e-05
192	0xbc2631fc	-0.010143753
193	0xbbacd406	-0.0052742986
194	0xbcae228a	-0.021256704
195	0xbcd61aaf	-0.02613577
196	0xbc304a56	-0.010759911
197	0xbc1cebb1	-0.009577678
198	0xbb1e200b	-0.0024127986
199	0x3c1c34dc	0.009534087
200	0xbcab87ca	-0.020938773
201	0xbca80290	-0.020509034
202	0xba43704e	-0.00074553944
203	0x38de4cda	0.000106000996
204	0x3bbbe4f3	0.00573408
205	0x3bd68141	0.00654617
206	0x3bedfc26	0.0072627245
207	0xbc86352a	-0.016382772
208	0xbcae0e8f	-0.021247176
209	0xbc4631a8	-0.0120968
210	0xbc917fa7	-0.017761065
211	0xbc9a7ce4	-0.01885838
212	0xbc5cf69b	-0.01348653
213	0xbd378826	-0.044807576
214	0x3c1b06b9	0.009462052
215	0xbc95ff0b	-0.01831009
216	0xbc21ee81	-0.009883524
217	0xbc83903b	-0.016059985
218	0xba58f7fe	-0.00082767
219	0xbcbd9fae	-0.02314743
220	0xbc545955	-0.012960752
221	0xb907aca3	-0.00012938915
222	0xbb94c392	-0.0045399154
223	0xbc4cac7e	-0.012492297
224	0xbb1ee16c	-0.0024243249
225	0xbc19e809	-0.0093937
226	0x37bea718	2.2727574e-05
227	0xbc27ed20	-0.010249406
228	0x3b91d20c	0.0044500884
229	0xbcf6a340	-0.03010714
230	0xba0bba9d	-0.0005330237
231	0xbcceb3a3	-0.025232142
232	0xbc973989	-0.018460052
233	0xbc0bdf20	-0.008537084
234	0x3c7f5f15	0.015586634
235	0xbd07cb21	-0.033152703
236	0x3a824019	0.0009937315
237	0x3bb487bc	0.005509345
238	0xbc25e129	-0.010124483
239	0xbc64d30c	-0.013966333
240	0xbbad7783	-0.005293788
241	0xbcc05716	-0.023479026
242	0xbc7ab122	-0.015301021
243	0xbc397393	-0.011319059
244	0xbcfd8694	-0.03094796
245	0xbc4bf12d	-0.0124476375
246	0xbc857d0f	-0.016294984
247	0x3a9ff141	0.0012202637
248	0xbcf36f7d	-0.029716248
249	0xbc8df2b8	-0.017327651
250	0xbc69001d	-0.014221218
251	0xbc7350d9	-0.014850819
252	0x3bba8ecf	0.0056932936
253	0x3820d6f2	3.8347156e-05
254	0xbac8f491	-0.0015331676
255	0xbca1adc4	-0.019736178

convs.2.weight f4 [72, 72]
0	0xbacf0c6d	-0.001579655
1	0xbba2f839	-0.004973438
2	0xbafbbde3	-0.0019206371
3	0xbc4a2e66	-0.012340164
4	0x3b5a0bec	0.0033271266
5	0xb7e15567	-2.6861859e-05
6	0x3b4d61a9	0.0031338728
7	0xba3465a8	-0.0006881603
8	0xbb92e630	-0.004483007
9	0xb99b551f	-0.00029627324
10	0xb7a0773c	-1.912901e-05
11	0x3b91c3c4	0.004448386
12	0xba118a25	-0.0005551896
13	0xbc2f5b27	-0.010702885
14	0x3a2dc495	0.0006628719
15	0xbbe949d6	-0.0071193976
16	0xba940148	-0.0011291886
17	0xbaebd782	-0.0017993303
18	0xba104151	-0.0005502897
19	0xbc2bb566	-0.0104802605
20	0xbaca3412	-0.0015426895
21	0x3a3b10a1	0.0007135962
22	0xbbc84e60	-0.0061128587
23	0x3bb0f6f9	0.005400535
24	0x3ad05bc0	0.0015896484
25	0xbbd0c1a6	-0.006370741
26	0xbb8f669e	-0.0043762466
27	0xba5f7bd2	-0.00085252256
28	0xbacbc42c	-0.0015546135
29	0x3bbdb135	0.005788947
30	0xbb8e575f	-0.0043439115
31	0x3c0d4c24	0.00862411
32	0xbc1bf3f8	-0.009518616
33	0xbb7bed56	-0.0038441024
34	0xbb22eae4	-0.0024859244
35	0xbb87953d	-0.0041376636
36	0x3b22e61b	0.0024856392
37	0xb906a4d0	-0.00012840633
38	0x3adda52e	0.0016910189
39	0xbb9a75ea	-0.0047137635
40	0xbb2af1b9	-0.002608402
41	0xbbf513d7	-0.0074791717
42	0x3a3e9e3d	0.0007271504
43	0x3b40d1cd	0.0029421926
44	0x3a1ec203	0.00060561317
45	0x3c300240	0.010742724
46	0xbc09d46f	-0.0084124645
47	0xb5dcab9d	-1.6441223e-06
48	0x3b2cbbf7	0.0026357153
49	0xbad6eb6c	-0.0016397065
50	0xbbc9dad0	-0.0061601177
51	0xbc17aa6f	-0.009256943
52	0x3c361a8b	0.011114727
53	0xbab7dbb8	-0.0014027273
54	0x3973d071	0.00023251936
55	0x3a04c166	0.0005064219
56	0xbc23fc98	-0.0100089535
57	0xbba6f6a9	-0.005095322
58	0xba80ba03	-0.0009821061
59	0xb523a50c	-6.0962407e-07
60	0xbb72361d	-0.0036958524
61	0xba626e90	-0.0008637691
62	0xbba8921c	-0.0051443707
63	0xbbab5abc	-0.0052293222
64	0xbbf70494	-0.0075383876
65	0xbc081552	-0.008305864
66	0xbc02e586	-0.007989293
67	0x3ba9b951	0.005179562
68	0xba8e62a5	-0.0010863139
69	0xbb97c772	-0.00463193
70	0xbbb6bf98	-0.005577039
71	0xb8d1f8e4	-0.00010012256
72	0xb9900c2c	-0.0002747489
73	0xbc76b624	-0.015058074
74	0xbba26aa3	-0.0049565597
75	0xbc494907	-0.0122854775
76	0xb9ea1c55	-0.00044653067
77	0xb734ecf8	-1.078401e-05
78	0xbbcc8922	-0.0062419334
79	0x3a03718a	0.0005014172
80	0x3b9704da	0.0046087326
81	0xbc05d236	-0.008167794
82	0xb88d76cf	-6.745534e-05
83	0xbb2564a8	-0.0025236998
84	0xba1394fa	-0.0005629804
85	0xbcc31f0f	-0.02381852
86	0x3750350a	1.2410115e-05
87	0xbc821964	-0.015881248
88	0xbbddba60	-0.0067666024
89	0xbbb720b4	-0.0055886153
90	0x3c1231a6	0.00892297
91	0xbcc12a81	-0.023579838
92	0xbb225e55	-0.0024775465
93	0x3ba36653	0.004986563
94	0xbbe856cf	-0.0070904265
95	0x37f45dcd	2.9130746e-05
96	0x3ac0224a	0.0014658656
97	0xbc61a4e8	-0.013772227
98	0xbc55af1e	-0.0130422395
99	0xbb226994	-0.0024782168
100	0xbc2c2241	-0.010506214
101	0xbadbb6a7	-0.0016762809
102	0xbc380f78	-0.011234157
103	0x3c2af397	0.010434053
104	0xbcede06e	-0.02903768
105	0xbbf03716	-0.0073307855
106	0xbb90df2c	-0.0044211354
107	0xbbf047d4	-0.0073327813
108	0x3bb8ba45	0.0056374394
109	0xb920470b	-0.00015285255
110	0x3a68a346	0.00088744273
111	0xbc673d13	-0.014113682
112	0xbc10c5eb	-0.00883625
113	0xbc3c8491	-0.011506216
114	0x3be42aa2	0.00696309
115	0xbbde97c5	-0.0067929947
116	0x3b2ef832	0.002669823
117	0x3cbc4fbe	0.022987243
118	0xbc4b6618	-0.012414478
119	0x3643c806	2.9173693e-06
120	0x3b9c59ca	0.004771446
121	0x3b0f78bb	0.002189203
122	0xbc46b846	-0.012128895
123	0xbca4a971	-0.020100327
124	0x3b7e26a8	0.0038780365
125	0x38ae0dd9	8.299546e-05
126	0xb9b290ea	-0.00034058775
127	0x38b7fc0f	8.7730696e-05
128	0xbc7cf61e	-0.015439538
129	0xbbac8b4f	-0.0052656303
130	0x3a7ed4a1	0.0009721015
131	0xb96269be	-0.00021592432
132	0xbb6dee7a	-0.0036305473
133	0xbb5279bd	-0.0032116019
134	0xbbfe9228	-0.007768888
135	0xbc003d12	-0.00782706
136	0xbc664e09	-0.014056691
137	0xbc4c5850	-0.012472227
138	0xbbf77a73	-0.007552439
139	0xbb9e51a6	-0.0048315106
140	0xbb0c91e1	-0.0021449255
141	0xbca8d25d	-0.020608122
142	0xbb655b2b	-0.0034996967
143	0xbc62ea53	-0.013849813
144	0xbbf287ac	-0.0074014273
145	0xbcb1ab1c	-0.021688037
146	0xbaafd51b	-0.0013414951
147	0xbcaaf768	-0.020869926
148	0xbb276f41	-0.002554849
149	0xb7a41428	-1.955971e-05
150	0xbc106ccd	-0.008815003
151	0xbb9334b7	-0.004492368
152	0x3a080212	0.0005188297
153	0xbc1257ca	-0.008932063
154	0x38727d50	5.7814003e-05
155	0xbb8ce44a	-0.004299675
156	0x3ac733e9	0.0015197966
157	0xbd289d63	-0.04116572
158	0x3c1cb95d	0.009565678
159	0xbcf7183a	-0.03016292
160	0xbc766b33	-0.015040207
161	0xbb554f52	-0.00325485
162	0x3c8a4fb4	0.016883709
163	0xbd1ce939	-0.038308356
164	0xbc06cc7c	-0.008227464
165	0x3c32babf	0.010908782
166	0xbc2b7916	-0.010465881
167	0xbae1318b	-0.0017180903
168	0xbbbb438c	-0.0057148393
169	0xbcc21cbd	-0.023695344
170	0xbc8fc100	-0.017548084
171	0xbc37b413	-0.011212367
172	0xbca2d66a	-0.019877631
173	0xbc6ac400	-0.014328957
174	0xbc7ad582	-0.015309693
175	0x3bd561c5	0.006511899
176	0xbd197f57	-0.037474956
177	0xbc69761f	-0.014249354
178	0xbc90e5a7	-0.017687632
179	0xbc93bf05	-0.018035421
180	0x3ba9335d	0.0051635937
181	0xb9fac33b	-0.00047829174
182	0xbbf8729d	-0.0075820223
183	0xbcc4061a	-0.02392869
184	0xbc1d0232	-0.009583043
185	0xbcb6acde	-0.022299226
186	0x3c7987e6	0.015230155
187	0xbcbd95d5	-0.023142735
188	0x3a842991	0.0010083189
189	0x3d385c29	0.045009766
190	0xbcad1325	-0.021127293
191	0xb45531e3	-1.985532e-07
192	0xbb55c229	-0.003261695
193	0xbaaec753	-0.001333455
194	0xbcc28f75	-0.023750046
195	0xbce29b53	-0.027661955
196	0xbaadfc16	-0.001327398
197	0xbc442b7e	-0.01197326
198	0x3aa51631	0.0012595115
199	0x3c12e5b7	0.008965901
200	0xbcd3d56c	-0.025858603
201	0xbc46881c	-0.012117412
202	0x3bbbe551	0.0057341238
203	0x382997b0	4.043401e-05
204	0x3ae77a61	0.0017660373
205	0x3a8fba24	0.0010965508
206	0x3b65df1f	0.0035075617
207	0xbc8644ce	-0.01639023
208	0xbca8d002	-0.020606998
209	0xbbeb5374	-0.0071815792
210	0xbcb62b1b	-0.022237351
211	0xbc6127da	-0.0137424115
212	0xbc03ef45	-0.008052652
213	0xbd304333	-0.043032836
214	0x3b555a79	0.0032555147
215	0xbcc01b87	-0.023450626
216	0xbb03d1ea	-0.0020114132
217	0xbc864dcf	-0.016394524
218	0xbbaed23a	-0.0053351196
219	0xbc64ce27	-0.013965166
220	0x3ba533fb	0.005041597
221	0x382ae71a	4.074639e-05
222	0xbbd9dcf7	-0.0066486555
223	0x3c207ab2	0.009794878
224	0x387a0c67	5.9616195e-05
225	0xbbe6bcd1	-0.0070415516
226	0xb943e375	-0.00018681384
227	0x3a9a51bc	0.0011773626
228	0x393af8cd	0.00017831028
229	0xbcd2c16d	-0.025726998
230	0x3a8dd517	0.0010820952
231	0xbc755cf3	-0.014975774
232	0xbba643b3	-0.0050739883
233	0xbbfcd392	-0.007715651
234	0x3b848e28	0.0040452667
235	0xbca9d132	-0.020729635
236	0xbb9d3fdc	-0.0047988724
237	0x3af68cd7	0.0018810284
238	0xbc087983	-0.008329752
239	0x3b1b47d9	0.0023693948
240	0xbad62c92	-0.0016340187
241	0xbc51c9c4	-0.012804452
242	0xbc086f3a	-0.0083273
243	0xbbaf7b12	-0.0053552473
244	0xbbda13a2	-0.0066551724
245	0x39fd486f	0.00048309888
246	0xbc0372d0	-0.008022979
247	0x3c14d0e9	0.009083011
248	0xbccd3d58	-0.025053665
249	0xbc47ec7c	-0.012202378
250	0xbc05ff55	-0.008178552
251	0xbc45ca4e	-0.012072159
252	0x3b511622	0.0031904061
253	0xb8415948	-4.6097935e-05
254	0xbbb1f2f8	-0.0054305755
255	0xbc54b072	-0.012981521

convs.3.weight f4 [72, 72]
0	0xba5c5e0f	-0.000840635
1	0xbb34f034	-0.0027608993
2	0xbb83edaa	-0.0040261345
3	0xbc2bec4e	-0.010493351
4	0x3af496cf	0.0018660667
5	0x35a70921	1.2445126e-06
6	0x3bd7681a	0.006573689
7	0x3c0bf2cd	0.008541775
8	0xbb62dd35	-0.0034616713
9	0x3708d16d	8.154992e-06
10	0xb6fb5b13	-7.4909854e-06
11	0x3b639b8e	0.003473017
12	0xba134bd0	-0.0005618902
13	0xbc148678	-0.009065263
14	0x3adf4c08	0.0017036209
15	0xbbc33840	-0.0059576333
16	0x3b7df742	0.0038752113
17	0xbb247fef	-0.0025100668
18	0x3b73442a	0.0037119486
19	0xbc0c2581	-0.0085538635
20	0xbac03455	-0.0014664034
21	0xbae1323a	-0.0017181106
22	0xbb1bf3cb	-0.0023796435
23	0x3b8101a3	0.0039369627
24	0x3a6c0583	0.0009003507
25	0xbbb0ca29	-0.005395193
26	0x3a75af96	0.00093721726
27	0x3aca6952	0.0015442765
28	0x3868aac0	5.5472134e-05
29	0x3b9180f3	0.004440421
30	0xbb88241e	-0.004154696
31	0x3c0c4ce6	0.008563256
32	0xbc6b2cbf	-0.01435393
33	0xbb8672b5	-0.0041030296
34	0xbaff03ca	-0.0019456085
35	0xb86f4067	-5.704202e-05
36	0x3b204b8b	0.002445909
37	0x362c1a48	2.5645295e-06
38	0x3af8c8cf	0.0018980744
39	0xbb91c3e2	-0.0044484
40	0x3b1adddc	0.0023630774
41	0xbb9c4b5b	-0.0047697253
42	0xbaf923b8	-0.0019007837
43	0x3a24d41e	0.00062877114
44	0x3a0e55eb	0.0005429673
45	0x3c0dccb8	0.008654766
46	0xbc0e5603	-0.008687499
47	0x36d750a6	6.416888e-06
48	0xb969b7ba	-0.00022289055
49	0xbb02d7cd	-0.0019965053
50	0xbbc47037	-0.0059948224
51	0xbbf5dffa	-0.0075035067
52	0x3c465950	0.012106255
53	0x3b922114	0.0044595096
54	0x3a9c2dfb	0.0011915559
55	0xbbba2a7f	-0.0056813355
56	0xbb8dce90	-0.0043276027
57	0xbbdddab8	-0.006770458
58	0x3b06e2a5	0.0020581868
59	0xb765a9f1	-1.3689031e-05
60	0xbbeac3a7	-0.007164437
61	0xb8b8823d	-8.7980625e-05
62	0xbb8a45d7	-0.0042197513
63	0xbb1c1973	-0.002381888
64	0xbc31e926	-0.01085881
65	0xbc286ef5	-0.0102803605
66	0xbafc97d1	-0.0019271319
67	0xbb11af04	-0.0022229562
68	0xba7376f3	-0.0009287439
69	0xbb8b068c	-0.004242724
70	0xbbf563e7	-0.007488716
71	0xbaf6b8d8	-0.0018823398
72	0xba62953d	-0.0008643454
73	0xbc4cf16e	-0.012508733
74	0xbb12e8ba	-0.0022416548
75	0xbc213a3b	-0.009840543
76	0xbb229141	-0.0024805816
77	0x385db69f	5.2860585e-05
78	0xbb97e77f	-0.004635751
79	0x3a8fcf45	0.0010971805
80	0x3b390f87	0.0028238015
81	0xbbf4cadd	-0.0074704723
82	0xb829ccdc	-4.048353e-05
83	0xba1ada73	-0.0005907185
84	0xba1acbca	-0.0005905001
85	0xbcaee75b	-0.021350553
86	0x3699f5ad	4.5883558e-06
87	0xbc31ad7f	-0.010844587
88	0xba926183	-0.0011167977
89	0xbb181567	-0.0023206116
90	0x3bd20aa4	0.00640996
91	0xbc98a9c8	-0.018635646
92	0xba2ca3cc	-0.0006585687
93	0x3b6d12ea	0.0036174604
94	0xbbca5462	-0.00617461
95	0xba9266c4	-0.0011169543
96	0x3a92d3c3	0.0011202026
97	0xbc77850c	-0.015107404
98	0xbc0ef307	-0.008724934
99	0xb9946871	-0.00028306575
100	0xbc08a600	-0.008340359
101	0xbb8e2068	-0.004337359
102	0xbc084cd0	-0.008319095
103	0x3c28cd24	0.010302816
104	0xbcad93db	-0.021188667
105	0xbbedaf14	-0.007253537
106	0xbc068826	-0.008211171
107	0xbb929e83	-0.0044744625
108	0x3ba3bc3d	0.004996805
109	0x38701328	5.72383e-05
110	0x3b04a3c2	0.0020239209
111	0xbc289087	-0.010288364
112	0xbb542036	-0.0032367832
113	0xbc23d301	-0.009999038
114	0x3bf5d7c0	0.007502526
115	0xbb49ede6	-0.0030811965
116	0x3afede6c	0.0019444949
117	0x3cb26058	0.021774456
118	0xbc34c987	-0.011034376
119	0xb831c872	-4.2386768e-05
120	0x3a4215af	0.0007403744
121	0x3b029ef5	0.0019931172
122	0xbc2c1a48	-0.010504313
123	0xbc78606b	-0.015159707
124	0xbb598407	-0.0033190267
125	0x3ad9fc9a	0.0016631067
126	0xb8128ae7	-3.4938475e-05
127	0x39c12912	0.00036842428
128	0xbc486783	-0.01223171
129	0xbb4e1e6d	-0.003145124
130	0x3b415a97	0.0029503459
131	0x3844a1f9	4.688089e-05
132	0x3ae2985b	0.0017287837
133	0xba46880d	-0.0007573374
134	0xbba53aba	-0.005042401
135	0xbbd62d65	-0.006536173
136	0xbc37a209	-0.011208066
137	0xbbfa402f	-0.007637046
138	0xbbbdbbc8	-0.0057902075
139	0xbb4258a2	-0.002965488
140	0xb80264f9	-3.1088453e-05
141	0xbc981519	-0.018564748
142	0xbbf26380	-0.007397115
143	0xbc6f7424	-0.014615092
144	0xbbfd25dd	-0.007725461
145	0xbcaa971a	-0.020824004
146	0xbc0e7655	-0.008695205
147	0xbc896b08	-0.01677467
148	0xbb43a505	-0.0029852998
149	0xb743b822	-1.16657775e-05
150	0xbc35b98f	-0.011091604
151	0xb994749f	-0.0002831565
152	0x3aa43d89	0.0012530546
153	0xbc01536b	-0.007893424
154	0xb7d4cb2a	-2.5366975e-05
155	0xbab487de	-0.0013773402
156	0x3ad48e1a	0.0016216666
157	0xbd057ded	-0.032590795
158	0x3beac0aa	0.0071640806
159	0xbccbae42	-0.024863366
160	0xbc34016d	-0.010986668
161	0xbb469c82	-0.0030305688
162	0x3c4dc9dc	0.012560334
163	0xbcfe7449	-0.031061308
164	0xbbe9ede0	-0.0071389526
165	0x3c354625	0.011064087
166	0xbc2c3bcf	-0.010512306
167	0xbaaa6cf8	-0.0013002446
168	0xbbbe8018	-0.00581361
169	0xbccfd64c	-0.02537074
170	0xbc81d49d	-0.015848452
171	0xbbd66e51	-0.0065439125
172	0xbc8d28b7	-0.017231328
173	0xbc69aea3	-0.014262828
174	0xbc62366a	-0.013806919
175	0x3c0ed0a7	0.008716739
176	0xbcf7f5a4	-0.030268498
177	0xbc83aa5a	-0.01607244
178	0xbc99fe43	-0.018798
179	0xbc53821b	-0.0129094375
180	0x3bbc5d90	0.005748458
181	0xb9cdaff7	-0.0003923175
182	0xbb8d3203	-0.0043089404
183	0xbc962594	-0.018328466
184	0xbc1f70c1	-0.0097314725
185	0xbca1a2e0	-0.019730985
186	0x3c2994bf	0.010350405
187	0xbc90a09c	-0.01765471
188	0xba16ba90	-0.0005749846
189	0x3d1042e3	0.03522004
190	0xbca76135	-0.020432094
191	0x3820c4cc	3.8330254e-05
192	0x3a419840	0.0007385053
193	0xba4c98db	-0.00078047597
194	0xbc97f367	-0.01854868
195	0xbcc3a3c7	-0.023881806
196	0xb8f8e1f7	-0.00011867651
197	0xbc2069f5	-0.009790887
198	0x3af2945d	0.001850735
199	0x3bf027cb	0.0073289624
200	0xbce714be	-0.028208133
201	0xbbab98c2	-0.005236716
202	0x3c0ca2d9	0.008583748
203	0x37b28ede	2.1285781e-05
204	0xbc9495a5	-0.018137762
205	0xb9be954b	-0.00036350856
206	0xbc1b03bf	-0.009461342
207	0xbc40d555	-0.011769612
208	0xbc9c19b0	-0.019055218
209	0xbc14a437	-0.009072355
210	0xbcc84a58	-0.024449512
211	0xbc1c0b58	-0.009524189
212	0xbb5fc8fb	-0.0034146893
213	0xbd21dbe5	-0.03951635
214	0xbb31fdf3	-0.0027159422
215	0xbcdc4280	-0.026887178
216	0xba86fa61	-0.0010298007
217	0xbc52f755	-0.012876351
218	0xb9373c21	-0.0001747464
219	0xbc8ec151	-0.017426165
220	0x3b946e41	0.004529745
221	0xb6b6360a	-5.4303136e-06
222	0xbbd26fff	-0.0064220424
223	0x3c427070	0.0118676275
224	0x3a930ee4	0.0011219648
225	0xbc285855	-0.010274966
226	0xb70aef61	-8.281176e-06
227	0x3b3716cc	0.0027937172
228	0xb53846b8	-6.864825e-07
229	0xbc95b778	-0.018275961
230	0xba1870fe	-0.0005815177
231	0xbbf8f8cd	-0.0075980187
232	0xbbf7ea3c	-0.0075657647
233	0xbb2a0153	-0.002594073
234	0x3b0a92e1	0.0021144676
235	0xbc8b3d26	-0.016996931
236	0x38e869d7	0.00011082336
237	0x3ae19855	0.0017211536
238	0xbc151b27	-0.009100712
239	0x3b83a02a	0.004016896
240	0xbb33da0b	-0.0027443196
241	0xbc4f527b	-0.012653942
242	0xbc0904c9	-0.008362957
243	0xbb19051d	-0.0023348995
244	0xbc1094a0	-0.008824497
245	0xb99c6029	-0.00029826284
246	0xbbe86c73	-0.0070930063
247	0x3c0e7f99	0.008697414
248	0xbcc3e875	-0.023914555
249	0xbc0b4957	-0.008501372
250	0xbc049d72	-0.0080941785
251	0xbc1f0b98	-0.009707354
252	0x3a43bbe0	0.0007466655
253	0x37e67b7c	2.7475638e-05
254	0x398ebf79	0.0002722701
255	0xbc2f3266	-0.010693168

convs.4.weight f4 [72, 72]
0	0xbb051c81	-0.002031118
1	0xbbdf0ae9	-0.0068067205
2	0xbb187500	-0.0023263097
3	0xbbf7674e	-0.0075501567
4	0x3a5b1fd4	0.000835893
5	0xb65fd194	-3.335158e-06
6	0x3b84b6a6	0.0040500937
7	0x3c5461d4	0.012962777
8	0xb943afec	-0.00018662185
9	0xb980aca9	-0.00024542704
10	0xb831df11	-4.2407835e-05
11	0x3b6adc94	0.0035837041
12	0xba147168	-0.0005662651
13	0xbc37b535	-0.011212637
14	0xbae1b6b9	-0.0017220593
15	0xbb50484c	-0.0031781374
16	0xbac74839	-0.0015204019
17	0xba7cd0b3	-0.0009644136
18	0x3a93385c	0.0011232006
19	0xbbfb077b	-0.007660804
20	0xba9bbfb3	-0.0011882692
21	0xba6f6d28	-0.0009133392
22	0xbbb86dba	-0.005628315
23	0x3c0e8eb1	0.0087010125
24	0x3aa64dc4	0.0012687971
25	0xbc08bfa2	-0.00834647
26	0xbb9ca686	-0.0047805933
27	0x3a77dd78	0.00094553037
28	0x3ae896f9	0.0017745189
29	0x3b97e646	0.004635605
30	0xbb69a152	-0.0035649133
31	0x3c0a348c	0.00843538
32	0xbc591137	-0.013248733
33	0xbb37ac10	-0.0028026141
34	0xbb22f96d	-0.0024867908
35	0xbb30a9c9	-0.0026956669
36	0x3b4a14a0	0.0030835047
37	0xb8118d59	-3.4702334e-05
38	0x3aa101ed	0.0012283899
39	0xbb5c1f0c	-0.0033587841
40	0x3ae64e5d	0.0017570961
41	0xbbc9f980	-0.006163776
42	0x3b3dc152	0.002895434
43	0xba764c53	-0.00093955285
44	0x3b4011c3	0.0029307462
45	0x3c01a8d4	0.007913787
46	0xbb6da161	-0.003625952
47	0xb74a2723	-1.20492505e-05
48	0xbb0707b2	-0.0020603952
49	0xbaf585b2	-0.0018731861
50	0xbb9063a5	-0.00440641
51	0xbc05dd19	-0.00817039
52	0x3aa9dbfb	0.0012959236
53	0xbaadadb0	-0.0013250615
54	0x3b457192	0.0030127508
55	0xbbb0eee3	-0.0053995713
56	0xbb98b7a3	-0.004660563
57	0xbc0fbddc	-0.008773293
58	0x3a23930e	0.00062398694
59	0xb9445382	-0.00018723126
60	0x39a63a2a	0.00031705323
61	0xbab4df50	-0.0013799462
62	0x3b94a325	0.00453605
63	0xbb932c3c	-0.004491357
64	0xbc45a207	-0.012062556
65	0xbc0e3f69	-0.00868211
66	0xbbe099cb	-0.006854271
67	0x3a8260c0	0.0009947047
68	0xbaa6661b	-0.0012695225
69	0xbb63ad77	-0.0034740844
70	0xbbbce430	-0.0057645068
71	0xbb9c0b61	-0.0047620987
72	0xb9011b89	-0.00012312656
73	0xbc453cd9	-0.012038433
74	0xbbd52dd0	-0.0065057054
75	0xbc198f4c	-0.009372544
76	0x3c13e454	0.009026606
77	0x379b1977	1.8489298e-05
78	0xbbc7ba13	-0.00609518
79	0x3bbb3b82	0.005713881
80	0x3b7858db	0.003789476
81	0xbbe1b7f7	-0.0068883854
82	0x37a2c054	1.9401465e-05
83	0xba6e088d	-0.00090802537
84	0xba30e5b1	-0.0006748094
85	0xbcb172a7	-0.021661116
86	0xba295b87	-0.0006460477
87	0xbc3c2b25	-0.011484896
88	0xbb3077a8	-0.002692679
89	0xbaf7b6ee	-0.0018899122
90	0x3be7634a	0.0070613967
91	0xbc9c559a	-0.019083787
92	0xba98a971	-0.0011647177
93	0x3ba32cda	0.004979712
94	0xbbc3f39b	-0.005979968
95	0x3bbdfad2	0.0057977224
96	0xba52e1cc	-0.00080445106
97	0xbc8bd8a9	-0.017071085
98	0xbc107c52	-0.008818703
99	0x3a1f9052	0.0006086874
100	0xbbce3fda	-0.006294233
101	0xbb60a075	-0.0034275327
102	0xbbdc0afd	-0.006715177
103	0x3c2b65f6	0.010461321
104	0xbc9772b8	-0.01848732
105	0xbbe8ae5d	-0.007100864
106	0xbbde6706	-0.0067871837
107	0xbb911d6c	-0.004428556
108	0x3bea92e1	0.0071586226
109	0x3815ddb4	3.5730845e-05
110	0x3b030dad	0.0019997165
111	0xbbeedb90	-0.0072893575
112	0xba98084d	-0.0011599154
113	0xbc0ed50a	-0.008717785
114	0x3be5190f	0.0069915126
115	0xbb9e47e1	-0.004830346
116	0x3abf3927	0.0014589176
117	0x3c9aaf5a	0.018882442
118	0xbc3b6c50	-0.011439398
119	0xb7f448d8	-2.9120987e-05
120	0xb9ae3f4d	-0.0003323503
121	0x3a99f56a	0.0011746113
122	0xbc12e4cd	-0.008965683
123	0xbc64c9a4	-0.0139640905
124	0xba51c07e	-0.0008001401
125	0x3af3651a	0.0018569559
126	0x3b0c93de	0.002145044
127	0xba8a22eb	-0.0010538971
128	0xbc4f2d06	-0.012645012
129	0xbc353cb7	-0.011061839
130	0x3b6e86aa	0.0036396184
131	0xb80ae77b	-3.3117347e-05
132	0x3a4ce200	0.0007815659
133	0xbb62a692	-0.0034584147
134	0xbbaf43cf	-0.0053486596
135	0xbb872cab	-0.004125198
136	0xbc428d86	-0.011874562
137	0xbc0c2ff2	-0.008556353
138	0xbbfa7796	-0.0076436503
139	0xbb7f846d	-0.0038988844
140	0x3a4b06c1	0.0007744842
141	0xbc8e0eaa	-0.017340977
142	0xbb5f3424	-0.0034058178
143	0xbc4414c3	-0.011967841
144	0xbbdb7ab7	-0.0066979784
145	0xbc9bc8b4	-0.019016601
146	0xbb090aad	-0.0020910904
147	0xbc8d70de	-0.017265733
148	0xbb3412d0	-0.0027477033
149	0xb7897f2e	-1.6390895e-05
150	0xbc77479f	-0.015092759
151	0x38b93caa	8.832787e-05
152	0x3af5be70	0.0018748771
153	0xbbd27db8	-0.0064236782
154	0xb7b22358	-2.1235712e-05
155	0xba90728e	-0.0011020468
156	0x3ae45a41	0.0017421917
157	0xbd0f412f	-0.034974273
158	0x3bf14d83	0.0073639764
159	0xbcc6991f	-0.024242936
160	0xbc235772	-0.009969579
161	0xbade57f3	-0.0016963467
162	0x3c4c35ec	0.012464028
163	0xbcee05c6	-0.029055487
164	0xbbf30c99	-0.0074172732
165	0x3c0cf39e	0.008603005
166	0xbc0a8ff9	-0.008457177
167	0xb95b0f27	-0.00020891112
168	0xbb2d1d91	-0.0026415328
169	0xbcfe276d	-0.031024659
170	0xbc9737f8	-0.018459305
171	0xbbce5000	-0.006296158
172	0xbc864828	-0.016391829
173	0xbc73794b	-0.0148604615
174	0xbc4908c1	-0.0122701535
175	0x3c11593f	0.008871376
176	0xbccdf0b5	-0.025139192
177	0xbc8dfe3e	-0.017333146
178	0xbcc83d2e	-0.024443235
179	0xbc3c46c1	-0.011491478
180	0x3bd7f575	0.00659054
181	0x38732cb4	5.7977348e-05
182	0xbb8719a6	-0.0041229306
183	0xbc81f953	-0.015865957
184	0xbc34b9ad	-0.011030597
185	0xbc84aac9	-0.016194718
186	0x3c0dfc01	0.008666039
187	0xbc75c830	-0.015001342
188	0xbb26a846	-0.0025429889
189	0x3cfa8ab8	0.030583724
190	0xbcbebb13	-0.023282563
191	0xb6ea7119	-6.9869097e-06
192	0x391c265b	0.00014891608
193	0xbb6b739f	-0.003592707
194	0xbc785519	-0.015157008
195	0xbcb6f7ee	-0.022335019
196	0xbb39a241	-0.002832547
197	0xbbcff29d	-0.0063460604
198	0xba92a855	-0.0011189083
199	0x3bb60fbf	0.0055560763
200	0xbcb415dd	-0.021983081
201	0xbc1acb27	-0.009447849
202	0x3bcab4b0	0.0061860904
203	0x38b60fdb	8.6813896e-05
204	0x39b9851a	0.00035385118
205	0xbb190671	-0.0023349787
206	0xb873ac30	-5.8096077e-05
207	0xbc334ad0	-0.01094313
208	0xbc9466b7	-0.018115385
209	0xbc4cd75e	-0.012502519
210	0xbc957646	-0.018244874
211	0xbbd64141	-0.0065385406
212	0xbb04e6b2	-0.0020279107
213	0xbd273309	-0.040820155
214	0xbc0c0e52	-0.008548336
215	0xbccc3db2	-0.024931762
216	0x3a44ec43	0.00075120124
217	0xbc15d601	-0.009145261
218	0xbb04a234	-0.0020238282
219	0xbc8e137f	-0.01734328
220	0x3b7aeda6	0.0038288622
221	0xb72dd603	-1.0361432e-05
222	0xba3c7e21	-0.00071904255
223	0x3bcc2a80	0.0062306523
224	0x3adf0ee2	0.0017017985
225	0xbc28e8c5	-0.010309403
226	0xb74895cd	-1.1955807e-05
227	0xb9a91237	-0.00032247763
228	0x3aa5b0eb	0.0012641227
229	0xbcac51b8	-0.02103506
230	0xbac4d562	-0.0015017206
231	0xbc45f007	-0.012081153
232	0xba5a11da	-0.00083187
233	0xbb18dfb6	-0.0023326701
234	0x3ba57857	0.005049746
235	0xbc6e31fe	-0.014538286
236	0xbb7a4c92	-0.0038192612
237	0x3b0909ca	0.0020910376
238	0xbc0b9f94	-0.008521933
239	0x3b0d2567	0.0021537186
240	0xb98e4759	-0.0002713751
241	0xbc75e611	-0.015008465
242	0xba8b99c3	-0.0010650683
243	0xbad59ee3	-0.0016297962
244	0xbbe858aa	-0.0070906477
245	0xba3e667b	-0.00072631956
246	0xbbd1f46a	-0.0064073103
247	0x3c00fba7	0.007872499
248	0xbc91b7a3	-0.01778776
249	0xbc2ba7bc	-0.010477003
250	0xbc0664f0	-0.008202776
251	0xbbee33a3	-0.007269339
252	0x3bad0962	0.0052806595
253	0xb89946a4	-7.308766e-05
254	0xbb6aa985	-0.0035806608
255	0xbc21053f	-0.009827911

convs.5.weight f4 [72, 72]
0	0xb9ef1ce5	-0.0004560716
1	0xbbfb7b5b	-0.007674617
2	0xbba53cfb	-0.00504267
3	0xbc2c92e8	-0.010533072
4	0x3b5c77a3	0.0033640645
5	0xb62906d4	-2.5186937e-06
6	0x3b3cd837	0.0028815398
7	0x3c446e0e	0.01198913
8	0xbb510608	-0.0031894464
9	0xbb029558	-0.0019925442
10	0x3773e841	1.45380045e-05
11	0x3b56a372	0.003275123
12	0xb9dfdd13	-0.00042698588
13	0xbc56601e	-0.01308444
14	0xbb15a07a	-0.0022831247
15	0xbbc7c82c	-0.0060968604
16	0xb856129c	-5.1038907e-05
17	0xbad8e2b8	-0.001654706
18	0x3a73985c	0.00092924177
19	0xbc29e564	-0.010369632
20	0xb9a9cde8	-0.00032387604
21	0x3b12350f	0.0022309457
22	0xbaefeb14	-0.0018304312
23	0x3b7e3ead	0.0038794682
24	0xbb507d2d	-0.0031812892
25	0xbc2223b5	-0.0098962085
26	0xbbbfffc7	-0.0058593485
27	0xb8e37d15	-0.00010847502
28	0xbb823405	-0.0039734864
29	0x3bbf8261	0.0058444
30	0xbb6b5582	-0.003590912
31	0x3c0fd0f5	0.008777847
32	0xbc3d3fe6	-0.011550879
33	0xbbaa3385	-0.00519413
34	0xbb86deaa	-0.004115899
35	0xbb14673c	-0.002264454
36	0x3b7bf0c0	0.0038443059
37	0xb8ba2305	-8.875694e-05
38	0x3ac85a5a	0.0015285716
39	0xbb894e5d	-0.00419025
40	0xbaa3cb03	-0.0012496415
41	0xbbdde0fb	-0.0067712045
42	0x3b7cef25	0.003859469
43	0x3ab6714c	0.0013919263
44	0x392d1045	0.00016504627
45	0x3c1e7bba	0.009673053
46	0xbbb91cc6	-0.005649182
47	0x370b7548	8.312352e-06
48	0x3b7f2c1e	0.0038936208
49	0xba99e214	-0.001174035
50	0xbb8dcd2a	-0.004327436
51	0xbc1ce7a0	-0.009576708
52	0x3c275d2a	0.010215083
53	0xbaf1856a	-0.0018426601
54	0x3b241f40	0.002504304
55	0xbbf470c4	-0.007459732
56	0xbc0210ca	-0.007938573
57	0xba6902a1	-0.00088886364
58	0x3af4b092	0.0018668345
59	0x36be4a71	5.6711074e-06
60	0xbb81491f	-0.0039454843
61	0xbacdd52e	-0.0015703791
62	0x3b4b7a9e	0.0031048427
63	0xbac25ec1	-0.0014829264
64	0xbbd1bea2	-0.006400899
65	0xbc36a30a	-0.01114727
66	0xbbe5b111	-0.0070096334
67	0xba9b2fa2	-0.0011839757
68	0xba0693f5	-0.00051337417
69	0xbc289029	-0.010288277
70	0xbb8d4561	-0.004311249
71	0xbbc5e84f	-0.0060396562
72	0xb9bf0d39	-0.0003644021
73	0xbc450e4a	-0.012027333
74	0xbb81dd67	-0.003963161
75	0xbc1ee7ac	-0.00969879
76	0x3bb6fde0	0.0055844635
77	0x385e1100	5.2944757e-05
78	0xbc15237a	-0.009102697
79	0x3baabc69	0.0052104485
80	0x3ba9a8e6	0.005177605
81	0xbbf39264	-0.0074332226
82	0xb6ba4457	-5.5511878e-06
83	0xbb1626cb	-0.0022911306
84	0xba57d37d	-0.00082331133
85	0xbca75b37	-0.020429237
86	0xb8192fbb	-3.6522495e-05
87	0xbc3c1da3	-0.011481675
88	0xbb34b234	-0.0027572038
89	0xbb4df848	-0.0031428505
90	0x3beae4b6	0.0071683777
91	0xbc9e788b	-0.019344589
92	0xbaee00d7	-0.0018158209
93	0x3b889808	0.004168514
94	0xbbcf6ffe	-0.006330489
95	0xbb1f0c2f	-0.0024268737
96	0x3a80ee52	0.000983665
97	0xbc964d34	-0.01834736
98	0xbc20df06	-0.009818798
99	0xbaa3e330	-0.001250362
100	0xbc00e1f9	-0.007866376
101	0xbb99e1ce	-0.0046961075
102	0xbbf9f64d	-0.0076282383
103	0x3c120bdb	0.008913959
104	0xbca1a5db	-0.019732406
105	0xbbec84a9	-0.0072179628
106	0xbbedc10e	-0.00725568
107	0xbb649656	-0.0034879646
108	0x3bf6c92a	0.007531305
109	0x3893b1d8	7.042632e-05
110	0x3b068bbc	0.0020530066
111	0xbbd0cafc	-0.006371854
112	0xba37dd6e	-0.00070138916
113	0xbc1f838c	-0.009735953
114	0x3c12aa09	0.008951672
115	0xba96f8c8	-0.0011518234
116	0x3adf840a	0.00170529
117	0x3ca33e90	0.019927293
118	0xbc475919	-0.012167239
119	0x3698d943	4.5552456e-06
120	0x3af5d23d	0.0018754672
121	0x3acc8fe5	0.0015606849
122	0xbbd50b13	-0.0065015643
123	0xbc50a36a	-0.012734273
124	0xbb711286	-0.0036784722
125	0xbae3ea2e	-0.0017388517
126	0x39971636	0.00028817513
127	0xbb2a0ce2	-0.002594762
128	0xbc5491c4	-0.012974206
129	0xbb0f05ed	-0.00218236
130	0x3aea071b	0.0017854901
131	0xb84031d0	-4.582276e-05
132	0x3a93fbc0	0.0011290237
133	0xba1965df	-0.0005851667
134	0xbbbcc446	-0.0057607023
135	0xbb83a8a3	-0.004017906
136	0xbc36c391	-0.011155025
137	0xbc2422e5	-0.010018085
138	0xbbed83df	-0.0072483863
139	0xbb473f2e	-0.0030402648
140	0x3a98f2cb	0.0011669038
141	0xbc9b1421	-0.018930497
142	0xbb5dfe0c	-0.0033873348
143	0xbc3f6521	-0.011681826
144	0xbbfa7ab7	-0.0076440233
145	0xbc9d9464	-0.019235797
146	0xbaf5f0c2	-0.0018763768
147	0xbc718918	-0.014742158
148	0xbb5842a4	-0.0032998705
149	0xb7f9e55a	-2.9789913e-05
150	0xbc9ff84d	-0.019527579
151	0x3a295366	0.0006459266
152	0x3adff8f5	0.0017087745
153	0xbbb0ece3	-0.005399333
154	0x38228a45	3.8752583e-05
155	0xbb015230	-0.0019732825
156	0x3add9593	0.0016905539
157	0xbd0af88b	-0.033928435
158	0x3be38373	0.00694316
159	0xbcb0c840	-0.021579862
160	0xbc2632cf	-0.01014395
161	0xbb192fa1	-0.0023374336
162	0x3c401683	0.011724117
163	0xbcf3e2a8	-0.029771164
164	0xbc0e57fa	-0.008687967
165	0x3c15c161	0.009140343
166	0xbc212d3f	-0.009837448
167	0xba8cbde9	-0.001073775
168	0xbbcb8014	-0.0062103365
169	0xbcfdf37d	-0.030999893
170	0xbc81b0c3	-0.015831357
171	0xbbf08a61	-0.007340715
172	0xbc8768be	-0.016529437
173	0xbc5c9de5	-0.013465379
174	0xbc4f8c73	-0.012667763
175	0x3bcc0d58	0.0062271766
176	0xbccf7aa4	-0.025327034
177	0xbc90f864	-0.017696567
178	0xbcccef56	-0.025016468
179	0xbc1efb8d	-0.009703529
180	0x3be2d639	0.00692251
181	0xb7fc92ff	-3.0109191e-05
182	0xbb5ab5a3	-0.0033372424
183	0xbc7fad51	-0.015605287
184	0xbbfef669	-0.007780839
185	0xbca1e820	-0.019764006
186	0x3c208244	0.009796683
187	0xbc70bfa2	-0.014694126
188	0xbad713c1	-0.0016409085
189	0x3cf739ab	0.030178865
190	0xbcc9ef73	-0.024650311
191	0x37971ce6	1.801406e-05
192	0xbbdfd875	-0.0068312236
193	0xbb63dd7e	-0.003476947
194	0xbc6272aa	-0.013821283
195	0xbcb33d55	-0.021879831
196	0xbbc4a879	-0.006001529
197	0xbba8c521	-0.0051504527
198	0x3b108f95	0.0022058238
199	0x3bbd74b8	0.005781736
200	0xbc8373d1	-0.016046437
201	0xbb6bae5c	-0.003596208
202	0x3bbeef77	0.0058268863
203	0x3881cc4e	6.189254e-05
204	0x3a286004	0.0006422999
205	0xba7169d5	-0.00092091906
206	0xbc213a13	-0.009840506
207	0xbc1f1e5f	-0.009711831
208	0xbc8bad60	-0.017050445
209	0xbc4fb300	-0.012676954
210	0xbccd106a	-0.02503224
211	0xbbf8a279	-0.0075877276
212	0xbb013335	-0.001971436
213	0xbd207f7f	-0.03918409
214	0xbbf44b80	-0.0074552894
215	0xbcc872b8	-0.024468765
216	0x381748ee	3.6069127e-05
217	0xbc74307b	-0.014904137
218	0xbb68faf4	-0.003554997
219	0xbc89992a	-0.016796667
220	0x3ba98c7a	0.005174217
221	0x3572a66a	9.039419e-07
222	0xbbd326a7	-0.0064438167
223	0xbb868199	-0.0041048047
224	0xba661c4a	-0.0008778019
225	0xbc1d968a	-0.009618411
226	0x38069750	3.208901e-05
227	0xb9ea6b0a	-0.00044711708
228	0xb9145f44	-0.00014149869
229	0xbcb7b869	-0.0224268
230	0xbafa0883	-0.0019076023
231	0xbc10f143	-0.008846584
232	0x378cebc1	1.6799082e-05
233	0xbb10a0bd	-0.0022068464
234	0x3a13d828	0.0005639815
235	0xbc8b0570	-0.016970366
236	0xbb807fa9	-0.0039214683
237	0x3b5325e8	0.0032218639
238	0xbbc8d8c1	-0.0061293547
239	0x3ac0212c	0.0014658323
240	0x39cb90d3	0.0003882708
241	0xbc8f16af	-0.017466871
242	0xbc1be740	-0.0095155835
243	0xbb093143	-0.0020933903
244	0xbc17d158	-0.00926622
245	0xbbb6c851	-0.005578079
246	0xbbd9d9ac	-0.006648263
247	0x3c28c54d	0.010300946
248	0xbc960020	-0.018310606
249	0xbc07a776	-0.008279672
250	0xbc08deec	-0.00835393
251	0xbbe8e9a0	-0.0071079284
252	0x3bd52774	0.0065049473
253	0xb88f4d06	-6.833118e-05
254	0xba0c1f19	-0.000534521
255	0xbc10129b	-0.008793498
