checkpoint/Wikipedia/20231105_160851205329.pth (torch, 54669 bytes, 36 tensors)

convs.0.weight f4 [16, 138]
-0.07160257 -0.7864168 0.24779457 0.042615034 -0.11415658 -0.31147444 0.6542638 -0.051562265
0.32393882 -0.15076582 -0.29140836 -0.09161667 -0.18709813 -0.25557414 0.20716146 -0.398757
-0.25573286 -0.38556063 0.27060908 -0.048821643 0.10340874 0.18279871 -0.11886601 -0.080784686
0.1560962 -0.38166603 0.0096316375 -0.20819439 -0.11469264 -0.2788171 -0.1586717 0.046249308
-0.22528464 -0.39766496 0.62929195 -0.22714159 0.3727221 0.09714052 0.12862901 -0.011497655
0.33737445 0.04476026 0.22431393 -0.05741768 -0.21269754 -0.13050957 0.08421872 -0.031515777
-0.24586433 -0.38509074 0.6812393 -0.09843356 -0.13825656 -0.13159668 0.0095876185 -0.049647834
0.54360247 -0.25953725 -0.17485528 -0.04190641 0.24562578 -0.1113064 -0.014863815 -0.12128304
-0.083736 -0.7201747 0.386932 -0.079199515 0.002140497 -0.4674601 0.01066313 0.04874477
0.4080398 0.14534177 -0.24048294 -0.14116243 0.260823 -0.036771063 0.31152296 -0.018216848
-0.36408594 -0.5093854 0.3942892 -0.08773413 0.019891676 -0.34580168 0.468219 -0.014072775
-0.08046815 -0.32718313 0.07509872 -0.2210541 -0.012142819 -0.1931268 0.40571627 -0.027960934
0.019720694 -0.3410399 0.6748056 -0.08685411 0.36472073 0.06688569 -0.09404533 -0.0067572626
0.0843548 -0.1721316 0.35257652 -0.0021151707 -0.049114965 -0.42572972 -0.13941185 -0.045199677
0.091058746 -0.56500113 0.09758698 -0.0852064 -0.047537003 -0.15426776 -0.012123974 -0.13961235
0.25126162 -0.08531033 -0.017786022 -0.10384253 0.80719817 -0.24933878 -0.032223497 -0.17785266
1.7384387 0.4814178 -0.3913982 0.4132811 -0.3904425 -0.38836542 -0.095840685 0.40655258
-0.42681026 -0.38557523 -0.52720046 -0.2873187 0.030031456 -0.08470787 0.095351025 -0.20065689
0.24067616 -0.08489443 -0.06901138 -0.11672082 -0.017169032 -0.08177128 -0.25929376 -0.23725095
0.010328157 -0.22374123 -0.37713677 -0.23233336 0.0023128137 -0.041819733 -0.037240345 -0.11195896
0.12088391 -0.05302296 -0.08388943 -0.114927426 -0.12574549 -0.16263556 0.2892405 -0.046869114
0.06496782 -0.05276611 -0.18221769 -0.08778311 0.15864903 -0.13301702 0.27323166 0.042391475
-0.07093853 -0.025236389 0.034740746 -0.07106498 0.22651793 -0.0004993909 -0.10919883 -0.2376663
0.020511692 0.008062843 -0.18092944 0.15413254 0.23363712 -0.15960994 0.12059529 0.07117419
-0.013716276 -0.033285424 -0.25760028 -0.029843202 0.044906925 -0.06695582 0.0149112865 0.020201795
-0.0152510265 -0.05169317 -0.0329584 -0.2748719 0.0071359864 -0.11653171 0.09472091 -0.26812896
0.0063933823 -0.010255341 0.08960522 0.025595037 0.08501668 -0.102247335 0.01617173 -0.17536391
0.07955691 0.0093535995 -0.22072282 -0.10527928 0.1323671 0.14957672 -0.12730993 -0.12138143
0.12644319 -0.00890053 -0.1344206 -0.22560936 0.026376389 -0.04840138 -0.009266795 -0.12225935
0.14917149 -2.0683778e-05 -0.0063178376 -0.24720119 0.0017938034 -0.098447286 0.17439619 -0.06547536
-0.040890127 -0.011060895 0.048831258 -0.10364791 0.15269226 -0.004774383 -0.01179116 -0.26283744
0.008261399 0.00034302048 0.08141078 0.56043446 0.13759157 0.05176894 -0.003994381 -0.045491163
00000000: 5ea4 92bd 9d52 49bf dcbd 7d3e 1a8d 2e3d
00000010: edca e9bd 9479 9fbe d57d 273f f432 53bd
00000020: 4fdb a53e 5b62 1abe 7a33 95be 85a1 bbbd
00000030: a796 3fbe 9dda 82be 2222 543e e129 ccbe
00000040: 6bef 82be 3468 c5be 468d 8a3e 34f9 47bd
00000050: f6c7 d33d 962f 3b3e 0670 f3bd 7172 a5bd
00000060: afd7 1f3e bb69 c3be 04ce 1d3c e930 55be
00000070: fae3 eabd 1dc1 8ebe d67a 22be ea6f 3d3d
00000080: 04b1 66be be9a cbbe 4719 213f ce97 68be
00000090: 6ed5 be3e 9cf1 c63d 53b7 033e a960 3cbc
000000a0: 58bc ac3e 8956 373d 8db2 653e cd2e 6bbd
000000b0: 62cd 59be 4da4 05be dd7a ac3d b016 01bd
000000c0: dcc3 7bbe 9d2a c5be b365 2e3f 8997 c9bd
000000d0: 2193 0dbe 48c1 06be 6315 1d3c 875b 4bbd
000000e0: 8829 0b3f 11e2 84be 430d 33be 0ea6 2bbd
000000f0: 5385 7b3e 9cf4 e3bd 5c87 73bc 3e63 f8bd
00000100: c87d abbd 5e5d 38bf f31b c63e 5b33 a2bd
00000110: 9547 0c3b ee56 efbe 69b4 2e3c 99a8 473d
00000120: 98ea d03e 79d4 143e 2941 76be e28c 10be
00000130: 988a 853e 419d 16bd f07f 9f3e 803b 95bc
00000140: 7969 babe 1567 02bf 46e0 c93e f4ad b3bd
00000150: def3 a23c eb0c b1be 67ba ef3e 7f91 66bc
00000160: 7ccc a4bd 8c84 a7be 5ccd 993d 025c 62be
00000170: adf2 46bc 08c3 45be 0bba cf3e 540e e5bc
00000180: 4b8d a13c c89c aebe 0fc0 2c3f 91e0 b1bd
00000190: adbc ba3e 5dfb 883d d79a c0bd 076c ddbb
000001a0: 36c2 ac3d 4443 30be e984 b43e ad9e 0abb
000001b0: c62c 49bd 3ff9 d9be fbc1 0ebe 4c23 39bd
000001c0: 027d ba3d eaa3 10bf afdb c73d b180 aebd
000001d0: 29b6 42bd 5ef8 1dbe a2a3 46bc 8af6 0ebe
000001e0: 5da5 803e 2fb7 aebd feb3 91bc 64ab d4bd
000001f0: 8aa4 4e3f aa52 7fbe c9fc 03bd 021f 36be
00000200: 2985 de3f 657c f63e 5865 c8be 9599 d33e
00000210: 14e8 c7be d5d7 c6be 1f48 c4bd a927 d03e
00000220: e086 dabe 1e6a c5be 9cf6 06bf 701b 93be
00000230: 8704 f63c 527b adbd 6647 c33d 0079 4dbe
00000240: d073 763e 22dd adbd d755 8dbd 530b efbd
00000250: 12a6 8cbc b377 a7bd 27c2 84be eaf1 72be
00000260: 6e37 293c 6c1c 65be 1218 c1be cce8 6dbe
00000270: 9392 173b 2b4b 2bbd 5589 18bd bd4a e5bd
00000280: fc91 f73d 9a2e 59bd 39ce abbd 125f ebbd
00000290: 6dc3 00be f089 26be 5517 943e d4f9 3fbd
000002a0: d90d 853d 4721 58bd 4697 3abe a2c7 b3bd
000002b0: e474 223e 9d35 08be 05e5 8b3e afa2 2d3d
000002c0: 3848 91bd 8bbc cebc 504c 0e3d 848a 91bd
000002d0: 51f4 673e 8ee9 02ba a3a3 dfbd cb5e 73be
000002e0: 2308 a83c 041a 043c 9145 39be ecd4 1d3e
000002f0: 923e 6f3e ca70 23be aafa f63d c6c3 913d
00000300: 3bba 60bc 4c56 08bd 2fe4 83be bb79 f4bc
00000310: 53f0 373d 2220 89bd 784e 743c 3c7e a53c
00000320: 71df 79bc 38bc 53bd 63ff 06bd 02bc 8cbe
00000330: fed4 e93b 2da8 eebd 09fd c13d 3348 89be
00000340: 947f d13b 0506 28bc f182 b73d afac d13c
00000350: 3a1d ae3d 0d67 d1bd 937a 843c 9992 33be
00000360: bcee a23d d73f 193c 2a05 62be aa9c d7bd
00000370: 3e8b 073e a42a 193e 895d 02be d496 f8bd
00000380: 537a 013e 87d3 11bc 8ea5 09be 2406 67be
00000390: 4c13 d83c 8740 46bd c1d3 17bc 1c63 fabd
000003a0: 69c0 183e 1382 adb7 dd05 cfbb 4f22 7dbe
000003b0: 0e1e eb3a bb9e c9bd ea94 323e f217 86bd
000003c0: 687c 27bd c238 35bc 4903 483d 5b45 d4bd
000003d0: 5c5b 1c3e 6d72 9cbb b62f 41bc a192 86be
000003e0: d25a 073c 6ed7 b339 b2ba a63d a278 0f3f
000003f0: cee4 0c3e ab0b 543d 4ce3 82bb f154 3abd

convs.0.bias f4 [16]
-0.040693365 0.00057768263 -0.008788122 -0.030556444 0.00944558 -0.03661885 0.08850803 -0.054959018
-0.054817487 -0.011152868 -0.035842188 -0.046301283 -0.058893114 -0.10174498 -0.0072918083 -0.05941062
00000000: 16ae 26bd a06f 173a 0efc 0fbc 8251 fabc
00000010: a2c1 1a3c a6fd 15bd b343 b53d b51c 61bd
00000020: 4d88 60bd 85ba 36bc 42cf 12bd 6aa6 3dbd
00000030: e839 71bd ac5f d0bd 1ff0 eebb 8d58 73bd

convs.1.weight f4 [16, 16]
0.0070579373 -0.011581702 4.6502696e-10 -0.011603806 -0.003150724 -0.0038035756 0.00014910362 -0.007569534
-0.0074309837 3.705251e-09 -0.009027512 0.0021918146 -0.005321654 0.00093378284 -0.010959202 -0.009838907
-0.0069730743 -0.011607556 -2.634558e-08 -0.0020852021 -0.0032626125 -0.0022038484 0.0008493534 -0.0035348665
-0.0057054 8.26548e-11 -0.0072339703 0.0024001517 -0.008341971 0.002993584 -0.0049407566 -0.008994025
2.0264022e-08 1.7185979e-08 -2.4413824e-09 1.4803868e-08 -8.880097e-11 -3.4816217e-10 -1.7341552e-08 7.6108814e-10
1.3267295e-08 3.223436e-10 2.9959793e-08 -2.067276e-08 2.7808928e-09 -7.970743e-09 4.6721325e-08 -2.1663302e-08
-0.009995475 -0.014809392 -4.3768793e-09 -0.0030588498 -0.0028014164 -0.00777241 0.00018834665 -0.007421285
-0.007593427 9.164263e-09 -0.014644351 -0.0027808133 -0.008593507 0.0060124537 -0.009726652 -0.01077901
-0.013062406 -0.0077216546 2.6601845e-09 -0.008202017 -0.0032907785 -0.0036318877 0.0009155868 0.00050206034
-0.007273962 1.6301053e-08 -0.017448567 0.0026534079 -0.00871909 0.010929249 -0.015661053 -0.011741679
-0.0066856453 -0.006872701 3.1844554e-09 -0.0028692326 -0.0017471713 -0.004436636 0.000329222 -0.005462311
-0.0034975954 -2.60172e-10 -0.0067218035 0.0018961909 -0.005230127 -0.00068799936 0.00018000255 -0.0066491123
-0.0007746847 -0.0006290017 -1.7797531e-09 0.00032899648 0.0010794944 -0.0003973297 0.00010519786 -0.0010978412
-0.0006974714 3.1951693e-08 -0.0012867447 -0.0017184382 -0.0016295181 -0.007730467 -0.00066567067 -0.001259043
0.0048777806 -0.0047197794 3.1724603e-08 -0.0020468598 -0.0018773122 0.0017988569 0.0005973518 -0.0056908904
-0.0055816406 -3.786887e-09 -0.0062480234 -0.00015280681 -0.00548596 0.00018505662 -0.007220822 -0.0071262657
0.0009608685 -0.009261364 -1.6757618e-10 -0.00811883 -0.0018543523 -0.00096148957 0.00028133436 -0.005311104
-0.0056965584 -1.1384901e-08 -0.006173835 0.00028945965 -0.0063002016 -0.0002444206 -0.0097981645 -0.008319014
8.70478e-09 3.0912897e-09 5.8190586e-09 5.428481e-09 3.6127794e-08 1.2808429e-08 -6.453771e-09 -3.1999367e-08
-1.9941004e-08 -1.1237976e-08 1.7354486e-09 -6.6022916e-09 -1.7092345e-08 -2.6843767e-09 5.489952e-09 -4.131958e-09
-0.0085649295 -0.0080263475 -4.2835753e-09 -0.0022378676 -0.0024824077 0.0014805859 0.000253857 -0.00050175696
-0.0031430821 -1.6043815e-08 -0.008723633 -0.002642777 -0.007503283 0.007449592 -0.009870136 -0.009938178
0.005244144 -0.0027024322 -1.9807587e-08 -0.00016342751 -0.00072766916 -0.004064326 0.00017490135 -0.0042148693
-0.0027501574 3.443729e-08 -0.0058780243 0.0035239654 -0.003246555 -0.00044164583 -0.0054340186 -0.004844203
-0.0050308835 -0.0061865645 -4.9781557e-09 -0.0024555642 0.00046578798 -0.0029080154 0.00020977343 -0.0035405785
0.002176015 2.165302e-09 -0.006845505 0.0025324423 -0.0064789006 -0.0004436345 -0.0044095768 -0.006245461
0.0050041554 -0.009521351 -1.4591722e-08 -0.0072093606 -0.000115823845 -0.0045839096 0.00091161154 -0.0060791303
0.0035389774 3.747515e-09 -0.007391023 -0.0005690062 -0.005675194 0.0014133141 -0.0072484137 -0.0062874635
-0.00056832767 -0.009003282 -1.03242455e-08 -0.003553302 -0.0026543809 -0.0029973506 0.00035121955 -0.0066999597
-0.0070482306 -4.710779e-08 -0.00935099 0.002226943 -0.00915174 0.006524616 -0.0074914247 -0.008731643
-0.0015402543 -0.006076231 -1.5880634e-08 -0.0023705047 -0.0006551261 -0.0031789967 0.00026993896 -0.005465345
0.0014845585 -1.4118124e-09 -0.006615502 -0.0010427902 -0.005743794 -0.0003879404 -0.0035226792 -0.006844925
00000000: 4546 e73b 2ec1 3dbc baa6 ff2f e41d 3ebc
00000010: 617c 4ebb 6945 79bb b358 1c39 da09 f8bb
00000020: 9c7f f3bb 779f 7e31 21e8 13bc 8ca4 0f3b
00000030: 4561 aebb 1bc9 743a 3a8e 33bc 5e33 21bc
00000040: 637e e4bb 9e2d 3ebc 8b4e e2b2 e3a7 08bb
00000050: 8ed1 55bb 716e 10bb 24a7 5e3a 38a9 67bb
00000060: 5df4 babb 84c2 b52e f10a edbb dd4b 1d3b
00000070: c3ac 08bc 0130 443b 12e6 a1bb ad5b 13bc
00000080: 0e11 ae32 5ea0 9332 41c5 27b1 1a54 7e32
00000090: 8046 c3ae 7867 bfaf 7af6 94b2 d134 5130
000000a0: 2eee 6332 d435 b12f 24ad 0033 e193 b1b2
000000b0: fc19 3f31 b3ef 08b2 a4aa 4833 1b16 bab2
000000c0: 10c4 23bc 18a3 72bc 7063 96b1 fc76 48bb
000000d0: f897 37bb b3af febb eb7e 4539 402e f3bb
000000e0: 48d2 f8bb db70 1d32 dcee 6fbc 4e3e 36bb
000000f0: c8cb 0cbc 1e04 c53b 895c 1fbc 729a 30bc
00000100: b403 56bc ef05 fdbb 76ce 3631 c161 06bc
00000110: 1aaa 57bb f704 6ebb fd03 703a b39c 033a
00000120: 6a5a eebb 6506 8c32 4cf0 8ebc cce4 2d3b
00000130: 84da 0ebc 9810 333c 9c4b 80bc 2c60 40bc
00000140: 4213 dbbb 6534 e1bb 88d5 5a31 bc09 3cbb
00000150: 5701 e5ba 3361 91bb 6e9b ac39 30fd b2bb
00000160: ea37 65bb f407 8faf 9342 dcbb 9c89 f83a
00000170: 7c61 abbb db5a 34ba 11bf 3c39 cce0 d9bb
00000180: 3614 4bba 97e3 24ba 7f9b f4b0 297d ac39
00000190: d27d 8d3a b150 d0b9 ac9d dc38 70e5 8fba
000001a0: 83d6 36ba 423b 0933 fda7 a8ba 383d e1ba
000001b0: 8e95 d5ba db4f fdbb 6780 2eba 7906 a5ba
000001c0: cad5 9f3b 61a8 9abb 9241 0833 9c24 06bb
000001d0: 2510 f6ba 9fc7 eb3a 9a97 1c3a a67a babb
000001e0: 32e6 b6bb cf1d 82b1 38bc ccbb c43a 20b9
000001f0: 91c3 b3bb c20b 4239 a59c ecbb 7383 e9bb
00000200: cbe2 7b3a fabc 17bc 8040 38af d704 05bc
00000210: bd0d f3ba 790c 7cba 0f80 9339 c508 aebb
00000220: 32aa babb 5397 43b2 e24d cabb 9ec2 9739
00000230: ec71 cebb 9425 80b9 7b88 20bc 794c 08bc
00000240: 078c 1532 8b6e 5431 fbf0 c731 6d85 ba31
00000250: ee2a 1b33 110c 5c32 f8bf ddb1 ad6f 09b3
00000260: bb4a abb2 2411 41b2 ab84 ee30 5fda e2b1
00000270: 77d2 92b2 0e78 38b1 21a2 bc31 16f9 8db1
00000280: eb53 0cbc f180 03bc ba2e 93b1 30a9 12bb
00000290: e4af 22bb 3810 c23a 1c18 8539 5788 03ba
000002a0: 2bfc 4dbb b9d0 89b2 92ed 0ebc 7132 2dbb
000002b0: 1ade f5bb b51b f43b 5ab6 21bc bdd3 22bc
000002c0: 11d7 ab3b 4a1b 31bb 5825 aab2 bd5d 2bb9
000002d0: 0dc1 3eba 0a2e 85bb b965 3739 e31c 8abb
000002e0: fc3b 34bb 33e8 1333 719c c0bb 54f2 663b
000002f0: 28c4 54bb b38c e7b9 da0f b2bb 1fbc 9ebb
00000300: 1cda a4bb aab8 cabb 520c abb1 88ed 20bb
00000310: 0135 f439 6794 3ebb a0f6 5b39 0d09 68bb
00000320: 799b 0e3b 65cc 1431 4250 e0bb 55f7 253b
00000330: f54c d4bb 9d97 e8b9 367e 90bb b9a6 ccbb
00000340: e6f9 a33b 71ff 1bbc 12af 7ab2 803c ecbb
00000350: 74e6 f2b8 9f34 96bb 37f9 6e3a 7133 c7bb
00000360: 30ee 673b 7ec3 8031 6530 f2bb 5c29 15ba
00000370: faf6 b9bb f43e b93a 1a84 edbb 1107 cebb
00000380: d3fb 14ba 8082 13bc 835e 31b2 84de 68bb
00000390: 1ff5 2dbb 336f 44bb e423 b839 568b dbbb
000003a0: d8f4 e6bb 9053 4ab3 e534 19bc e7f1 113b
000003b0: 2ef1 15bc 72cc d53b a07a f5bb 2a0f 0fbc
000003c0: 5ce2 c9ba 1f1b c7bb e269 88b2 785a 1bbb
000003d0: c5bc 2bba b756 50bb 9886 8d39 a316 b3bb
000003e0: 8495 c23a bc09 c2b0 dac6 d8bb 3cae 88ba
000003f0: 7036 bcbb 7b64 cbb9 c0dc 66bb 654b e0bb

convs.2.weight f4 [16, 16]
-0.00193043 0.0010778169 -3.4451087e-08 -0.0012902231 -0.0008236946 -0.0021237596 0.00012236636 -6.4135e-06
-0.0042420942 -1.5809619e-08 -0.005132464 -0.0012129054 -0.009974263 -0.0008223288 -0.0064269127 -0.0034258117
0.0017123359 -0.002535508 -2.337876e-08 -0.0042319256 -0.00063748483 -0.0024612953 0.00012566872 -0.0015426065
-0.0028708803 -1.5105059e-08 -0.0040219678 -0.0016554318 -0.0026702236 -4.0051204e-05 0.00053798006 -0.0041196523
1.2751834e-08 -1.176081e-08 8.511789e-09 -1.1052084e-08 1.4333331e-09 1.5316694e-08 -1.4312e-08 -1.2817784e-08
6.788709e-09 1.2742593e-09 1.36165115e-08 6.45829e-10 7.6357765e-09 -1.5077235e-08 4.760909e-09 -3.0197153e-10
0.0018277797 -0.003810581 3.6754056e-08 -0.0043450114 -0.0015598496 -0.0031461918 0.0003507983 -0.0040748985
-0.0042739324 -2.174328e-08 -0.006114449 0.0018443131 -0.016222985 -0.00025483835 0.004682763 -0.008935709
-0.0040388843 -0.0035692276 -9.2263625e-10 -0.0016912622 -0.0017504194 -0.0013290572 0.00012500105 -0.0042435117
-0.003125675 -2.19021e-08 -0.006129553 0.0004856407 -0.0127119245 -0.00092211104 -0.005200767 -0.0071084346
-0.003260562 -0.0039621876 1.2328495e-09 -0.0010409892 -0.0007108265 0.0006676082 0.00026106497 -0.0009158565
-0.0019094297 -9.121757e-10 -0.0032370691 8.9906134e-05 -0.0027543653 0.002734437 -0.0037570547 -0.003293995
-0.00052303873 -0.00043946397 1.6321088e-08 -0.0003922563 9.410857e-05 -0.00063859473 1.9007668e-05 -0.00035127273
-0.00043613705 1.1201064e-08 -0.0009669169 -0.00018933276 -0.00073377695 8.099341e-05 -0.00039676978 -0.0006592334
0.0018073651 -0.0020729934 -9.9293125e-09 -0.0023378856 -0.0009360871 0.0007357672 0.00016534152 -0.002440587
-0.0016575684 3.685878e-08 -0.0033384017 0.0007233093 -0.0030971584 0.0013724244 -0.0014672349 -0.0034913113
0.0024000688 -0.0040576835 7.3060963e-10 -0.0009452476 -0.00089104555 -0.0054834667 0.00033146795 -0.002647575
-0.0030275004 -2.599788e-08 -0.004831684 0.001136743 -0.00840245 -2.6219132e-06 0.0037369037 -0.0065188874
-3.4526025e-08 -3.8888316e-11 5.4227813e-09 -3.3728522e-09 1.5745298e-08 -2.7511877e-09 -8.852161e-09 3.5463796e-09
1.990582e-08 -1.3559751e-08 2.9878954e-08 -3.540243e-08 6.94337e-09 -1.2435153e-09 -6.4676e-09 -6.9700015e-09
0.003546972 -0.0023430036 1.1103862e-08 -0.002346595 -0.0013499035 -0.0020431858 0.00022740896 -0.0028346183
-0.0037964222 3.972471e-09 -0.004565028 -0.0021071348 -0.012875001 -0.00017431125 -0.00045770864 -0.004775659
0.004264852 -0.001367198 -2.1486247e-08 -6.553029e-05 -0.0009942781 -0.0016527087 8.5905354e-05 0.0006399852
-0.0014307515 -1.8728237e-08 -0.0032635976 -0.00055837707 -0.0018289164 0.00042104747 -0.0047273063 -0.0046628555
0.0019507671 -0.0046209837 -1.2835413e-08 -0.000908199 -0.00029587327 -0.0021266425 4.614791e-05 -0.0022774546
-0.0008366959 9.464192e-09 -0.0047313105 -0.0019637826 -0.0030893886 0.0018305619 0.0012663233 -0.003647107
0.0027980711 -0.005048527 -3.6460088e-09 -0.00090726704 -4.3257915e-05 -0.0020989322 5.957326e-05 -0.0013709755
-0.0015445563 -3.7316365e-08 -0.0042628734 -0.0022258598 -0.0028231447 0.001316722 -0.00458465 -0.004264909
-0.0039461744 -0.004461821 -4.7323443e-09 -0.0013222556 0.0029144513 0.0012776551 0.00041042845 -0.003448156
-0.0039662956 9.01895e-09 -0.0046872557 -0.001476462 -0.00523915 0.003842167 -0.0036791808 -0.0039681094
-0.0027286285 -0.0021552048 -9.24503e-10 -0.0039892728 -0.000948742 -0.0016375809 0.00010642457 -0.0027020145
-0.0009767367 2.5742972e-08 -0.0031534228 0.0005733431 -0.0031520603 -0.00018742295 -0.0031875477 -0.0043045483
00000000: 7b06 fdba 8945 8d3a 5ff7 13b3 b41c a9ba
00000010: 35ed 57ba c62e 0bbb 784f 0039 8c33 d7b6
00000020: 4401 8bbb b8cd 87b2 3b2e a8bb 5afa 9eba
00000030: 176b 23bc 8d91 57ba da98 d2bb 9583 60bb
00000040: 7570 e03a c42a 26bb 70d2 c8b2 f7ab 8abb
00000050: e21c 27ba af4d 21bb f1c5 0339 4931 caba
00000060: 6125 3cbb 60c0 81b2 b6ca 83bb 13fb d8ba
00000070: ebfe 2ebb a7fc 27b8 3b07 0d3a 26fe 86bb
00000080: 2913 5b32 970c 4ab2 3e3b 1232 94df 3db2
00000090: edfe c430 c491 8332 d7e0 75b2 3635 5cb2
000000a0: 1e42 e931 0322 af30 0dee 6932 2d86 3130
000000b0: 802e 0332 3183 81b2 6695 a331 b702 a6af
000000c0: 1c92 ef3a f1ba 79bb 83db 1d33 9960 8ebb
000000d0: de73 ccba 5730 4ebb 5aeb b739 ba86 85bb
000000e0: 580c 8cbb fac5 bab2 b75b c8bb e1bc f13a
000000f0: 11e6 84bc d39b 85b9 dd71 993b 1467 12bc
00000100: 9e58 84bb b4e9 69bb c19c 7db0 58ad ddba
00000110: 546e e5ba c233 aeba b712 0339 280d 8bbb
00000120: 20d8 4cbb 3a23 bcb2 6bda c8bb 979d fe39
00000130: ad45 50bc d3b9 71ba 326b aabb dfed e8bb
00000140: 27af 55bb 3dd5 81bb 0971 a930 cd71 88ba
00000150: c256 3aba 6e02 2f3a 8cdf 8839 1716 70ba
00000160: d445 faba a9bc 7ab0 0225 54bb fd8b bc38
00000170: 9582 34bb 3d34 333b eb38 76bb 11e0 57bb
00000180: 891c 09ba db67 e6b9 7432 8c32 c0a7 cdb9
00000190: 275c c538 5e67 27ba a872 9f37 072b b8b9
000001a0: 53a9 e4b9 cd6e 4032 b278 7dba a087 46b9
000001b0: f05a 40ba 02db a938 8a05 d0b9 68d0 2cba
000001c0: 1ce5 ec3a 0fdb 07bb 9495 2ab2 3637 19bb
000001d0: be63 75ba 80e0 403a 875f 2d39 41f2 1fbb
000001e0: c442 d9ba a84e 1e33 16c9 5abb 779c 3d3a
000001f0: b2f9 4abb ece2 b33a 3c50 c0ba 7cce 64bb
00000200: 794a 1d3b 51f6 84bb 15d4 4830 7eca 77ba
00000210: 0e95 69ba a7ae b3bb e0c8 ad39 f082 2dbb
00000220: 0769 46bb f151 dfb2 1a53 9ebb c4fe 943a
00000230: 6eaa 09bc 20f4 2fb6 d7e6 743b 649c d5bb
00000240: c449 14b3 5a08 2bae 4a53 ba31 d8c7 67b1
00000250: 4740 8732 680f 3db1 3714 18b2 92b4 7331
00000260: 5cfd aa32 6af4 68b2 4254 0033 620d 18b3
00000270: 8792 ee31 4ee8 aab0 9c39 deb1 c87c efb1
00000280: 5174 683b 148d 19bb 4dc3 3e32 55c9 19bb
00000290: 3fef b0ba f8e6 05bb a174 6e39 01c5 39bb
000002a0: 65cd 78bb 397e 8831 3b96 95bb db17 0abb
000002b0: abf1 52bc 52c7 36b9 9df8 efb9 227d 9cbb
000002c0: 2cc0 8b3b 8d33 b3ba c290 b8b2 4e6d 89b8
000002d0: 7052 82ba b49f d8ba 1628 b438 aec4 273a
000002e0: 0e88 bbba d4df a0b2 15e2 55bb 0d60 12ba
000002f0: 40b8 efba 09c0 dc39 85e7 9abb deca 98bb
00000300: e2b0 ff3a 9f6b 97bb be82 5cb2 3414 6eba
00000310: 701f 9bb9 245f 0bbb f18e 4138 5941 15bb
00000320: b655 5bba f597 2232 1c09 9bbb ceb2 00bb
00000330: 5777 4abb 77ef ef3a c2fa a53a 4d04 6fbb
00000340: d85f 373b 1d6e a5bb 448d 7ab1 a9d5 6dba
00000350: d56f 35b8 3d8e 09bb 4dde 7938 4eb2 b3ba
00000360: b672 caba c745 20b3 93af 8bbb bbdf 11bb
00000370: 8204 39bb dc95 ac3a d53a 96bb a6c0 8bbb
00000380: e94e 81bb 7834 92bb 249a a2b1 894f adba
00000390: 6100 3f3b fe76 a73a c62e d739 75fa 61bb
000003a0: b3f7 81bb c3f1 1a32 8d97 99bb d885 c1ba
000003b0: 2dad abbb decc 7b3b 691e 71bb ea06 82bb
000003c0: cad2 32bb 563e 0dbb 1d20 7eb0 72b8 82bb
000003d0: ffb4 78ba 19a4 d6ba 4230 df38 4814 31bb
000003e0: d805 80ba 6521 dd32 a8a9 4ebb 674c 163a
000003f0: cc92 4ebb f786 44b9 2de6 50bb 2b0d 8dbb

convs.3.weight f4 [16, 16]
0.0030966403 -0.0020228936 -1.9562527e-09 -0.0024245505 0.003127422 -0.003473167 4.3553744e-05 0.0020710072
-0.0024855242 2.2317556e-08 -0.003000903 -0.0033811901 -0.0017533167 0.0020104828 0.004403489 -0.0034431133
-0.0026661025 -0.0014299456 3.1531828e-09 -0.00039719974 -0.0006025803 0.0007822201 7.770321e-05 -0.00059018057
-0.0020922548 7.210188e-09 -0.0026727924 0.00067791727 -0.00189827 0.0033568705 -0.0036375695 -0.0032527074
1.8273799e-09 -2.8427209e-11 -3.052882e-08 -3.165611e-08 8.0735536e-11 3.9941863e-08 1.6038792e-08 -1.0042962e-08
-3.7096413e-08 -3.457983e-08 3.1805104e-08 2.015844e-09 3.027899e-08 2.0311681e-08 2.1882666e-08 1.3060321e-08
0.00081633794 -0.0033676904 2.8684159e-08 -0.0012584671 -0.0006514542 -0.0019918834 0.00017763652 -0.0035112815
-0.0033418855 9.2769366e-09 -0.0048831655 0.0017886799 -0.004599311 0.0010056501 -0.004038903 -0.0054983655
0.0017746796 -0.00540591 -2.1261515e-08 -0.0013541941 -0.00044976818 -0.0011044396 9.8780525e-05 -0.003659965
-0.003051049 -1.8807391e-09 -0.004646214 0.00069127313 -0.0038856592 0.0041463757 -0.004754364 -0.0050450303
-0.0030207222 -0.0036153432 4.2936614e-09 -0.0032264865 0.004317995 -0.003555401 7.3388495e-05 -0.0024310926
-0.0021650763 2.607433e-08 -0.0033670973 0.0014612607 -0.009850275 0.00015302523 -0.003237371 -0.003335612
-0.00019805039 -0.00036046462 9.811766e-09 -0.0002524088 0.00017114417 -0.00028935075 4.4346976e-05 -0.0003959151
-0.00038836114 1.2688795e-08 -0.0019739163 -0.0016289063 -0.0011342269 7.6556316e-05 -0.00036544196 -0.0006824858
0.0027264496 -0.0019611197 3.5804852e-08 -0.0014559155 -0.00066043285 -0.0011294555 4.2635114e-05 0.00027831495
-0.0069044777 3.496419e-08 -0.0022978678 0.00038836777 -0.0020273067 -0.0034904866 -0.0037653085 -0.0028264166
-0.002404526 -0.0029656866 -2.5866895e-10 0.00081601285 -0.0004687212 -0.0001600488 4.597586e-05 -0.0023006313
0.0006487055 -1.8316834e-08 -0.0025667928 -0.0009633041 -0.002110216 0.0029066324 -0.002321909 -0.002970025
5.298069e-10 1.4595517e-09 9.26779e-09 2.2677852e-08 -3.1786026e-08 -4.6482075e-08 -3.0896534e-09 -2.057173e-10
1.3200329e-08 -4.5867545e-09 -1.3680022e-08 4.3736352e-09 1.5035056e-08 8.855477e-09 2.8927603e-09 1.6407637e-09
-0.0025721607 -0.003564037 3.2170558e-08 0.0005971479 -0.0005553023 -0.0014339128 0.00040419464 -9.583786e-05
-0.0031473516 7.284434e-10 -0.0051745814 -0.00082785415 -0.0026107933 0.0006388053 -0.0016469947 -0.0032559999
-0.0019329732 -0.0025023057 -1.7540361e-09 -0.0012507364 -0.0002464208 -0.00035157867 6.099176e-05 -0.0015731287
-0.0032578288 -8.573023e-11 -0.0018204426 -0.0005779476 -0.0035135911 -0.00016765502 -0.003316006 -0.002377733
-0.00073699694 -0.0033189885 3.5611485e-08 -0.00013382504 0.00049699924 -0.0014038017 3.5934772e-05 -0.0015658783
-0.008061249 2.1670068e-08 -0.003926328 -0.00083945907 -0.0019480096 0.0023837013 -0.0028415641 -0.0023270065
0.003244931 -0.0017669214 3.542556e-08 6.276109e-05 -0.00030643787 -7.579455e-05 7.262397e-05 -0.00016122164
-0.0014715932 4.9832676e-09 -0.003024459 0.00201104 -0.0020971224 0.003366514 0.00086902344 -0.0033340699
-0.0033430438 -0.003152533 2.3959656e-08 -0.0027815355 0.002065055 0.00079522835 0.00018679089 -0.002645535
-0.0028742026 -7.339802e-09 -0.0032610705 1.1111623e-05 -0.0028980887 -0.00025023188 -0.004468494 -0.0039232024
-0.0016838171 -0.0016364901 -8.893392e-09 -0.0014279714 0.0018965104 -0.0013136704 3.2852342e-05 -0.00056951464
-0.0024718663 -2.8904741e-11 -0.002967643 0.0013402345 -0.002044229 0.0007865053 -0.0024217851 -0.002469781
00000000: 01f1 4a3b 8692 04bb c36e 06b1 35e5 1ebb
00000010: 6ff5 4c3b 139e 63bb 7aad 3638 bcb9 073b
00000020: 2de4 22bb d3b4 bf32 ccaa 44bb f596 5dbb
00000030: 8ccf e5ba 4ec2 033b 254b 903b dba5 61bb
00000040: c7b9 2ebb 036d bbba 61af 5831 3f3f d0b9
00000050: 7bf6 1dba e70d 4d3a 98f4 a238 59b6 1aba
00000060: 361e 09bb 7cbd f731 042a 2fbb 42b6 313a
00000070: 5fcf f8ba f1fe 5b3b 4a64 6ebb 602b 55bb
00000080: 3727 fb30 620c faad cb1e 03b3 43f6 07b3
00000090: 118a b12e 8b8c 2b33 adc5 8932 6a89 2cb2
000000a0: f053 1fb3 ed84 14b3 159a 0833 1a87 0a31
000000b0: 1a0c 0233 dc79 ae32 7ef8 bb32 e65f 6032
000000c0: 83ff 553a 78b4 5cbb 2265 f632 26f3 a4ba
000000d0: 5ac6 2aba 428a 02bb f143 3a39 871d 66bb
000000e0: 8903 5bbb 6660 1f32 f602 a0bb 2372 ea3a
000000f0: d1b5 96bb 05d0 833a c658 84bb a22b b4bb
00000100: 5e9c e83a 0f24 b1bb 91a2 b6b2 377f b1ba
00000110: ddce ebb9 d8c2 90ba 6428 cf38 06dc 6fbb
00000120: 1cf4 47bb 503e 01b1 453f 98bb 8e36 353a
00000130: 8ba6 7ebb 52de 873b 7fca 9bbb c850 a5bb
00000140: 4ff7 45bb 65ef 6cbb 7287 9331 7673 53bb
00000150: f87d 8d3b bb01 69bb 26e8 9938 f752 1fbb
00000160: f4e3 0dbb 0ffa df32 85aa 5cbb c687 bf3a
00000170: 0c63 21bc 6675 2039 132a 54bb 489a 5abb
00000180: bfab 4fb9 befc bcb9 9a90 2832 bc55 84b9
00000190: 2a75 3339 00b4 97b9 3401 3a38 d392 cfb9
000001a0: f39c cbb9 e9fd 5932 d25c 01bb 0781 d5ba
000001b0: 57aa 94ba dc8c a038 ca98 bfb9 d9e8 32ba
000001c0: 3cae 323b 2186 00bb dac7 1933 6bd4 beba
000001d0: e620 2dba 3d0a 94ba 1bd3 3238 cdea 9139
000001e0: f53e e2bb 892b 1633 d397 16bb d79d cb39
000001f0: 90dc 04bb a6c0 64bb 65c3 76bb 673b 39bb
00000200: 4195 1dbb f75b 42bb 6b34 8eaf b2e9 553a
00000210: b2be f5b9 c6d2 27b9 34d6 4038 30c6 16bb
00000220: e40d 2a3a 2557 9db2 a337 28bb 3e86 7cba
00000230: 8d4b 0abb 337d 3e3b 2b2b 18bb c0a4 42bb
00000240: d9a1 1130 6999 c830 2c38 1f32 20cd c232
00000250: 1b85 08b3 95a3 47b3 c251 54b1 4630 62af
00000260: a9c7 6232 8599 9db1 5f05 6bb2 e746 9631
00000270: 7026 8132 cd22 1832 fac9 4631 3e81 e130
00000280: b291 28bb 9e92 69bb e72b 0a33 eb89 1c3a
00000290: b591 11ba 21f2 bbba 16ea d339 8ffc c8b8
000002a0: cc43 4ebb a63b 4830 898f a9bb 5a04 59ba
000002b0: d819 2bbb 7f75 273a f9df d7ba 9d62 55bb
000002c0: d15b fdba b9fd 23bb a912 f1b0 c0ef a3ba
000002d0: 0a32 81b9 1754 b8b9 67d1 7f38 7131 ceba
000002e0: 4c81 55bb d485 bcae eb9b eeba 6881 17ba
000002f0: 4744 66bb 8dcc 2fb9 5951 59bb bdd3 1bbb
00000300: 0733 41ba 6383 59bb 3ef3 1833 6353 0cb9
00000310: 0e49 023a c5ff b7ba abb8 1638 283e cdba
00000320: 5413 04bc fc24 ba32 6da8 80bb 250f 5cba
00000330: 5b54 ffba df37 1c3b 8939 3abb b180 18bb
00000340: e9a8 543b 0b98 e7ba d126 1833 9b9e 8338
00000350: 65a9 a0b9 e4f3 9eb8 b24d 9838 9b0d 29b9
00000360: 79e2 c0ba 4939 ab31 0036 46bb a7cb 033b
00000370: e06f 09bb bca0 5c3b 2dcf 633a 6980 5abb
00000380: f816 5bbb ba9a 4ebb d7cf cd32 6c4a 36bb
00000390: e055 073b df76 503a 4cdd 4339 b660 2dbb
000003a0: 1e5d 3cbb 9531 fcb1 afb7 55bb 0f6c 3a37
000003b0: dced 3dbb 8e31 83b9 726c 92bb 358e 80bb
000003c0: 87b3 dcba 7f7f d6ba 8dc9 18b2 c52a bbba
000003d0: 5494 f83a 772f acba efca 0938 7b4b 15ba
000003e0: 09ff 21bb b13f fead ca7c 42bb cfaa af3a
000003f0: 79f8 05bb 7a2d 4e3a d0b6 1ebb 0ddc 21bb

convs.4.weight f4 [16, 16]
-0.0027370127 -0.0024951277 -1.1424474e-08 -0.000772606 -0.00029822375 -0.0029179577 5.341397e-05 -0.0025506078
0.00031135185 2.9453725e-08 -0.0028985862 0.001193275 -0.0017735664 0.00041531512 -0.0028294325 -0.0019070563
0.0030146015 -0.0018018234 1.0228592e-08 -0.0023974702 0.0019421368 -0.0012714276 0.000121232624 -0.0021868607
-0.002212282 -3.3127804e-08 -0.0040283 0.00019037668 -0.0077589643 0.002490036 -0.0025754478 -0.0024690207
1.4285014e-09 1.47023895e-08 -3.3018487e-08 -2.1944993e-08 -1.2066241e-08 1.0858823e-09 4.0791512e-08 2.2975664e-09
-3.244279e-09 -4.498874e-09 -2.5339933e-08 3.3350354e-09 1.171161e-08 2.0843565e-08 2.9847862e-09 4.0851898e-08
0.0018031681 -0.00020075684 -3.4033675e-08 0.0002822003 -0.0010530194 -0.000550906 7.9603975e-05 -0.0031219423
-0.0014281941 -6.3541297e-09 -0.0036856383 0.0005487068 -0.003945363 -0.00035348843 -0.0047665187 -0.004661822
0.0027011638 -0.005065681 -6.0624723e-09 -0.005208169 -0.0012748312 0.0006088193 7.829378e-05 -0.0035376458
0.001279283 2.1647141e-08 -0.004657617 -0.004347437 -0.0032418158 -0.0006754716 -0.006439917 -0.004977545
0.0012949902 -0.0032375925 -7.491843e-09 -0.0018572481 -0.0001378145 -0.001497526 0.00015489303 -0.0004980303
-0.0014768436 2.9293442e-08 -0.0024256103 0.0010890254 -0.0020605426 -0.0001624421 -0.0029229159 -0.0030350427
-0.00018785024 -0.0005269939 6.4026084e-10 -0.0001622412 -5.543672e-06 -0.0009153383 4.2590134e-05 -0.00030101123
-0.0002747424 2.3228813e-08 -0.0016153466 -0.00019873347 -0.0013533874 -0.0008161938 -0.0008346176 -0.00092025724
-0.0022534514 -0.00323216 -4.0949516e-08 -0.0019237149 0.0013165541 -0.0022170052 3.2390682e-05 -0.0018689788
-0.0021975252 -3.8689237e-08 -0.0024870823 0.0006632503 -0.006027103 0.0026902545 -0.0020509455 -0.0025431542
0.0010989802 4.6399797e-05 -1.6525501e-08 0.0009637589 -0.0007515279 -0.0008538936 3.2346365e-05 -0.001858048
0.00025823168 -3.2085012e-08 -0.003137904 0.0007407442 -0.0017489446 -0.00031985086 0.00082078786 -0.0020178137
2.597058e-08 5.303057e-09 3.0582687e-09 -1.3665283e-08 -4.671984e-09 -3.7611386e-08 -1.6997179e-08 -3.3779104e-09
1.5557992e-08 -6.5868733e-09 3.799079e-10 3.167582e-08 9.761765e-09 -4.023826e-09 -6.876589e-09 -2.3587956e-09
-0.0028221712 -0.0024552078 4.2506002e-08 -0.0018157831 -0.00045262036 0.00042539494 5.6821722e-05 -0.0026787994
-0.0017276679 1.3877897e-08 -0.0033199387 -0.00065264123 -0.007284851 0.0010213376 -0.0027725066 -0.0029962838
-0.0019650771 -0.0011186157 -2.3017255e-09 -0.00020534894 -0.00057798246 -0.00066473667 4.2630723e-05 -0.0014841049
-0.0015175259 1.2391364e-08 -0.0023077368 -0.00046543166 -0.0012894325 0.002656376 -0.0021030044 -0.0020116223
-0.0016400284 -0.0035584301 -4.5145967e-09 -0.0009143553 -0.00045908522 -0.0009882988 9.5445044e-05 -0.0016482841
-0.0016982245 -2.2264414e-08 -0.0019354699 -0.0050569493 -0.0075829835 0.00030651598 0.0009727266 -0.0018978223
0.002017435 -0.0002604519 -7.333722e-09 -0.001149095 -0.00052558834 -0.002500954 0.00016135437 -0.0020837584
-0.0020075613 3.0436382e-09 -0.0031336385 -0.0007558798 -0.0025084638 0.0012796479 -0.0022562607 -0.002794639
-0.0031936313 -0.0030516628 -2.309479e-08 -0.0008422636 -0.0009649797 0.00037149418 5.1711922e-05 0.00019370332
-0.0004476421 2.934737e-08 -0.004387575 0.0016483532 -0.0023369493 -0.0005599439 0.00022505166 -0.0035982376
0.0015542747 -0.0018262726 1.0572551e-09 -0.003205551 -0.0007088714 0.00038467586 7.489927e-05 -0.0009683462
-0.001362641 -2.209674e-08 -0.002666471 0.0007452948 -0.0078986455 -0.00024553225 0.00062033086 -0.0028446906
00000000: 745f 33bb 4c85 23bb 5e45 44b2 b688 4aba
00000010: ea5a 9cb9 353b 3fbb d008 6038 1928 27bb
00000020: f03c a339 6d01 fd32 35f6 3dbb aa67 9c3a
00000030: 0377 e8ba a7be d939 006e 39bb 31f6 f9ba
00000040: 9f90 453b 292b ecba d3b9 2f32 e01e 1dbb
00000050: 4c8f fe3a 08a6 a6ba 453e fe38 6f51 0fbb
00000060: effb 10bb 6848 0eb3 d4ff 83bb da9f 4739
00000070: e93e febb df2f 233b d8c8 28bb 4bcf 21bb
00000080: ed54 c430 cb95 7c32 36d0 0db3 8d81 bcb2
00000090: e44b 4fb2 163e 9530 be32 2f33 37e3 1d31
000000a0: f6f1 5eb1 8494 9ab1 1aab d9b2 902e 6531
000000b0: 3534 4932 7c0b b332 ea1c 4d31 2375 2f33
000000c0: 4858 ec3a 4182 52b9 6c2c 12b3 48f4 9339
000000d0: 7805 8aba ad6a 10ba 0ff1 a638 8099 4cbb
000000e0: 3e32 bbba 8453 dab1 c08a 71bb 17d7 0f3a
000000f0: 1b48 81bb 6a54 b9b9 7530 9cbb 33c2 98bb
00000100: 0206 313b 03fe a5bb 124e d0b1 4aa9 aabb
00000110: 3d18 a7ba 2c99 1f3a a731 a438 d9d7 67bb
00000120: 9dad a73a 91f2 b932 ec9e 98bb f274 8ebb
00000130: a574 54bb 2212 31ba f005 d3bb ac1a a3bb
00000140: a9bc a93a ca2d 54bb 79b5 00b2 e86e f3ba
00000150: 4c82 10b9 a248 c4ba c86a 2239 3f8e 02ba
00000160: a692 c1ba f6a0 fb32 fdf6 1ebb a1bd 8e3a
00000170: 2b0a 07bb 3855 2ab9 648e 3fbb 91e7 46bb
00000180: aaf9 44b9 f625 0aba 5afe 2f30 4a1f 2ab9
00000190: c803 bab6 50f3 6fba cfa2 3238 0bd1 9db9
000001a0: 4d0b 90b9 b388 c732 0aba d3ba 1c63 50b9
000001b0: 2564 b1ba d7f5 55ba 3dca 5aba 6b3d 71ba
000001c0: a4ae 13bb a5d2 53bb 78e0 2fb3 2925 fcba
000001d0: 3a90 ac3a 2d4b 11bb 3bdb 0738 86f8 f4ba
000001e0: 5b04 10bb 442b 26b3 51fe 22bb f9dd 2d3a
000001f0: 017f c5bb fb4e 303b 2869 06bb 0cab 26bb
00000200: a80b 903a 679d 4238 f6f3 8db2 c4a4 7c3a
00000210: 2f02 45ba d4d7 5fba a5ab 0738 bf89 f3ba
00000220: 4563 8739 d8cd 09b3 4ba5 4dbb 802e 423a
00000230: d83c e5ba a8b1 a7b9 242a 573a 4c3d 04bb
00000240: e915 df32 2f36 b631 a229 5231 8dc4 6ab2
00000250: 3587 a0b1 288a 21b3 3101 92b2 d420 68b1
00000260: 63a4 8532 c052 e2b1 49db d02f ef0b 0833
00000270: b2b4 2732 f341 8ab1 1e47 ecb1 5f18 22b1
00000280: 2df4 38bb 8de7 20bb d88f 3633 92ff edba
00000290: ad4d edb9 8b07 df39 dc53 6e38 cc8e 2fbb
000002a0: ea72 e2ba a36b 6e32 5493 59bb 0316 2bba
000002b0: c2b5 eebb 67de 853a f1b2 35bb 4d5d 44bb
000002c0: 86c8 00bb 849e 92ba 622c 1eb1 f052 57b9
000002d0: bf83 17ba b941 2eba 64ce 3238 4c86 c2ba
000002e0: b8e7 c6ba cce1 5432 663d 17bb 2e05 f4b9
000002f0: 2d02 a9ba 9816 2e3b 8fd2 09bb 6cd5 03bb
00000300: 39f6 d6ba 8d34 69bb d01e 9bb1 58b1 6fba
00000310: 60b1 f0b9 ce89 81ba ab29 c838 3d0b d8ba
00000320: f596 deba f73f bfb2 98af fdba c4b4 a5bb
00000330: ad7a f8bb e1b3 a039 94fe 7e3a 59c0 f8ba
00000340: f136 043b 438d 88b9 1afc fbb1 3b9d 96ba
00000350: a3c7 09ba 0ce7 23bb 3c31 2939 aa8f 08bb
00000360: 4a91 03bb 4028 5131 bb5d 4dbb 3c26 46ba
00000370: 0a65 24bb dcb9 a73a c6dd 13bb 4326 37bb
00000380: 3e4c 51bb 68fe 47bb fb61 c6b2 5acb 5cba
00000390: b1f6 7cba 1bc5 c239 41e5 5838 d71c 4b39
000003a0: 81b1 eab9 8d17 fc32 a6c5 8fbb 8e0d d83a
000003b0: 8127 19bb 33c9 12ba d8fb 6b39 69d0 6bbb
000003c0: ceb8 cb3a 8a5f efba db4e 9130 3914 52bb
000003d0: 8ed3 39ba 52ae c939 3d13 9d38 9dd8 7dba
000003e0: a59a b2ba 3fcf bdb2 f6bf 2ebb e35f 433a
000003f0: 5269 01bc c8ba 80b9 b39d 223a fd6d 3abb

convs.5.weight f4 [16, 16]
0.0015255512 -0.0021938214 1.00627835e-08 -0.0017589207 -0.0009731562 0.0005410926 9.4274525e-05 -0.0025174425
-0.0024858625 2.8614768e-09 -0.0033310975 0.0016343402 -0.0020527616 0.0018397755 -0.004838725 -0.0034847613
-0.001233434 -0.00035366343 -7.178814e-09 0.0006195894 -0.0007096072 -0.0005832154 -0.00021884918 -0.00016790682
-0.0013818057 5.2421623e-09 -0.0021218702 -0.00021480587 -0.0021480296 -4.150293e-05 -0.0018914095 -0.0029321285
-3.0823253e-09 6.9624684e-10 3.6062584e-08 -3.140668e-08 1.788267e-09 -7.911521e-09 -2.935037e-08 -2.4242798e-08
3.5527137e-09 1.7616819e-09 1.093014e-08 -2.5170785e-08 8.863831e-09 -6.38947e-10 1.0615621e-09 4.851579e-09
-0.0034339556 -0.0019446824 1.0088009e-08 -0.004587027 0.0025034256 -0.0018897739 0.00019621057 -0.0030749962
-0.009340642 -9.047024e-09 -0.0039820946 -0.0038449657 -0.0026757894 0.004467166 -0.0032514364 -0.0034706327
-0.004262687 -0.0008714079 -1.4430773e-08 -0.0021366153 -0.0013309462 -0.0020824035 8.2102364e-05 -0.0030379933
-0.0038881537 -2.9077432e-09 -0.003943498 -0.0004617164 -0.008058793 0.000429407 -0.006665679 -0.004998926
-0.002392426 -0.0023384974 -2.789329e-10 -0.0014959171 -0.000585896 -0.0013920347 -0.00021895076 -0.0025602446
-0.0016234951 2.1879703e-08 -0.0036759877 -0.00073441816 -0.0028465749 -8.214829e-05 -0.0029464993 -0.0026242444
-0.00021772632 -0.00028074297 -1.693364e-09 9.4168645e-05 0.0018700311 -8.7566186e-05 0.0001285005 -0.00024853635
-0.00034992656 -1.7279326e-08 -0.00063082343 -0.00017211883 -0.00052410003 3.782465e-05 -0.00034667997 -0.0007690587
-0.0040583774 -0.0023668814 4.2886388e-09 -0.0013008706 -0.00057343784 0.0005551372 9.699287e-05 -0.0018156115
-0.00016024038 7.651944e-09 -0.003457952 0.00086886354 -0.0067026326 0.0024697152 0.00088464195 -0.0025853224
0.0019595088 -0.0032131325 8.547598e-09 -0.000688826 -0.0005424538 -0.0060861995 0.0001010636 -0.0017220454
-0.002070878 2.3324178e-08 -0.0023359228 9.6164506e-05 -0.0018222724 0.000621632 -0.0016582926 -0.0022988252
-4.065446e-09 1.168208e-08 -2.1735024e-08 7.215366e-10 -1.564914e-08 3.79851e-09 -1.551424e-09 -4.6685305e-08
-1.4821337e-08 -1.3386039e-08 -1.8413036e-08 1.6692384e-08 -5.2408273e-09 2.8997253e-08 2.5413545e-09 2.1680286e-08
0.001963293 -0.0036729097 7.8784845e-09 -0.0035492915 -0.0009887058 0.0007506839 3.8161746e-05 -0.0012599459
-0.0026384797 2.9404892e-09 -0.0029179857 0.0006012032 -0.0023313067 -0.0005101143 -0.004109477 -0.0036664952
0.0017614234 -0.00093382876 -2.0944038e-09 -0.00032359333 0.0036015445 -0.00052570115 2.4867551e-05 -0.0009985338
-0.0018189515 -3.5623327e-08 -0.0022583122 -9.027044e-05 -0.0019446489 -0.00027531234 -0.0015483476 -0.0015034045
-0.0015836529 -0.0016387627 -5.2679336e-09 -0.002296759 -0.00049422635 -0.0006036074 -0.00019758006 -0.0017889328
-0.0022418522 -8.5716065e-09 -0.0023126674 0.00020340059 -0.0017179967 -0.00010844995 -0.0026861632 -0.0018720848
0.002478958 -0.003266258 2.026006e-08 -0.00070409663 -0.0006114469 -0.002773155 0.00031020778 -0.0017317294
0.0007434353 1.6956596e-08 -0.002832888 0.00069054397 -0.0019370322 0.0026941304 -0.0034209483 -0.0020808382
0.0038186803 -0.0002548151 -2.5183299e-08 -0.0022015963 -0.0007200483 -0.0013780429 0.0001321549 0.0007852202
-0.004454857 -1.571266e-08 -0.0034562196 -0.00033694736 -0.009959283 0.0017880277 -0.00344078 -0.0054775565
0.00083020807 -0.0027279803 -2.70337e-09 -0.0026346168 -0.00069996854 -0.0012855919 0.00026767357 -0.0023500777
-0.002102009 -1.7548794e-09 -0.0031761306 0.0006954256 -0.0017699053 -0.00016813216 -0.0031353787 -0.002747198
00000000: 01f5 c73a 37c6 0fbb 97e0 2c32 968b e6ba
00000010: 681b 7fba 1cd8 0d3a 40b5 c538 adfb 24bb
00000020: dae9 22bb a2a3 4431 8b4e 5abb 5b37 d63a
00000030: a087 06bb 9f24 f13a 2b8e 9ebb 9860 64bb
00000040: 2dab a1ba e76b b9b9 84a9 f6b1 f16b 223a
00000050: ef04 3aba ece2 18ba e17a 65b9 2510 30b9
00000060: b51d b5ba 8c1e b431 130f 0bbb 833d 61b9
00000070: f5c5 0cbb 6f13 2eb8 2ce9 f7ba f428 40bb
00000080: d7d0 53b1 0462 3f30 3be3 1a33 03e4 06b3
00000090: 0dc7 f530 3deb 07b2 251e fcb2 7a3e d0b2
000000a0: 0024 7431 ac1f f230 44c7 3b32 2437 d8b2
000000b0: 8a47 1832 e6a1 2fb0 65e6 9130 f1b2 a631
000000c0: 370c 61bb b7e4 feba 884f 2d32 c54e 96bb
000000d0: 8310 243b 4ab2 f7ba e0bd 4d39 e085 49bb
000000e0: 7e09 19bc 3b6d 1bb2 3b7c 82bb d2fb 7bbb
000000f0: 4c5c 2fbb 4e61 923b 0d16 55bb 8e73 63bb
00000100: 03ae 8bbb 326f 64ba 36eb 77b2 7506 0cbb
00000110: 2573 aeba ef78 08bb 5f2e ac38 1219 47bb
00000120: 65d0 7ebb 8fd1 47b1 7538 81bb 8712 f2b9
00000130: 0709 04bc 0822 e139 c56b dabb 08ce a3bb
00000140: 3fca 1cbb 7a41 19bb 5158 99af a612 c4ba
00000150: d196 19ba ef74 b6ba 2696 65b9 c7c9 27bb
00000160: 75cb d4ba faf1 bb32 d7e8 70bb f885 40ba
00000170: 9a8d 3abb 0747 acb8 0e1a 41bb 84fb 2bbb
00000180: 774d 64b9 af30 93b9 f3bb e8b0 687c c538
00000190: d51b f53a bda3 b7b8 17be 0639 fc4d 82b9
000001a0: 5976 b7b9 a46d 94b2 d85d 25ba cc7a 34b9
000001b0: c263 09ba e9a5 1e38 99c2 b5b9 a89a 49ba
000001c0: 23fc 84bb ae1d 1bbb 445b 9331 f981 aaba
000001d0: c352 16ba a086 113a a768 cb38 d0f9 edba
000001e0: 3306 28b9 9b75 0332 cf9e 62bb 72c4 633a
000001f0: c2a1 dbbb f2da 213b 51e7 673a 836e 29bb
00000200: 1a6b 003b 6b93 52bb bcd8 1232 5592 34ba
00000210: 7533 0eba be6e c7bb 1bf2 d338 41b6 e1ba
00000220: 91b7 07bb 695a c832 4816 19bb edab c938
00000230: 51d9 eeba 04f5 223a 115b d9ba e3a7 16bb
00000240: 0bb0 8bb1 55b2 4832 d3b3 bab2 a055 4630
00000250: d36c 86b2 0c84 8231 e139 d5b0 0983 48b3
00000260: eea0 7eb2 6cf8 65b2 b22a 9eb2 f162 8f32
00000270: ce12 b4b1 a215 f932 fba3 2e31 743b ba32
00000280: 97aa 003b 33b5 70bb f159 0732 3b9b 68bb
00000290: 7697 81ba 8bc9 443a dd0f 2038 c524 a5ba
000002a0: 58ea 2cbb a211 4a31 ad3b 3fbb 109a 1d3a
000002b0: d6c8 18bb 31b9 05ba cba8 86bb 9549 70bb
000002c0: 90df e63a 30cc 74ba 24ed 0fb1 f6a7 a9b9
000002d0: e407 6c3b 35cf 09ba a99a d037 3ce1 82ba
000002e0: e269 eeba 4300 19b3 3100 14bb 934f bdb8
000002f0: 97e3 feba cc57 90b9 edf1 caba e20d c5ba
00000300: 9392 cfba c0cb d6ba 3c01 b5b1 3985 16bb
00000310: f88e 01ba 683b 1eba 7e2d 4fb9 a07a eaba
00000320: 0aec 12bb 5342 13b2 1f90 17bb ee47 5539
00000330: 672e e1ba a06f e3b8 570a 30bb be60 f5ba
00000340: 0476 223b b70e 56bb 5808 ae32 2093 38ba
00000350: 8249 20ba d2bd 35bb 62a3 a239 32fb e2ba
00000360: 19e3 423a f3a7 9132 f9a7 39bb 9f05 353a
00000370: 04e4 fdba 0290 303b fd31 60bb ac5e 08bb
00000380: d342 7a3b b498 85b9 a952 d8b2 a848 10bb
00000390: a0c1 3cba 729f b4ba 1093 0a39 3cd7 4d3a
000003a0: 0dfa 91bb 81f8 86b2 be81 62bb 4fa8 b0b9
000003b0: 432c 23bc 415c ea3a b67e 61bb 137d b3bb
000003c0: 52a2 593a eac7 32bb 30c6 39b1 89a9 2cbb
000003d0: 187e 37ba 4e81 a8ba 8a56 8c39 c303 1abb
000003e0: dcc1 09bb 5430 f1b0 a126 50bb 394d 363a
000003f0: 2bfc e7ba a24c 30b9 ed7a 4dbb 560a 34bb

convs.6.weight f4 [16, 16]
0.0024436824 -0.004183071 -3.217973e-08 -0.0041731265 -0.0003337493 -0.00039618486 0.00011181411 0.0014319681
-0.003128484 -3.3282206e-09 -0.0036908304 0.001561607 -0.010344186 0.002145648 0.0033129144 -0.0037300321
-0.0020016197 -0.0029972738 -6.968799e-09 -0.0029775142 0.0001834305 -0.00015645534 4.4861463e-05 -0.00055209233
-0.002191166 8.744066e-09 -0.004167029 0.00052808924 -0.002747934 7.248098e-05 -0.0027975435 -0.0029635935
2.22792e-08 2.4934364e-08 -4.6933843e-09 8.425258e-09 4.638591e-09 1.9112163e-08 -3.4196685e-09 -9.5101775e-09
1.6967153e-08 -1.0146027e-08 4.8007855e-09 1.6473193e-09 7.663698e-09 3.838444e-09 7.464903e-09 -2.2934422e-08
0.0003664592 -0.0034799285 -1.2164018e-08 -0.0021997234 -0.0011653028 -0.0027379426 0.00011005205 -0.003303167
0.00019587396 3.542094e-08 -0.0063969423 0.0013621838 -0.013525873 0.0033476788 -0.004129379 -0.0047001652
-0.0032619333 -0.00035560533 1.6594218e-08 -0.0010008 -0.0012951031 0.0008201216 6.792032e-05 -0.0040652873
-0.0012251576 -8.1519086e-10 -0.0041354666 0.0017284881 -0.00381833 0.0052176346 0.0040523005 -0.008587504
0.0011338625 -0.001898754 1.7004433e-08 -0.0006538766 -0.00090982515 -0.00093575614 0.00033238775 -0.0023074448
-0.0015518365 -6.910213e-09 -0.0030341097 -0.004353742 -0.00275953 -0.00021744584 0.0009586716 -0.0031473613
-0.00019477874 -0.00048452534 -2.443929e-08 -0.00023916311 0.0011578571 -9.705368e-05 3.3004715e-05 -0.00024180401
-0.0005494898 1.821243e-08 -0.0014560877 -0.0028806375 -0.0007360716 3.7370424e-05 -0.0004941501 -0.0014050513
0.00039097323 -0.003153951 9.71025e-09 -0.0028732168 0.001574828 -0.0010270539 9.237482e-05 -0.0018992575
-0.002303014 -1.0897111e-08 -0.0022366333 0.0003164094 -0.0023646522 -0.00039560787 -0.002443627 -0.0022080664
0.0009076965 -0.0005538776 8.804072e-09 -0.0007820418 -0.00048314358 0.0001450791 8.2340135e-05 -0.0017185088
-0.0016734095 2.5938105e-08 -0.0031350872 -0.0060791513 -0.008056726 -0.0030697556 -0.0026174108 -0.0049145874
2.529194e-08 2.0700535e-09 1.6359216e-08 3.2322076e-11 1.4477339e-08 1.5675475e-10 -1.7980543e-09 7.3910646e-09
-4.368571e-09 -1.3643974e-08 -7.186185e-10 -2.7860738e-08 -8.509619e-09 -3.99872e-08 -8.556077e-09 -6.0741763e-09
0.0022619832 -0.0033209324 2.3641107e-08 -0.0010632634 -0.0008505637 -0.00091050146 0.00016857235 -0.0025368987
-0.0029178048 5.4846443e-09 -0.003305316 0.0001075615 -0.002895885 -0.00031387407 -0.0026979998 -0.005146216
0.0017950787 -0.00088057766 3.2997505e-08 -2.4972162e-05 -0.0005550104 -0.000579331 2.576316e-05 -0.0011934461
-0.00060794724 -1.09656435e-08 -0.0038246175 -0.0010645204 -0.0018669923 0.0027855593 -0.002817439 -0.0012897474
-0.0018852747 -0.0024809525 1.4428727e-08 -0.0005279952 -0.0005146728 -0.0009209716 3.0408855e-05 0.00022332792
-0.0017311386 1.1508351e-08 -0.0022366503 -0.0037026892 -0.0022608202 0.001981394 -0.0021081083 -0.0025752445
0.001135393 -0.0017392022 -2.3411217e-09 -0.0006660733 0.0011889574 0.00022326071 3.6995338e-05 -0.001807581
0.0011234061 -9.560879e-09 -0.0031581402 0.00041111634 -0.0020377696 0.0030844808 0.0026093211 -0.0026357435
0.00393248 -0.0027996348 -1.2596097e-09 -0.0019450326 0.0021392838 -0.0007830968 0.00027678575 -0.0022034731
-0.0076082894 1.3191852e-09 -0.003636056 -0.0009536026 -0.002823649 -0.00059980154 -0.0038812696 -0.0033736066
0.00086357543 -0.0035122496 1.2340676e-08 -0.00157923 -0.00072741916 -0.00484684 0.00018997259 0.0006024515
0.0006425133 3.4266826e-08 -0.0037369288 0.0013469558 -0.008498979 -0.0025861594 -0.0019530519 -0.0045134374
00000000: 3026 203b 2512 89bb fd35 0ab3 b9be 88bb
00000010: 13fb aeb9 08b7 cfb9 be7d ea38 e0b0 bb3a
00000020: 4007 4dbb adb6 64b1 dce1 71bb d6ae cc3a
00000030: a97a 29bc 009e 0c3b 7b1d 593b 8e73 74bb
00000040: 9b2d 03bb e96d 44bb 3472 efb1 6622 43bb
00000050: 4057 4039 290e 24b9 a129 3c38 4aba 10ba
00000060: aa99 0fbb cf38 1632 938b 88bb 786f 0a3a
00000070: af16 34bb ee00 9838 fe56 37bb d938 42bb
00000080: 7b60 bf32 3f2f d632 7243 a1b1 adbe 1032
00000090: 7a61 9f31 172c a432 72ff 6ab1 3462 23b2
000000a0: 2abf 9132 b34e 2eb2 28f4 a431 e567 e230
000000b0: 4da9 0332 4fe3 8331 fe3e 0032 5401 c5b2
000000c0: 5221 c039 830f 64bb ebf9 50b2 3c29 10bb
000000d0: 13bd 98ba 0e6f 33bb bfcb e638 f279 58bb
000000e0: 8463 4d39 bc21 1833 719d d1bb 4e8b b23a
000000f0: a09b 5dbc bb64 5b3b be4f 87bb d803 9abb
00000100: 29c6 55bb 8a70 bab9 128b 8e32 472d 83ba
00000110: 73c0 a9ba 6efd 563a 7270 8e38 1a36 85bb
00000120: 7895 a0ba f513 60b0 cf82 87bb 708e e23a
00000130: f23c 7abb b1f8 aa3b 29c9 843b 9ab2 0cbc
00000140: 1d9e 943a 9ddf f8ba 2511 9232 ea68 2bba
00000150: 5581 6eba 884d 75ba 5444 ae39 8038 17bb
00000160: fe66 cbba e06e edb1 ead7 46bb d6a9 8ebb
00000170: 3bd9 34bb 2c02 64b9 5d4f 7b3a f643 4ebb
00000180: 853d 4cb9 e407 feb9 91ee d1b2 dcc7 7ab9
00000190: 3dc3 973a 4c89 cbb8 8b6e 0a38 c58c 7db9
000001a0: a30b 10ba 8f71 9c32 32da beba 14c9 3cbb
000001b0: eef4 40ba 30be 1c38 da89 01ba b329 b8ba
000001c0: 8afb cc39 84b2 4ebb 22d2 2632 944c 3cbb
000001d0: 766a ce3a 369e 86ba 5bb9 c138 82f0 f8ba
000001e0: 2aee 16bb 0036 3bb2 7b94 12bb c0e3 a539
000001f0: 48f8 1abb 9769 cfb9 4225 20bb 35b5 10bb
00000200: 7bf2 6d3a 1932 11ba b840 1732 f001 4dba
00000210: 6f4e fdb9 6020 1839 06ae ac38 963f e1ba
00000220: 4e56 dbba 7fce de32 0976 4dbb 9e33 c7bb
00000230: 5c00 04bc f42d 49bb de88 2bbb 8c0a a1bb
00000240: 9041 d932 c440 0e31 4c86 8c32 6c27 0e2e
00000250: 03b8 7832 8a5a 2c2f 691f f7b0 7ef4 fd31
00000260: 5b1a 96b1 d566 6ab2 4888 45b0 6952 efb2
00000270: b331 12b2 64be 2bb3 06fe 12b2 05b5 d0b1
00000280: c83d 143b 00a4 59bb 5813 cb32 335d 8bba
00000290: 5df8 5eba b8ae 6eba ccc2 3039 1942 26bb
000002a0: a438 3fbb 7173 bc31 009e 58bb a492 e138
000002b0: e3c8 3dbb 778f a4b9 edd0 30bb 97a1 a8bb
000002c0: d948 eb3a 91d6 66ba 24b9 0d33 4f7b d1b7
000002d0: 1e7e 11ba 3fde 17ba f71d d837 686d 9cba
000002e0: a65e 1fba 6963 3cb2 6fa6 7abb 6187 8bba
000002f0: deb5 f4ba ee8d 363b c8a4 38bb be0c a9ba
00000300: 521b f7ba 7a97 22bb 36e2 7732 2869 0aba
00000310: 1beb 06ba 5c6d 71ba 8516 ff37 222d 6a39
00000320: 5fe7 e2ba 43b6 4532 c494 12bb d1a8 72bb
00000330: 452a 14bb 46da 013b 3028 0abb 6fc5 28bb
00000340: 78d1 943a f1f5 e3ba 73e1 20b1 6c9b 2eba
00000350: cad6 9b3a 171b 6a39 712b 1b38 5bec ecba
00000360: 413f 933a 3141 24b2 cdf8 4ebb 1a8b d739
00000370: 1a8c 05bb 0025 4a3b 2501 2b3b 70bc 2cbb
00000380: 08dc 803b 147a 37bb 941e adb0 77f0 feba
00000390: 3a33 0c3b bd48 4dba 8e1d 9139 2568 10bb
000003a0: f54e f9bb b44e b530 e64a 6ebb 30fb 79ba
000003b0: f80c 39bb 003c 1dba e65c 7ebb ba17 5dbb
000003c0: 9161 623a c52d 66bb de02 5432 2afe ceba
000003d0: 46b0 3eba 3ed2 9ebb 6133 4739 d6ed 1d3a
000003e0: 566e 283a c62c 1333 43e7 74bb 568c b03a
000003f0: 4d3f 0bbc 8e7c 29bb 8cfd ffba 75e5 93bb
