checkpoint/Wikipedia/20231105_160003900312.pth (torch, 339335 bytes, 18 tensors)

convs.0.weight f4 [72, 138]
000000 b4 a7 82 bd 8c e7 d1 3e c2 2c b4 be e5 ce 80 3e
       -0.06379643 0.4099697 -0.35190398 0.25157848
000010 78 46 10 3f 0d 11 11 3b 28 c8 94 be e3 08 9b 3e
       0.56357527 0.0022135407 -0.29058957 0.30280218
000020 ba 2e 87 3c 53 4b b5 bd d9 a0 0b be f7 20 87 bd
       0.016501773 -0.088522576 -0.13635577 -0.065980844
000030 94 eb e3 3d 23 0b ee 3d 27 ed dc bd 61 9d 9a 3d
       0.11128917 0.11623218 -0.10787421 0.07549549
000040 b3 e6 06 3e 5a bb de 3e 31 7c 96 be fb c9 15 3e
       0.13173942 0.43502313 -0.29391626 0.1462783
000050 3c 1e b2 bc ba 74 80 bd 9b 79 32 3d b9 bd 3f 3d
       -0.021742932 -0.06272264 0.043573003 0.046811793
000060 20 ff 12 bd 84 23 10 3e 4e 18 8c 3d a8 3a 22 3e
       -0.035887837 0.14076048 0.06840573 0.15842688
000070 75 ae 44 bd 81 8b 6a 3e ce 0c 95 3c e3 41 6b bd
       -0.048017938 0.22904779 0.018194582 -0.05743588
000080 7e 26 08 3e c8 d5 cc bc 15 a1 ba be 7c 4b 0f 3d
       0.13295934 -0.025004283 -0.3645102 0.034984097
000090 2a b1 9e be df 39 e3 bd 5d 36 25 bd a3 39 77 3d
       -0.3099454 -0.110950224 -0.040335048 0.0603577
0000a0 a9 1f c5 bd c9 18 13 3d 54 3c 11 3d 64 fa b9 bc
       -0.09625179 0.03591231 0.035457924 -0.022702403
0000b0 21 8c e7 3d 47 6e a8 bc a6 94 1b bd b0 a2 ed bc
       0.11306024 -0.020560397 -0.03798356 -0.02900824
0000c0 19 c6 ad bc b8 5a 9a bd 03 67 bd be 2e 66 0f 3d
       -0.021212624 -0.075368345 -0.36992654 0.035009556
0000d0 dd d3 72 bd 58 d7 9b 3e ea 65 0e bd 65 bf 1c bd
       -0.05928408 0.30437732 -0.03476516 -0.038268466
0000e0 57 2b 0d be f3 9f 13 3e 0d c6 4e 3d ba 28 25 bd
       -0.13786064 0.14416485 0.050481845 -0.040322043
0000f0 07 92 8e be d7 59 21 be 9f 8d 16 bd 51 1d 98 3c
       -0.27845785 -0.15756927 -0.036756154 0.018568667
000100 96 7b b7 3e 92 0c 0c 3f 97 13 bb be 27 10 3b bd
       0.35836476 0.5470668 -0.36538383 -0.0456697
000110 42 ba 73 bd f9 3a f8 bd 2d 1b 9e bd 0f 13 85 bd
       -0.0595038 -0.12120623 -0.07720027 -0.06497776
000120 fd fe e1 bd 89 90 10 be ad 3a 97 bd 16 fe 4a 3e
       -0.11034963 -0.14117636 -0.073842384 0.19823489
000130 c5 1e 81 be 49 41 e4 3c b1 64 57 be 93 2f b1 bc
       -0.25218788 0.027863162 -0.21034504 -0.02162913
000140 11 8a 4c 3e 05 ba a4 39 30 0d 2e be d0 86 8f 3e
       0.19974543 0.00031419113 -0.16997218 0.2803254
000150 67 50 ab bc 51 f4 a9 3d b6 41 71 be bd 57 15 bd
       -0.020912362 0.08298553 -0.23560223 -0.036460627
000160 58 8c 80 be ec 28 07 3e 41 24 0d be 9b 02 a6 bd
       -0.25107074 0.13199204 -0.13783361 -0.08105966
000170 70 29 06 bd a1 0c 10 bd 35 83 5f be 0e c5 28 bd
       -0.03275436 -0.035168294 -0.21827395 -0.04120355
000180 d6 a6 1d bc 58 5e 36 3e 7a cc bb be e2 89 45 3d
       -0.009622296 0.17809427 -0.3667944 0.0482272
000190 68 40 9f be 47 ce 2c 3e 6f 9c 6a 3b fa 3e f2 bb
       -0.31103826 0.16875564 0.0035798808 -0.0073927613
0001a0 48 ac 93 bd 6d 23 15 bd d4 47 a6 be 82 13 e4 bc
       -0.072105944 -0.036410738 -0.32476676 -0.027841333
0001b0 4b 4a 9b bc 2a de 21 bd 51 b2 93 3d e3 b7 bc bc
       -0.018956324 -0.039518513 0.072117455 -0.023036903
0001c0 61 0a f4 bd 1a 8b e4 bd 40 0e 64 be 96 e0 be 3d
       -0.11916042 -0.11159344 -0.22271061 0.0932018
0001d0 9a 31 f4 bc 9c eb ff 3d 21 63 e9 bc ba a5 96 bd
       -0.029808808 0.12496111 -0.028489651 -0.073558286
0001e0 29 b6 1a be 9d 47 b8 bd 6b 1e 70 bb 78 79 0f bd
       -0.15108551 -0.08998034 -0.0036639224 -0.03502795
0001f0 10 f8 84 be 1c 48 f4 bd c4 8f 1d bd 3d 01 86 3d
       -0.25970507 -0.11927816 -0.038467184 0.06543205
000200 f0 a3 f3 be 4e 35 fa be 28 17 6c 3e 07 25 ef bd
       -0.47586012 -0.48868793 0.23055708 -0.11676984
000210 03 4a 2f be 55 83 a1 be 18 c8 85 be 60 b1 c5 be
       -0.17118077 -0.3154551 -0.26129222 -0.3861189
000220 13 a2 5d 3f 72 c6 a7 3f 9a 02 89 be d9 14 18 bd
       0.8657543 1.3107436 -0.26759797 -0.037129257
000230 ad fe aa bc d8 37 87 be 21 1f fa bd fd c2 83 bd
       -0.020873392 -0.26409793 -0.122129686 -0.064336754
000240 fb 9a 3f be 81 28 af be e3 be db bd df 39 13 be
       -0.18711464 -0.3421059 -0.10729768 -0.14377545
000250 a9 59 63 bd 11 c8 90 3d 33 72 31 bd 72 ad 2e be
       -0.05550543 0.0706941 -0.0433218 -0.17058352
000260 0d 88 51 bd 96 37 93 3e e1 25 c3 be 11 2e 7c 3e
       -0.05115514 0.28753346 -0.38114837 0.24626948
000270 cc 49 0a bd 66 43 1a bd 25 69 d7 3b 2a 65 27 be
       -0.033761784 -0.037661932 0.0065738135 -0.16347185
000280 29 de 25 bd f7 af c1 bc 7c ab 1b bd de 10 99 3e
       -0.04049507 -0.023643477 -0.038005337 0.2989568
000290 ea 55 c3 bb ab 2b d0 3d 21 18 3f bd e2 73 9d 3c
       -0.0059611695 0.10164579 -0.04665387 0.019220296
0002a0 9f 75 50 bd e6 f8 fe 3b 8a 21 b7 3d fe 11 c9 3c
       -0.050893422 0.007781136 0.08941944 0.024544712
0002b0 23 02 2a be 00 06 e9 3d d6 98 fc bd 7d 97 46 be
       -0.16602378 0.113780975 -0.12333839 -0.19393726
0002c0 ce 88 ad bd 6a 12 ae bd e7 c6 85 3d 67 c4 19 bc
       -0.08473359 -0.08499606 0.06532078 -0.009385205
0002d0 2e 80 4a bd 4d 67 e9 3a 55 3e 58 bd 50 67 03 3f
       -0.049438648 0.0017807275 -0.05279382 0.5132952
0002e0 ea 8c 91 bd 07 e5 92 3c ca c6 f0 bd 61 ca 11 3f
       -0.07106955 0.017931474 -0.11756666 0.5694943
0002f0 00 89 31 be 8e d6 44 be 4c c6 8e bd 6b de 39 be
       -0.17337418 -0.19222471 -0.06971416 -0.18151252
000300 86 bc f1 3c 79 83 a6 bc 7e 05 d3 3c fb 47 e4 bc
       0.02950884 -0.020326363 0.025759455 -0.027866354
000310 53 2c 84 bd b7 bb a8 3c e5 b3 1c be 12 97 0f 3e
       -0.06453767 0.020597322 -0.15303 0.14022473
000320 80 66 41 3c 30 36 d3 bb ba 88 08 be 11 de 96 3e
       0.011804223 -0.0064456686 -0.13333407 0.29466298
000330 ab 31 25 be 03 79 a7 bd 1e a0 9e 3b 07 6e 23 3e
       -0.16132228 -0.08177378 0.004840865 0.15959941
000340 d4 09 7e bd e5 6b bb bd 66 8e c6 3d f6 c1 8a bc
       -0.06202109 -0.091514386 0.09695129 -0.01693819
000350 6c c3 9e bd 66 66 42 3b 41 97 35 be 48 30 e5 bc
       -0.077521175 0.0029663085 -0.1773348 -0.027977124
000360 0c f1 2d bd c4 6f 4c 3c 46 80 ab bd 94 ff dc 3e
       -0.04246621 0.012477819 -0.083740756 0.4316374
000370 77 d5 08 be 1e 9c 1e be 30 80 3d 3e cc 51 12 be
       -0.1336268 -0.15489241 0.18505931 -0.14289016
000380 2f 14 b1 bd 1e cf 66 bc f4 a7 8f bc 39 0a 5d 3e
       -0.08646428 -0.0140874665 -0.017536141 0.21585931
000390 d4 0a 26 3b 10 cd 0d 3e 2c 0e cc bc 40 d1 e8 3d
       0.0025336044 0.13847756 -0.024909101 0.11368036
0003a0 dc 48 d6 bd ec 44 1f 3d b1 a8 a5 3e f3 53 ae 3d
       -0.104631156 0.03888409 0.32355264 0.08512106
0003b0 e4 82 5f be a3 d1 aa 3e 45 d7 14 be eb be 52 be
       -0.21827275 0.33363065 -0.14535244 -0.20580642
0003c0 e1 ed 8e 3d 77 20 81 bc e0 c5 b4 3d d0 d7 bb 3d
       0.069789656 -0.01576255 0.08826804 0.09172022
0003d0 e0 ce 39 be 72 75 ee b9 01 ce 1b 3d e3 80 7b 3e
       -0.18145323 -0.000454824 0.038038258 0.24560885
0003e0 4a 74 94 3d b1 9c cc 3c 06 66 10 be f2 77 37 3f
       0.07248743 0.02497706 -0.14101419 0.716674
0003f0 ba d4 05 be 71 d1 10 be 81 f8 f9 b9 0b fa 31 3d
       -0.1306943 -0.14142396 -0.0004767813 0.04345135

convs.0.bias f4 [72]
000000 7d 56 01 3e 8b 25 71 3d 47 9c 00 3e e7 41 ea 3d
       0.12630649 0.058873694 0.12559615 0.11438351
000010 23 a2 24 3d 76 18 c1 3d 73 c5 ae 3d d3 0f 58 bc
       0.040193688 0.09428494 0.08533754 -0.013187367
000020 d5 49 27 3e 86 2e ea 3d 51 60 da 3c 24 72 a3 bb
       0.16336758 0.11434655 0.026657255 -0.004987972
000030 f6 bb b0 3d e8 0f b3 3d 53 d2 34 b9 f1 16 ec 3d
       0.08629601 0.08743268 -0.0001724449 0.11527813
000040 71 72 cf bc 6c 79 19 3d 49 c5 7d bc fb 90 08 3e
       -0.025323125 0.037469313 -0.015488931 0.13336556
000050 99 d5 32 3d 3f 64 ff 3b df 6c a6 3d cc 2e a0 bc
       0.043660734 0.0077939327 0.08126234 -0.019553564
000060 9a 15 08 3e d7 63 91 3d e0 56 c0 3d a2 84 93 3d
       0.1328949 0.07099121 0.0939157 0.07203032
000070 b9 e6 d5 3d 2f cf e8 39 97 46 bb 3d fe e9 00 3e
       0.104443975 0.00044404852 0.09144323 0.12589261
000080 0d a1 2b 3e 31 d2 e5 3d 88 cc 99 3d 2f 2b e1 3d
       0.16760655 0.112217315 0.07509714 0.10994565
000090 74 8a 61 3d aa 8f 6b 3d 4b 7c 9b 3c bf c0 b6 3d
       0.05506368 0.057510056 0.018980166 0.08923482
0000a0 02 4f 74 3d f4 df bb 3c ee ef 96 3d e9 a0 42 3d
       0.05964566 0.022933938 0.07369982 0.047516737
0000b0 b8 2d ed 3b bd 63 9b 3d 82 e5 89 3d 23 b8 d4 3d
       0.007238116 0.07587383 0.06733228 0.10386684
0000c0 48 04 2f 3e a9 4a f1 3c ba 0c e3 3d 6e 44 97 3d
       0.17091477 0.029454546 0.11086412 0.07386099
0000d0 46 8f 0c 3e 3a c9 0d 3e b1 b0 bf 3d cc 2b ca 3d
       0.1372653 0.13846293 0.09359873 0.09871635
0000e0 32 14 a2 3d 89 01 ff 3d d8 2a 52 3c 40 6b fb 3d
       0.07914008 0.12451465 0.012827598 0.12276316
0000f0 d6 fb cb 3d d3 3e 92 bb 35 aa 8a 3d 8c e8 5e 3e
       0.09960143 -0.0044630556 0.06770746 0.21768397
000100 0f 8c 93 3d 49 f6 69 3d cf 80 1a 3e e4 bb 01 3e
       0.072044484 0.05711964 0.15088199 0.12669331
000110 f6 94 84 3d b8 06 d1 3d 26 99 9c 3d 9f 01 9e 3d
       0.064737245 0.102063596 0.07646398 0.07715153

convs.1.weight f4 [72, 72]
000000 22 4a 87 bc 1f a0 bf bb 6c 74 a3 bc 18 6c 6b 3c
       -0.016514841 -0.0058479453 -0.019952975 0.014369033
000010 75 76 48 3c fe d4 43 bc f1 63 25 bc b9 06 ad 38
       0.012235274 -0.011952637 -0.010094629 8.250535e-05
000020 8c 10 42 3c 8b 58 69 3c b0 7d d9 bc 6a 00 15 b6
       0.011844765 0.014242302 -0.02654919 -2.2202971e-06
000030 ea 6c 77 bc c4 c2 b4 3a 27 0a 38 36 ae c9 9c bb
       -0.015101651 0.0013790955 2.7424046e-06 -0.0047847843
000040 c3 52 10 38 df 50 f7 bb 49 4e 4f 36 a3 e1 30 bc
       3.4409353e-05 -0.0075474824 3.0890972e-06 -0.0107959835
000050 fb 4c 3f bc a8 04 0a bc 08 30 99 bc 43 01 d3 ba
       -0.011676068 -0.008423962 -0.01869966 -0.0016098398
000060 88 27 88 bc 9f cc 84 bc 83 a8 e7 ba 57 19 04 bc
       -0.016620412 -0.016210852 -0.0017674122 -0.008062682
000070 9b 4d 5f bc 31 ce 4f 3c 12 24 88 bc 4b 3e 4c bc
       -0.013629342 0.012683437 -0.016618762 -0.012466024
000080 38 16 21 bc 2a 3d 7f bb f6 9a 7e bc 1c 21 b2 3c
       -0.0098319575 -0.0038946369 -0.015539875 0.021744303
000090 85 08 97 bc 94 6e 5c bc c8 2a 82 bc 72 e2 00 bc
       -0.01843668 -0.013454098 -0.01588954 -0.007866489
0000a0 39 23 d8 bb 19 b7 9c 3a 72 31 2e bc 07 2c ce bb
       -0.0065959957 0.0011956423 -0.010631906 -0.0062918696
0000b0 bb 9c dc ba 2a 6a 44 bc 05 4a ec bb 40 6d 02 bd
       -0.0016831377 -0.011988202 -0.0072109723 -0.03184247
0000c0 20 3a 92 3c 03 a7 14 bc d8 cc 96 bc 9b 55 8a bc
       0.017849982 -0.009073022 -0.018408224 -0.016886523
0000d0 84 07 ea bc 78 89 3b bc 50 f1 db bc b2 11 0f bc
       -0.028568037 -0.011446349 -0.026848465 -0.008732246
0000e0 5e ec 85 ba 1d 5f c2 bc 72 88 c8 bc d0 86 ea bb
       -0.0010217538 -0.023726994 -0.024479125 -0.007157184
0000f0 a6 3a 8a bc 4f 0b f2 b8 13 cd 66 bc cb 11 5c bc
       -0.016873669 -0.000115415656 -0.014086979 -0.013431977
000100 be fd c0 3a 77 0d a3 bc 64 f4 ee bb 00 10 b7 bc
       0.0014724059 -0.019903881 -0.007292317 -0.022346497
000110 01 60 dc bb 6c 17 0c 3a bd 22 ae bb e7 9d 67 bc
       -0.0067253117 0.00053440663 -0.0053141997 -0.014136768
000120 ff 2b a2 bc ec b8 25 bc 4c 69 ae bc b8 8e 82 3c
       -0.01979637 -0.01011489 -0.021290444 0.015937194
000130 2a 65 24 3c ca e5 6a bc 53 d1 86 bb 35 aa a1 38
       0.010033885 -0.014337013 -0.004114309 7.708782e-05
000140 61 fe 3d 3c 86 9a 3f 3c 67 d6 af bc 9f 7a 64 b6
       0.011596293 0.011694556 -0.02146454 -3.4046022e-06
000150 ae 2e d4 b9 3a 7d dd 3a e5 a2 68 b7 5a a3 13 bb
       -0.0004047057 0.0016898282 -1.3866204e-05 -0.0022527785
000160 b6 21 9a 38 8a fe 2f bc 1f 53 1f 37 c6 ca 13 bc
       7.3495714e-05 -0.010741839 9.496492e-06 -0.009020513
000170 70 3b 0e bc 2b 4d 2b bc 33 4b 81 bc a5 f0 f4 ba
       -0.008681163 -0.01045541 -0.015782928 -0.001868744
000180 0e e9 74 bc bf 61 5e bc 33 29 15 bb f6 1d 3a bc
       -0.014948143 -0.013573109 -0.0022760152 -0.011359682
000190 4e 10 1b bc f5 ee 59 3c 4d 60 9f bc 6c 42 26 bc
       -0.009464337 0.013301601 -0.0194551 -0.010147672
0001a0 b0 65 93 bc ec 2e 83 ba 2c dc 71 bc ae 40 a3 3c
       -0.017992824 -0.0010008491 -0.014761966 0.019928303
0001b0 be b7 70 bc 66 80 40 bc 07 30 86 bc 1f eb b7 bb
       -0.014692245 -0.011749363 -0.016380323 -0.0056127454
0001c0 f2 b6 ae bb 37 3f ae 3b 58 aa 20 bc ae 69 81 bc
       -0.0053318674 0.0053175944 -0.009806238 -0.015797462
0001d0 14 ed 84 ba 0c 43 8b bc 12 9d 07 bc e4 1c c1 bc
       -0.0010141456 -0.016999744 -0.008277195 -0.023573346
0001e0 ab fa 6e 3c 47 f9 1a bc 96 01 29 bb a9 3b 80 bc
       0.014586131 -0.009458846 -0.0025788299 -0.015653448
0001f0 9e d1 e7 bc ee e1 02 bc 9e 33 f5 bc c4 1c 80 bb
       -0.028298195 -0.007988436 -0.02993184 -0.003909679
000200 2a 42 b3 3b b3 34 81 bc 42 20 39 bc 25 70 85 bc
       0.005470534 -0.0157722 -0.011299195 -0.016288826
000210 0a 67 aa bc af 54 44 38 2b c5 88 bc 7a 2c e1 bb
       -0.020801086 4.680891e-05 -0.01669558 -0.006871757
000220 27 1d 97 3b 32 7f ac bc 48 d5 cc bb 9f 46 df bc
       0.0046116295 -0.021056745 -0.006251011 -0.027255354
000230 c2 32 b5 bb 88 02 13 bb 57 92 02 bc a3 60 84 3a
       -0.0055297324 -0.0022431929 -0.00796946 0.0010099601
000240 a5 18 f1 bc 96 f0 a2 bc ac fa 08 bd b2 fe 2a 3c
       -0.029430697 -0.019890111 -0.033442184 0.010436701
000250 d4 64 0f 3c a0 36 c7 bc 82 71 88 bc 3d 3f 70 39
       0.008752067 -0.02431804 -0.016655687 0.00022911742
000260 81 df 41 3c 13 88 8e 3c 15 f2 15 bd 1c 65 16 37
       0.011833073 0.01739887 -0.03660782 8.964238e-06
000270 54 e7 88 bc 7c 8f af b9 d7 20 d0 b5 74 49 4f bc
       -0.016711868 -0.00033485505 -1.5506765e-06 -0.01265179
000280 76 82 dd b8 cf 07 ae bc f6 27 bd b5 47 65 17 bc
       -0.000105624014 -0.021243958 -1.4093227e-06 -0.009240455
000290 21 c2 d7 bc 01 73 a4 bc 2f 12 1c bd df 6e ff b9
       -0.026337685 -0.02007437 -0.03810328 -0.00048719996
0002a0 69 0b cd bc a5 b4 de bc 75 26 45 bc 5e 47 54 bc
       -0.025029855 -0.027185747 -0.012033095 -0.012956468
0002b0 a1 80 ca bc 51 2d 11 3c a0 89 ad bc 5e 18 9e bc
       -0.024719538 0.008860902 -0.021183789 -0.019298729
0002c0 34 93 1b bc 1c 18 57 bc e9 e1 c6 bc 06 f4 da 3c
       -0.009495545 -0.013128307 -0.024277644 0.026727688
0002d0 91 d0 27 bd ea f5 ee bc ec f2 d6 bc be 9d a6 bc
       -0.04097039 -0.029169995 -0.026238881 -0.02033889
0002e0 ca bc 3f bc 96 e7 e7 bb 3e 76 ad bc 7e 9d 8c bc
       -0.011702726 -0.0070771677 -0.021174546 -0.017164942
0002f0 7e 18 54 bc 64 ec c6 bc fe b7 96 bc 72 3e 33 bd
       -0.0129452925 -0.024282642 -0.018398281 -0.043760724
000300 84 c8 95 3c 01 5b 84 bc 24 07 0a bd e3 55 e9 bc
       0.01828409 -0.016156675 -0.033698216 -0.028483337
000310 67 8a 16 bd 0f a2 47 bc 86 32 26 bd fa 27 4f bc
       -0.036753085 -0.012184634 -0.040575527 -0.0126438085
000320 b6 37 ac bb bc 83 21 bd 13 7b 0c bd df 7f 93 bc
       -0.0052556647 -0.039432272 -0.03429706 -0.01800531
000330 d6 e3 a5 bc 87 70 f9 37 1e 0b c7 bc 80 34 a7 bc
       -0.020250242 2.9735513e-05 -0.024297293 -0.020410776
000340 27 c7 9c bb a7 da d6 bc 96 8d 35 bc 97 02 04 bd
       -0.004784483 -0.026227308 -0.01108112 -0.032229032
000350 c7 d6 d3 bb 99 86 e7 bb 25 09 81 bc 13 00 c2 bc
       -0.0064648124 -0.007065606 -0.01575143 -0.023681676
000360 e9 58 6f bc 57 c2 5a bc 85 95 6b bc fc a6 3b 3c
       -0.0146086 -0.013351998 -0.01437891 0.011453386
000370 f5 d9 48 3c 7b 71 3c bc eb d1 b3 bb 45 c4 bc 38
       0.012258996 -0.011501665 -0.0054876707 9.0010966e-05
000380 5b e0 eb 3b 5f ea 50 3c c9 7e a1 bc fd a9 5a 36
       0.007198376 0.012751191 -0.019713776 3.2583478e-06
000390 b8 9b 8d bc 09 ab 3e 3b 9c 92 7c 35 24 19 e9 ba
       -0.017286167 0.0029093644 9.409066e-07 -0.0017783982
0003a0 05 30 fd 37 da 8c d8 bb b9 1a 85 b7 52 1c eb bb
       3.0182311e-05 -0.0066085877 -1.586728e-05 -0.007175007
0003b0 f9 38 04 bc 98 67 58 bc 1d 36 bf bc dd 85 af ba
       -0.008070224 -0.013208292 -0.023341233 -0.0013391335
0003c0 44 76 9d bc b0 00 5b bc 71 33 a5 bb 8a 4c 33 bc
       -0.019221433 -0.013366863 -0.0050415327 -0.010943541
0003d0 c9 4f 80 bc 00 de 83 3c e3 05 88 bc 19 8d 52 bc
       -0.015663045 0.016097069 -0.01660437 -0.012851023
0003e0 bf e5 3e bc 18 53 08 bc f8 d0 5c bc 39 63 b1 3c
       -0.011651455 -0.008320592 -0.013477556 0.021653758
0003f0 d0 b9 88 bc c9 be 44 bc c1 79 3c bc e3 48 e7 bb
       -0.016690165 -0.012008377 -0.011503638 -0.0070582493

convs.2.weight f4 [72, 72]
000000 09 eb 3c bc 21 10 2a bb 64 f4 6d bc 42 3c 64 3b
       -0.011530646 -0.0025949555 -0.014523599 0.0034825956
000010 79 38 67 3b c4 ef 1d bc 5f f2 37 bc 79 19 32 37
       0.0035281463 -0.009639684 -0.011227219 1.0615558e-05
000020 38 04 88 3b 0d 4f c3 3b 9c 10 91 ba e8 7e af b6
       0.0041508935 0.0059603513 -0.0011067572 -5.2301802e-06
000030 e2 ad 97 3b b8 81 e6 b9 8d 72 52 b6 72 da 64 38
       0.0046288827 -0.00043965667 -3.1359116e-06 5.456288e-05
000040 b3 4d b5 37 0b cb f7 bb 88 9d b3 b6 22 21 89 bb
       2.1613063e-05 -0.0075620464 -5.3529548e-06 -0.004184858
000050 0a b8 95 bb 61 90 39 3b cd 00 8e bb 3b db a0 3a
       -0.0045690583 0.0028314816 -0.0043335916 0.0012272367
000060 ff 29 03 bc 8a 9d 0f bc 3e e5 01 bb ab 5f 10 bc
       -0.008005618 -0.008765588 -0.0019820477 -0.0088118715
000070 3a 66 b2 bb 95 05 0e 3b 5f f9 3b bc c1 4b 53 bb
       -0.0054443153 0.0021670808 -0.011473029 -0.0032241198
000080 c3 fd 02 bc e3 06 4c bb db cf dc ba 5f 96 09 3c
       -0.007995072 -0.0031132034 -0.0016846614 0.008397668
000090 ba 29 36 b8 cf 17 bc 3a 11 87 0b bc 91 0a c8 ba
       -4.3431042e-05 0.0014350357 -0.008516089 -0.0015261938
0000a0 09 c5 0b bb 07 9e 37 3a 41 72 80 bb 45 c1 5b bc
       -0.002132716 0.0007004444 -0.00391987 -0.013412778
0000b0 9f e9 86 bb 1b 86 85 3b c5 fe c3 ba 16 81 2c bc
       -0.0041172053 0.0040748245 -0.0014953247 -0.010528823
0000c0 8c f3 31 b9 1c 34 26 bb cd 24 24 3a 09 62 82 bb
       -0.00016970764 -0.002536065 0.0006261587 -0.003978972
0000d0 c9 f4 3d bc d2 8d 05 bc 31 78 64 bc 77 3b 0e bc
       -0.011594006 -0.008151488 -0.0139446715 -0.00868117
0000e0 15 ae 2c 3b 9f e9 55 bc 98 f0 90 bb 55 22 d6 bb
       0.0026348878 -0.013056188 -0.0044232123 -0.0065348544
0000f0 f8 26 8e bc 4f e5 3c b6 c4 34 c7 bb 51 81 f1 3b
       -0.017352566 -2.8147658e-06 -0.006079288 0.007370152
000100 83 0b cb ba 6e 45 3b bc 78 1c 38 ba e1 e4 21 bc
       -0.0015491102 -0.011430128 -0.0007023285 -0.009881229
000110 fe 84 02 bc e8 5d ae ba f7 bf 44 bb da 97 85 3a
       -0.007966278 -0.0013303133 -0.0030021647 0.001019235
000120 32 49 01 bc f9 5f 50 bc d7 9d 09 bc 2e 91 d4 3b
       -0.007890986 -0.012718194 -0.008399448 0.0064870333
000130 4a 61 cc 3a bc 62 79 bc cb 1e a7 bb cf e0 a9 37
       0.0015592959 -0.015221294 -0.0051001064 2.0251055e-05
000140 f9 41 ab 3a 06 dc 6c 3b 15 6e 2e ba f5 02 45 36
       0.0013065926 0.0036141886 -0.0006653977 2.9357009e-06
000150 1c ae 9a bc 19 f2 ca bb ef 79 c6 34 32 e1 15 3b
       -0.01888185 -0.006193411 3.6969092e-07 0.0022869823
000160 9f 6f 7e b5 72 5c 84 bc 3b ce 27 36 ba 00 48 3b
       -9.4784804e-07 -0.016157363 2.500498e-06 0.0030518011
000170 a4 b1 c7 ba f2 63 26 bb fe 3c fb bb cc 6b a1 38
       -0.0015235436 -0.0025389162 -0.007667183 7.697157e-05
000180 1e 86 ef bb 5f 70 a0 bb ea e3 0a bc 2a d5 4e bc
       -0.007309689 -0.004896208 -0.0084771905 -0.012624064
000190 77 f2 8c bb a2 5a 6b 3a ac 23 82 bc 8f ae 85 bb
       -0.004301365 0.0008978044 -0.01588615 -0.004079647
0001a0 63 bf 66 bc cb 77 6d 39 e4 48 1e bc ce 00 50 3c
       -0.014083716 0.00022646708 -0.009660933 0.012695504
0001b0 6a a3 52 3b df e3 72 bb 74 29 a6 bb 69 f1 36 b9
       0.003214086 -0.0037062091 -0.0050708596 -0.00017446805
0001c0 19 9f 46 ba 6a 60 7a ba 31 93 80 bb ee c4 65 bc
       -0.0007576808 -0.000955111 -0.0039237966 -0.0140240025
0001d0 2d 77 6c bb 72 6e 91 ba 98 f9 b4 bb b4 4f b6 bb
       -0.0036081776 -0.0011095537 -0.005522918 -0.0055637006
0001e0 33 4e 05 3b 49 2b 1c bc 27 a5 24 3b af 3b cb bb
       0.00203408 -0.009531804 0.0025122853 -0.006202183
0001f0 dc 5f 1d bc 99 33 0f bc f7 2a bf bc bb 9a 4a bb
       -0.009605374 -0.008740329 -0.023335917 -0.003091498
000200 fe 8f e6 3b 86 2a 73 bb bf 55 97 ba ef ad 62 bc
       0.007036208 -0.0037104203 -0.001154594 -0.013835414
000210 9b 4a 9e bc bc 85 91 b6 f2 5d 3c bc 8f 49 f5 3b
       -0.019322684 -4.3369055e-06 -0.011497008 0.0074855755
000220 22 53 a5 bb 9c 48 57 bc 62 c5 bd bb 99 9e a2 bc
       -0.0050453106 -0.01313987 -0.005791352 -0.019851016
000230 c2 cb 96 bb 45 21 e7 ba b2 9f 0c bb b3 a4 93 3a
       -0.0046019265 -0.0017633816 -0.002145749 0.0011264294
000240 c5 e2 b2 bc d6 9c 92 bb 5b 31 0a bd a5 8f cf 3b
       -0.021836648 -0.0044742627 -0.033738475 0.0063342624
000250 23 5f 88 3b 7a db a3 bc c1 41 ee bc bd ea 2e 38
       0.004161732 -0.020002116 -0.029084088 4.170345e-05
000260 10 7f 79 3c c5 6f c2 3b 3c a9 cc bc 6b 90 3a 37
       0.015228048 0.005933734 -0.024983041 1.1120089e-05
000270 c9 30 fe 3b 9c f4 b5 bb cf d4 f9 36 4b 7a ee bb
       0.0077572805 -0.0055528414 7.4455525e-06 -0.007277762
000280 c2 c3 66 b8 7f d2 4a bc a4 df a1 37 e8 5f e5 bb
       -5.5018587e-05 -0.012379288 1.9296836e-05 -0.0069999583
000290 10 00 df bc b7 63 cc bb e1 40 8a bc 59 f3 8a 3a
       -0.02722171 -0.006237473 -0.01687664 0.0010601088
0002a0 72 fa 5e bc 7c e5 d9 bc 3c cf 3e ba ce 19 7e bc
       -0.0136095155 -0.026598684 -0.0007278805 -0.015509082
0002b0 8e 7e b9 bc 75 aa 1d bb 52 a3 4f bc 18 2e 2a bc
       -0.022643354 -0.00240579 -0.012673216 -0.010386966
0002c0 37 81 28 bc 1a b5 d5 bb ce 16 56 bc fb b3 81 3c
       -0.0102847135 -0.006521833 -0.0130669605 0.015832892
0002d0 82 0d 53 bc 13 db 3d bc 2e de c9 bc a5 7a 65 bc
       -0.0128816385 -0.011587876 -0.024642076 -0.0140062915
0002e0 7f 3b 9d bb 10 98 40 bc 7c 4b 44 bc 35 05 62 bc
       -0.0047983523 -0.0117550045 -0.0119808875 -0.013795187
0002f0 74 67 c8 bb b4 b5 ea bb 81 b0 10 bc 68 82 c5 bc
       -0.006115848 -0.007162774 -0.008831144 -0.024110034
000300 d8 96 b3 3b f8 66 e3 ba cd 0d d7 bc a6 4c 89 bc
       0.0054806285 -0.0017349413 -0.026251698 -0.016760182
000310 c9 9b cb bc e3 cd 61 bc 40 86 30 bc 7b 8e 4b bc
       -0.024854558 -0.013781997 -0.010774195 -0.012424107
000320 e8 ae b3 3a 9d 5d 0c bd 2c 9c be bc 02 7b 5f bc
       0.0013708742 -0.034268964 -0.023267828 -0.013640167
000330 ba 61 e5 bc 06 8c 47 37 af 03 63 bc a3 3b 28 ba
       -0.028000701 1.1893926e-05 -0.013855859 -0.0006417578
000340 2a fb 53 bb f4 72 94 bc 41 fc 1b bb 53 86 71 bc
       -0.003234575 -0.01812122 -0.0023801478 -0.014741498
000350 7c 9a 56 bc 01 e8 20 bc 85 96 70 ba 0e cc 01 bc
       -0.013098355 -0.009820939 -0.00091777026 -0.007922186
000360 67 59 2a bc 81 a9 40 bc 5f 88 34 bc d8 39 2c 3c
       -0.010397292 -0.011759163 -0.0110188415 0.010511838
000370 44 56 3e 3b 0b 14 a7 bc a0 dc ee bb ee 3d 75 38
       0.0029043118 -0.0203953 -0.007289484 5.847023e-05
000380 46 22 1e 3b 85 40 c7 3a 24 0e 68 bb eb 25 86 b6
       0.0024129315 0.0015201723 -0.003540882 -3.9979254e-06
000390 f8 4e 5f bc 03 13 71 bb 19 78 ab b6 40 3b 83 3b
       -0.013629667 -0.0036785014 -5.1101783e-06 0.004004866
0003a0 99 86 e4 b7 43 75 8d bc 2a 54 b4 b6 19 28 b4 bb
       -2.7242395e-05 -0.017267829 -5.374216e-06 -0.005497944
0003b0 01 f2 dd b9 54 0f 9f bb 73 5b 23 bc f2 38 70 ba
       -0.00042332712 -0.004854122 -0.009970534 -0.0009163759
0003c0 c6 8f 1f bc 9c 2a 17 bc d9 0c 2c bb b6 19 81 bc
       -0.009738868 -0.009226467 -0.0026252775 -0.01575933
0003d0 31 e2 17 bc eb 6f fd 3b 7a 55 a5 bc f1 49 1a bc
       -0.009270237 0.007734289 -0.02018236 -0.009417043
0003e0 d2 d3 b3 bc a8 45 97 3a 2c b8 2b bc 89 1e b2 3c
       -0.02195159 0.0011541145 -0.010480922 0.021743076
0003f0 af c8 da b8 c3 8c dc bb 7a 63 f2 bb 58 ac 46 bb
       -0.0001043243 -0.0067306473 -0.0073971124 -0.0030315127

convs.3.weight f4 [72, 72]
000000 5a f1 ec bb a3 d9 8b bb 22 76 32 bc 73 a2 eb 3a
       -0.00723092 -0.0042678877 -0.010892423 0.0017977491
000010 e7 f3 54 3b 3a f0 35 bc c6 96 04 bc 41 9a 34 37
       0.003249401 -0.011104638 -0.008092588 1.0764751e-05
000020 15 b8 b0 3b db b8 e0 3a 03 14 3f 3a 37 1c 9f 36
       0.005393038 0.0017144935 0.0007289054 4.741854e-06
000030 c8 4a 16 bb 44 7e 69 b9 9f 29 70 36 5e 4f 01 3a
       -0.0022932757 -0.00022267649 3.5787014e-06 0.0004932786
000040 74 04 a4 b7 5a b0 01 bc f0 ea 98 35 18 9a 1c bb
       -1.9552397e-05 -0.007915581 1.1393258e-06 -0.0023895558
000050 a9 0f 06 bc d5 ad df 3a d2 44 d3 bb 54 14 b9 3a
       -0.008182445 0.0017065356 -0.006447413 0.0014120438
000060 53 70 22 bb 6f 39 b7 bb 8b 40 f5 38 a9 95 16 bc
       -0.0024786189 -0.0055915634 0.000116945324 -0.009190955
000070 04 3b a3 bb 9f 75 e6 3a af 22 1d bc 30 eb 7b bb
       -0.0049814004 0.0017582661 -0.009590789 -0.0038439743
000080 02 cd 9c bb d9 6e 09 bb 35 7c 7b ba 91 d5 4b 3c
       -0.004785181 -0.0020970611 -0.00095933984 0.012441055
000090 0e 19 ff 3a 84 0f 7b 3a fa 6b f1 bb 59 ba 65 3b
       0.0019462423 0.0009577202 -0.007367608 0.0035053699
0000a0 8d 72 4d bb d3 e7 38 3a 46 2d 95 ba 76 45 af bb
       -0.0031348795 0.00070535875 -0.001138129 -0.0053488566
0000b0 7b a2 1d bb 87 30 c5 3b 25 0e 20 bb 6b 34 f4 bb
       -0.0024053145 0.006017748 -0.0024422493 -0.007452538
0000c0 51 eb 65 ba cb 23 b3 ba 18 be 89 bb 60 55 bb bb
       -0.00087707216 -0.0013667283 -0.004203569 -0.0057169646
0000d0 ec ef 1b bc c9 99 d7 bb 9b 69 32 bc 89 59 d5 b9
       -0.009517651 -0.006579612 -0.010889436 -0.00040693235
0000e0 1e 57 86 3a 3f ca d1 bb 5e 45 5c bb 52 9d 90 bb
       0.0010249352 -0.0064022834 -0.0033610682 -0.0044132853
0000f0 b3 ef 60 bc 7c 16 4b 33 fb e1 e7 bb 43 99 c0 3b
       -0.013729024 4.728507e-08 -0.0070764995 0.005877645
000100 e4 7d fd ba 28 34 20 bc b5 c9 1b bb 3d b2 ee bb
       -0.0019339886 -0.00977806 -0.002377135 -0.0072844313
000110 3d e6 bb bb 13 9f 6e 3a 70 c3 f7 3a 58 cb 8f ba
       -0.0057342337 0.00091026834 0.0018902849 -0.0010970635
000120 09 ce fa bb a9 e4 52 bc 1a d7 ca bb 47 94 b2 3b
       -0.007653956 -0.0128719 -0.006190193 0.005449805
000130 6b 64 4e 3b 71 6b 52 bc 9b c1 3e bb c1 d2 01 39
       0.003149296 -0.012842999 -0.0029107097 0.0001238091
000140 1c da 8a bb 4b ef be 3b a8 fb fb 39 c6 43 57 36
       -0.0042374264 0.005826866 0.0004806195 3.2076946e-06
000150 ac 87 97 bb 5a 3b cc bb da 79 cd 35 c7 16 0c 3b
       -0.0046243276 -0.006232661 1.5309154e-06 0.002137588
000160 6a cb 68 b8 cd 27 4c bc 68 80 8b 36 c1 61 68 3b
       -5.5502554e-05 -0.012460661 4.1574713e-06 0.0035458656
000170 97 98 67 bb d6 7a 1d bc d8 f2 32 bc d1 15 2f ba
       -0.0035338753 -0.009611806 -0.010922156 -0.0006678971
000180 86 ba 81 bb 57 0f 15 bb d1 f7 d9 ba e5 95 9e bc
       -0.003959003 -0.002274474 -0.0016629641 -0.019358585
000190 71 9e 02 bc fe 2c 8f 3b ea f7 80 bc bb a5 8b bb
       -0.007972346 0.004369377 -0.015743215 -0.0042617
0001a0 34 4b be bc 94 8d c1 b9 9e 3b 37 bc c5 da 3e 3c
       -0.023229219 -0.00036917313 -0.011183647 0.011648838
0001b0 13 73 0d 3c 95 8e c5 bb da 67 70 bc 61 2d a2 3a
       0.008633393 -0.00602896 -0.014673198 0.0012373143
0001c0 1b ac 6e ba b4 c1 df ba 03 83 6a bb b6 d8 34 bc
       -0.0009104625 -0.0017071278 -0.0035783655 -0.011037996
0001d0 bd a4 8f bb 88 3f 6a ba 8e 27 2f bc 5b a1 2f bc
       -0.004383652 -0.00089358585 -0.010690583 -0.0107196225
0001e0 33 62 35 3b eb 13 b4 bb aa cb 79 3a a5 3a db bb
       0.002767694 -0.0054955385 0.00095289445 -0.0066903406
0001f0 04 b3 3b bc b3 55 18 bc 0c 08 bc bc 3d 96 53 bb
       -0.011456255 -0.009297776 -0.022953056 -0.0032285594
000200 32 71 2f 3c b5 8f 74 bb a8 a1 84 3b f1 dd 85 bc
       0.01070814 -0.0037317101 0.0040475912 -0.016341181
000210 8f 5d 7b bc 91 97 3a 36 92 04 09 bc bf e9 0f 3c
       -0.01534213 2.7804383e-06 -0.008362906 0.008783757
000220 b3 c1 5e bb 99 15 41 bc 6c 17 05 bc 5d 92 ac bc
       -0.0033989965 -0.011784934 -0.00812326 -0.021065885
000230 78 af aa bb 04 b0 21 b9 c0 2a 86 ba 04 6a 84 b8
       -0.005208906 -0.00015419727 -0.0010236129 -6.3139974e-05
000240 9d dc 9a bc 13 36 b4 3a 7e 9f e5 bc fc 57 56 3b
       -0.018904025 0.0013749026 -0.028030153 0.0032706251
000250 74 85 a7 3b 22 18 9c bc 68 6d a1 bc 57 64 1a 38
       0.0051123444 -0.019054476 -0.01970549 3.680991e-05
000260 14 29 56 3c 5b fc eb 3b da 89 88 bc a0 86 f7 36
       0.013071317 0.007201714 -0.016667295 7.376846e-06
000270 86 e8 05 3c 05 4a 90 bb 17 0d 8f 36 7e 9d 71 bb
       0.008173114 -0.004403355 4.263256e-06 -0.0036867554
000280 6f 8f c3 b7 c8 ac 6c bc 58 5d 9b 35 ce bc 39 bb
       -2.3312603e-05 -0.014445491 1.1575567e-06 -0.0028341296
000290 f1 dc b6 bc 37 3c b1 3a da ed 5b bc ac 62 17 b9
       -0.02232215 0.0013521974 -0.013423407 -0.0001443724
0002a0 a0 f7 1c bc 21 e1 b6 bc 3f e6 1f bc 34 ad 2c bc
       -0.009580523 -0.022324147 -0.009759485 -0.010539342
0002b0 42 88 ae bc b2 98 01 bc b3 af 52 bc 2b 06 fa bb
       -0.021305207 -0.007909941 -0.012859273 -0.00763013
0002c0 42 c2 fc bb 9e 2a b1 bb 24 dd 35 bc c1 d9 82 3c
       -0.007713587 -0.0054066917 -0.011100087 0.015972974
0002d0 fb 32 00 bc a3 1d a6 39 d2 69 a4 bc 79 62 b6 bb
       -0.007824655 0.00031684068 -0.02006999 -0.005565938
0002e0 84 9b 9c bb 83 bb 59 bc 39 92 e2 bb 40 bb 68 bc
       -0.004779281 -0.013289335 -0.0069144038 -0.0142048
0002f0 b2 fb d8 bb 61 64 4a ba 6a d0 0a bc 9e 0c a0 bc
       -0.0066218013 -0.0007720646 -0.008472541 -0.019537266
000300 74 44 bd 3b 8b e3 0d bb 92 07 b7 bc 31 02 5f bc
       0.0057759825 -0.0021650519 -0.022342477 -0.013611362
000310 91 47 b7 bc 9a ee 5a bc dc 5e 54 bc b5 39 2a bc
       -0.022372993 -0.013362551 -0.012962069 -0.010389735
000320 32 b7 97 36 ae 9c eb bc 8c 84 6f bc 69 20 72 bc
       4.5214774e-06 -0.028761234 -0.014619004 -0.014778235
000330 6c 01 e6 bc dd 0f 2c 38 ed 81 0a bc c9 6e cd 3b
       -0.02807685 4.102277e-05 -0.008453828 0.00626931
000340 0e 29 20 3b 62 17 8b bc a3 15 ed ba d3 e7 4c bc
       0.0024438533 -0.016978923 -0.0018088113 -0.012506443
000350 d1 ff 1c bc 16 9d a7 bb 84 5f 58 bb a8 d6 17 bc
       -0.009582476 -0.0051151616 -0.0033015916 -0.009267487
000360 5d 9a e1 bb b6 71 e4 bb c5 63 0c bc 92 f2 ec 3b
       -0.0068848566 -0.006971563 -0.008568709 0.007231065
000370 7f 8d 28 3a 7a 53 aa bc 84 81 eb bb e0 83 c7 38
       0.0006429776 -0.020791758 -0.0071870703 9.513623e-05
000380 87 8c 2c 3b 71 14 85 3b 75 be 3c bb 20 1e 27 b5
       0.0026328878 0.0040612747 -0.0028800045 -6.2256186e-07
000390 b5 dd 48 bc bd 44 9f bb 82 1f 78 b6 d6 0c 87 3b
       -0.01225989 -0.004860489 -3.697322e-06 0.004121403
0003a0 68 95 d2 b7 93 82 a0 bc ac eb 11 b4 3b ce bd b9
       -2.5103524e-05 -0.019593513 -1.3589914e-07 -0.00036202543
0003b0 92 df f7 ba 67 5d 7b bb cb fc 32 bc b3 25 95 b8
       -0.0018911234 -0.0038355233 -0.010924528 -7.111896e-05
0003c0 59 6d ea bb e5 14 12 bc 5a fc 0b bc 2a 63 88 bc
       -0.0071541485 -0.008916114 -0.008544052 -0.016648848
0003d0 ac fe 15 bc 34 0c b9 3b 81 85 9d bc eb 13 ce bb
       -0.009154957 0.0056472067 -0.019228699 -0.0062889955
0003e0 7e 31 a4 bc e5 a0 eb 3a 12 8b 16 bc 1b 70 93 3c
       -0.020043131 0.0017977027 -0.00918843 0.017997792
0003f0 1f fd 6c 3a 44 cd c5 bb 38 fe 1b bc 6d 40 01 bb
       0.00090404035 -0.0060364325 -0.00952106 -0.0019722239

convs.4.weight f4 [72, 72]
000000 f0 b8 b7 bb 1b 74 28 3b f5 0c 2b bc b6 55 68 3b
       -0.005606763 0.002570397 -0.010440101 0.0035451478
000010 04 5f 72 3b cb 05 12 bc 04 ba f5 ba db 09 32 36
       0.0036982903 -0.008912514 -0.0018747454 2.6529804e-06
000020 24 50 70 3b e4 9f c3 3b 74 f0 ab 3a 82 3a 37 b6
       0.0036668861 0.005969988 0.0013117925 -2.730318e-06
000030 55 5d da bb 55 91 87 bb cc e3 2b 36 72 19 b0 3b
       -0.006663958 -0.004137198 2.561358e-06 0.005374127
000040 09 b2 57 b7 ec 3d 1b bc 3a f6 4d 36 f6 14 25 bb
       -1.2856451e-05 -0.009475213 3.0690703e-06 -0.0025189496
000050 74 ab 1f bb 43 45 43 ba 12 d0 b1 bb 6b cb ad b8
       -0.0024363669 -0.00074489805 -0.0054264152 -8.2871724e-05
000060 7f 4f b7 bb 9b 4d af ba 0e 38 bb bb 3c 5d 17 bc
       -0.0055941935 -0.0013374569 -0.0057134693 -0.009238537
000070 93 1b 93 bb 85 7a 52 3a e4 ec 67 bc 86 86 12 bb
       -0.004489371 0.0008029121 -0.0141556 -0.0022358014
000080 43 6c bc bb 61 11 18 ba 4c 38 04 bb df b4 00 3c
       -0.0057502105 -0.00058009295 -0.0020175157 0.007855623
000090 00 11 8e 3a 83 79 e1 39 98 75 10 bc 03 15 48 39
       0.0010838807 0.00043005878 -0.008817099 0.00019081314
0000a0 16 72 32 bb d7 b5 3a 3a 62 12 1b ba 1d cd d8 ba
       -0.0027228645 0.0007122433 -0.000591552 -0.0016540621
0000b0 f7 70 15 bb 38 10 ad 3b ea 98 30 bb 0e 8b 17 bc
       -0.0022802928 0.0052814744 -0.0026946613 -0.009249462
0000c0 46 4e 1c ba 3f 4f 87 bb 2f cc 6e bb 2b 99 5d 3b
       -0.00059625914 -0.00412932 -0.003643762 0.003381322
0000d0 b4 4b 08 bc 13 0f bc bb 4e e0 35 bc 12 c1 9e 38
       -0.00831883 -0.0057391017 -0.011100842 7.569989e-05
0000e0 91 a2 5f 3b c3 ca 31 bc 29 df ac ba 4a 23 c3 bb
       0.0034123997 -0.010851565 -0.0013189066 -0.0059551345
0000f0 1a db 4d bc 99 ef aa b5 2f 30 e8 ba c9 5d 75 3b
       -0.012564445 -1.2735719e-06 -0.0017714555 0.0037439934
000100 a9 96 7b ba e4 e4 ec bb 85 1f e2 ba d7 64 f3 bb
       -0.000959734 -0.0072294343 -0.0017251825 -0.0074277925
000110 29 0a b8 bb d2 50 bd 3a d6 a2 85 ba fa 84 df 39
       -0.0056164456 0.0014443642 -0.0010195624 0.0004263295
000120 30 eb d2 bb a5 80 93 bc 4a 74 d2 bb 9f 5c bc 3b
       -0.006436728 -0.018005678 -0.006422554 0.005748346
000130 de 2b 60 bb 01 d2 9a bc f9 3e 24 3a 06 10 9b 37
       -0.0034205834 -0.018898966 0.0006265487 1.8484901e-05
000140 5e bf 55 3a c6 16 bc 3b d3 a3 03 3b 07 6c c3 b5
       0.0008153821 0.0057400195 0.002008666 -1.4560072e-06
000150 3a 18 c9 bb cc 38 d3 bb 8c 1c 88 34 6b 25 71 3a
       -0.0061369212 -0.0064459797 2.5352745e-07 0.0009198996
000160 9e b3 ed b6 7d 9e 2d bc 1d e0 52 36 bd 60 89 ba
       -7.0840606e-06 -0.010596869 3.142289e-06 -0.0010481101
000170 bc 72 5e bb 17 ca 2d bc 0a 60 2d bc f8 4d d3 b9
       -0.0033942899 -0.010607264 -0.0105819795 -0.00040303147
000180 2a c8 ea bb 0a 4c 88 bb 84 aa d9 bb 04 5f 60 bc
       -0.0071649747 -0.004159455 -0.0066426415 -0.0136945285
000190 91 65 27 bc 2c 00 d2 b9 d3 c5 55 bc 7f 1f a7 bb
       -0.010217086 -0.0004005445 -0.013047653 -0.00510019
0001a0 fd 08 bb bc cc 43 3e b9 e7 e8 c7 bb bd c1 51 3c
       -0.022831434 -0.00018145068 -0.006100762 0.012802538
0001b0 ac 85 0f 3c ee b3 a8 bb 60 b2 d9 bb 31 8c 48 3b
       0.008759897 -0.0051484024 -0.0066435784 0.0030601139
0001c0 eb 85 c4 bb 9c 3e 8e bb 7f 5b 8c bb 8c a8 3e bc
       -0.0059974096 -0.0043409597 -0.004283368 -0.011636864
0001d0 5f 14 d9 bb 2c 77 7d ba dd 2d ec bb f0 75 68 bc
       -0.006624743 -0.0009668942 -0.0072076158 -0.014188275
0001e0 86 8d 07 3b 06 be ad bb bd 28 da 3a 55 cc 0c bc
       0.002068372 -0.0053021936 0.0016644221 -0.008593638
0001f0 4f da 29 bc bd 31 1a bc fc 8c c1 bc 12 d5 3a ba
       -0.01036699 -0.009411273 -0.023626797 -0.0007127087
000200 00 be d9 3b 96 7d 82 bb 2b 2e 4e b9 82 ec 89 bc
       0.006644964 -0.003982256 -0.0001966289 -0.016836409
000210 7b eb 96 bc 69 90 9c b6 b6 51 0a bc b1 37 9b 3b
       -0.018422833 -4.665974e-06 -0.008442333 0.0047368635
000220 05 96 81 bb d9 42 56 bc 01 78 11 bc 38 5d a0 bc
       -0.0039546513 -0.013077461 -0.008878709 -0.0195757
000230 e0 93 ff bb f4 06 19 3b d4 c4 c1 ba 8a 03 0f bb
       -0.0077996105 0.0023350092 -0.0014783391 -0.0021822178
000240 21 4c 8a bc c3 57 d8 b8 78 3a d1 bc f1 80 df 3b
       -0.016882004 -0.000103160295 -0.025540575 0.006820791
000250 e6 a7 ae 3b 8a fd b0 bc 66 ec 82 bc a9 07 0b 38
       0.0053300736 -0.021605272 -0.015981864 3.3147317e-05
000260 2a 3b 93 3b 5e 83 c9 3b 2c 26 7a bc f4 c8 8f b5
       0.004493137 0.0061496934 -0.01526789 -1.0712815e-06
000270 e7 55 95 ba 62 a9 14 bb 07 01 04 36 a4 b0 cf bb
       -0.0011393399 -0.0022683968 1.967013e-06 -0.006338196
000280 b4 5e aa b7 80 d0 2f bc 5f 65 56 36 f0 df 94 bb
       -2.0309679e-05 -0.010730863 3.194749e-06 -0.004543297
000290 51 b6 c1 bc 49 fe f9 3a 50 2f 45 bc 6a 39 68 b8
       -0.023646506 0.0019072975 -0.012035206 -5.536658e-05
0002a0 2f 9e 1f bc f2 59 aa bc 85 c1 94 bb 4e b4 5c bc
       -0.009742304 -0.020794842 -0.004539671 -0.013470722
0002b0 75 30 a7 bc 5c c8 fd bb 64 bb 9f bc 1a 79 a0 bb
       -0.020408848 -0.007744832 -0.019498535 -0.004897249
0002c0 97 1f 6e bc 20 6a 68 bb a5 f0 f0 bb ea f9 98 3c
       -0.014533899 -0.0035463646 -0.007352906 0.018673856
0002d0 ab 5b a2 bb 34 9d 93 bb cf 73 9b bc b2 68 85 bb
       -0.0049547753 -0.004504824 -0.01897612 -0.0040713185
0002e0 8d f7 95 bb 6b 82 4b bc 6a bf 03 bc cf 4c 49 bc
       -0.0045766295 -0.012421231 -0.008041242 -0.012286379
0002f0 d8 9d bc bb 84 6f c2 39 94 23 2b bc 79 ff a5 bc
       -0.005756121 0.0003708565 -0.010445494 -0.02026342
000300 b5 19 c9 3b 1b 18 2b bb 97 94 d4 bc 7b 15 71 bc
       0.0061370977 -0.0026106897 -0.02594976 -0.014714594
000310 11 1a ba bc 07 ec 56 bc ed 04 67 bc 26 f8 09 bc
       -0.022717508 -0.013117797 -0.0141002955 -0.00842098
000320 ca 6b 3f 3b cf da ea bc 4d 56 3d bc 06 1a 73 bc
       0.0029208534 -0.02866879 -0.01155622 -0.014837747
000330 ba a3 e2 bc 3a b3 c5 b8 d5 2b 18 bc ba 37 c2 3b
       -0.027665962 -9.4270756e-05 -0.009287794 0.0059270533
000340 77 70 48 39 91 b6 87 bc 00 51 0a bb bb ec 28 bc
       0.00019115383 -0.016566547 -0.0021105409 -0.010310347
000350 77 ae e6 bb 8a 3f 00 bb 87 94 a2 3b b1 b7 32 bb
       -0.007039841 -0.0019569122 0.0049615535 -0.0027270133
000360 02 46 e1 bb 93 7a 66 bc b6 4b 00 bc 46 2f df 3b
       -0.0068748007 -0.01406731 -0.007830551 0.0068110554
000370 3f a4 49 b9 84 ec 75 bc 37 76 c7 bb 49 b7 ee 37
       -0.0001923004 -0.015010003 -0.0060870904 2.845716e-05
000380 b5 23 0d 3b a4 47 45 3b 16 23 7a bb a2 c7 1b 36
       0.0021536176 0.0030102516 -0.0038167886 2.3213001e-06
000390 72 64 02 bc 50 ff f1 bb b1 a0 52 b5 7c d9 60 3b
       -0.007958518 -0.007385172 -7.8464933e-07 0.0034309318
0003a0 07 7e 0d b8 3f 87 9c bc 90 1a a2 35 aa e8 96 bb
       -3.373439e-05 -0.01910746 1.2077671e-06 -0.0046053724
0003b0 7f 9a 90 bb 10 41 48 bb c1 80 4e bc 66 82 0b ba
       -0.0044129486 -0.0030556358 -0.0126039395 -0.000532186
0003c0 dd 0e cb bb 84 ba 06 bc 5f ea fb ba 8e 3b b5 bc
       -0.00619684 -0.00822318 -0.0019219628 -0.022123124
0003d0 77 2b 33 bc a4 cd 54 3b 85 d3 a7 bc bb 96 cc bb
       -0.010935656 0.0032471204 -0.020486603 -0.0062435544
0003e0 ac 59 ad bc 41 ef e4 3a ab fa 1c bc fd b7 92 3c
       -0.021160923 0.0017466323 -0.009581248 0.017909998
0003f0 47 65 0f bb 12 67 9d bb 8b 71 6c bc 72 48 f5 39
       -0.0021880434 -0.0048035467 -0.014431368 0.00046784017

convs.5.weight f4 [72, 72]
000000 be ae af bb 3e 03 2d b9 38 de 0f bc c2 84 73 3b
       -0.005361407 -0.00016499773 -0.008781008 0.0037157987
000010 8b c5 6f 3b df 97 54 bc 16 dc b2 ba 3e ab 1d 36
       0.003658625 -0.012975662 -0.0013645913 2.34945e-06
000020 ff c3 81 3b 7c 6a 93 3a 1d 1d 58 3b 9e 58 26 b4
       0.003960132 0.0011246945 0.0032976337 -1.5492193e-07
000030 be 3b cd ba 7c 13 dc ba 0b 06 61 35 ca 33 01 3b
       -0.0015658063 -0.0016790475 8.3827825e-07 0.0019714707
000040 ff 28 89 b8 a2 8b 94 bb 4c 78 53 b5 ad ee 61 bb
       -6.540305e-05 -0.004533247 -7.877868e-07 -0.0034474537
000050 6e 10 c3 bb c2 b5 3a 39 10 84 18 bc db 9a 9e 39
       -0.0059528863 0.00017806052 -0.00930883 0.00030251485
000060 66 a4 55 ba 0a bb dd bb 7a 5b a0 bb c2 48 33 bc
       -0.00081498025 -0.0067666816 -0.0048937174 -0.01094264
000070 d8 63 bd bb b8 c3 1a 3b 0a 59 60 bc 6e ef 4f bb
       -0.0057797246 0.0023615193 -0.013693104 -0.0031728405
000080 5e 13 cd bb fe 99 16 3a d3 7e 3d bb bc 02 28 3c
       -0.0062584123 0.00057449925 -0.0028914704 0.010254558
000090 e4 d8 33 3b b5 d2 b8 ba e5 a9 0a bc ce 48 eb 3a
       0.002744251 -0.0014100882 -0.008463358 0.0017950775
0000a0 e8 5d e0 ba 1f f2 85 39 cd 21 93 ba ce 50 f1 bb
       -0.001711783 0.0002554813 -0.0011225283 -0.007364369
0000b0 4b f3 0b bb 59 31 63 36 f4 a2 7b bb 29 f8 29 bc
       -0.002135473 3.385436e-06 -0.0038396688 -0.010374107
0000c0 8d d4 73 ba e8 d3 99 ba 27 d3 d5 bb 21 45 ec bb
       -0.0009301387 -0.0011736127 -0.0065254155 -0.0072103892
0000d0 1c e8 43 bc 12 1b b8 bb 03 f2 02 bc aa bb 90 3a
       -0.011957195 -0.0056184614 -0.00799227 0.0011042256
0000e0 19 b5 88 3b 5d e3 d6 bb 50 5f b8 ba 4b c2 cf bb
       0.004171979 -0.0065578655 -0.0014066491 -0.0063403
0000f0 e9 ac 49 bc 31 50 f6 b5 f8 7a b6 ba 78 1b 4e 3b
       -0.012309291 -1.8351767e-06 -0.0013922146 0.0031449478
000100 be 35 a9 3a a2 01 d2 bb 5f 3f 91 ba 3c 5e a7 bb
       0.0012909693 -0.006408886 -0.0011081508 -0.005107669
000110 2b d9 66 bb 25 97 95 3b c5 90 e2 3a 3f 98 ec 3a
       -0.0035224657 0.004565137 0.0017285576 0.0018050744
000120 56 89 cd bb 4c 33 82 bb 7a 2d db bb 99 9e ba 3b
       -0.0062724752 -0.0039734 -0.006688771 0.005695176
000130 cb fa dd ba 0c 26 a1 bc 4c ca 4f 3a e3 f2 11 38
       -0.0016935704 -0.019671462 0.0007926568 3.47969e-05
000140 73 ab 0f 3b b7 47 2e 3b 23 f8 af ba a8 67 aa 35
       0.002192226 0.0026593038 -0.0013425391 1.2696155e-06
000150 e0 27 f1 bb ce a3 24 ba 17 1c 76 b5 bb 73 72 3b
       -0.00735949 -0.00062805123 -9.168302e-07 0.003699525
000160 f2 64 8c 37 73 8f 62 bc 02 21 bd 36 76 14 cf ba
       1.6736307e-05 -0.013828146 5.6364815e-06 -0.0015798945
000170 c2 ac 53 bb 00 22 d1 ba 89 c6 5f bc 1b fa cd b8
       -0.0032299017 -0.0015955567 -0.013658174 -9.8217475e-05
000180 18 65 91 bb 42 0b 4b bb 59 64 ce bb 4a d8 ac bc
       -0.0044371 -0.0030982052 -0.0062985835 -0.021099228
000190 2e f0 3b bc 8a b3 25 3a d4 14 42 bc 8c cc 70 bb
       -0.0114708375 0.0006321004 -0.011845786 -0.0036743013
0001a0 9b 64 9f bc 34 d2 8f b8 1b 28 3d bc 25 1b 3a 3c
       -0.019457152 -6.857925e-05 -0.011545206 0.011359011
0001b0 0a 9a 0d 3c a0 c4 91 bb ca 85 8d bc 72 5f b4 3b
       0.008642683 -0.0044484884 -0.01727571 0.005504542
0001c0 4a d8 db bb b6 1e 82 ba 86 66 98 bb f5 3d 4a bc
       -0.0067091333 -0.0009927365 -0.0046508936 -0.012343873
0001d0 b1 fa fa bb 57 38 04 ba 56 a2 04 bc f4 77 89 bc
       -0.0076592793 -0.00050437957 -0.0080953445 -0.01678083
0001e0 8e f1 05 3b 55 71 28 bc b7 2d 14 bb a4 7a e2 bb
       0.0020438167 -0.010280927 -0.0022610256 -0.0069115926
0001f0 2b 91 66 bc 0b 6d 1c bc 94 4d b5 bc 72 fc 0d bb
       -0.014072697 -0.009547482 -0.022131719 -0.0021665362
000200 0d f3 63 3c 38 c1 da bb 62 4a ac 39 78 02 8a bc
       0.013912928 -0.0066758655 0.00032861816 -0.01684688
000210 b9 82 98 bc ac 76 1c b7 55 b2 69 bc c4 ed f2 3b
       -0.01861702 -9.325955e-06 -0.014263709 0.007413598
000220 92 c6 ef b8 22 e9 25 bc ed 88 0e bc 9d 56 a2 bc
       -0.00011433395 -0.010126384 -0.008699638 -0.019816691
000230 b9 90 c0 bb de c9 6d 3b 15 61 4f bb 10 78 87 ba
       -0.0058766273 0.0036283652 -0.0031643559 -0.0010335464
000240 ad 1b 8b bc 70 4e 5d 3b 14 52 e3 bc b5 94 e8 3b
       -0.01698097 0.0033768676 -0.027749099 0.0070978054
000250 10 f2 fb 3a 7d bb ba bc db 29 73 bc 52 b5 12 38
       0.001922192 -0.02279448 -0.014841522 3.497798e-05
000260 c6 24 a2 3b 36 1c a4 3b 5c d0 4e bc 84 69 ad b4
       0.0049482314 0.005008246 -0.012622919 -3.2300534e-07
000270 6f 11 0e 3c a6 6d 9e ba d3 6c 36 b6 51 64 5a bb
       0.008671149 -0.0012087121 -2.7183457e-06 -0.0033323953
000280 cb 3d 34 38 92 9a 72 bc 1d 27 09 b7 63 43 84 bb
       4.2972893e-05 -0.01480736 -8.174943e-06 -0.0040363534
000290 38 67 c2 bc 87 bc 39 3b 65 4d 7a bc 5d 6d 2f ba
       -0.02373086 0.002834113 -0.015277241 -0.00066920166
0002a0 a9 6b 10 bc 37 f8 92 bc 71 2f 26 bc 39 b8 b6 bb
       -0.008814731 -0.017940624 -0.010143147 -0.0055761603
0002b0 dd 26 ad bc 90 2f 82 bb d3 6d 93 bc 9c 1c d0 bb
       -0.021136696 -0.003972955 -0.017996704 -0.0063510668
0002c0 79 c3 27 bc 1d 2d 0a bb 04 14 b1 bb d2 ca 8d 3c
       -0.010239475 -0.0021084019 -0.0054039974 0.017308626
0002d0 e8 05 f5 bb ec 8d 04 bb 0b d5 98 bc 0d 22 d9 ba
       -0.0074775107 -0.0020226194 -0.018656274 -0.0016565934
0002e0 e7 04 20 bc f6 89 4b bc 74 3a 77 bb 97 ab 3b bc
       -0.009766794 -0.012423029 -0.003772405 -0.011454484
0002f0 04 4f 3b bc a6 23 2d bc 60 61 3b bc 5c 00 c0 bc
       -0.011432413 -0.010567581 -0.01143679 -0.023437671
000300 7d 5e c8 3b 47 42 1f bb 37 07 ea bc f2 22 79 bc
       0.0061147795 -0.002430098 -0.028567893 -0.0152060855
000310 62 26 bf bc 2d 55 40 bc 1d 92 5e bc 24 a8 10 bc
       -0.023333732 -0.0117390575 -0.013584641 -0.00882915
000320 3e f0 5f 3b c2 54 00 bd 38 d1 37 bc 4b 75 7b bc
       0.0034170295 -0.03133083 -0.011219315 -0.015347789
000330 4d 82 c3 bc 2c 0d 9e 37 ab 1e 35 bc bc 13 62 3b
       -0.023865843 1.8841201e-05 -0.011054675 0.0034496626
000340 39 39 83 3b f9 18 86 bc cd 5c 32 bb 55 ac 1c bc
       0.004004624 -0.01636933 -0.0027215958 -0.0095625715
000350 97 ec 18 bc a6 bc f8 3a 6f ee b1 3b 92 b7 c3 ba
       -0.009333751 0.001897712 0.005430035 -0.0014932028
000360 db a9 e3 bb 86 0f a4 bb b5 6d 21 bc 81 59 ee 3b
       -0.0069477386 -0.0050067334 -0.009852816 0.0072738533
000370 ba 8c 9c 3b c6 6a a4 bc 15 7f 93 bb 4e 39 3c 38
       0.004777518 -0.020070445 -0.0045012333 4.4876062e-05
000380 ce be 28 39 68 34 de 3a a2 90 b5 ba 97 1f c1 35
       0.00016092809 0.0016952874 -0.0013852308 1.4388814e-06
000390 60 6a b7 bc 28 ac cf bb e2 9b 5b b6 b7 68 a1 3b
       -0.02238959 -0.0063376613 -3.2724279e-06 0.004925813
0003a0 f8 b7 9c 37 ce 34 8c bc e1 73 26 b6 c8 98 8d bb
       1.8682316e-05 -0.017115023 -2.4803378e-06 -0.0043211915
0003b0 44 6e ab bb 85 e2 3e bb a4 b6 30 bc 7e 0e d6 3a
       -0.0052316505 -0.0029126715 -0.010785732 0.0016331223
0003c0 e8 24 c3 bb f4 7f ef bb d0 32 12 bc 91 87 8e bc
       -0.0059553273 -0.0073089544 -0.008923247 -0.017398627
0003d0 4b 05 4a bc 57 02 9d 3b 79 d0 a0 bc 16 fa d4 bb
       -0.0123303635 0.0047915387 -0.019630658 -0.006499539
0003e0 84 64 a8 bc 47 a1 0f 3b 52 5d 15 bc c5 29 50 3c
       -0.020555742 0.0021916197 -0.009116488 0.012705271
0003f0 cc fd 8f 3b 62 f2 cf bb 3a 30 61 bc 50 7d 93 3b
       0.0043942686 -0.006346033 -0.013744408 0.0045010224
