checkpoint/Wikipedia/20231105_180824357987.pth (torch, 73759 bytes, 26 tensors)

convs.0.weight f4 [24, 138]
0.08913516 0.5422034 -0.24767311 0.26251698 0.005039068 0.2198623 -0.2236286 0.11531321
0.00083517743 -0.034115754 -0.09387497 0.16759768 0.10345637 0.0955587 -0.10932155 0.26600346
0.20804664 0.3398177 -0.19369896 -0.009808485 -0.0508163 0.04150283 0.06606717 0.16095215
-0.0134739205 0.25151077 0.06385525 0.20944598 0.086240254 0.39330205 0.070787944 0.22155923
0.29117194 0.036839634 -0.23979339 0.3156738 -0.19310947 -0.028551314 -0.053166766 -0.030380903
-0.044226512 0.04410796 -0.15247634 0.03422734 0.23833705 0.23623174 -0.05362511 0.05855082
0.060458876 0.052995387 -0.2033324 -0.05093675 0.14615338 0.20323417 0.04922044 0.054979693
-0.04136612 0.067602456 0.1414949 0.25699535 -0.11703731 -0.011228631 0.059771504 0.13794251
0.18902215 0.35636044 -0.14412323 -0.062265724 -0.06348432 0.36702904 -0.053908475 -0.06269342
-0.070371285 0.046178117 0.029931325 0.078342296 -0.20831244 0.07384524 -0.061553326 0.029522028
0.038176384 0.19396117 -0.09315875 0.16499804 0.09133337 0.1111299 -0.13094702 0.2249747
-0.2678274 0.2647033 -0.119448476 0.30796695 0.024067542 0.09423867 -0.061262358 -0.057728067
0.02688278 0.15237264 -0.17586435 0.055384465 -0.11890319 0.09780818 0.061584998 0.034640964
-0.08088424 -0.030213952 -0.1109043 0.05012425 0.078176625 0.15550718 0.10888498 0.06544162
-0.0430818 0.15820391 -0.15771043 0.059107944 0.050560605 0.22351645 0.083508566 0.02097228
-0.22023547 0.05150834 0.03890342 0.061094962 -0.18493654 0.039383616 0.06557333 0.16097033
-0.16081223 -0.13560197 -0.08598074 0.267927 0.73545253 -0.110830165 -0.10036887 -0.1608649
-0.14570697 0.59555465 0.006803578 -0.15106595 0.22423877 -0.09607401 -0.072131515 0.021619737
-0.09976947 -0.13574788 0.028074814 -0.124615766 -0.0030057258 0.042513043 -0.057521977 -0.16370718
-0.0037903078 0.08108301 -0.13279325 0.17650706 0.11682661 -0.024635632 -0.0687765 -0.008311351
0.036938652 0.091812335 0.025451103 -0.04138106 -0.02575297 -0.0003837829 0.07918796 0.026510805
0.05443637 0.13901605 -0.031290807 0.08786332 0.13245061 0.17027675 -0.05933224 -0.034034543
0.06736791 -0.041477967 0.20799774 -0.0803107 0.115909025 0.04214784 0.0022545024 0.0906553
-0.111136034 0.034757037 -0.03956367 -0.045078464 0.20950887 -0.030455852 0.0605758 0.038907737
0.026673224 -0.024725903 0.10855276 -0.0049545937 0.054893248 0.092497066 -0.02376086 0.008361794
0.030347548 0.0083717555 -0.091560505 0.007337471 -0.027648713 0.015371341 -0.01379237 0.077782586
-0.11024625 0.019851841 0.124947496 -0.095323816 0.004213238 -0.014248717 0.024158744 -0.09677719
0.07703248 0.016964795 0.10686242 0.044124722 -0.11550514 -0.055814937 -0.07909255 0.11638512
-0.015073955 0.004338724 0.0774301 0.034012992 0.019902492 0.023380468 0.020613562 0.0334959
0.0036520269 -0.015975969 -0.05445052 0.088058874 -0.10244264 -0.006982062 0.027838575 0.029011026
0.036384523 0.009553264 0.023752907 0.0022613914 -0.039282247 0.022228 0.038472846 0.075848326
0.05351026 0.022984141 -0.0734009 0.120334014 0.0072005643 0.035575718 0.024362795 0.02103724
00000000: 7f8c b63d d8cd 0a3f 059e 7dbe a068 863e
00000010: c41e a53b 9523 613e e5fe 64be 5529 ec3d
00000020: cfef 5a3a f6bc 0bbd 8541 c0bd ba9e 2b3e
00000030: efe0 d33d 48b4 c33d fae3 dfbd 9b31 883e
00000040: 2e0a 553e 96fc ad3e 0559 46be c5b3 20bc
00000050: c124 50bd dffe 293d 394e 873d a4d0 243e
00000060: b8c1 5cbc 05c6 803e 8bc6 823d 0279 563e
00000070: bb9e b03d e35e c93e 45f9 903d 6ce0 623e
00000080: 7d14 953e 28e5 163d 668c 75be ff9f a13e
00000090: 7dbe 45be 72e4 e9bc 65c5 59bd 5fe1 f8bc
000000a0: dc26 35bd 8caa 343d c222 1cbe f831 0c3d
000000b0: a10e 743e bce6 713e 01a6 5bbd fcd2 6f3d
000000c0: baa3 773d b111 593d 5e36 50be 0ea3 50bd
000000d0: 3ba9 153e 9e1c 503e 5f9b 493d 6332 613d
000000e0: 856f 29bd 2873 8a3d 0ae4 103e e594 833e
000000f0: 42b1 efbd 4bf8 37bc f7d2 743d cd40 0d3e
00000100: 068f 413e e074 b63e 0a95 13be 580a 7fbd
00000110: 1104 82bd 3beb bb3e 22cf 5cbd 6865 80bd
00000120: d21e 90bd 4425 3d3d 8a32 f53c ed71 a03d
00000130: db4f 55be 2c3c 973d 571f 7cbd 2ed8 f13c
00000140: d75e 1c3d c29d 463e 04ca bebd 3ff5 283e
00000150: fd0c bb3d 1398 e33d fa16 06be c55f 663e
00000160: ac20 89be 3187 873e 67a1 f4bd d8ad 9d3e
00000170: 4b29 c53c 3400 c13d 3dee 7abd 4474 6cbd
00000180: 4739 dc3c 9307 1c3e c915 34be d2da 623d
00000190: 8483 f3bd a84f c83d 8d40 7c3d afe3 0d3d
000001a0: a3a6 a5bd 4083 f7bc cb21 e3bd 164f 4d3d
000001b0: 111b a03d 463d 1f3e 17ff de3d 4206 863d
000001c0: 8b76 30bd 3500 223e d87e 21be 2c1b 723d
000001d0: a318 4f3d 7fe1 643e 8a06 ab3d 0fce ab3c
000001e0: 6885 61be 69fa 523d 3159 1f3d b63e 7a3d
000001f0: 0160 3dbe b750 213d 4f4b 863d 68d5 243e
00000200: f6ab 24be 3edb 0abe ac16 b0bd ba2d 893e
00000210: 9e46 3c3f edfa e2bd 328e cdbd c5b9 24be
00000220: 3534 15be 4576 183f 8df0 de3b 08b1 1abe
00000230: d99e 653e 73c2 c4bd b0b9 93bd e01b b13c
00000240: f053 ccbd 7e01 0bbe 27fd e53c 8d36 ffbd
00000250: b6fb 44bb 2822 2e3d 2a9c 6bbd dba2 27be
00000260: d066 78bb d90e a63d f4fa 07be 44be 343e
00000270: ca42 ef3d aad0 c9bc b2da 8cbd 552c 08bc
00000280: fc4c 173d 1b08 bc3d d57e d03c 307f 29bd
00000290: e4f7 d2bc 7836 c9b9 4c2d a23d 302d d93c
000002a0: acf8 5e3d 395a 0e3e ca2a 00bd aff1 b33d
000002b0: 22a1 073e 075d 2e3e 5d06 73bd ce67 0bbd
000002c0: 30f8 893d cde4 29bd 5cfd 543e f079 a4bd
000002d0: b661 ed3d 37a3 2c3d 46c0 133b 7ca9 b93d
000002e0: 4a9b e3bd 655d 0e3d 840d 22bd 32a4 38bd
000002f0: 7e89 563e 8d7e f9bc 541e 783d b85d 1f3d
00000300: ce81 da3c fa8d cabc e950 de3d 255a a2bb
00000310: bed7 603d 1a6f bd3d 23a6 c2bc e8ff 083c
00000320: 6c9b f83c b029 093c 1384 bbbd 2b6f f03b
00000330: 8e7f e2bc 14d8 7b3c 65f9 61bc 7a4c 9f3d
00000340: c9c8 e1bd 54a0 a23c 79e4 ff3d 2239 c3bd
00000350: 340f 8a3b 7373 69bc 8fe8 c53c 1f33 c6bd
00000360: 34c3 9d3d c1f9 8a3c afda da3d 20bc 343d
00000370: f58d ecbd 349e 64bd 46fb a1bd 525b ee3d
00000380: c0f8 76bc db2b 8e3b ac93 9e3d 3551 0b3d
00000390: 8d0a a33c 6588 bf3c c6dd a83c ff32 093d
000003a0: d856 6f3b 09e0 82bc 8207 5fbd 3658 b43d
000003b0: 72cd d1bd c8c9 e4bb b90d e43c 88a8 ed3c
000003c0: f007 153d 4b85 1c3c 7595 c23c da33 143b
000003d0: 6ce6 20bd 7f17 b63c b495 1d3d 5e56 9b3d
000003e0: 932d 5b3d 3d49 bc3c 3653 96bd ae71 f63d
000003f0: b6f2 eb3b d8b7 113d 7c94 c73c 4a56 ac3c

convs.0.bias f4 [24]
0.14444315 0.102289565 0.110074386 0.07686555 0.10407279 -0.0018535978 -0.00086799654 0.16197807
0.064025834 0.12961331 0.09380602 0.07984306 0.031001503 0.11902469 0.07080214 0.064355426
0.10569969 -0.043596998 0.0440664 0.16985928 -0.0056381514 -0.0075100567 0.15158021 0.16620386
00000000: e8e8 133e 317d d13d ae6e e13d af6b 9d3d
00000010: 1d24 d53d 6cf4 f2ba 438a 63ba 94dd 253e
00000020: fa1f 833d 5ab9 043e 5f1d c03d c284 a33d
00000030: ddf6 fd3c 37c3 f33d b600 913d c7cc 833d
00000040: 1479 d83d c492 32bd f87e 343d 97ef 2d3e
00000050: 3ec0 b8bb ec16 f6bb d837 1b3e 5831 2a3e

convs.1.weight f4 [24, 24]
-2.0993935e-05 -0.0065109883 -0.023265019 -0.0030872626 -0.0022943043 0.0007798161 0.000122141 0.0029102222
0.010142029 -0.003482273 -0.00020786459 0.0013196355 0.007229077 -0.002364569 -0.008469548 -0.014647999
-0.00050199096 0.00021780256 -0.0058074337 -0.007071946 -0.00045138824 -0.00033984546 -0.0014941859 -0.0065107383
0.0012498276 -0.0065596784 -0.0008571023 -0.00100197 -0.0012672483 0.0004846161 -0.0006265268 0.0014056072
0.0005912019 0.004950378 -0.000945545 0.0004525759 -0.0033578149 0.00419572 -0.0094306655 -0.011854715
0.0030794456 0.0007223103 0.0011572782 -0.0049163266 6.937404e-05 -0.00036568413 -0.0058591324 -0.009344302
0.0023144234 -0.002551262 -3.0846154e-06 -0.0015528961 -0.0009263327 0.000784943 -0.00071632594 -0.0010698622
0.002299835 -0.00430877 -0.002593709 0.008694587 -0.0050138403 0.010230669 -0.0070653353 -0.0048281983
-0.00075588195 0.000931696 -0.012998291 -0.0030722725 -6.4064334e-05 -0.0003335868 -0.010785707 -0.0057187234
0.0010858108 -0.011902779 -0.003082271 -0.0011973387 -0.008958466 -0.0007946891 0.00058537116 0.0013085909
0.011863952 -0.003429176 0.00049335597 0.003182328 -0.0021227605 0.0010211084 -0.0067966348 -0.012835433
-0.002551067 0.0014574238 -0.012454361 -0.00316305 0.0003968224 0.00071850506 -0.00054857513 -0.0057925917
0.00050309347 0.000322696 -0.005844927 1.6183822e-05 -0.010836204 -0.00014861247 0.0004925452 0.0022254183
0.001994971 -0.00081200834 -0.00088692707 0.0024522257 0.00038242326 0.0015337175 -0.006943317 -0.010552315
-0.0013857877 -0.0014648853 -0.0046400633 -0.0045174453 0.0014232951 0.00018709856 -0.008451487 -0.007364251
-6.578107e-05 -0.0007158492 -0.000289732 0.00033662337 0.00030913707 0.00040427624 -0.00049183425 -0.0005367076
0.00012208357 -0.0012897424 0.00016506901 -0.00071588 0.000180195 0.0005768455 -0.0007104411 -0.0006578005
3.1400662e-06 -3.5744302e-05 0.00088430126 0.00013729435 0.0014830118 0.00033703382 0.00049330207 -0.00074376486
-0.0003812232 -0.0013334922 -0.0005946344 -0.0010633072 4.249895e-05 0.0014866099 -0.0012319547 0.00011523096
0.0015578117 0.00059307605 -0.00032129386 0.001539699 -0.00093021535 0.00060379267 -0.0005876938 -0.00080981996
-0.00072217407 0.00012553234 -0.00077466737 -0.0006960537 0.0003310158 -0.0014563577 -0.0005425789 -0.0010102789
0.0026838665 -0.0034775927 -0.010461231 -0.0028630868 -0.0154279 -0.0014670389 0.000556708 0.0032652896
0.0014408063 -0.0054255524 -0.0020742149 0.0023605167 -0.0014227474 0.004327773 -0.018917508 -0.01889499
0.004097221 0.00056565495 6.0912193e-05 -0.00863217 -2.0413341e-05 1.762926e-05 -0.018153273 -0.0163152
-8.2051e-05 0.0002895745 0.0003522742 -0.0043862634 0.0002146883 1.2656046e-05 -0.0002956636 0.00089340436
0.0023420525 -0.0029456806 -0.0011000959 0.00087084353 -0.00057320046 -0.0035070968 -0.00217229 -0.0025467023
-0.0007085347 -2.0898242e-05 -0.0016501029 -0.0040840106 -3.8110196e-05 0.0009170253 -0.0013124931 -0.003945494
0.0034008205 -0.019563379 -6.593685e-05 0.0030732716 -0.002372006 -0.000354491 -0.0006024704 0.005207269
4.3077005e-05 -0.004216149 -0.0019211981 0.0018973632 -0.007648595 0.010179759 -0.012083633 -0.009888189
-0.0010988457 -0.00048562998 0.004621492 -0.00683536 -0.0001245486 -0.0005665774 -0.015599189 -0.00879284
-0.0027218554 -0.0007352813 -0.009194631 -0.00068604026 -0.008456528 0.0009140456 0.0007026214 0.0018895534
0.0089671295 0.00514916 -0.0068866587 0.0020035305 0.0005703949 -0.0025108485 -0.005643546 -0.012989194
00000000: 221c b0b7 215a d5bb 4896 bebc ac53 4abb
00000010: 0a5c 16bb 936c 4c3a fa12 0039 6db9 3e3b
00000020: c12a 263c d936 64bb 3af6 59b9 9ff7 ac3a
00000030: e5e1 ec3b e3f6 1abb dcc3 0abc 29fe 6fbc
00000040: 0b98 03ba ee61 6439 494c bebb c8bb e7bb
00000050: 4ea8 ecb9 492d b2b9 8fd8 c3ba 0858 d5bb
00000060: 41d1 a33a 92f2 d6bb 29af 60ba 8954 83ba
00000070: cc19 a6ba 1214 fe39 803d 24ba 5a3c b83a
00000080: e3fa 1a3a c836 a23b 73de 77ba b647 ed39
00000090: c90e 5cbb 407c 893b 1483 1abc 473a 42bc
000000a0: 86d0 493b 6c59 3d3a d0af 973a 2319 a1bb
000000b0: e77c 9138 4bb9 bfb9 f7fd bfbb d818 19bc
000000c0: 95ad 173b 1333 27bb 4a01 4fb6 8c8a cbba
000000d0: 23d5 72ba a2c4 4d3a d2c7 3bba 9e3a 8cba
000000e0: d4b8 163b 9530 8dbb 37fb 29bb be73 0e3c
000000f0: 244b a4bb 899e 273c 5484 e7bb dd35 9ebb
00000100: 6126 46ba 0f3d 743a c9f6 54bc 2e58 49bb
00000110: 475a 86b8 43e5 aeb9 89b6 30bc 2164 bbbb
00000120: c451 8e3a e003 43bc edff 49bb 05f0 9cba
00000130: 88c6 12bc af52 50ba 9873 193a 0685 ab3a
00000140: 0561 423c 07bc 60bb 8f54 013a 9b8e 503b
00000150: 031e 0bbb b6d6 853a 4eb6 debb b54b 52bc
00000160: cd2f 27bb 0707 bf3a 600d 4cbc 2c4b 4fbb
00000170: 9a0c d039 0f5a 3c3a 41ce 0fba c8cf bdbb
00000180: 08e2 033a 862f a939 cd86 bfbb 7ec2 8737
00000190: 558a 31bc dbd4 1bb9 261e 013a 53d8 113b
000001a0: 0fbe 023b f5dc 54ba ab80 68ba 85b5 203b
000001b0: fb7f c839 0507 c93a c484 e3bb 9ee3 2cbc
000001c0: 52a3 b5ba 6501 c0ba ac0b 98bb 1407 94bb
000001d0: dc8d ba3a e32f 4439 1b78 0abc d14f f1bb
000001e0: f1f3 89b8 d4a7 3bba 2ce7 97b9 d37c b039
000001f0: ad13 a239 0af5 d339 70ee 00ba d6b1 0cba
00000200: 8f03 0039 930c a9ba 6016 2d39 e5a9 3bba
00000210: baf2 3c39 7237 173a e53c 3aba 3f70 2cba
00000220: edb9 5236 27ec 15b8 74d0 673a acf6 0f39
00000230: 9e61 c23a eab3 b039 f150 013a 37f9 42ba
00000240: e9de c7b9 93c8 aeba 3de1 1bba ab5e 8bba
00000250: e640 3238 5ada c23a 8a79 a1ba 27a8 f138
00000260: 7d2f cc3a a978 1b3a 5573 a8b9 bacf c93a
00000270: b2d9 73ba d747 1e3a 770f 1aba 194a 54ba
00000280: 4850 3dba 55a1 0339 0c13 4bba 6077 36ba
00000290: 308c ad39 41e3 beba db3b 0eba 566b 84ba
000002a0: cfe3 2f3b 53e8 63bb 9565 2bbc a0a2 3bbb
000002b0: 4dc5 7cbc a849 c0ba 0bf0 113a 78fe 553b
000002c0: 70d9 bc3a d5c8 b1bb 8def 07bb e6b2 1a3b
000002d0: 7b7b baba fecf 8d3b e4f8 9abc abc9 9abc
000002e0: fb41 863b 7648 143a f87b 7f38 f26d 0dbc
000002f0: 513d abb7 8ce2 9337 2cb6 94bc 74a7 85bc
00000300: cc12 acb8 08d2 9739 71b1 b839 a5ba 8fbb
00000310: f41d 6139 4e55 5437 4c03 9bb9 5a33 6a3a
00000320: 1f7d 193b 520c 41bb 1831 90ba 5249 643a
00000330: d542 16ba 52d7 65bb fb5c 0ebb 93e6 26bb
00000340: f5bc 39ba a24e afb7 4448 d8ba 2ad3 85bb
00000350: 83d8 1fb8 8764 703a f607 acba 3449 81bb
00000360: 4de0 5e3b 6143 a0bc 9447 8ab8 f168 493b
00000370: a873 1bbb fada b9b9 1bef 1dba bda1 aa3b
00000380: 95ad 3438 9f27 8abb b6d0 fbba f2b0 f83a
00000390: 11a1 fabb 01c9 263c 6efa 45bc 1202 22bc
000003a0: 2507 90ba 279c feb9 e26f 973b 28fb dfbb
000003b0: 4399 02b9 5e86 14ba be93 7fbc d80f 10bc
000003c0: 2861 32bb e5bf 40ba 14a5 16bc 62d7 33ba
000003d0: 408d 0abc 909c 6f3a 2030 383a e4aa f73a
000003e0: deea 123c 49ba a83b 7ba9 e1bb aa4d 033b
000003f0: 8e86 153a 0c8d 24bb 7fed b8bb a1d0 54bc

convs.2.weight f4 [24, 24]
-0.0003156601 -0.0042784014 -0.00029673346 -0.0021239496 -0.0069802767 5.4167518e-05 -0.00091136835 0.0017668261
0.0016873728 -0.0011317844 -0.00094815285 7.546786e-05 -0.0009186009 -0.0033542234 0.0066721872 -0.0058716065
0.00075800536 -0.0003400092 -0.0012621491 -0.00359359 0.00032718465 0.00067342474 0.00024133785 -0.0044980804
-0.0010697119 -0.0055473754 -0.00070116296 -0.00031682625 0.0011342467 5.971387e-05 -0.0015481638 0.0022518921
0.0012587843 0.0017517131 -0.0016341773 0.0016019845 -0.0024919438 0.000522398 -0.004346138 -0.0020809988
0.00010477092 -0.0005721712 0.00052055065 -0.004806903 0.0007512095 -0.0005532904 -0.0062494855 -0.0027986588
0.0003056997 0.00026547696 -0.002627125 -0.0017089079 -0.0012878611 0.00090956537 0.0004260721 0.00027576325
0.0052677523 -0.0015050119 -0.00046699453 0.0007145112 -0.0007042897 -0.0012794366 -0.004451796 -0.0006483558
-0.0021784317 0.00028514286 -0.009454658 -0.001554616 0.00040683785 3.3316683e-05 -0.0035328513 -0.0036633122
-0.0010612723 -0.0002573853 -0.0031147955 -0.0013558216 -0.0017116629 -0.0009810615 -6.7938954e-06 0.00022142153
0.0055134133 0.0014740822 0.00033467653 -0.00014978596 -0.0019298787 0.0009952825 -0.0050513395 -0.007130679
-0.0019171804 0.0009896962 -0.0013182489 -0.005380131 0.00032705872 0.00018745179 -0.005457979 -0.003937353
0.0018369948 -0.0010232376 -0.0037335183 -0.0013164661 -0.0018145039 -9.211078e-05 -0.0015578622 0.0009379936
0.0055396305 -0.0028107965 -0.0011853268 0.0003189414 -0.0012786472 0.0005570452 -0.0041304235 -0.003178919
-0.0043358994 -0.00025076693 -0.0004940637 -0.0018084405 -0.00014621444 0.0010016368 -0.0024875263 -0.0017736477
0.0002996936 0.0005889387 -0.00097022194 -0.00055429986 -0.00046697407 0.0009101746 -3.796726e-05 0.00039395166
0.00039659406 0.000297947 -0.00031994068 -0.0009012726 0.0001833379 -3.133619e-05 0.00039806432 -0.0009808717
-0.00066932646 0.00052045233 8.162939e-05 -0.0002361747 -0.0012291892 5.0726223e-05 0.0014500067 -0.00021152197
-0.00028712838 -0.00044306635 0.00081425626 0.0005765686 -3.6171114e-05 0.00022230881 -0.0002861218 -0.0012027043
0.00024521293 -5.031509e-05 -7.729641e-05 -0.00043108602 -2.9496963e-05 0.00012288372 0.00043063122 -0.00039714016
-0.00025512755 -0.00015980673 0.00034854672 -0.00032207722 -0.0007931338 6.5006374e-05 -0.0005410805 0.00011367967
7.83109e-05 -0.011409079 -0.00037630904 -0.0079313535 -0.011784861 -0.0007697419 4.985821e-07 0.0001232443
0.0065040793 -0.0019256757 -0.0008700095 0.006585113 -0.0017372441 0.0030015858 -0.008199684 -0.01161534
-0.0065047923 -0.00015755813 -0.008724799 -0.0032143197 0.0012627207 -0.0009073349 -0.0097951805 -0.0044969833
0.00048423006 -0.003346911 1.3698201e-05 -0.0022753316 -0.001623598 2.0049594e-05 0.00072160136 -1.1073313e-05
0.0010397203 -0.0032778475 -0.0009198481 0.00072939886 -0.0006878095 -0.001983481 -0.0009515226 -0.0020734482
0.0006385158 0.00011792843 0.000116970674 0.00012065529 0.00014253205 -0.0014833173 9.812396e-05 -0.00023295036
-0.00088543585 -0.010811776 -0.0014640187 -0.002351707 -0.00088066905 0.00024558135 0.0013358886 0.00016162105
0.012089101 -0.0009810759 -0.010265881 0.00037758614 0.0065752957 0.0039413706 -0.007779322 -0.0024998984
0.0006670329 0.00037329175 -0.0014037428 -0.0037111205 0.00070058706 0.00016139924 -0.0010347982 -0.0050499183
-0.00042474119 -0.00044721636 6.9161826e-05 -0.0020117464 -0.0016880609 3.4931207e-05 0.000859897 0.0008375621
0.0013261583 -0.000523533 -0.0056709256 0.0012332989 -0.0010672575 0.001403971 -0.002566442 -0.0011386841
00000000: 2e7f a5b9 d531 8cbb e492 9bb9 f631 0bbb
00000010: ceba e4bb ee31 6338 e5e8 6eba d994 e73a
00000020: d62a dd3a 6258 94ba 768d 78ba 8044 9e38
00000030: 43ce 70ba 88d2 5bbb 5da2 da3b 9b66 c0bb
00000040: e1b4 463a 4343 b2b9 b26e a5ba 7082 6bbb
00000050: fb89 ab39 c588 303a a30f 7d39 a264 93bb
00000060: 9335 8cba c2c6 b5bb 40ce 37ba b31b a6b9
00000070: 01ab 943a 4875 7a38 c2eb caba 7b94 133b
00000080: cbfd a43a bd99 e53a e431 d6ba aef9 d13a
00000090: e14f 23bb 89f1 083a 0c6a 8ebb 5e61 08bb
000000a0: 76b8 db38 c2fd 15ba 9075 083a 3a83 9dbb
000000b0: d1ec 443a b10a 11ba 7cc8 ccbb b469 37bb
000000c0: 5246 a039 b72f 8b39 d82b 2cbb 6ffd dfba
000000d0: 73cd a8ba e66f 6e3a 6e62 df39 5194 9039
000000e0: 1c9d ac3b d243 c5ba f2d6 f4b9 094e 3b3a
000000f0: 15a0 38ba c5b2 a7ba 5fe0 91bb 6cf6 29ba
00000100: 05c4 0ebb 3a7f 9539 b6e7 1abc 42c4 cbba
00000110: da4c d539 84bd 0b38 6987 67bb 2e14 70bb
00000120: 641a 8bba acf1 86b9 9921 4cbb d3b5 b1ba
00000130: e059 e0ba f696 80ba 1ef7 e3b6 642d 6839
00000140: dda9 b43b fe35 c13a 8677 af39 dd0f 1db9
00000150: fcf3 fcba 2474 823a b585 a5bb 79a8 e9bb
00000160: e649 fbba b2b8 813a 18c9 acba cf4b b0bb
00000170: 1479 ab39 b58e 4439 d9d8 b2bb e904 81bb
00000180: 51c7 f03a 281e 86ba 0bae 74bb 468d acba
00000190: a6d4 edba 992b c1b8 2e31 ccba afe3 753a
000001a0: ca85 b53b 5735 38bb f85c 9bba 9737 a739
000001b0: 4898 a7ba ac06 123a 8158 87bb 6955 50bb
000001c0: 2914 8ebb 5e79 83b9 0e84 01ba 3209 edba
000001d0: 2451 19b9 5b49 833a c405 23bb be79 e8ba
000001e0: 3220 9d39 0263 1a3a 7e56 7eba 6f4e 11ba
000001f0: 33d4 f4b9 c998 6e3a 093f 1fb8 4c8b ce39
00000200: f4ed cf39 c535 9c39 b6bd a7b9 6143 6cba
00000210: 653e 4039 fa6e 03b8 4ab3 d039 9890 80ba
00000220: bd75 2fba f76e 083a 7230 ab38 aaa5 77b9
00000230: bf1c a1ba dec2 5438 270e be3a ffcb 5db9
00000240: b889 96b9 5c4b e8b9 d073 553a dd24 173a
00000250: 70b6 17b8 911b 6939 9e02 96b9 0fa4 9dba
00000260: ec8f 8039 6b09 53b8 321a a2b8 6303 e2b9
00000270: 3f70 f7b7 59da 0039 58c6 e139 4037 d0b9
00000280: a4c2 85b9 cb91 27b9 26bd b639 79dc a8b9
00000290: 4fea 4fba 0854 8838 4cd7 0dba 4f67 ee38
000002a0: d83a a438 25ed 3abc 584b c5b9 82f2 01bc
000002b0: 4a15 41bc 81c8 49ba 4dd6 0535 243b 0139
000002c0: 2c20 d53b f466 fcba 5911 64ba eec7 d73b
000002d0: 3db4 e3ba 41b6 443b f857 06bc 444e 3ebc
000002e0: 2726 d5bb 3036 25b9 76f2 0ebc 56a7 52bb
000002f0: e081 a53a 37da 6dba f77b 20bc 6e5b 93bb
00000300: 42e0 fd39 d957 5bbb 53d1 6537 bb1d 15bb
00000310: e9ce d4ba 2d30 a837 d929 3d3a 84c7 39b7
00000320: 3947 883a 28d1 56bb f621 71ba 2135 3f3a
00000330: 1d4e 34ba 4afd 01bb 9a6f 79ba b0e2 07bb
00000340: 1262 273a 5850 f738 274e f538 5108 fd38
00000350: a874 1539 df6b c2ba e6c7 cd38 2344 74b9
00000360: 981c 68ba e023 31bc 51e4 bfba 191f 1abb
00000370: b3dc 66ba 5fc1 8039 fc18 af3a d278 2939
00000380: 5d11 463c 7297 80ba 3a32 28bc c1f6 c539
00000390: 9475 d73b 9d26 813b afe9 febb 56d5 23bb
000003a0: d2db 2e3a 5fb6 c339 cbfd b7ba 4536 73bb
000003b0: 9aa7 373a 473d 2939 11a2 87ba c979 a5bb
000003c0: ccaf deb9 5d78 eab9 f90a 9138 81d7 03bb
000003d0: ed41 ddba 1983 1238 b66a 613a d78f 5b3a
000003e0: 7dd2 ad3a b43d 09ba 2cd3 b9bb a5a6 a13a
000003f0: 38e3 8bba 7305 b83a c031 28bb e63f 95ba

convs.3.weight f4 [24, 24]
-0.000388226 -0.0010257585 -0.0020920367 -0.0016206347 -0.002176456 1.860692e-05 0.00023082468 0.0012408724
0.0070679747 -0.0013656425 0.00047958374 0.007569548 0.0050631203 -0.002395934 -0.004192166 -0.0026373307
0.00024608534 -0.0012010006 0.0012344432 -0.0027416612 -0.0009031932 0.00051932485 -0.0052298293 -0.0037118436
-0.00011685304 -0.0021030284 -0.0009301036 -0.0014445041 0.0005317991 0.00026737008 0.0002651757 2.9363317e-05
-0.0011964234 -0.0004846568 -0.0023213923 -0.00031889847 -0.0023262242 0.0017807725 -0.004029505 -0.0014689526
0.0008335163 5.481075e-05 0.00013925257 -0.0006478912 -0.00063712476 -0.0014817192 -0.004466687 -0.0037592016
0.0010536078 0.001426694 -0.00014266164 0.00045847398 0.00024886278 0.000927459 -8.520833e-05 -0.0008799716
-0.0007143898 -8.733877e-05 0.0009781967 0.0023113678 -0.0005240147 0.0037524533 -0.0020923575 -0.0028357555
0.0008561925 0.00021498016 0.00095501443 -0.0011327039 -0.0006240477 -0.00029234233 -0.0016841966 -0.0032590055
0.0018863803 -0.0012423305 -0.0077963234 -0.0016881645 -0.00269148 -0.0002586063 0.00056223583 0.00062769785
0.000112991285 -0.0016184651 -0.0050788624 0.0070420234 -0.0003072089 0.0025642773 -0.003510179 -0.002393634
0.0003512281 0.0011942507 -0.0005004853 -0.0026787631 -0.00042470306 0.00037164424 0.00014099534 -0.0027427033
-0.0016350897 0.00012952928 2.6327465e-05 -0.0025080724 0.00046518858 0.00015015292 -0.00021173102 0.0011806196
0.0007859697 -0.0016916674 0.00016678165 0.001172121 -0.0017658559 0.0019674802 -0.0025373618 -0.003303668
0.00038885124 1.1063874e-05 -0.0012701072 -0.0008633075 -0.0001506141 0.00031357343 -0.0033884374 -0.002501326
-3.0222953e-05 0.0009957441 0.00033925098 0.0005223705 0.0004108319 0.00036522668 0.00061400916 -0.00043503582
0.00013669967 -0.00020737159 -0.00014181071 -0.0014807718 0.0002518798 0.001483523 2.6477444e-05 0.0002077244
-2.2747972e-05 4.376397e-06 0.00093119126 -0.0009986192 0.00027135463 6.848339e-05 -0.0009827164 -3.509572e-05
-0.00033724133 -0.00045791382 -0.00060410524 -0.0013564996 -0.000667428 0.0007021412 -0.00071422564 0.0011469214
-0.0008114346 -0.00047930202 -0.0007242693 -0.00031077614 -7.8652156e-05 -0.0013497643 0.0013484509 -0.00048635175
0.00020690315 0.0009377979 0.00031769014 7.808879e-05 -2.9970047e-06 -0.00033887738 0.0004942355 -0.0005034947
-0.006179712 -0.007985583 -0.009674252 -0.00030709966 -0.0025887694 -0.00045320674 -0.0006696412 0.00035084502
-0.00075814786 -0.00037880815 -0.0008970497 0.003026554 9.0403904e-05 0.000300828 -0.0051325215 -0.0068335985
-0.0016433852 4.7844183e-05 0.0004927149 -0.0025736955 -0.0009658955 0.00019893765 -0.0018323229 -0.004669775
-4.946755e-05 -0.0020257458 0.0003021382 -0.0029207964 -0.0024712428 -0.000682293 -5.0207742e-05 -0.0010311871
0.0012069225 0.0010758108 -0.00032029604 0.0003888913 0.0010514027 -0.0017066877 -0.00026442515 -0.0018198849
0.0012176047 0.0009764789 -0.00043905978 -0.0014502623 0.0011966742 -0.0006970162 -0.0008727229 -0.0011754802
-0.00042469782 -0.00027652993 -0.0053227576 -0.0006788576 -0.0074001565 -0.00100321 0.0013134023 0.00025514356
0.00679337 -0.0012478303 -0.009044089 0.004493854 0.0009355212 0.0022972864 -0.0025366098 -0.0035489665
-2.6039006e-05 0.0008307737 0.00052003236 -0.0027034795 0.0002840092 -0.0010843592 -0.0013195778 -0.004065606
0.0020462887 -0.0012715554 -0.00071723515 -0.00121104 -0.003522634 -0.0001329478 0.0010446393 0.00069281214
0.002032844 0.00042278503 -0.0019439028 0.0020001146 -0.0017349832 -0.0028862425 -0.0028325375 -0.002634095
00000000: d08a cbb9 be72 86ba 8d1a 09bb 7a6b d4ba
00000010: dfa2 0ebb 0e16 9c37 8709 7239 c5a4 a23a
00000020: 789a e73b 5cff b2ba a470 fb39 f909 f83b
00000030: 88e8 a53b 1a05 1dbb 705e 89bb 11d7 2cbb
00000040: 0405 8139 e56a 9dba 0acd a13a 71ad 33bb
00000050: 45c4 6cba 4d23 083a fd5e abbb 6742 73bb
00000060: 000f f5b8 f6d2 09bb 32d2 73ba 8455 bdba
00000070: 6f68 0b3a ce2d 8c39 4807 8b39 3e51 f637
00000080: 4fd1 9cba 8919 feb9 8022 18bb d431 a7b9
00000090: 9173 18bb cf68 e93a f009 84bb df89 c0ba
000000a0: 5580 5a3a 98e4 6538 5404 1239 3ed7 29ba
000000b0: b804 27ba 3f36 c2ba 495d 92bb f05c 76bb
000000c0: 3619 8a3a e8ff ba3a 7197 15b9 565f f039
000000d0: cc79 8239 b820 733a e0b1 b2b8 e5ad 66ba
000000e0: e345 3bba a529 b7b8 d636 803a 517a 173b
000000f0: 085e 09ba b8eb 753b ef1f 09bb 15d8 39bb
00000100: 1b72 603a 4c6c 6139 ef59 7a3a 3c77 94ba
00000110: 2297 23ba 8645 99b9 43c0 dcba 0a95 55bb
00000120: 6b40 f73a b2d5 a2ba 4d78 ffbb 6745 ddba
00000130: 8b63 30bb 8d95 87b9 0263 133a 178c 243a
00000140: bcf5 ec38 ad22 d4ba 966c a6bb c6c0 e63b
00000150: e110 a1b9 6f0d 283b 080b 66bb 84de 1cbb
00000160: 0a25 b839 6788 9c3a 0033 03ba 308e 2fbb
00000170: aeaa deb9 3fd9 c239 26d8 1339 edbe 33bb
00000180: 8250 d6ba 40d2 0739 cdd9 dc37 795e 24bb
00000190: 8ee4 f339 5e72 1d39 1d04 5eb9 05bf 9a3a
000001a0: 8909 4e3a f0ba ddba 1ce2 2e39 dba1 993a
000001b0: 4b74 e7ba d7f0 003b de49 26bb 5a82 58bb
000001c0: bbde cb39 fa9e 3937 ba79 a6ba 964f 62ba
000001d0: 2aee 1db9 1d67 a439 8c10 5ebb 49ed 23bb
000001e0: 4c87 fdb7 a183 823a 7fdd b139 b1ef 083a
000001f0: ed64 d739 e57b bf39 75f5 203a 8515 e4b9
00000200: 0a57 0f39 e371 59b9 06b3 14b9 7516 c2ba
00000210: bc0e 8439 c672 c23a e11b de37 98d0 5939
00000220: e6d2 beb7 f7d8 9236 301b 743a 1ae4 82ba
00000230: 9a44 8e39 bd9e 8f38 7ece 80ba be33 13b8
00000240: c4cf b0b9 2714 f0b9 d15c 1eba 93cc b1ba
00000250: 56f6 2eba e60f 383a df3a 3bba 4c54 963a
00000260: 74b6 54ba d44a fbb9 e4dc 3dba abef a2b9
00000270: 0ef2 a4b8 93ea b0ba 81be b03a 07fd feb9
00000280: 24f4 5839 8dd6 753a a68f a639 9ac3 a338
00000290: 2620 49b6 5aab b1b9 958f 013a f5fc 03ba
000002a0: 2e7f cabb f6d5 02bc c180 1ebc 3802 a1b9
000002b0: 58a8 29bb 619c edb9 dc8a 2fba 9ff1 b739
000002c0: 71be 46ba c59a c6b9 fc27 6bba 2659 463b
000002d0: 3a97 bd38 73b8 9d39 b62e a8bb 61ec dfbb
000002e0: db66 d7ba 4dac 4838 8a29 013a 72ab 28bb
000002f0: 2634 7dba eb99 5039 8e2a f0ba e904 99bb
00000300: 617b 4fb8 60c2 04bb 4e68 9e39 d56a 3fbb
00000310: 93f4 21bb e8db 32ba 2796 52b8 e628 87ba
00000320: 9931 9e3a 3802 8d3a 68ed a7b9 1be4 cb39
00000330: 38cf 893a f0b2 dfba 8ba2 8ab9 3489 eeba
00000340: 0998 9f3a 64fa 7f3a 9b31 e6b9 ba16 beba
00000350: b9d9 9c3a f7b7 36ba 71c7 64ba 9212 9aba
00000360: faa9 deb9 38fb 90b9 876a aebb 5df5 31ba
00000370: 037d f2bb 247e 83ba 7826 ac3a cac4 8539
00000380: eb9a de3b 3d8e a3ba a92d 14bc 2e41 933b
00000390: c43d 753a 128e 163b 403d 26bb c795 68bb
000003a0: 576e dab7 47c8 593a c852 083a dc2c 31bb
000003b0: 12e7 9439 0f21 8eba aff5 acba c638 85bb
000003c0: 071b 063b 52aa a6ba d604 3cba c2bb 9eba
000003d0: fedb 66bb e767 0bb9 47ec 883a d69d 353a
000003e0: 7639 053b 3fa9 dd39 8eca feba 5b14 033b
000003f0: 6068 e3ba 1d27 3dbb 18a2 39bb c8a0 2cbb

convs.4.weight f4 [24, 24]
-0.001175017 -0.006485626 0.00010423023 -0.0005880674 -0.0041088313 -0.00022023318 -0.0005795919 0.0011814836
0.003358345 -0.0011133907 0.00012299248 0.0029994266 -0.0011126384 0.00058307237 -0.0019023957 -0.0059426157
0.0005362093 0.0004284561 -0.0041355216 -0.0025578025 0.0014847685 0.0002834304 -0.0010799833 -0.0042987694
0.0003883848 -0.004886449 -0.009392032 -9.528193e-05 -0.0034278033 -0.00010861741 0.0002054726 0.00041502313
0.0022853734 -0.00037338474 -0.0014547096 0.0063750683 0.0014229337 -0.00089141633 -0.0013951561 -0.0038860068
0.00066155975 -0.00040262387 -0.0065803975 -0.0018620193 0.0004247435 0.0003183128 -0.00046530244 -0.003035223
0.0023017258 -0.0014665769 9.4513074e-05 -0.0019516716 2.0644597e-05 -4.545054e-05 0.0008389189 0.00028790275
0.0013669534 -0.001858584 -0.0060117925 -0.00075396855 0.003531302 0.0006438017 -0.0025950996 -0.0014958221
-0.004852934 0.0010852915 0.0012074262 -0.0009163057 0.00033012123 0.0003328333 -0.0051413598 -0.0033163256
-0.0023762847 -0.0016164894 -0.0058804303 -0.0020120528 -0.00072649895 0.0009300179 -0.00010860395 0.0005375203
0.0012622097 -0.00072825653 -4.4102526e-05 -0.0001976412 0.0035362937 0.00032140294 -0.003526681 -0.0022055614
0.0002569919 0.00030028008 0.0015715325 -0.003475298 -1.18021635e-05 0.00046440528 -0.00059988844 -0.0031668937
-0.00020721523 -0.00016337169 -0.00048126915 -0.0014363164 -0.0025402044 0.00029699272 -0.00034849875 -0.0003523184
-0.0013896629 -0.0014789018 -0.0018492406 0.00466882 0.0007471426 0.0016184298 -0.0033792187 -0.0015726818
0.00024197076 1.8347431e-05 -0.00046411774 -0.0013719009 0.00012454491 0.00042784773 -0.00030550905 -0.0015862142
-0.0010486997 -0.00012257312 7.435073e-07 0.00033878646 -0.0010060313 0.00015980747 -0.00029207603 0.0014857472
-0.00018022918 0.0012560576 0.0006481875 -0.00043507753 -0.000373892 -3.7005506e-05 0.00044925467 -0.00053644634
-0.0006790678 -8.828775e-05 -0.00031013208 -0.00016690056 -2.8611514e-05 -3.3631033e-05 -0.0001200365 0.00018709847
0.00039880388 -0.00048514825 -0.00048547023 -0.0001484116 -0.0005024138 0.0001332858 -7.5861775e-05 0.00036711502
0.0010004672 4.2075833e-05 -0.0011756816 0.00032880358 -0.0005661388 -0.00011128856 5.4837914e-05 -6.596832e-05
0.00012393002 -0.00021056898 -0.00011595333 -0.00026014217 4.5116638e-05 -0.00048098012 -0.0007445276 -0.00011621251
0.0018792232 0.0005301945 -0.017469421 -0.0007868658 -0.0005656133 0.0005735797 -0.00017885439 0.0013333376
0.008039857 -0.0010930554 -0.0023322648 -0.00012139393 -0.0010424163 -0.0014826867 -0.004784478 -0.0074066115
-0.0018156617 -0.00049862906 0.0003913 -0.003051715 -0.00038063733 0.00095552346 -0.0028464405 -0.003670099
-0.00086533936 -0.0013456733 -0.0001838278 0.0009900223 0.00058810605 -0.00021000004 -0.00024254093 0.0006964914
-0.0015990773 -0.0008567068 -0.0004255571 -0.0002029206 0.0010093795 0.0005696739 -0.00048479217 -0.0013842006
-0.0006005554 0.00050512183 0.0010978181 -0.00034987248 0.0009985486 5.6878882e-05 -0.0005408409 -0.00020390238
0.0023751932 -0.006640025 -0.00059496483 -0.0007690435 -0.00059166475 -1.46701e-07 -0.00012859858 0.00078311237
0.0088294335 -0.0017552873 -0.00044520447 0.0021152606 -0.0015067412 0.0020658683 -0.00551047 -0.008121396
-0.0017901812 -0.00025841492 -0.0023364655 -0.0017062423 0.0002655932 0.0007885165 -0.0012966472 -0.002903917
0.00055500935 0.0010926556 -0.0010711127 -0.0012775456 -0.0017448794 -0.00078622845 -0.0003035091 0.001325128
0.0029796946 -0.0030121407 0.0002624447 0.001081845 -0.0007157112 5.3229196e-06 0.0049527464 0.0004431017
00000000: 0703 9aba 6085 d4bb 2e96 da38 8928 1aba
00000010: 60a3 86bb 65ee 66b9 c1ef 17ba 03dc 9a3a
00000020: ae17 5c3b 31ef 91ba 8bf7 0039 0792 443b
00000030: f3d5 91ba 53d9 183a cf59 f9ba 46ba c2bb
00000040: 6690 0c3a 67a2 e039 4583 87bb cea0 27bb
00000050: 909c c23a 6299 9439 3a8e 8dba b1dc 8cbb
00000060: 20a0 cb39 811e a0bb 0ae1 19bc 19d2 c7b8
00000070: ffa4 60bb 87c9 e3b8 2274 5739 7697 d939
00000080: 34c6 153b dac2 c3b9 f4ab beba f3e5 d03b
00000090: bb81 ba3a f0ad 69ba acdd b6ba 60ac 7ebb
000000a0: 866c 2d3a 4317 d3b9 60a0 d7bb 000f f4ba
000000b0: 1cb0 de39 39e3 a639 d6f3 f3b9 98ea 46bb
000000c0: 8dd8 163b 283a c0ba 5235 c638 3bcf ffba
000000d0: ef2d ad37 25a2 3eb8 e5ea 5b3a a7f1 9639
000000e0: 582b b33a bb9b f3ba 92fe c4bb f9a5 45ba
000000f0: 6b6d 673b cdc4 283a 8c12 2abb 760f c4ba
00000100: 5c05 9fbb 5740 8e3a 8042 9e3a 3c34 70ba
00000110: 1f14 ad39 2180 ae39 da78 a8bb b656 59bb
00000120: 71bb 1bbb 62e0 d3ba a0b0 c0bb a5dc 03bb
00000130: 8572 3eba 72cc 733a 4dc2 e3b8 60e8 0c3a
00000140: bb70 a53a 78e8 3eba bafa 38b8 e83d 4fb9
00000150: 2ac1 673b f981 a839 e41f 67bb 2e8b 10bb
00000160: debc 8639 e96e 9d39 e1fb cd3a d3c1 63bb
00000170: e801 46b7 6c7b f339 d541 1dba a98b 4fbb
00000180: ea47 59b9 c14e 2bb9 da52 fcb9 c842 bcba
00000190: 8f79 26bb b0b5 9b39 b6b6 b6b9 60b7 b8b9
000001a0: 5925 b6ba b6d7 c1ba 3862 f2ba e7fc 983b
000001b0: e4db 433a 7e21 d43a e275 5dbb 7222 ceba
000001c0: 88b9 7d39 cfe8 9937 d454 f3b9 5bd1 b3ba
000001d0: 4598 0239 c050 e039 bb2c a0b9 84e8 cfba
000001e0: 8674 89ba f986 00b9 6f95 4735 269f b139
000001f0: cfdc 83ba fe91 2739 c821 99b9 67bd c23a
00000200: e7fb 3cb9 4da2 a43a 20eb 293a 1e1b e4b9
00000210: ef06 c4b9 5c36 1bb8 f189 eb39 4ea0 0cba
00000220: 7803 32ba 2027 b9b8 3999 a2b9 0702 2fb9
00000230: c202 f0b7 0c0f 0db8 1bbc fbb8 dd2f 4439
00000240: 8d16 d139 7f5b feb9 b686 feb9 ef9e 1bb9
00000250: 6bb4 03ba a2c2 0b39 fb17 9fb8 5879 c039
00000260: 1c22 833a 957a 3038 5419 9aba 4563 ac39
00000270: ef68 14ba 9763 e9b8 c301 6638 7958 8ab8
00000280: 36f3 0139 2ecc 5cb9 f82b f3b8 b163 88b9
00000290: 9f3b 3d38 0f2c fcb9 672c 43ba 1eb7 f3b8
000002a0: 4450 f63a c0fc 0a3a 081c 8fbc ac45 4eba
000002b0: ab45 14ba 485c 163a dc8a 3bb9 63c3 ae3a
000002c0: 9bb9 033c da44 8fba e9d8 18bb df94 feb8
000002d0: b0a1 88ba b656 c2ba 1cc7 9cbb 29b3 f2bb
000002e0: 7ffb edba 6eb6 02ba 6627 cd39 48ff 47bb
000002f0: 4790 c7b9 187c 7a3a 598b 3abb 0b86 70bb
00000300: f1d7 62ba 4e61 b0ba e6c1 40b9 a3c3 813a
00000310: 212b 1a3a 7533 5cb9 9652 7eb9 bf94 363a
00000320: 2198 d1ba 9f94 60ba 4f1d dfb9 15c7 54b9
00000330: 284d 843a 2b56 153a b42b feb9 116e b5ba
00000340: 976e 1dba 276a 043a aae4 8f3a 176f b7b9
00000350: bbe1 823a 3c91 6e38 38c7 0dba a1ce 55b9
00000360: 21a9 1b3b 9194 d9bb 6af7 1bba a399 49ba
00000370: f319 1bba dd84 1db4 6bd8 06b9 c849 4d3a
00000380: 54a9 103c ab11 e6ba 556a e9b9 2fa0 0a3b
00000390: d87d c5ba 8563 073b 2c91 b4bb 9b0f 05bc
000003a0: 83a4 eaba dd7b 87b9 631f 19bb fea3 dfba
000003b0: 513f 8b39 72b4 4e3a 43f4 a9ba a54f 3ebb
000003c0: 0c7e 113a 7037 8f3a 9464 8cba 5173 a7ba
000003d0: 70b4 e4ba e61a 4eba 4d20 9fb9 ebaf ad3a
000003e0: fb46 433b 5667 45bb bb98 8939 b2cc 8d3a
000003f0: 919e 3bba 889b b236 a64a a23b 1a50 e839

convs.5.weight f4 [24, 24]
-0.0021459986 -0.002371587 -0.00057386066 -0.0009768134 -0.0031853227 -5.582121e-06 -0.0005362728 0.00086097396
0.0006327681 -0.005051608 -6.8338326e-05 0.0012647817 -0.0016989835 0.0008515986 -0.004328278 -0.004446631
0.00046696374 -0.0006659682 0.0006462798 -0.0018711993 -0.00022528238 0.0003536974 -0.0030126206 -0.0040836525
-0.00036249176 -0.0017214684 0.00039184376 -0.0027711042 -0.0027890324 -4.095496e-05 0.0007866387 0.0018142442
0.0056940163 0.00015985275 -0.0004945004 0.0006651188 -0.0007462954 -0.001174437 -0.0035959037 -0.0017165006
-0.0017088982 0.00050657184 -0.0012913116 -0.0019286063 -1.4139064e-05 -0.00036841648 -0.0022314112 -0.0030093489
0.00039846593 -0.0017377423 0.00089653576 -0.0006000551 -0.0049194326 -0.0014683213 0.0005743867 -8.458173e-05
0.00020241883 -0.00092574017 -0.0015521629 0.0003843384 0.00010246982 0.0028502538 -0.0042935223 -0.0006935391
0.0008359937 -0.00014064185 -0.0001729408 -0.0039582797 -0.00097472564 -0.0006478367 -0.0024651722 -0.002918861
-0.00063844153 -0.0019376501 -0.0027726688 0.00016147367 -0.0011627325 -0.0002223025 -0.0007884649 0.00018362953
0.0033092147 -0.0016830256 -0.0009580417 -0.00014310106 0.0023031589 0.0016730368 -0.0031671426 -0.00093267014
-0.0015437286 -0.00064767286 -0.004597464 -0.00218172 -0.0006026555 -1.3020505e-05 -0.0041119526 -0.0032626325
1.4635917e-05 0.00113004 0.00012234897 -0.0010695696 -0.0015136803 -0.00027805203 0.00018494322 0.0004409091
0.0035805688 -0.0023715075 0.00023856606 0.0011608454 -0.00018141883 0.00081653515 -0.00041941254 -0.0030680846
8.954539e-05 0.00016665853 0.00013157925 -0.00040324748 -0.0001936757 8.903988e-05 -0.0010499761 -0.0028628798
-0.00014597543 0.0006995467 0.0009018528 0.00014775785 0.0004855029 0.00059089647 0.00018482159 -0.0005402886
2.6904712e-05 0.00082578685 0.00048618368 -0.00082189613 0.00043180736 0.0004051919 -3.111223e-05 -1.39300455e-05
-0.00070469425 -3.410751e-05 -0.0005627973 0.00042018655 0.0009895755 0.0002554939 -0.00050482916 -0.0006413422
0.0011486422 -0.00033985218 4.3197244e-05 -0.00047780896 0.0001618124 -0.00041638574 -0.00025020348 0.00018318434
-0.00094039197 -0.00021300082 0.00011893769 0.0006095647 0.00015892416 -0.0006772718 -0.00058024237 -0.00024764004
-0.00067361566 -0.00050206226 0.0007778648 -0.000604779 -0.00034852503 0.00096755644 -0.00054361677 0.0009023082
-0.0010933647 -0.0046049063 -0.00041314907 -0.0010940635 -0.0035043329 -0.00014525407 0.00068753655 -1.2046546e-05
0.0068601035 0.0014648611 -0.00032130463 0.0019663053 0.0011540899 0.0038494684 -0.0023167145 -0.0029953064
-2.7738786e-05 0.0013301321 0.0009740631 -0.0015942523 0.00013386892 -0.0006990617 -0.0065869847 -0.005588782
-0.0004527304 -0.001243247 9.334141e-05 -0.00029597807 -0.0013335521 -0.00010785833 0.0006071748 0.0012121313
0.0016398386 -0.001113796 0.0004278611 0.0008654428 -0.0013656741 0.0008976161 -0.0009959174 -0.0009076992
-0.0011455774 6.142015e-05 -0.0013729029 -0.0012074768 6.7259236e-05 0.00030503696 -0.00020423878 -0.00252
-0.00024537582 -0.008397722 -0.0020573218 -0.0010161613 -0.0052238335 -0.0005411134 -0.0007131932 0.0017354582
0.000368242 -0.00050106505 0.0008662703 0.008440314 -0.0015859427 0.0033528213 -0.0054558828 -0.0029196818
0.00048657108 -0.00091804634 -0.005447779 -0.0026259539 0.0005251275 -0.0010217297 -0.003291145 -0.0034958178
-0.009648994 0.000573953 -0.00068402855 0.00010166321 -0.0014969476 0.00086308166 0.0001679535 -2.2168788e-05
-0.0014895091 -0.0006400962 -0.0023896492 -0.00026898825 -0.0009680736 -0.00089723675 0.005287617 -0.0034359756
00000000: e2a3 0cbb a16c 1bbb 236f 16ba 6b08 80ba
00000010: d9c0 50bb 0e4e bbb6 a994 0cba fcb2 613a
00000020: 59e0 253a f687 a5bb dc50 8fb8 08c7 a53a
00000030: 6db0 deba d13d 5f3a 3ad4 8dbb 0bb5 91bb
00000040: d0d2 f439 5f94 2eba 1a6b 293a 0843 f5ba
00000050: c739 6cb9 7670 b939 636f 45bb 29d0 85bb
00000060: d20c beb9 e5a2 e1ba 6170 cd39 6a9b 35bb
00000070: 33c8 36bb 0ec7 2bb8 6e36 4e3a efcb ed3a
00000080: df94 ba3b 259e 2739 5ca1 01ba 5e5b 2e3a
00000090: 09a3 43ba 91ef 99ba 41a9 6bbb 34fc e0ba
000000a0: 1cfd dfba 76cb 043a 3a41 a9ba 4ac9 fcba
000000b0: d136 6db7 0628 c1b9 de3c 12bb 7f38 45bb
000000c0: 31e9 d039 f5c4 e3ba 7f05 6b3a 044d 1dba
000000d0: 3133 a1bb b074 c0ba 7092 163a 7861 b1b8
000000e0: 6440 5439 5fad 72ba f271 cbba 0781 c939
000000f0: 11e5 d638 53cb 3a3b adb0 8cbb 9fce 35ba
00000100: 9626 5b3a 4279 13b9 7157 35b9 75b4 81bb
00000110: bb84 7fba 96d3 29ba ba8e 21bb 5d4a 3fbb
00000120: 165d 27ba c0f8 fdba aab5 35bb 4251 2939
00000130: d466 98ba df19 69b9 fcb0 4eba ad8c 4039
00000140: 69df 583b f898 dcba 1725 7bba 660d 16b9
00000150: 98f0 163b cd49 db3a d68f 4fbb 6f7e 74ba
00000160: f056 caba 97c8 29ba 53a6 96bb 30fb 0ebb
00000170: 87fb 1dba a572 5ab7 8fbd 86bb e4d1 55bb
00000180: c98c 7537 da1d 943a cd4a 0039 cd30 8cba
00000190: af66 c6ba 83c7 91b9 51ed 4139 d129 e739
000001a0: faa7 6a3b 4b6b 1bbb 9727 7a39 8227 983a
000001b0: 3f3b 3eb9 bf0c 563a 99e4 dbb9 eb11 49bb
000001c0: 51ca bb38 0fc1 2e39 89f8 0939 f66a d3b9
000001d0: 6d15 4bb9 ecba ba38 5a9f 89ba 279f 3bbb
000001e0: fb10 19b9 c961 373a 516a 6c3a 72ef 1a39
000001f0: 198b fe39 64e6 1a3a abcc 4139 27a2 0dba
00000200: 6eb1 e137 9e79 583a 78e6 fe39 8474 57ba
00000210: 3464 e239 f06f d439 817e 02b8 17b5 69b7
00000220: 3bbb 38ba a90e 0fb8 b088 13ba 7c4c dc39
00000230: a5b4 813a d0f3 8539 8356 04ba bf1f 28ba
00000240: 098e 963a 302e b2b9 b02e 3538 6f82 fab9
00000250: 2fac 2939 594e dab9 be2d 83b9 2c15 4039
00000260: a384 76ba f958 5fb9 306e f938 32cb 1f3a
00000270: e1a4 2639 f18a 31ba 681b 18ba afd5 81b9
00000280: 9595 30ba d49c 03ba a0e9 4b3a 088a 1eba
00000290: 3dba b6b9 9da3 7d3a 8181 0eba e188 6c3a
000002a0: 3b4f 8fba c1e4 96bb ee9b d8b9 ae66 8fba
000002b0: f3a8 65bb 584f 18b9 cc3b 343a 851b 4ab7
000002c0: b8ca e03b 9500 c03a c774 a8b9 21dd 003b
000002d0: d544 973a 5d47 7c3b 05d4 17bb e74c 44bb
000002e0: 97b0 e8b7 d457 ae3a 4558 7f3a 3bf6 d0ba
000002f0: 2a5f 0c39 3d41 37ba a2d7 d7bb 1a22 b7bb
00000300: 725c edb9 72f4 a2ba 4ac0 c338 812d 9bb9
00000310: 95ca aeba 0032 e2b8 d02a 1f3a 61e0 9e3a
00000320: daef d63a cbfc 91ba 8b52 e039 e2de 623a
00000330: 6b00 b3ba ff4d 6b3a 7189 82ba aaf2 6dba
00000340: 3327 96ba b1ce 8038 faf2 b3ba 3344 9eba
00000350: 870d 8d38 5eed 9f39 ee28 56b9 9626 25bb
00000360: c9a5 80b9 9996 09bc 22d4 06bb b730 85ba
00000370: b12c abbb 81d9 0dba 96f5 3aba 5078 e33a
00000380: 9b10 c139 e859 03ba 6a16 633a 3e49 0a3c
00000390: 68df cfba 02bb 5b3b 43c7 b2bb 2258 3fbb
000003a0: 771a ff39 0ca9 70ba 4883 b2bb 3218 2cbb
000003b0: b6a8 093a 8feb 85ba 40b0 57bb 171a 65bb
000003c0: d016 1ebc 5575 163a 6150 33ba 0534 d538
000003d0: 3a35 c4ba 6e40 623a ad1c 3039 1cf7 b9b7
000003e0: a23b c3ba 21cc 27ba a99b 1cbb fe06 8db9
000003f0: 52c6 7dba 8a34 6bba bf43 ad3b 1b2e 61bb

convs.6.weight f4 [24, 24]
-0.010676943 -0.0039384426 -0.009228757 -0.0012209639 -0.0022482737 -0.0002641043 0.00054492924 -0.000199488
0.0009461346 -0.0018448133 -0.00013525656 0.0033228619 0.0009520876 0.0024121928 -0.0021763302 -0.0045412057
-0.0060818368 0.0011937532 7.1508584e-05 -0.0017712574 -2.9355318e-05 0.0014762055 -0.0017568256 -0.0032785626
0.0023555036 -0.0010778909 -0.00779657 -0.0016502488 -0.0038676555 0.001216779 0.00035974002 0.00011996193
0.0054315673 -0.001236932 -0.0016550805 0.00039252552 -0.0010546552 0.0003443795 -0.003834253 -0.0006818037
-0.0036470625 -4.5275123e-05 -0.00046496576 -0.0026624312 -0.00072583015 4.981866e-05 -0.0026879685 -0.0015684292
-0.00048017057 -0.0002707236 -0.004231249 -3.8211485e-05 -0.001215168 0.00011006902 -0.0014156997 -3.143907e-05
-0.00076474174 -1.3490978e-05 0.0004860221 -0.0001001366 -0.00038828643 0.0020305954 -0.004229733 -0.0017209895
-0.0047340537 0.00014012746 0.0007465952 -0.0017876306 -0.00022523598 0.00018193698 -0.005503195 -0.0032925645
-0.00055187655 -0.0050815516 -0.004881791 -0.0013851548 -0.0025301017 -0.0012541204 -5.7642468e-05 0.00010944758
0.0022601222 -0.0017937293 0.00016062385 0.00056378194 -0.0015466262 -0.0017768019 -0.0008268829 -0.0027572534
0.0011677404 -1.8302659e-05 -0.0004536622 -0.0011734638 0.0006852392 0.00046246467 -0.003239326 -0.0020514866
-0.0011348714 -0.0026590289 -0.0067166868 -0.0031087175 -0.0011086708 -0.0009964135 -1.9017254e-05 -0.0006503627
0.0018019748 -0.003935249 -4.6203604e-05 0.0008921008 0.003781738 -0.002695875 -0.0022389537 -0.0015894279
0.0011402696 -0.001086193 -0.00051413797 -0.00020558391 -0.00043653065 0.00011126902 -0.00023068891 -0.0023519478
-9.508445e-05 0.0005636699 -0.0009900996 -0.0008478234 2.288641e-05 -0.00037964428 -0.00025696328 0.00014461148
0.0003525229 0.00017751117 0.00011771731 0.00060845795 -0.00013007029 -0.00019766651 0.00025909606 0.0009481839
-0.0013255945 -0.00012626781 0.0012576503 0.0011592455 5.6103632e-05 -0.0002832546 2.5220663e-05 -0.00021424529
-0.0002533379 -0.0008660825 0.0003587416 0.00044072527 -0.00054609013 -0.00041330073 -7.526226e-05 0.0008606764
0.0007947134 -0.0004704374 -0.00020995794 -0.0014548845 -0.0002709098 0.00031659845 -0.00013512265 -0.0002848267
-8.276868e-05 -0.00022278476 0.00083806406 -0.00056860346 -2.3977193e-06 -0.00036916553 -0.00025364448 -6.5928325e-05
-0.002634224 -0.007996148 -0.015799064 -0.0016479144 -0.008026042 0.0001641254 -0.00030806733 0.0011942331
0.0031894434 -0.0007658265 -0.0018500041 0.0003908903 -0.0002213889 0.0019023963 -0.005102822 -0.008223662
0.0005130486 -0.00015321438 0.00096722 -0.0018253643 0.0014449895 9.762394e-05 -0.0067542326 -0.006021065
0.0011760689 -0.0016382015 -0.00088947907 0.00063121127 -0.0019060591 0.0009832116 0.00011238059 -0.0005502489
-0.00049566186 0.00015311573 -0.0004742144 0.00097337295 7.983696e-05 0.00013995329 -0.0010074822 -0.0011444512
-0.0016590584 0.00027261666 -0.001350501 -0.00028652916 -0.000868246 -0.0009713559 -0.0012108495 -0.001549195
-0.0036556874 -0.0009973585 0.0005046904 -0.00078353484 -0.0033891224 -0.0014104175 0.00016337729 0.00039375
0.008016218 -0.00042532053 0.0009908576 0.0013556283 -0.0007174712 -0.0036841887 -0.0011237004 -0.0061184214
0.002162958 0.00077394745 0.0006617842 -0.0023577276 0.000934904 0.00035831044 -0.0032849037 -0.004671383
-0.00043536242 0.0010859381 -0.0010445826 -0.0013345827 0.00047906348 -7.193055e-05 -0.00027046519 -0.00097604777
0.00084153126 -0.0014607059 -0.0010191204 0.0005698718 -0.0014757612 -0.0009375977 0.0034584792 -0.0020435636
00000000: 58ee 2ebc 0d0e 81bb 3634 17bc c008 a0ba
00000010: c657 13bb 7b77 8ab9 95d9 0e3a a72d 51b9
00000020: 0506 783a aacd f1ba a8d3 0db9 5fc4 593b
00000030: 8495 793a e115 1e3b c3a0 0ebb 65ce 94bb
00000040: 254a c7bb b677 9c3a e1f6 9538 8929 e8ba
00000050: 1140 f6b7 3d7d c13a 4945 e6ba 27dd 56bb
00000060: cb5e 1a3b 0448 8dba 5f7a ffbb 294d d8ba
00000070: 7e78 7dbb 547c 9f3a 7d9b bc39 1294 fb38
00000080: 4afb b13b 8d20 a2ba 49ef d8ba e2cb cd39
00000090: 5b3c 8aba d68d b439 1748 7bbb 12bb 32ba
000000a0: 8e03 6fbb cbe5 3db8 a6c6 f3b9 2f7c 2ebb
000000b0: a345 3eba 61f4 5038 a128 30bb c093 cdba
000000c0: 67bf fbb9 e8ef 8db9 4aa6 8abb 4545 20b8
000000d0: 4646 9fba dbd4 e638 008f b9ba 72dd 03b8
000000e0: f378 48ba 4f57 62b7 c8d0 fe39 6e00 d2b8
000000f0: ec92 cbb9 bd13 053b 9299 8abb d392 e1ba
00000100: 1f20 9bbb 2eef 1239 28b7 433a ee4e eaba
00000110: 532d 6cb9 56c6 3e39 2554 b4bb 11c8 57bb
00000120: cfab 10ba 2583 a6bb 6ef7 9fbb 158e b5ba
00000130: 10d0 25bb 4c61 a4ba 21c5 71b8 3987 e538
00000140: 8f1e 143b 911b ebba 236d 2839 c4ca 133a
00000150: 2ab8 caba 94e3 e8ba 2cc3 58ba 09b3 34bb
00000160: de0e 993a a988 99b7 82d9 edb9 e9ce 99ba
00000170: a0a1 333a f576 f239 df4a 54bb 3c72 06bb
00000180: f7bf 94ba 1a43 2ebb a717 dcbb a0bb 4bbb
00000190: d250 91ba 179a 82ba 3e87 9fb7 1a7d 2aba
000001a0: 3e30 ec3a 43f3 80bb beca 41b8 dfdb 693a
000001b0: 09d7 773b 47ad 30bb 69bb 12bb 5a54 d0ba
000001c0: 1975 953a 975e 8eba 37c7 06ba 0392 57b9
000001d0: 27de e4b9 1a59 e938 15e5 71b9 2323 1abb
000001e0: 1368 c7b8 3fc3 133a 3bc6 81ba 7740 5eba
000001f0: 31fc bf37 fe0a c7b9 07b9 86b9 d9a2 1739
00000200: d3d2 b839 4b22 3a39 00df f638 ec80 1f3a
00000210: 7a63 08b9 b344 4fb9 49d7 8739 8b8f 783a
00000220: 92bf adba c266 04b9 bed7 a43a d3f1 973a
00000230: d150 6b38 ca81 94b9 f690 d337 08a7 60b9
00000240: 70d2 84b9 d009 63ba 7c15 bc39 2511 e739
00000250: 7d27 0fba 49b0 d8b9 1ed6 9db8 049f 613a
00000260: 5054 503a 0aa5 f6b9 2828 5cb9 d3b1 beba
00000270: e608 8eb9 20fd a539 b6af 0db9 cb54 95b9
00000280: 1994 adb8 549b 69b9 87b1 5b3a 550e 15ba
00000290: 81e8 20b6 8f8c c1b9 96fb 84b9 0043 8ab8
000002a0: f2a2 2cbb 4702 03bc 0a6d 81bc d5fe d7ba
000002b0: a97f 03bc 1419 2c39 1984 a1b9 d087 9c3a
000002c0: fb05 513b bfc1 48ba d67b f2ba 68f0 cc39
000002d0: a124 68b9 d459 f93a 9335 a7bb 8abc 06bc
000002e0: 1c7e 063a 2ca8 20b9 098d 7d3a 1041 efba
000002f0: cd65 bd3a 74bb cc38 9c52 ddbb 5b4c c5bb
00000300: 5326 9a3a ecb8 d6ba ee2b 69ba df77 253a
00000310: bbd4 f9ba 1bdf 803a dfad eb38 943e 10ba
00000320: 4eef 01ba b18d 2039 fb9f f8b9 f429 7f3a
00000330: 246e a738 6dc0 1239 7e0d 84ba 6901 96ba
00000340: c374 d9ba fded 8e39 4b03 b1ba 4b39 96b9
00000350: 019b 63ba 97a2 7eba 5eb5 9eba 5c0e cbba
00000360: 4294 6fbb ccb9 82ba 334d 043a 2266 4dba
00000370: 0a1c 5ebb c2dd b8ba 4250 2b39 3b70 ce39
00000380: 7556 033c 8efd deb9 aadf 813a 56af b13a
00000390: ad14 3cba 6e72 71bb 2149 93ba 0a7d c8bb
000003a0: 6ac0 0d3b bce2 4a3a 967b 2d3a 1b84 1abb
000003b0: 5814 753a 9ddb bb39 8a47 57bb 6712 99bb
000003c0: 5b41 e4b9 0956 8e3a 60ea 88ba 2aed aeba
000003d0: d02a fb39 6cd9 96b8 39cd 8db9 75dd 7fba
000003e0: 359a 5c3a 2875 bfba 0294 85ba 7363 153a
000003f0: 546e c1ba 1ec9 75ba a7a7 623b 4fed 05bb
