checkpoint/Wikipedia/20231105_160921203517.pth (torch, 180281 bytes, 40 tensors)

convs.0.weight f4 [32, 138]
0	0xb40193bb	-1.2067805e-07
1	0x3472236a	2.255089e-07
2	0xb2c3b50a	-2.2783315e-08
3	0x34ab6a47	3.192856e-07
4	0x32a68ab8	1.9388025e-08
5	0x32c15180	2.2505219e-08
6	0x34892474	2.5544762e-07
7	0x33eb1751	1.09472815e-07
8	0x34534863	1.967724e-07
9	0xb38e22bb	-6.618708e-08
10	0xb37cf755	-5.889827e-08
11	0xb2e30481	-2.6428326e-08
12	0xb336b043	-4.2535486e-08
13	0xb42384df	-1.5228896e-07
14	0x33cda068	9.575234e-08
15	0x32e4d497	2.6639368e-08
16	0x34551928	1.9846323e-07
17	0xb426a353	-1.5519372e-07
18	0x32966501	1.750823e-08
19	0xb3863cda	-6.25093e-08
20	0x33f51094	1.1411717e-07
21	0xb404eebd	-1.238031e-07
22	0xb2a9bf7b	-1.9761265e-08
23	0xb3f7ca8a	-1.15386754e-07
24	0xb3bf890a	-8.919058e-08
25	0x3406e8de	1.2564439e-07
26	0x32a33fef	1.9004771e-08
27	0x3426fccc	1.5551922e-07
28	0xb160bba3	-3.270295e-09
29	0xb41a183f	-1.4351188e-07
30	0x33acd31e	8.047776e-08
31	0xb443ce0d	-1.8235751e-07
32	0x33a39dcd	7.618983e-08
33	0x34064987	1.2506472e-07
34	0x34423d07	1.808986e-07
35	0x342344d3	1.5205596e-07
36	0xb416052f	-1.3971724e-07
37	0xb40013ed	-1.1928178e-07
38	0x334e76b4	4.8071072e-08
39	0xb2ae14d4	-2.0265738e-08
40	0xb45cef8b	-2.0576242e-07
41	0xb3d9b217	-1.0137244e-07
42	0xb3f59a76	-1.1436798e-07
43	0x33893078	6.388376e-08
44	0x322cbb6c	1.00543325e-08
45	0xb3b9630b	-8.6327496e-08
46	0xb423b847	-1.5247598e-07
47	0xb2a5319d	-1.923109e-08
48	0xb3e7a2c9	-1.0786386e-07
49	0x338d9311	6.5925754e-08
50	0x34e60b86	4.2849223e-07
51	0xb3b39835	-8.363023e-08
52	0xb32a6a19	-3.9677705e-08
53	0x33f223c1	1.1275507e-07
54	0xb210c5de	-8.426893e-09
55	0x334875f4	4.6673406e-08
56	0xb4fe96de	-4.7420957e-07
57	0x338bf9bf	6.5181204e-08
58	0xb3b381c8	-8.358944e-08
59	0xb2e8ac6f	-2.7086768e-08
60	0xb247c36e	-1.162776e-08
61	0x33dc6c10	1.0264205e-07
62	0x3347d0df	4.6523265e-08
63	0xb41a9bdb	-1.4399068e-07
64	0x338980f0	6.403013e-08
65	0xb403106f	-1.2206304e-07
66	0x32a444bf	1.9123375e-08
67	0x33ddb379	1.032376e-07
68	0xb3d1212e	-9.738356e-08
69	0xb2b26772	-2.0768969e-08
70	0xb429b1ea	-1.5804076e-07
71	0x328b06d1	1.618483e-08
72	0x3430db7a	1.6471122e-07
73	0x312101ef	2.3429683e-09
74	0xb357d186	-5.024915e-08
75	0xb36fcebb	-5.5834544e-08
76	0x3279c36e	1.4538143e-08
77	0x341f6866	1.4846009e-07
78	0xb4246e22	-1.5313756e-07
79	0x3209c349	8.018852e-09
80	0x34293ef0	1.5762248e-07
81	0xb42251b6	-1.5117152e-07
82	0x339511db	6.941601e-08
83	0x2fd8de9b	3.9448342e-10
84	0xb48e8bbf	-2.655124e-07
85	0xb44652c2	-1.8470294e-07
86	0x3402dfaa	1.2188562e-07
87	0x3418b7b6	1.4222937e-07
88	0xb4489394	-1.868014e-07
89	0xb3bc8e1f	-8.780284e-08
90	0xb3cc8494	-9.523606e-08
91	0xb2d2f0ce	-2.4556723e-08
92	0xb3a44e1d	-7.651054e-08
93	0xb2fc1e13	-2.9350337e-08
94	0x3418268b	1.4170125e-07
95	0xb2b8494e	-2.1453754e-08
96	0xb3f3565a	-1.13312765e-07
97	0xb3efe297	-1.1170521e-07
98	0x3375810e	5.7160882e-08
99	0xb35f04fb	-5.1925763e-08
100	0xb41d6980	-1.4660145e-07
101	0x337b01d1	5.8442144e-08
102	0xb39a655e	-7.1896224e-08
103	0xb28c1d22	-1.6311393e-08
104	0xb3d88314	-1.0082127e-07
105	0xb3293bfc	-3.9402934e-08
106	0x332a5a58	3.9663377e-08
107	0xb421f7f9	-1.5084505e-07
108	0x32b8f81f	2.1533252e-08
109	0x3419ca6c	1.4322876e-07
110	0xb40db288	-1.3196598e-07
111	0x3395a5c3	6.968505e-08
112	0x343a7b30	1.7367415e-07
113	0xb3cef2f2	-9.636814e-08
114	0x34194040	1.427261e-07
115	0xb3cdec60	-9.589053e-08
116	0xb31c1d15	-3.634803e-08
117	0x33ae4134	8.114367e-08
118	0x3327a642	3.9033928e-08
119	0xb3ab4cb4	-7.97676e-08
120	0x34083470	1.2685064e-07
121	0xb3a01bf1	-7.455663e-08
122	0x336ea069	5.5559585e-08
123	0xb3bb9154	-8.734301e-08
124	0x3361e271	5.2592842e-08
125	0xb3b5bc0f	-8.462677e-08
126	0xb343ea88	-4.561528e-08
127	0x330b4482	3.2425767e-08
128	0xb998dcb0	-0.00029156124
129	0xb58b83b0	-1.0394633e-06
130	0x341fbbad	1.4876305e-07
131	0x32c8782d	2.3337714e-08
132	0x3517cce8	5.655006e-07
133	0xb2cb5aff	-2.367369e-08
134	0x34255f84	1.5401571e-07
135	0xb40e7143	-1.3265985e-07
136	0x35ab0061	1.2740603e-06
137	0x34e16afe	4.1987363e-07
138	0xbe3b5c0d	-0.18296833
139	0xbe4cd442	-0.20002845
140	0xbe9a7ab6	-0.30171746
141	0x3cca5674	0.024699427
142	0xbd237ec6	-0.039915822
143	0xbdda86d6	-0.10670249
144	0x3d727776	0.059195958
145	0xba9a56dc	-0.0011775154
146	0xbd917c39	-0.07103772
147	0x3e40d71f	0.18832062
148	0xbd8ee3d9	-0.06977052
149	0xbd1f41f4	-0.038881257
150	0x3cb73339	0.022363292
151	0xbcc69af3	-0.024243807
152	0xbdf2546d	-0.11832509
153	0xbe0848cc	-0.1330902
154	0xbc98e326	-0.018663
155	0x3e2e4d99	0.17021789
156	0xbce19069	-0.02753468
157	0x3d75e101	0.060029034
158	0x3dbb0253	0.09131303
159	0xbd9bb5cc	-0.076030344
160	0xbd3643b2	-0.044498153
161	0xbd0d067b	-0.03443001
162	0x3cf88184	0.030335195
163	0x3cfca79e	0.030841645
164	0xbcb1d2fa	-0.021707047
165	0xbe5134bd	-0.20430274
166	0xbdc0e96f	-0.09419524
167	0xbe00eb4a	-0.12589756
168	0xbd95c04d	-0.07312069
169	0x3dede0a7	0.11615115
170	0xbe39119e	-0.18073127
171	0x3d83b94c	0.06431827
172	0xbd942a1d	-0.07234595
173	0xbc2b4340	-0.010453045
174	0x3e2d8909	0.16946806
175	0x3e1b672d	0.15176077
176	0xbcb12b4c	-0.02162709
177	0x3d363ef7	0.04449364
178	0xbcc90182	-0.024536852
179	0x3ca8e241	0.020615699
180	0x3d23eb7a	0.04001949
181	0xbd26b83b	-0.04070304
182	0xbd0948b7	-0.033516612
183	0xbd691ca0	-0.056912065
184	0x3dcf66a1	0.10126997
185	0xbb398bcb	-0.0028312083
186	0xbdd5bbbe	-0.104361996
187	0xbc073077	-0.008251301
188	0xbe3a745f	-0.18208455
189	0xbe2ea920	-0.17056704
190	0xbdade1bb	-0.0849032
191	0x3d22a2a8	0.039705902
192	0x3b5bcc31	0.0033538456
193	0x3dbb81de	0.091556296
194	0xbe0da08b	-0.13830774
195	0x3e2a3e39	0.16625299
196	0xbbb1a348	-0.005421076
197	0x3e7b4ec1	0.24541761
198	0x3e0d3c3c	0.13792509
199	0x3d91faa4	0.07127884
200	0xbcc6a5cb	-0.024248978
201	0xbc8f87e7	-0.017520858
202	0x3b9ec72e	0.0048455214
203	0xbdd90325	-0.10596303
204	0xbcbce0e7	-0.02305646
205	0xbdd3d712	-0.10343756
206	0x3ca77858	0.020443127
207	0xbdb4662f	-0.088085525
208	0xbdb02cbf	-0.08602285
209	0xbdc0e387	-0.094183974
210	0xbd97ff8c	-0.074217886
211	0x3d92cfe3	0.071685575
212	0xbd6ad548	-0.057332307
213	0xbdc8cbae	-0.09804474
214	0xbdde98cd	-0.10868988
215	0xbd1228b4	-0.03568335
216	0xbda59bc0	-0.080863476
217	0x372be2b6	1.02451795e-05
218	0xbc072b79	-0.008250111
219	0x3e791475	0.2432421
220	0x3db8cf6c	0.090239376
221	0x3df7dfec	0.121032566
222	0x3c3b94fc	0.011449095
223	0xbd540372	-0.0517611
224	0xbb93b78a	-0.0045079635
225	0x3e15e602	0.14638522
226	0x3bad97e7	0.005297649
227	0xbde84880	-0.11341953
228	0xbc2d3e88	-0.010573991
229	0xbd1265df	-0.035741683
230	0xbc95cc44	-0.018285878
231	0x3a6ac667	0.0008955956
232	0x3cbd2b99	0.023092078
233	0xbc9ed637	-0.019389255
234	0xbe12ec0e	-0.1434786
235	0xbc30c7e3	-0.010789844
236	0xbd0fca4a	-0.035105027
237	0xbc4752bc	-0.0121657215
238	0x3dd6b519	0.104837604
239	0x3d7350e5	0.05940332
240	0x3dcf5e96	0.10125463
241	0xbc8f2191	-0.01747206
242	0x3e0217d5	0.12704404
243	0x3d525cb4	0.05135794
244	0x3c9080f5	0.017639617
245	0xbc49f43d	-0.012326297
246	0x3ca297d8	0.019847795
247	0x3df91387	0.12161928
248	0x3d135580	0.03597021
249	0xbc48afb9	-0.012248927
250	0x3e4b2514	0.19838363
251	0x3ea88276	0.32912034
252	0xbd606675	-0.05478521
253	0xbc9f069b	-0.01941233
254	0x3ad80b3a	0.0016482838
255	0xbd41d5fa	-0.047323205

convs.0.bias f4 [32]
0	0xbcbc8274	-0.023011424
1	0x3cf4be51	0.029875906
2	0xbddadf72	-0.1068715
3	0x3d8f6928	0.07002479
4	0xb9d0bc28	-0.0003981304
5	0xba587f97	-0.00082587585
6	0xbbbb44f8	-0.005715009
7	0xbd9a4f48	-0.07534653
8	0x3c9e6fe8	0.01934047
9	0xbd58bf92	-0.05291707
10	0xbd7908cc	-0.060799405
11	0xbc46d0ab	-0.012134711
12	0xbd1c6bb5	-0.038188655
13	0xbbad3eaf	-0.0052870135
14	0x3c8fd6b2	0.01755843
15	0xbce75d1a	-0.028242636
16	0x3b627f25	0.0034560647
17	0xbcd07519	-0.025446462
18	0x3d28d7d8	0.04122147
19	0xbcc296c5	-0.023753533
20	0xbd896c51	-0.06710113
21	0xbb4efab2	-0.0031582532
22	0xbc7c6abc	-0.015406307
23	0xb9bf42e1	-0.00036480188
24	0x3d45997d	0.04824208
25	0xbce6ea2e	-0.028187837
26	0x3d818e91	0.063260205
27	0xbbfd7eb3	-0.007736051
28	0x3cf258dc	0.029583387
29	0xbc9607d5	-0.018314281
30	0xbd8d34be	-0.068948254
31	0x3d4ce37b	0.05002163

convs.1.weight f4 [32, 32]
0	0xb4091026	-1.2764994e-07
1	0x33df0133	1.0384465e-07
2	0xb42d2c69	-1.6128037e-07
3	0x33faf7ff	1.16866424e-07
4	0x33444001	4.5693017e-08
5	0xb3a90f1f	-7.872426e-08
6	0xb28f6194	-1.6691764e-08
7	0xb199c319	-4.475066e-09
8	0x34aaa511	3.178507e-07
9	0xb455fde8	-1.9929541e-07
10	0x336f90b4	5.577813e-08
11	0x33e10329	1.0477954e-07
12	0x34c6c91c	3.70267e-07
13	0xb36de4a7	-5.538882e-08
14	0xb3c24cb9	-9.047785e-08
15	0x343d7eb2	1.7648088e-07
16	0xb46ed7f6	-2.2244043e-07
17	0x341fd266	1.4884571e-07
18	0x34c29ffb	3.6251717e-07
19	0x341e9412	1.4768764e-07
20	0xb35c3de1	-5.127902e-08
21	0xb4864700	-2.5011104e-07
22	0xb3ad4ac7	-8.069542e-08
23	0x32504d8d	1.21248265e-08
24	0x341594d2	1.3930847e-07
25	0xb4951b28	-2.7773171e-07
26	0x33b1cef9	8.279853e-08
27	0xb2f7ecd1	-2.8862276e-08
28	0xb3a9c5f4	-7.905683e-08
29	0xb28a7d06	-1.6122168e-08
30	0x31810198	3.7545753e-09
31	0xb40eefa3	-1.331196e-07
32	0xb4312d26	-1.6500834e-07
33	0xbb57011c	-0.0032807058
34	0xb9ddf29f	-0.00042333172
35	0xb9cc524e	-0.00038971234
36	0x34c65249	3.6940244e-07
37	0x33e78ad3	1.0782028e-07
38	0xb3b415e4	-8.385885e-08
39	0xbb0fb55c	-0.0021928167
40	0xbb2bb13c	-0.002619817
41	0xbb1329f7	-0.0022455433
42	0xbab2e9eb	-0.0013650035
43	0x3b43ea45	0.0029894274
44	0xbaed1cdb	-0.0018090265
45	0xb9af0964	-0.00033385598
46	0xba547781	-0.00081049657
47	0xb42f76a6	-1.6341309e-07
48	0xba09af5b	-0.0005252265
49	0xb41b8ee5	-1.4487485e-07
50	0x3b035433	0.00200392
51	0xbaa0c85e	-0.0012266745
52	0x397bfa54	0.0002403048
53	0x34660b21	2.1424468e-07
54	0x342020d3	1.4913103e-07
55	0xb2a01a92	-1.8638534e-08
56	0x3a350c6a	0.0006906452
57	0x3417a8cb	1.4124377e-07
58	0xbbe67a5d	-0.00703363
59	0xbaeafa8c	-0.0017927452
60	0x3a89ee88	0.0010523358
61	0xbb33ad2e	-0.0027416456
62	0xbb7ef117	-0.0038901025
63	0xba970dfc	-0.0011524553
64	0xb2feee67	-2.9677905e-08
65	0xbac9a619	-0.0015384584
66	0x3a40f9f3	0.0007361464
67	0x382b1e26	4.0797655e-05
68	0xb3ebb52a	-1.0975994e-07
69	0x338ef471	6.656854e-08
70	0xb485900f	-2.4877997e-07
71	0xba8644c7	-0.0010243886
72	0xbb093cb4	-0.0020940723
73	0xbacf9281	-0.0015836508
74	0xba6a495b	-0.00089373224
75	0xb9078573	-0.00012924317
76	0xb965c910	-0.00021914043
77	0x3b2d0f95	0.0026406993
78	0xba4bac0f	-0.0007769474
79	0x34f96ebe	4.646044e-07
80	0x39ad4dad	0.00033055004
81	0x34297d1b	1.5784865e-07
82	0x3a92d1f0	0.0011201482
83	0xbb80d9fc	-0.0039322358
84	0xbb1dadb5	-0.0024059836
85	0x33cd6be0	9.565679e-08
86	0xb3b18aad	-8.26743e-08
87	0x33520070	4.8894833e-08
88	0x399feb52	0.0003050217
89	0x336abcf5	5.4654226e-08
90	0xb996364e	-0.0002865069
91	0xbaa5de62	-0.0012654776
92	0xbafd6fd5	-0.0019335697
93	0xbb1cc623	-0.002392181
94	0x39598874	0.00020745565
95	0x3acc730e	0.0015598254
96	0x349506be	2.7758318e-07
97	0xbb48bee4	-0.0030631358
98	0xb9965690	-0.00028674724
99	0xb88685d9	-6.414549e-05
100	0x33ade4ec	8.097581e-08
101	0xb31fc4d7	-3.7199097e-08
102	0xb49a28ba	-2.8714368e-07
103	0x3aa6150a	0.0012671065
104	0xbb537eb7	-0.0032271573
105	0xbb05f9f3	-0.002044317
106	0x3a97cfe9	0.0011582348
107	0x3ad58950	0.0016291533
108	0xbaa00cd4	-0.0012210854
109	0xb97b20a4	-0.00023949385
110	0xbab5e778	-0.0013878187
111	0x36044755	1.9711053e-06
112	0xb92aee55	-0.00016301249
113	0x33501d4f	4.845543e-08
114	0x39814eaa	0.00024663407
115	0xba04c92f	-0.0005065379
116	0xbab7ef3e	-0.0014033092
117	0xb38642a3	-6.2519824e-08
118	0xb3b8a429	-8.598028e-08
119	0xb24b55e2	-1.1835683e-08
120	0x3aa05119	0.00122312
121	0x34600421	2.0863128e-07
122	0xb9d47c65	-0.00040528472
123	0xbac4e016	-0.0015020396
124	0xbb3f2aec	-0.002916987
125	0xbb1d6487	-0.0024016218
126	0xbb86ba1c	-0.0041115414
127	0xba616fa5	-0.0008599705
128	0xb2e1db6e	-2.6293232e-08
129	0xb37ab636	-5.837338e-08
130	0x3415d60f	1.395458e-07
131	0x33516d63	4.876109e-08
132	0xb491cf6d	-2.7159277e-07
133	0xb489c870	-2.5664076e-07
134	0x3477bf6d	2.3073308e-07
135	0xb495fb49	-2.7936247e-07
136	0xb38ba60f	-6.502898e-08
137	0x345039d2	1.9392544e-07
138	0xb4240681	-1.5276056e-07
139	0x337fc567	5.955135e-08
140	0xb368e844	-5.4227954e-08
141	0xb20d02ca	-8.207914e-09
142	0xb2b5d419	-2.1167624e-08
143	0xb4328da0	-1.6629065e-07
144	0x34258c29	1.5417812e-07
145	0xb38e0dff	-6.614936e-08
146	0x33964e90	6.99921e-08
147	0xb46428c4	-2.1248985e-07
148	0xb4bc5061	-3.5076212e-07
149	0x34c12238	3.597395e-07
150	0x328eac07	1.6609205e-08
151	0xb395254e	-6.945139e-08
152	0x320db6b7	8.248825e-09
153	0x34375d51	1.7077151e-07
154	0xb27ab501	-1.4593071e-08
155	0xb455f6ee	-1.9927003e-07
156	0x3382c9fc	6.0903375e-08
157	0xb48a0336	-2.570684e-07
158	0xb4509674	-1.9426244e-07
159	0x3148fdcd	2.92481e-09
160	0x31394b05	2.6963687e-09
161	0x32f54c0e	2.855634e-08
162	0x33ecf24e	1.1033681e-07
163	0x3403323e	1.2218604e-07
164	0xb338904d	-4.297208e-08
165	0x334e7814	4.8072323e-08
166	0xb410a395	-1.3470556e-07
167	0xb35545fa	-4.965657e-08
168	0xb40ec963	-1.3298045e-07
169	0x3420bbf1	1.4969534e-07
170	0x31dbbc88	6.3951724e-09
171	0xb3183d65	-3.5446096e-08
172	0x34a7793a	3.1194378e-07
173	0x34077264	1.261447e-07
174	0x3390a366	6.7352445e-08
175	0x34382f74	1.7153599e-07
176	0xb421f4d8	-1.5083367e-07
177	0xb45f8ef5	-2.0820501e-07
178	0xaf90f48e	-2.6367214e-10
179	0xb3d88858	-1.00830846e-07
180	0xb45022d2	-1.9384177e-07
181	0xb43d535a	-1.763232e-07
182	0xb1d745a0	-6.265239e-09
183	0xb392fce1	-6.844653e-08
184	0x33848af7	6.1720066e-08
185	0xb397ace6	-7.0629355e-08
186	0x32bcb3d4	2.1967857e-08
187	0xb4530c5d	-1.9655404e-07
188	0x33943da0	6.9029966e-08
189	0x34178e54	1.411475e-07
190	0x3381a7d4	6.0375584e-08
191	0xb3c4617c	-9.1446935e-08
192	0xb35f069c	-5.1927245e-08
193	0xb38e8803	-6.637131e-08
194	0xb4685ec0	-2.1641154e-07
195	0x337bdf75	5.8643725e-08
196	0x323b9791	1.0919295e-08
197	0xb4a137e1	-3.0029244e-07
198	0xb45cefd1	-2.0576341e-07
199	0xb49d2811	-2.927268e-07
200	0x3409344c	1.2778145e-07
201	0x3450d655	1.9449483e-07
202	0xb313a655	-3.4377383e-08
203	0x3330440c	4.104008e-08
204	0xb424e79f	-1.5357953e-07
205	0x348a706d	2.5786304e-07
206	0xb34aeeda	-4.7249024e-08
207	0xb1b8a680	-5.3740337e-09
208	0x3429f992	1.5830145e-07
209	0xb48aabb0	-2.5829422e-07
210	0xb24ff17c	-1.2103893e-08
211	0x3377e6e0	5.771915e-08
212	0xb2c30bb3	-2.2706308e-08
213	0xb449f3ac	-1.8808231e-07
214	0x349801e0	2.831357e-07
215	0xb429d67c	-1.581738e-07
216	0x32233a60	9.501122e-09
217	0xb374dda6	-5.7012265e-08
218	0xb3a4288b	-7.64422e-08
219	0xb28b888a	-1.624382e-08
220	0xb3454675	-4.5931717e-08
221	0x32f5ebc5	2.862897e-08
222	0x34ade0b7	3.2387263e-07
223	0xb4354cdb	-1.6884898e-07
224	0x344f308f	1.9296043e-07
225	0xbace2e74	-0.0015730397
226	0xba2bde0b	-0.00065562193
227	0xba9c5869	-0.0011928204
228	0xb364e4ad	-5.3293366e-08
229	0x33c6944b	9.247068e-08
230	0xb314facc	-3.4687034e-08
231	0xbaab8e6f	-0.0013088713
232	0xba8716c9	-0.0010306473
233	0xba75c59f	-0.0009375456
234	0xb9d2de96	-0.0004022016
235	0x39ac1e86	0.00032829138
236	0xb9601c58	-0.00021372864
237	0x3ae8a1a6	0.001774837
238	0xba57f52a	-0.00082381314
239	0x3538ce32	6.8845395e-07
240	0xba3a5ac3	-0.00071088615
241	0xb1eaaaeb	-6.8297275e-09
242	0x3a3969a6	0.0007072933
243	0xbada7953	-0.0016668238
244	0xba9af92d	-0.0011823528
245	0x33f39119	1.13419624e-07
246	0x30f21f3e	1.7616697e-09
247	0xb40ed9d5	-1.3304027e-07
248	0x3a6efb17	0.0009116395
249	0xb3a443f9	-7.649209e-08
250	0xbb0621c8	-0.0020466913
251	0xba009888	-0.00049055414
252	0xbac8295e	-0.0015271117
253	0xbb0b1283	-0.002122075
254	0xbb433a25	-0.0029789296
255	0x3b040d6f	0.0020149609

convs.2.weight f4 [32, 32]
0	0xb49ac978	-2.8831323e-07
1	0xb48be9b9	-2.6060823e-07
2	0x3430ddea	1.6472009e-07
3	0xb210d28f	-8.429779e-09
4	0xb2b0ba2f	-2.0573763e-08
5	0xb40c3dcf	-1.3061002e-07
6	0xb3deec93	-1.0380713e-07
7	0xb44e4490	-1.9210188e-07
8	0xb15e5764	-3.2354928e-09
9	0x349c9720	2.9167222e-07
10	0xb29bb462	-1.8126403e-08
11	0x3363574e	5.293196e-08
12	0xb3c22c0f	-9.041843e-08
13	0xb3cc4581	-9.512133e-08
14	0xb298c30a	-1.7783822e-08
15	0x34888243	2.5426752e-07
16	0x34329b89	1.6634125e-07
17	0x342a79bc	1.587677e-07
18	0xb3bc5d41	-8.771395e-08
19	0xb41b35c0	-1.4455054e-07
20	0xb45ed583	-2.0753036e-07
21	0x33ee8949	1.1107711e-07
22	0x33356335	4.2232575e-08
23	0xb2c564d2	-2.2979666e-08
24	0x342fe961	1.6383048e-07
25	0xb4bdb17c	-3.533313e-07
26	0x341f551f	1.4838996e-07
27	0xb43d771b	-1.7645327e-07
28	0x33103b39	3.3581475e-08
29	0xb401cca2	-1.2088506e-07
30	0xb262ecbb	-1.3208758e-08
31	0x341ada11	1.44217e-07
32	0xb3d82dd1	-1.0066618e-07
33	0xba840113	-0.0010071121
34	0xba2324d7	-0.0006223446
35	0x39ea1367	0.00044646414
36	0x325293ba	1.2257198e-08
37	0x34857ea7	2.4865332e-07
38	0xb4b07988	-3.287098e-07
39	0xba581505	-0.0008242878
40	0xba336227	-0.0006842934
41	0xbab4fce3	-0.0013808276
42	0x3a22e88e	0.0006214463
43	0x36fd98e4	7.5577864e-06
44	0xba95742d	-0.0011402421
45	0x382e2fdd	4.152941e-05
46	0xba5e58fc	-0.00084818876
47	0x35574302	8.019125e-07
48	0xb9635080	-0.00021678396
49	0xb407bb5a	-1.2641013e-07
50	0x39679f81	0.00022089297
51	0x3a1ca998	0.0005976199
52	0x378e4394	1.6959188e-05
53	0xb458e0c6	-2.019834e-07
54	0xb44090e0	-1.7934099e-07
55	0xb1bb151c	-5.444816e-09
56	0x3a3eb920	0.00072755106
57	0xb2236fac	-9.51324e-09
58	0xb965f1ab	-0.0002192917
59	0xba9b260b	-0.0011836899
60	0xbabf0afa	-0.0014575415
61	0xbae8fad9	-0.0017774954
62	0xbb102a92	-0.002199803
63	0xba1cc200	-0.0005979836
64	0xb2a9b2b4	-1.9755454e-08
65	0x3b16b941	0.0022998604
66	0x39e554ee	0.0004374156
67	0xba7a8f0b	-0.0009558058
68	0x34c5f465	3.687193e-07
69	0x334eacd4	4.81203e-08
70	0xb35e7775	-5.179705e-08
71	0xba086b67	-0.00052039925
72	0xba25eeeb	-0.0006329852
73	0xba2ba974	-0.0006548383
74	0x398fd321	0.0002743239
75	0x39bbbef2	0.00035809685
76	0x399a7620	0.0002946118
77	0xb7a6c622	-1.9881005e-05
78	0x3894b6d5	7.091245e-05
79	0xb6133b52	-2.1939236e-06
80	0xb8e15838	-0.00010745268
81	0xb483ebd3	-2.4572236e-07
82	0x393b8842	0.0001788447
83	0x39bd9761	0.00036161675
84	0x3ac9c891	0.0015394856
85	0xb21db8e5	-9.180643e-09
86	0xb2ee0835	-2.7710579e-08
87	0xb47eee81	-2.374236e-07
88	0x39e0c20e	0.0004286919
89	0xb42db626	-1.6178146e-07
90	0xb98bc71f	-0.00026660503
91	0x3aec2d2f	0.0018018837
92	0xba88b840	-0.0010430887
93	0xba95feb5	-0.0011443706
94	0x3a0b801f	0.0005321521
95	0x3862fc85	5.4117776e-05
96	0x31becbd6	5.5529012e-09
97	0x3b1e923b	0.0024196047
98	0xba59409d	-0.0008287521
99	0xbafc6f47	-0.0019259237
100	0x328a0599	1.606786e-08
101	0xb34d1218	-4.7746738e-08
102	0xb487021b	-2.5147241e-07
103	0xba6644e5	-0.000878407
104	0xba888d07	-0.0010418006
105	0xbaacf8f7	-0.0013196756
106	0xba2a12f4	-0.00064878096
107	0x36bb30ac	5.5787004e-06
108	0xba842c00	-0.0010083914
109	0xb8e360e8	-0.00010842254
110	0xb92d2506	-0.00016512358
111	0x352cb78a	6.434208e-07
112	0xb982424e	-0.00024844933
113	0xb432fceb	-1.6669553e-07
114	0x39eaa4aa	0.00044754642
115	0x3b15130d	0.002274695
116	0xba89236d	-0.0010462828
117	0xb3570b32	-5.006877e-08
118	0xb488f7f6	-2.551239e-07
119	0xb49b5490	-2.8932527e-07
120	0x39678409	0.00022079064
121	0xb28b703a	-1.6232764e-08
122	0xb831cb47	-4.2389405e-05
123	0xbae0abb6	-0.0017141018
124	0x39177683	0.00014444631
125	0xbaca27f8	-0.0015423289
126	0xbb0c411c	-0.0021401113
127	0x3a1c9bfd	0.0005974172
128	0xb23edd0e	-1.1109718e-08
129	0xb3e54ab9	-1.06772355e-07
130	0x33aeab3c	8.133654e-08
131	0xb40a7d37	-1.2897804e-07
132	0xb4020df6	-1.2112272e-07
133	0x343896f6	1.7191255e-07
134	0x328e903a	1.6596562e-08
135	0xb3c8b042	-9.345287e-08
136	0xb288a2be	-1.590649e-08
137	0x32d7dc1a	2.5129385e-08
138	0xb353bcce	-4.9298983e-08
139	0xb382fe1d	-6.09982e-08
140	0xb466e99b	-2.1505404e-07
141	0xb2d40839	-2.4683787e-08
142	0x3486f253	2.513576e-07
143	0xb2e5c4c3	-2.6748586e-08
144	0x3479d187	2.3266158e-07
145	0xb400321d	-1.193916e-07
146	0xb495152c	-2.7768817e-07
147	0xb4631a33	-2.1150554e-07
148	0x32c9ffdb	2.351583e-08
149	0x3460f85e	2.0951981e-07
150	0xb2665b86	-1.3408572e-08
151	0x33da6fc8	1.0171749e-07
152	0x32dbf7c5	2.5607628e-08
153	0x335be7b0	5.120063e-08
154	0xb399ddb9	-7.164949e-08
155	0x344232fc	1.8086206e-07
156	0xb3e1326a	-1.0486549e-07
157	0xb2fa8b7d	-2.9167262e-08
158	0xb300eacc	-3.001587e-08
159	0xb12599a2	-2.409799e-09
160	0x346e4805	2.2191678e-07
161	0x32541dad	1.2346772e-08
162	0xb4486238	-1.8662183e-07
163	0xb3118ad2	-3.38867e-08
164	0x346d342e	2.2091328e-07
165	0x349cc62a	2.9201448e-07
166	0x337bbcd9	5.8612247e-08
167	0xb3b37924	-8.3573724e-08
168	0x31af2e62	5.0984434e-09
169	0x338e8907	6.6373154e-08
170	0xb0c2807f	-1.4151879e-09
171	0x33a48240	7.6605374e-08
172	0x33a0d36a	7.4890366e-08
173	0xb10a90dd	-2.0163988e-09
174	0xb40c17ba	-1.3047148e-07
175	0x3473534d	2.2661443e-07
176	0xb3b24ec3	-8.3030976e-08
177	0x3342312d	4.521387e-08
178	0xb38956cf	-6.39535e-08
179	0x33771446	5.7527608e-08
180	0x33ed47c6	1.1049228e-07
181	0x338a9ec4	6.455005e-08
182	0x336f0b19	5.5656617e-08
183	0x339f73f9	7.42511e-08
184	0xb3f03085	-1.11846965e-07
185	0xb230b23f	-1.0285077e-08
186	0xb4c64cee	-3.6936348e-07
187	0xb4a84740	-3.134428e-07
188	0x33fa9817	1.1669197e-07
189	0x3445f8df	1.8437593e-07
190	0xb3a8f01f	-7.8667874e-08
191	0xb169ba9e	-3.4012042e-09
192	0xb3d82732	-1.00654134e-07
193	0xb2d1e0c1	-2.4433009e-08
194	0xb43f3570	-1.7807702e-07
195	0x338867b3	6.351856e-08
196	0x33138c98	3.4353974e-08
197	0xb462a735	-2.110872e-07
198	0xb3a7b7c5	-7.809971e-08
199	0x33d656cb	9.980939e-08
200	0x343e6a7f	1.7733872e-07
201	0xb3e7e958	-1.0799221e-07
202	0xb34ddaf4	-4.792942e-08
203	0xb35e68a3	-5.178357e-08
204	0xb39992ea	-7.151341e-08
205	0xb2ae5d23	-2.029862e-08
206	0x3263a081	1.3249633e-08
207	0xb4067795	-1.2523226e-07
208	0x3421de45	1.5075155e-07
209	0xb32a4e40	-3.9652377e-08
210	0xb3eaf957	-1.0941829e-07
211	0xb3d5c15f	-9.9537594e-08
212	0xb309d1b7	-3.2088533e-08
213	0xb48ce55c	-2.6243913e-07
214	0xb322f92b	-3.794518e-08
215	0xb012538e	-5.323323e-10
216	0x335e795f	5.179879e-08
217	0x3415018b	1.3877268e-07
218	0x3416d512	1.4047353e-07
219	0x34c7ea0a	3.7236924e-07
220	0x34012b13	1.2029732e-07
221	0xb30ccaf2	-3.2780868e-08
222	0x33bcb6e1	8.787698e-08
223	0x347ba825	2.3437367e-07
224	0xb48319e1	-2.441948e-07
225	0xba50ea85	-0.00079695164
226	0x398fd1c3	0.0002743137
227	0xba34db54	-0.00068991375
228	0x32a83ce4	1.9585464e-08
229	0xb2e2bcd9	-2.639574e-08
230	0x32fd5c2a	2.9494988e-08
231	0xba1b1851	-0.0005916404
232	0xb9973ab5	-0.00028844705
233	0xbaa2003f	-0.0012359692
234	0x390dbd42	0.00013517312
235	0x3921a993	0.00015417328
236	0xb8a827e9	-8.018298e-05
237	0xb7b66fab	-2.174809e-05
238	0xb9d8944a	-0.00041309214
239	0x3491b6bd	2.7141314e-07
240	0xb9d45770	-0.00040500937
241	0xb342630f	-4.5259238e-08
242	0x3a978687	0.0011560478
243	0xba612565	-0.0008588641
244	0x3a46c64a	0.0007582648
245	0xb1bd9f1d	-5.518713e-09
246	0x34301450	1.6398667e-07
247	0xb46f3dd8	-2.2281108e-07
248	0x39f5d200	0.00046886504
249	0xb3a4a4a9	-7.6667966e-08
250	0xb9403f8f	-0.00018334224
251	0x3af6019a	0.0018768788
252	0xba5421f4	-0.00080922176
253	0x39d98521	0.00041488654
254	0xb9a9f6fa	-0.00032418204
255	0xb9d1ca33	-0.00040014237

convs.3.weight f4 [32, 32]
0	0xb2e7a27e	-2.6965832e-08
1	0x33958499	6.9624726e-08
2	0x3339085c	4.3081272e-08
3	0xb428f68b	-1.5735911e-07
4	0xb3206d66	-3.73524e-08
5	0x34859d0c	2.4887447e-07
6	0xb277bca3	-1.4420183e-08
7	0xb31e7b6c	-3.6899493e-08
8	0x33fbd024	1.1725959e-07
9	0x34198aec	1.4299775e-07
10	0xb367b494	-5.3948114e-08
11	0xb3d9ffc0	-1.01513706e-07
12	0xb46dd5fe	-2.2150195e-07
13	0x34074fdc	1.2601907e-07
14	0xb2a9f834	-1.9787059e-08
15	0xb3774ec0	-5.758079e-08
16	0xb2657974	-1.335717e-08
17	0xb37e0547	-5.9143783e-08
18	0x338bedf5	6.515976e-08
19	0x331a2125	3.5886064e-08
20	0xb4798501	-2.3238319e-07
21	0xb414d9f3	-1.3862864e-07
22	0x339f4699	7.416856e-08
23	0x3281ac6b	1.5095983e-08
24	0xb2442b08	-1.1418486e-08
25	0x33acd3f5	8.047929e-08
26	0xb49d5ac8	-2.930958e-07
27	0xb370b47c	-5.6043504e-08
28	0xb30b48bd	-3.2429615e-08
29	0x34110348	1.3505371e-07
30	0xb23c5d68	-1.0964278e-08
31	0xb283af7f	-1.5330214e-08
32	0xb1126117	-2.1300985e-09
33	0xba93f336	-0.0011287692
34	0xba237b1c	-0.0006236301
35	0xba958894	-0.0011408501
36	0x33107b8a	3.363997e-08
37	0xb3851cd8	-6.198542e-08
38	0x34279eb2	1.561082e-07
39	0xba2dd49a	-0.00066311064
40	0xba44ec75	-0.00075120415
41	0xba8ea48a	-0.0010882777
42	0xb978ae51	-0.00023716061
43	0x395866c3	0.00020637647
44	0x3980f774	0.0002459843
45	0x391d6fa1	0.00015014272
46	0xba13d069	-0.00056386605
47	0x353b515c	6.978132e-07
48	0xb9145a6f	-0.00014148069
49	0xb43a0ad3	-1.7326538e-07
50	0x38ee9014	0.00011375561
51	0xba646719	-0.00087128725
52	0xba1a17ec	-0.00058781984
53	0xb46f93de	-2.2312403e-07
54	0x33e8a66c	1.0833614e-07
55	0xb47b9279	-2.3429483e-07
56	0x3923f40e	0.00015635809
57	0x344c90ab	1.905161e-07
58	0xbb0c0734	-0.0021366598
59	0xb9e2494f	-0.00043160698
60	0xba9b3269	-0.0011840585
61	0xba80d000	-0.0009827614
62	0xba91dfc2	-0.0011129307
63	0xb9292846	-0.00016132099
64	0x34009113	1.1973707e-07
65	0x3ab9b752	0.0014169014
66	0xb9eb7346	-0.00044908578
67	0xbafb1872	-0.0019157066
68	0xb4a52d4c	-3.0766603e-07
69	0xb44b2b60	-1.8921628e-07
70	0x32ff14f1	2.969543e-08
71	0xb9b377da	-0.00034230837
72	0xba1de4ca	-0.0006023167
73	0xba184ddf	-0.00058099435
74	0xb9bb61b2	-0.00035740208
75	0x38d516db	0.000101608886
76	0xb9e339c8	-0.00043339864
77	0xb67a88d4	-3.7332547e-06
78	0xba1053c9	-0.0005505649
79	0x31e49cea	6.6535124e-09
80	0x38c6e843	9.484638e-05
81	0x340b56a2	1.29769e-07
82	0x3a4dd756	0.0007852217
83	0x39401e88	0.0001832192
84	0x39d996b3	0.00041501745
85	0x33835fc0	6.11758e-08
86	0xb3a37a34	-7.6125076e-08
87	0x33a43698	7.646776e-08
88	0x3987e660	0.0002592085
89	0x3465faac	2.1418481e-07
90	0xb9221006	-0.00015455493
91	0xb8c1fab1	-9.249652e-05
92	0xb93cb2cf	-0.00017995689
93	0xb97d1f50	-0.00024139625
94	0xb8d49180	-0.00010136049
95	0x3a555217	0.00081375375
96	0xb2cfb0d0	-2.4178377e-08
97	0x381b3666	3.7005542e-05
98	0xba3c43e0	-0.0007181745
99	0xb9c79e7d	-0.0003807432
100	0xb436eb3b	-1.7035647e-07
101	0x34c5cbad	3.6842303e-07
102	0xb492ed53	-2.7367295e-07
103	0xba3280e3	-0.0006809367
104	0xba2532df	-0.0006301831
105	0xba84ce94	-0.0010132366
106	0xb7189397	-9.094269e-06
107	0x3ad77bbb	0.0016440073
108	0xba41462b	-0.00073728216
109	0xb8fe9d2d	-0.0001214094
110	0xba07fa6d	-0.00051871577
111	0x3525095d	6.1480915e-07
112	0xb9306991	-0.00016823995
113	0x33a608bd	7.731567e-08
114	0xb97897c2	-0.00023707657
115	0xb9eeeacd	-0.00045569838
116	0x3a0efae8	0.0005454258
117	0xb4845c0d	-2.4653892e-07
118	0xb2da1496	-2.5387902e-08
119	0xb46c3831	-2.1999655e-07
120	0x39ade0f0	0.00033164723
121	0x34ba4754	3.4697098e-07
122	0xba08b3cc	-0.000521478
123	0xba4d508d	-0.00078321324
124	0xba2ba932	-0.00065483444
125	0xbaa6f125	-0.0012736662
126	0xb8d58fe2	-0.00010183432
127	0xba4e0bf0	-0.0007860055
128	0xb2016ab1	-7.533047e-09
129	0x343ae63c	1.7406359e-07
130	0x335e7b15	5.1800345e-08
131	0x3436ca21	1.7023605e-07
132	0x3377af63	5.7668682e-08
133	0xb46e4e44	-2.219395e-07
134	0xb2dcbab5	-2.5696275e-08
135	0x325df33c	1.2919198e-08
136	0x32ace7d6	2.0128862e-08
137	0xb2541418	-1.2344593e-08
138	0x339359a5	6.861527e-08
139	0x3440cf75	1.7956866e-07
140	0xb38f2e24	-6.667349e-08
141	0x34273cf4	1.5575262e-07
142	0x327f47ef	1.4859309e-08
143	0x33066de2	3.1299244e-08
144	0x30a1faea	1.1785606e-09
145	0x34120a85	1.3601137e-07
146	0xb28a84a5	-1.6125634e-08
147	0xb3e27754	-1.0545651e-07
148	0x348cda46	2.6235847e-07
149	0xb185b097	-3.8908854e-09
150	0xb35a492f	-5.082364e-08
151	0xb3d8704b	-1.007871e-07
152	0xb3ff72d8	-1.1895253e-07
153	0xb454ad8d	-1.9807176e-07
154	0xb3874a74	-6.29997e-08
155	0xb3383b9e	-4.289506e-08
156	0x33567f92	4.9941782e-08
157	0xb41b6283	-1.4471338e-07
158	0xb3261d1a	-3.8676355e-08
159	0x34563655	1.9950069e-07
160	0x336ebdfa	5.5586476e-08
161	0x34645a54	2.1267016e-07
162	0xb488ffb0	-2.551801e-07
163	0xb21785ec	-8.819807e-09
164	0xb4081c65	-1.2676317e-07
165	0x330ddee4	3.303184e-08
166	0x32066354	7.822411e-09
167	0x34342585	1.6777456e-07
168	0xb44d9c0a	-1.914888e-07
169	0xb306b77e	-3.136619e-08
170	0xb466356a	-2.1439851e-07
171	0x348c6922	2.6153526e-07
172	0x3413fdec	1.3782818e-07
173	0x348b95e8	2.599984e-07
174	0x3432380e	1.6597934e-07
175	0xb3399735	-4.321119e-08
176	0x34814e00	2.4084875e-07
177	0xb2f83c8c	-2.8898533e-08
178	0xb2e54a37	-2.6692858e-08
179	0x3485343f	2.4811195e-07
180	0xb0bd74d1	-1.3784761e-09
181	0x320eae37	8.3051e-09
182	0x3408cdd9	1.2740874e-07
183	0xb390eb15	-6.748284e-08
184	0x339ae510	7.21285e-08
185	0xb425d5ab	-1.5444554e-07
186	0xb421d1f8	-1.507068e-07
187	0x344603c1	1.8441553e-07
188	0xb3e313b9	-1.0574099e-07
189	0xb450dc24	-1.9451596e-07
190	0x3357383b	5.010973e-08
191	0xb398a09c	-7.107266e-08
192	0xb445e169	-1.8429058e-07
193	0xb412bf10	-1.3666818e-07
194	0x34a2505d	3.0233323e-07
195	0x3462d663	2.1125884e-07
196	0x349c9a1a	2.9169388e-07
197	0xb380f07b	-6.0042076e-08
198	0x349879b9	2.840077e-07
199	0xb4c63302	-3.6917487e-07
200	0x324f03fe	1.20498935e-08
201	0xb3325fc6	-4.153096e-08
202	0xb36795f3	-5.3920257e-08
203	0x33099631	3.2034396e-08
204	0xb252e70c	-1.2276143e-08
205	0xb412e9af	-1.3682323e-07
206	0x32cf8cec	2.4162055e-08
207	0x336f7b55	5.5758694e-08
208	0x3471081a	2.2447821e-07
209	0x310dd588	2.063958e-09
210	0x3363eeb6	5.3069662e-08
211	0xb3d880d8	-1.008172e-07
212	0x3405b371	1.245187e-07
213	0xaed9225c	-9.874121e-11
214	0x3422f0dc	1.517505e-07
215	0xb4971dd8	-2.8147656e-07
216	0x3322c1a9	3.7894697e-08
217	0xb340aa81	-4.4858556e-08
218	0x347bba26	2.3443917e-07
219	0xb2d75dfa	-2.507203e-08
220	0x3466c9d8	2.149385e-07
221	0x34a46bb7	3.0625753e-07
222	0xb24c3bf3	-1.1887994e-08
223	0xb4a0bd37	-2.9939994e-07
224	0xb4a373f2	-3.0445477e-07
225	0xba67a7f1	-0.0008836976
226	0xba068a1b	-0.00051322737
227	0xbad2dff0	-0.0016088467
228	0xb485e8ce	-2.4942568e-07
229	0xb409529e	-1.2789175e-07
230	0x3393d8c8	6.884653e-08
231	0xb99075fb	-0.00027553723
232	0xb9965fc0	-0.0002868157
233	0xba48a605	-0.00076541334
234	0x39a0f6f7	0.0003070158
235	0x396b9058	0.00022465119
236	0xba224749	-0.0006190432
237	0xbb21ac00	-0.002466917
238	0xb95f2faa	-0.00021284694
239	0x3530ffdd	6.593744e-07
240	0xb9463698	-0.00018903089
241	0x345da0bf	2.0640708e-07
242	0x38119ed4	3.4718614e-05
243	0xba083120	-0.00051953085
244	0x39c87c3b	0.00038239532
245	0x33f1c8e0	1.1258976e-07
246	0x337ea3a8	5.9287828e-08
247	0x32f9bb1e	2.9072506e-08
248	0x399f5785	0.0003039205
249	0x34970091	2.8126354e-07
250	0xba6fd405	-0.000914872
251	0xb9e2b0b5	-0.00043237736
252	0xba53d7d7	-0.0008081174
253	0xb9e84666	-0.0004430294
254	0xbab42d67	-0.0013746441
255	0xb8097de5	-3.2780594e-05

convs.4.weight f4 [32, 32]
0	0xb4311f3a	-1.649577e-07
1	0xb3fa358c	-1.1651272e-07
2	0xb3462223	-4.6131515e-08
3	0x326b4c45	1.3696142e-08
4	0xb3a94fad	-7.884169e-08
5	0x3440aa24	1.794329e-07
6	0xb2b402fa	-2.0956112e-08
7	0x34a761d9	3.1177368e-07
8	0x33bc5b72	8.771066e-08
9	0xb30aa8c1	-3.228411e-08
10	0x3471cc28	2.2519146e-07
11	0x3488147b	2.5346876e-07
12	0x3337c6cb	4.278881e-08
13	0x33021873	3.029022e-08
14	0xb00e8084	-5.184193e-10
15	0x33543ded	4.9416418e-08
16	0x30842d88	9.617205e-10
17	0xb41d3431	-1.4640752e-07
18	0x349c8088	2.9150783e-07
19	0x32886c75	1.5881804e-08
20	0xb249f9f8	-1.1756576e-08
21	0xb254dd5e	-1.2390357e-08
22	0x349f356f	2.9654936e-07
23	0x3286194a	1.5611153e-08
24	0xb3b0b964	-8.229361e-08
25	0xb4a81140	-3.130499e-07
26	0xb485967d	-2.4882675e-07
27	0xb362f890	-5.284579e-08
28	0xb37990af	-5.810642e-08
29	0xb4018b37	-1.2064707e-07
30	0x33eb604c	1.09605566e-07
31	0xb4401b7d	-1.7891394e-07
32	0xb26f7cd8	-1.3940017e-08
33	0xba83b6ba	-0.0010048964
34	0xba23fe95	-0.0006255892
35	0xb9827972	-0.00024886016
36	0x3420e248	1.4983482e-07
37	0xb3a88527	-7.84733e-08
38	0x34aa769a	3.1751262e-07
39	0xba0e2be6	-0.00054234115
40	0xb9d69516	-0.00040928338
41	0xba8a1283	-0.0010534081
42	0xba809ef0	-0.0009812992
43	0x3966bf52	0.00022005782
44	0xba7ecfb2	-0.000972028
45	0xbb2b623e	-0.0026151086
46	0xb9f8e64c	-0.0004747383
47	0x35b6ab4c	1.3609911e-06
48	0xb8b1048c	-8.4408646e-05
49	0x331019f0	3.3551203e-08
50	0x3a5c1a77	0.00083962776
51	0xb8d39834	-0.00010089614
52	0xba0d64b2	-0.0005393728
53	0x34af9e4c	3.2711466e-07
54	0xb2f2e198	-2.8275096e-08
55	0x334e90a7	4.8094673e-08
56	0x3a5a950d	0.00083382503
57	0x330b27cd	3.2399658e-08
58	0xb90735b2	-0.00012894606
59	0x37e64feb	2.7455351e-05
60	0xba55748e	-0.0008142673
61	0xbaa62d0e	-0.0012678222
62	0xba82db9b	-0.000998366
63	0xb9c6eade	-0.00037940493
64	0x31f8ddfe	7.2429875e-09
65	0xb9ad860b	-0.00033097
66	0xb9c9984a	-0.00038451172
67	0x378cdab5	1.6791144e-05
68	0x34173f86	1.408608e-07
69	0xb2247f37	-9.574982e-09
70	0xb3b059a2	-8.211943e-08
71	0xba81090f	-0.0009844619
72	0xb9d98702	-0.00041490054
73	0xba62dfed	-0.00086545834
74	0xb8cbb6ea	-9.713865e-05
75	0x3793b70c	1.7609003e-05
76	0xba0808aa	-0.00051892793
77	0x377c5420	1.5039957e-05
78	0xb996aa3a	-0.00028737058
79	0xb5240361	-6.109968e-07
80	0xb7ae6036	-2.0787218e-05
81	0x32ff9a31	2.9756025e-08
82	0x3949b01c	0.0001923446
83	0xb8c8345b	-9.546495e-05
84	0x39eb8dce	0.00044928346
85	0x3315fcfd	3.4921857e-08
86	0x338670f0	6.2604045e-08
87	0xb28c0cee	-1.6304025e-08
88	0x399a7023	0.00029456717
89	0xb2dcef08	-2.572007e-08
90	0xbabbd4c2	-0.0014330375
91	0x3aea0914	0.0017855489
92	0xba15a53f	-0.00057085225
93	0xba54e486	-0.0008121211
94	0xba802c43	-0.0009778816
95	0xb9215fa6	-0.00015389788
96	0x335f8ab3	5.204738e-08
97	0xba8da8cf	-0.0010807755
98	0xb98b1de0	-0.00026534405
99	0x3927fd93	0.00016020825
100	0xb279a904	-1.4532137e-08
101	0xb303d0f1	-3.0690845e-08
102	0xb48ba308	-2.6009388e-07
103	0xb9d5fa07	-0.0004081281
104	0x3a3a818f	0.00071146426
105	0xbaa62b48	-0.0012677694
106	0xba055c18	-0.00050872704
107	0x3a654160	0.00087453984
108	0xb965fba4	-0.00021932885
109	0xbb00dee4	-0.0019664103
110	0xb9d28d87	-0.00040159767
111	0x362ac6fa	2.5447794e-06
112	0xb94f7fe3	-0.000197887
113	0xb263fa50	-1.32700535e-08
114	0x39abf24a	0.0003279618
115	0xbae34938	-0.0017340546
116	0xba871faf	-0.0010309125
117	0xb3ffa42e	-1.1904227e-07
118	0xb49728ef	-2.8155725e-07
119	0x338d3ab4	6.576502e-08
120	0x393084f8	0.00016834203
121	0x34647452	2.1276472e-07
122	0xb9bf8f0a	-0.0003653693
123	0xba3a968e	-0.00071177713
124	0xba941007	-0.001129628
125	0xba942c86	-0.0011304773
126	0xba619a26	-0.0008606039
127	0x3747157c	1.18663265e-05
128	0xb2475646	-1.1602941e-08
129	0x33800171	5.960727e-08
130	0xb49af33c	-2.8861712e-07
131	0x328f17b9	1.6658179e-08
132	0xb3bea333	-8.87725e-08
133	0xb1878787	-3.944425e-09
134	0x3428678e	1.5683892e-07
135	0xb32d7c79	-4.039291e-08
136	0xb400252e	-1.1934455e-07
137	0x329b1d04	1.805757e-08
138	0xb31c22d7	-3.6353267e-08
139	0x33eb41c8	1.0955006e-07
140	0x34873ef5	2.5191517e-07
141	0x33a5dbb0	7.723372e-08
142	0xb3ec04cb	-1.0990478e-07
143	0xb4896680	-2.5592817e-07
144	0x347b0774	2.3378908e-07
145	0xb4749f64	-2.2782257e-07
146	0xb40ece22	-1.3299771e-07
147	0x31df5ee2	6.500941e-09
148	0x32daba45	2.5463246e-08
149	0x346863d0	2.1642995e-07
150	0xb492840c	-2.7290696e-07
151	0xb3a984ea	-7.893853e-08
152	0x348b103c	2.590258e-07
153	0xb3fafde0	-1.1687712e-07
154	0xb489f6fb	-2.569794e-07
155	0x34a8f3aa	3.1469727e-07
156	0x33c7d912	9.3061445e-08
157	0xb463bc7b	-2.1209591e-07
158	0x32f06581	2.7985836e-08
159	0x33518677	4.87839e-08
160	0x31c9f428	5.8776273e-09
161	0xb3c2bb69	-9.067919e-08
162	0xb2bd89c8	-2.2065151e-08
163	0xb34ab8b7	-4.7199787e-08
164	0x3260e650	1.3090883e-08
165	0x332ac027	3.975597e-08
166	0xb31444c7	-3.4521488e-08
167	0xb3f49a0f	-1.13901585e-07
168	0xb46143e4	-2.0979456e-07
169	0x3409ed43	1.2845435e-07
170	0x3310e740	3.3737933e-08
171	0x33df95c7	1.0411491e-07
172	0xb32e79e1	-4.062338e-08
173	0x3405c947	1.2459815e-07
174	0x3439d8f5	1.7308396e-07
175	0x341362d8	1.3726401e-07
176	0x33c9201d	9.365633e-08
177	0x3411357d	1.3523636e-07
178	0x30cd0bd2	1.4919073e-09
179	0x343d7752	1.7645405e-07
180	0xb4a2c71d	-3.0319725e-07
181	0xb43ebcd9	-1.7763831e-07
182	0xb2d6a5fc	-2.498836e-08
183	0xb44ad87b	-1.8891471e-07
184	0xb342978e	-4.5306983e-08
185	0xb2de47e6	-2.5876897e-08
186	0xb422a7a2	-1.514841e-07
187	0x33bd172b	8.8052126e-08
188	0x3350dec8	4.8631392e-08
189	0x3358993e	5.0430792e-08
190	0x3499f660	2.8677732e-07
191	0xb4c4e3b8	-3.6673532e-07
192	0xb2c01844	-2.2362777e-08
193	0xb1fbe3c1	-7.330954e-09
194	0x3441218d	1.7986731e-07
195	0x32bff0de	2.234486e-08
196	0x31b0ba34	5.143443e-09
197	0xb432994d	-1.6633312e-07
198	0xb1573051	-3.1314082e-09
199	0x3397fa44	7.0770085e-08
200	0xb3bfb171	-8.926407e-08
201	0x33a0197c	7.455216e-08
202	0x3484794f	2.467518e-07
203	0xb2273e4c	-9.734844e-09
204	0x34511c1b	1.9474867e-07
205	0x34b8f567	3.4451224e-07
206	0x33b2180b	8.293144e-08
207	0xb2cef182	-2.4091381e-08
208	0xb38ddb69	-6.6057346e-08
209	0xb4a1ab4f	-3.011323e-07
210	0x33a28dfa	7.569538e-08
211	0xb3f6ce45	-1.1492788e-07
212	0x325277e3	1.2250868e-08
213	0x3486c9af	2.510619e-07
214	0xb491a46e	-2.7127993e-07
215	0xb47f7142	-2.3789929e-07
216	0x3332a6f4	4.1595698e-08
217	0xb325a1a6	-3.8564075e-08
218	0x344a01f5	1.8813428e-07
219	0xb2fa11c0	-2.9111902e-08
220	0xb3d2871b	-9.8034626e-08
221	0x339aa0aa	7.2004084e-08
222	0xb49aab92	-2.880957e-07
223	0xb43f78d8	-1.7832224e-07
224	0xb4558a3f	-1.9887464e-07
225	0x3a6be6d7	0.00089989364
226	0xb9aa3414	-0.00032463728
227	0xb9c8ad87	-0.0003827626
228	0xb1c6728c	-5.775581e-09
229	0xb2e084ee	-2.6137482e-08
230	0x33c41864	9.131398e-08
231	0xba0dfff6	-0.00054168643
232	0xba079882	-0.0005172567
233	0xba414719	-0.000737296
234	0x390a19cc	0.00013170316
235	0x3a91c01e	0.0011119877
236	0xb9c4690b	-0.00037462296
237	0x39f3c63c	0.00046496268
238	0xb9be89fc	-0.0003634243
239	0x34be1eab	3.5412572e-07
240	0xba87a547	-0.0010348939
241	0xb48bcdbc	-2.604046e-07
242	0x39aae6ec	0.00032596977
243	0xb91d84ee	-0.00015022207
244	0xb9d649e2	-0.00040872308
245	0x3488ec6f	2.5504002e-07
246	0x33fd3de4	1.17924884e-07
247	0x3212ece9	8.552186e-09
248	0xb9859229	-0.00025476635
249	0x333abae1	4.3476465e-08
250	0xb88e7726	-6.793281e-05
251	0xb9dbb370	-0.00041904626
252	0xba537495	-0.00080663833
253	0xba5deda4	-0.0008465892
254	0xb8cc1235	-9.730869e-05
255	0xb99c2331	-0.00029780858

convs.5.weight f4 [32, 32]
0	0x3344fba2	4.5863665e-08
1	0x3368def8	5.42195e-08
2	0xb34cfc69	-4.7727017e-08
3	0xb3e252de	-1.05390185e-07
4	0x323f4cd6	1.1135134e-08
5	0xb4b00542	-3.278638e-07
6	0x3439489f	1.7255887e-07
7	0x330e58b0	3.3142612e-08
8	0x332584d6	3.853787e-08
9	0xb35b5759	-5.1069353e-08
10	0xb4a9a7f7	-3.1600914e-07
11	0x33aeba9e	8.136452e-08
12	0x3400897f	1.197095e-07
13	0x34a0100e	2.9814004e-07
14	0xb35f9b23	-5.206233e-08
15	0xb21b998d	-9.057101e-09
16	0x34658cee	2.1378557e-07
17	0x343da383	1.7661482e-07
18	0xb4612e61	-2.097163e-07
19	0x33af7a0e	8.171274e-08
20	0xb38f53bf	-6.67419e-08
21	0xb3c8b60a	-9.3463385e-08
22	0x3412dc13	1.3677372e-07
23	0x342ff86e	1.6388523e-07
24	0x3400e438	1.2003954e-07
25	0xb2975f36	-1.762201e-08
26	0x3289ef7a	1.60578e-08
27	0xb3db0e31	-1.02005636e-07
28	0xb3e5a747	-1.0694071e-07
29	0xb42d11a2	-1.6118295e-07
30	0x33ae71c9	8.123204e-08
31	0xb31b5b65	-3.6171873e-08
32	0x34523c73	1.9579765e-07
33	0x39c95854	0.00038403517
34	0xb9c7ee2d	-0.00038133693
35	0xb82fca2e	-4.1911546e-05
36	0x348a1681	2.5720877e-07
37	0xb4320764	-1.658023e-07
38	0xb488e133	-2.5495828e-07
39	0x39b1a43f	0.00033882444
40	0xba30ca68	-0.0006744028
41	0xba84244c	-0.0010081618
42	0xba15ad3f	-0.00057097146
43	0x39046100	0.00012624636
44	0x394fe9b5	0.00019828121
45	0xbb362995	-0.002779578
46	0xb9e2090b	-0.00043112817
47	0xb3cc89e4	-9.5245724e-08
48	0xb9b837bf	-0.0003513675
49	0x345dc730	2.0654693e-07
50	0x39c44ede	0.00037442794
51	0xba3376eb	-0.0006846028
52	0x3a9892bc	0.001164041
53	0x3475e27a	2.2899795e-07
54	0xb443aef2	-1.8224435e-07
55	0x3440d746	1.795971e-07
56	0x39d9dbe5	0.000415533
57	0xb4621f0f	-2.1059189e-07
58	0xb90776d1	-0.00012918866
59	0xba3a3101	-0.0007102639
60	0xba8939ae	-0.001046946
61	0xba88b7ec	-0.001043079
62	0x3aef7ae8	0.0018270882
63	0xb9d7024e	-0.00041009713
64	0xb2c7bcb6	-2.3252465e-08
65	0xba426a6c	-0.0007416371
66	0x3978694e	0.00023690352
67	0x37f2a2fe	2.8924547e-05
68	0xb3b88a0e	-8.59328e-08
69	0x34accfa2	3.218857e-07
70	0xb4a14770	-3.0040565e-07
71	0xb98c357b	-0.00026742727
72	0xb9bc28ba	-0.00035888498
73	0x3ac32a07	0.0014889844
74	0x3990a4bd	0.0002758856
75	0x3a8405cd	0.001007253
76	0x3959ae9a	0.00020759777
77	0x394acc7b	0.00019340396
78	0xb90f81ef	-0.00013685947
79	0x35198d05	5.720215e-07
80	0xba83402c	-0.0010013632
81	0xb20cce24	-8.1959435e-09
82	0x3a365c4a	0.0006956501
83	0x3986c818	0.00025707553
84	0xb9d3185b	-0.00040263202
85	0xb3f7310a	-1.1510754e-07
86	0xb21e1cf8	-9.203397e-09
87	0x34c10f65	3.5960252e-07
88	0x39364bb3	0.00017385073
89	0xb376a840	-5.742936e-08
90	0xba95c598	-0.0011426685
91	0xb9d9162e	-0.0004140599
92	0xba0cafc9	-0.000536677
93	0xba406261	-0.00073388783
94	0xba46a32c	-0.0007577415
95	0xb9570840	-0.00020507071
96	0x33cd49f6	9.55951e-08
97	0x3adc040d	0.0016785875
98	0x39297b64	0.00016163063
99	0x3808c195	3.2605214e-05
100	0x3425492b	1.5393441e-07
101	0x33c08d60	8.966413e-08
102	0x345836c1	2.0136487e-07
103	0xba25484f	-0.00063050253
104	0xba899dae	-0.0010499263
105	0xba90dd9d	-0.0011052374
106	0xba00a9dc	-0.00049081235
107	0x3aa35d13	0.0012463651
108	0x39c1fe4a	0.0003700129
109	0x3ac0cd5b	0.0014709638
110	0xb9d049e5	-0.00039727907
111	0x359f8e59	1.1887852e-06
112	0x377ba792	1.4999781e-05
113	0x3427c761	1.562562e-07
114	0x3ad2ae7b	0.0016073728
115	0x386c2ce1	5.630858e-05
116	0x3ab7beaa	0.0014018614
117	0xb42f7929	-1.6342223e-07
118	0xb26ce926	-1.379002e-08
119	0xb42e986f	-1.6260468e-07
120	0x3a14f6a1	0.00056825025
121	0x3458c044	2.0186513e-07
122	0xbad2f4ab	-0.0016094645
123	0xba55a2bb	-0.0008149554
124	0xb9521ede	-0.0002003866
125	0xbaa133b0	-0.0012298729
126	0xbae00ebd	-0.0017094236
127	0x38ee20df	0.00011354847
128	0x33d1f6b8	9.777199e-08
129	0xb2e0c951	-2.616858e-08
130	0xb4c1b212	-3.6078615e-07
131	0x32a3c650	1.906588e-08
132	0x340834ae	1.2685152e-07
133	0xb29317a8	-1.712381e-08
134	0xb3f44df3	-1.1376314e-07
135	0xb21eec8b	-9.250594e-09
136	0x348baaff	2.6015184e-07
137	0x33c1e578	9.029003e-08
138	0x34a92595	3.1506048e-07
139	0x344a287f	1.8827448e-07
140	0xb3b1102a	-8.245145e-08
141	0xb2ad1855	-2.0150916e-08
142	0x33521727	4.8915492e-08
143	0x335f6a11	5.20177e-08
144	0x3483b41f	2.4531707e-07
145	0xb4c74682	-3.711794e-07
146	0xb4a9d908	-3.1636614e-07
147	0x33ca0bcd	9.4085046e-08
148	0xb43a3b61	-1.7344202e-07
149	0xb1f08abb	-7.000691e-09
150	0xb11c2fde	-2.2728197e-09
151	0x3368fa77	5.4244506e-08
152	0xb2c14917	-2.2501395e-08
153	0x34553308	1.9855736e-07
154	0x3428e90b	1.5731e-07
155	0xb32231f2	-3.776399e-08
156	0x33702eb4	5.592183e-08
157	0xb2c025d5	-2.2368946e-08
158	0x33bbc40f	8.743529e-08
159	0xb2eaef13	-2.7349904e-08
160	0x341e71d2	1.4756304e-07
161	0xb28371b2	-1.530211e-08
162	0x34c66618	3.6954657e-07
163	0xb22e0ddb	-1.0131283e-08
164	0x33a467b9	7.655712e-08
165	0x3348b4b1	4.6730467e-08
166	0xb0840892	-9.6067e-10
167	0x330e81b0	3.31799e-08
168	0x33954995	6.951738e-08
169	0x32aa05f1	1.9793307e-08
170	0xb3aa8a51	-7.9414015e-08
171	0xb47dc3f8	-2.3633754e-07
172	0xb313f675	-3.4450256e-08
173	0xb3b990cd	-8.641073e-08
174	0x339a34a5	7.18076e-08
175	0xb4327469	-1.6619892e-07
176	0x33adc87b	8.0924075e-08
177	0xb29e452c	-1.8425077e-08
178	0xb4298b68	-1.5790067e-07
179	0x34847988	2.4675342e-07
180	0xb2329138	-1.0393983e-08
181	0xb36c55db	-5.5026117e-08
182	0xb2c55ba3	-2.297549e-08
183	0x32fe3bdc	2.9596713e-08
184	0xb29cd2d7	-1.8256669e-08
185	0x33ad6b12	8.075416e-08
186	0xb44d0030	-1.9092181e-07
187	0x31f0e58e	7.0110167e-09
188	0x337109fb	5.6121262e-08
189	0xb405cee9	-1.2461864e-07
190	0x33ad4f0f	8.070321e-08
191	0xb3dd404f	-1.0302812e-07
192	0x31167008	2.1891555e-09
193	0x3479e859	2.327446e-07
194	0x33209cb1	3.7395413e-08
195	0xb45422c2	-1.9756683e-07
196	0x325ca11d	1.2842318e-08
197	0xb3b5fbda	-8.474281e-08
198	0xb402c778	-1.217976e-07
199	0xb42fdfc6	-1.6379553e-07
200	0x3422aabc	1.5149539e-07
201	0x34115d93	1.353822e-07
202	0x345b0d8a	2.040089e-07
203	0x341359c9	1.3723105e-07
204	0xb3885d2b	-6.349941e-08
205	0x33002839	2.9838905e-08
206	0x338340d6	6.1119565e-08
207	0xb4c6412c	-3.6927793e-07
208	0xb36385d9	-5.297429e-08
209	0x33c695b3	9.2473236e-08
210	0x329c574b	1.8200486e-08
211	0xb3ca4e5d	-9.420612e-08
212	0x343e45d1	1.7720528e-07
213	0xb284f95e	-1.5480222e-08
214	0x33c35fe6	9.097839e-08
215	0xb2d1d579	-2.4427878e-08
216	0xb37a1d9c	-5.823459e-08
217	0x333b3213	4.3584873e-08
218	0xb2d8cdcc	-2.5239295e-08
219	0x3486e6ae	2.5127287e-07
220	0x314dbb19	2.993778e-09
221	0xb2206153	-9.335355e-09
222	0x338c2e56	6.5276865e-08
223	0xb33be259	-4.3745192e-08
224	0x348deda5	2.6436206e-07
225	0xb994a76d	-0.00028353502
226	0xba8aad56	-0.0010580223
227	0xb884e0c6	-6.336118e-05
228	0x3393c5c9	6.881198e-08
229	0xb33872a4	-4.2945103e-08
230	0xb357f846	-5.028439e-08
231	0xb974b504	-0.00023337087
232	0xb9726eca	-0.0002312019
233	0xba281dc6	-0.0006413128
234	0xb9c6ced7	-0.0003791961
235	0x38cb1ad0	9.6847885e-05
236	0x3a5863e3	0.00082546304
237	0x383b6b1f	4.468404e-05
238	0x3a82d92b	0.0009982934
239	0xb59ad7ca	-1.1536697e-06
240	0xb770d5aa	-1.4354862e-05
241	0x32c3b585	2.2783533e-08
242	0x39ce8ea7	0.00039397666
243	0xb94ea59b	-0.00019707384
244	0xb9bf8686	-0.00036530587
245	0xb4c8358b	-3.729186e-07
246	0x349bf16a	2.9046652e-07
247	0x346009bd	2.0865168e-07
248	0x3891f2fb	6.9593974e-05
249	0xb419b300	-1.4314355e-07
250	0xbab9eb65	-0.0014184533
251	0xb9b51f13	-0.00034546162
252	0xba1ad527	-0.0005906396
253	0xba3ff095	-0.00073219213
254	0xba1c5aa5	-0.0005964435
255	0x39897767	0.00026219638
