checkpoint/Wikipedia/20231105_160009755296.pth (torch, 339335 bytes, 18 tensors)

convs.0.weight f4 [72, 138]
000000 1f 5e b8 3c 75 10 b0 3c 77 bb 14 3e ff 5d 98 3d
       0.022505818 0.021492222 0.14524637 0.07439803
000010 51 c9 5e 3d 19 e3 91 3c 88 b1 f7 3d f3 22 30 3d
       0.05439121 0.017808484 0.12094408 0.04300208
000020 6e b3 49 3d 4a c8 8e 3d 29 da c0 3d 29 83 f0 bc
       0.049243383 0.06971796 0.09416611 -0.029359417
000030 7e 72 0c 3d a4 63 55 3d 55 9d 3a 3d 3a cf 9b bc
       0.034288876 0.052096978 0.0455602 -0.019019712
000040 05 85 86 3d ab 50 6a bd ec 2c 00 3e 00 3e cd 3c
       0.0656834 -0.057205837 0.12517136 0.025053978
000050 e5 08 96 3d a5 f1 9d 3d 78 ae b3 3d a5 2c d4 3c
       0.07325915 0.07712106 0.08773512 0.025900194
000060 12 d3 0b 3d ba 64 1c 3d ea 21 ed 3c 13 cb 9b bd
       0.03413684 0.038181998 0.028946836 -0.07607093
000070 9e c3 9c 3d af 5a ae 3d 32 da 9a 3d f8 51 48 3d
       0.076544985 0.0851339 0.07561149 0.048906296
000080 a8 2e 27 3d 26 4a 54 3d 07 32 ab 3d 6c 1e 17 bb
       0.04081598 0.051828526 0.08359151 -0.0023058904
000090 7a ac 02 3e b7 87 09 3e 1e 3c d3 3c ab 89 b8 3d
       0.12761107 0.13430677 0.025785502 0.09010633
0000a0 fb c8 f0 3d a1 f2 c5 3c db 14 b6 3d aa 9d 57 3c
       0.11757084 0.024163546 0.088906966 0.013160149
0000b0 b7 79 c7 3c 78 a5 81 bd e3 79 8b 3d 5e c2 40 3c
       0.02435003 -0.06330389 0.068103574 0.011765091
0000c0 a3 66 39 3d 6a 35 ec bc 0d 3c 0e 3e 75 5f 87 3d
       0.045263898 -0.028834064 0.13890095 0.06610004
0000d0 bf 05 66 3d f3 dc 56 3d a2 2c 4a 3c 04 4f 6b 3d
       0.056157824 0.052456807 0.012339743 0.057448402
0000e0 0b 54 b6 3d 87 ea b8 ba 21 8c c5 3c 38 d5 92 3d
       0.08902749 -0.001410798 0.02411467 0.071695745
0000f0 83 8b c9 3d 98 c8 da 3b 77 6e a1 3c 06 22 a7 bb
       0.09841063 0.0066767447 0.019705994 -0.0051004915
000100 7b 80 90 3c b7 02 8b bc f9 91 9f 3d a4 05 df 3d
       0.01763939 -0.016969068 0.07791514 0.10889748
000110 d4 8d d7 3d be da 04 bc 62 8c aa 3d 71 a1 34 3d
       0.105250984 -0.008108793 0.08327557 0.044099275
000120 e6 d3 ea 3c 5e 53 96 3d a9 0f 84 3d 5f 9d 33 bd
       0.028665494 0.0734012 0.064482994 -0.043851253
000130 f4 77 ba 3d 9a 47 22 3d 42 45 81 3d 8f fb 81 bc
       0.091049105 0.039619066 0.06312038 -0.015867023
000140 29 00 89 3d 73 f5 1b bd db dd ce 3d 36 05 12 3d
       0.06689484 -0.038075875 0.10100909 0.0356495
000150 c0 88 63 3c 85 cf d1 3c 59 9d ba 3d 9d 83 61 3d
       0.013887584 0.025611648 0.09112043 0.055057157
000160 7a cf 60 3d 7a 01 96 bc 5a f0 a4 3d 2c a4 a8 bc
       0.054885365 -0.018311251 0.08053656 -0.020586096
000170 0b 23 ea 3c 78 62 9b bc 80 0a 63 3d 45 13 55 3c
       0.028581163 -0.018967852 0.055429935 0.0130050825
000180 78 db 98 3d eb 1e bb 3c 00 b9 f6 3c 42 3c 59 bc
       0.07463735 0.022841891 0.030117512 -0.0132589955
000190 47 c0 06 3e d4 d8 70 3d cc c8 cc bc 14 28 41 3d
       0.13159285 0.058800533 -0.024998091 0.047157362
0001a0 b6 9a 90 3d 9c 24 51 3c e3 d3 a2 3d c5 f9 f4 3a
       0.07060759 0.012765076 0.079505704 0.001869016
0001b0 fb 0a 99 3b 5e 00 09 bd 3f 10 c1 bc 88 cf 28 3b
       0.0046704984 -0.033447616 -0.023567317 0.0025758464
0001c0 38 00 be 3d 29 67 b1 bd 9f fa ef 3d bd df f2 3c
       0.092773855 -0.08662254 0.11717724 0.029647702
0001d0 61 7a 3d 3c 94 8d 0f bd d8 b7 c8 3b 6b f1 80 3d
       0.011564822 -0.03504713 0.0061254315 0.06296047
0001e0 a6 8f 93 3d 94 a1 04 bc 0f e9 87 bb 5f f9 66 3c
       0.07205133 -0.008095164 -0.004147656 0.014097541
0001f0 38 5a c9 3d c7 da 1e bd 78 c5 d2 3a 2b e2 aa bd
       0.09831661 -0.03878286 0.0016080579 -0.08343919
000200 f9 13 e6 3d 58 d5 5a 3d c6 32 63 bb 3f f1 c8 3d
       0.11234278 0.053426117 -0.0034667714 0.09811639
000210 df 01 79 3c b1 3b 83 bd a1 a3 36 3d dd 54 94 3e
       0.0151982 -0.064078696 0.044589642 0.28970996
000220 64 7e 4b 3d db 19 ae bc 0d dc 66 3d 02 19 1b 3e
       0.049681082 -0.021252563 0.0563622 0.15146258
000230 47 d3 24 3e 12 e8 f3 3d a2 73 0d 3d 84 ed c7 3c
       0.16096221 0.11909498 0.034534104 0.024405248
000240 2c b6 11 3e c0 f5 c5 3d ed fc 95 3d d8 6a b1 3d
       0.1422965 0.09666014 0.073236324 0.08662957
000250 f3 08 9c 3d f3 78 14 bc 9a 79 f5 3c 45 0c f6 3d
       0.076188944 -0.00906204 0.02996521 0.12014059
000260 69 e9 e9 3d 83 65 7f bc 05 f2 85 3d 38 55 96 bd
       0.114214726 -0.015588167 0.06540302 -0.07340473
000270 df 66 2e 3e 50 4e da 3a 79 41 c4 3d f0 83 8e 3d
       0.1703143 0.0016655419 0.095828004 0.06958759
000280 ce bd 7a 3d 1e f6 4f 3d dd f7 cc 3d 1f f6 96 3d
       0.061216168 0.050771825 0.10008214 0.073711626
000290 c8 a1 73 3d aa d7 c8 bc 53 14 79 3d 68 79 8e 3d
       0.05948046 -0.0245169 0.0608104 0.0695675
0002a0 57 96 93 3d e8 0a 53 3d 0f 4d 0c 3e af 63 72 3d
       0.072064094 0.051524073 0.1370127 0.059177097
0002b0 8d 30 e1 3d 64 71 f7 3b fe 96 44 3e f7 65 25 3e
       0.109955885 0.007551359 0.19198224 0.16152178
0002c0 9a 31 a7 3d f4 5a 1b 3d 01 57 5c 3e 88 a0 e7 3d
       0.081637576 0.037928537 0.21517564 0.11309916
0002d0 fd e9 5e 3d 82 63 84 bc e3 b7 38 3d e3 b7 a8 bd
       0.054422367 -0.01616073 0.045097243 -0.082381986
0002e0 70 96 bc 3d 8e 11 89 3b 6e cc cf 3c 80 3a 0a bd
       0.09208381 0.004183001 0.025366034 -0.033747196
0002f0 1f b5 51 3e f5 aa 78 3d 80 fc 04 3a b5 a6 a5 3c
       0.20479248 0.060709912 0.0005073026 0.020221094
000300 fb de 2f bb 5d 22 d8 3d c3 22 c3 3d 9f 0b 45 3c
       -0.0026835788 0.10553429 0.09528115 0.0120266965
000310 fb 1e ad 3a e5 b7 a3 3d 0d 1d 99 3d 8b e9 a0 bb
       0.0013208085 0.079940595 0.07476244 -0.004910653
000320 88 c9 5d 3c 4c 23 8c bd 72 da a0 3d 1a 41 1b 3d
       0.013536818 -0.0684267 0.07854165 0.037903883
000330 e0 22 c9 3d 0e 59 47 3d ce cf 74 3d dd a7 59 bb
       0.09821105 0.048668914 0.05976849 -0.0033211627
000340 36 51 d9 3d 1c a4 8b 3c c1 33 b3 3d 1c 77 0a 3e
       0.10611193 0.017046027 0.08750106 0.13521999
000350 7c ca 8a 3c 15 bd 1b bd 37 cb b4 3d fc 13 bd 3c
       0.016942255 -0.03802212 0.08827823 0.023080818
000360 46 17 dc 3c 82 af 4a bc a1 13 89 3d a5 11 69 bd
       0.026866566 -0.012370946 0.06693197 -0.056901593
000370 24 79 3b 3e 22 c6 61 3c 53 bb 59 3d dc a3 79 bb
       0.1830793 0.013780149 0.053157162 -0.0038092053
000380 c1 a0 68 3d 0a b8 e9 3d 7a 83 df 3d 78 9e f8 3a
       0.056793932 0.11412056 0.10913749 0.0018968126
000390 ed d8 99 3c 3d 7f 63 bd e1 0d f2 3b e3 c1 84 bd
       0.018780196 -0.055541266 0.0073869084 -0.064822935
0003a0 a3 d0 41 3d 09 6e e5 b9 2f cd b6 3d 73 15 c3 bc
       0.047318112 -0.00043760266 0.089258544 -0.023813939
0003b0 7e 7c 71 3d b9 ef 0a bd b8 9b 20 3e cb 51 df 3d
       0.058956616 -0.033920024 0.15684402 0.10904273
0003c0 9c 3f 5e 3c 8d 1e 69 3c a1 31 cf 3d db 3c 5f 3c
       0.01356497 0.014228475 0.10116888 0.013625349
0003d0 0e a0 a4 3d 5d 5b 49 ba 71 c6 61 bc 09 f2 1f 3c
       0.080383405 -0.00076811557 -0.013780222 0.0097622955
0003e0 24 dc 8d bc a5 71 ae bb 49 5e 2a 3e 1a 46 d2 bd
       -0.017316885 -0.005323606 0.1663753 -0.10267277
0003f0 70 1b f2 3d 1b ae 6c 3d 39 ba 69 bc a1 5d 01 bd
       0.118216395 0.057783227 -0.01426559 -0.031583432

convs.0.bias f4 [72]
000000 32 02 4b 3d 55 e2 39 3e d8 44 a6 bd ac dd 10 bc
       0.04956264 0.18152745 -0.081186 -0.008841913
000010 6c 4c cc bc cc 1a a9 bd e7 17 98 3d bf e1 19 bd
       -0.024938785 -0.08257064 0.07426434 -0.037568804
000020 3e e0 62 3d 8b 2c 12 3d 50 77 1c bd b4 d6 6b 3d
       0.055389635 0.03568701 -0.038199723 0.057577804
000030 2b 11 84 bd 1c 08 22 3e 07 6d 96 3d 98 00 02 3d
       -0.06448587 0.15823406 0.07345014 0.031738847
000040 f3 12 2a 3d dc a1 b7 3b 4c 9a 11 bd 06 db 06 3e
       0.041521978 0.005604012 -0.03554754 0.13169488
000050 b2 19 90 3d 04 31 a0 3d 96 de f1 3d 83 4a 12 3e
       0.07036151 0.07821849 0.11810033 0.14286236
000060 42 52 d3 3d e0 08 f5 3c 4e eb bd 3c 0e cd 19 3d
       0.10318424 0.029911458 0.023183491 0.03754907
000070 7d 06 e0 bc 50 e6 ce ba d9 48 58 bc 1c bd 43 3d
       -0.027346844 -0.0015785191 -0.013200962 0.04778777
000080 46 93 9c 3d b8 d7 d4 3d 08 8c 86 3d 4b f5 0b 3d
       0.07645278 0.103927076 0.065696776 0.034169476
000090 ac a0 67 3d 44 46 d6 bc 46 21 3a 3d f0 94 1f 3d
       0.056549713 -0.026156552 0.04544189 0.038960397
0000a0 c0 c5 ab 3d 2d 96 e1 3c 31 37 6a 3c 3b e2 ee 3d
       0.08387327 0.02753743 0.014295385 0.11664244
0000b0 bf b8 09 3e 6d 30 c2 3d cc 78 9c 3d 85 e5 c8 bd
       0.13449381 0.09481893 0.07640228 -0.098094024
0000c0 7a 2a 20 bd 1a bd 58 bb ef e0 ed 3c ba 79 23 3d
       -0.03910301 -0.0033071698 0.02903792 0.03991101
0000d0 f5 7b 48 3d 67 af 2d 3e b6 81 ac 3d 95 e7 10 ba
       0.04894634 0.16961442 0.08423178 -0.00055276725
0000e0 d7 58 2a 3d dc d2 1e 3e b3 e4 7d 3d eb f4 6b bd
       0.04158863 0.15510124 0.061985683 -0.05760662
0000f0 45 c3 ad bd 7b 7f 0a 3e f0 f2 e9 3d 1c e6 a7 3d
       -0.0848451 0.13525192 0.1142329 0.08198187
000100 0e 34 bb ba 33 cd a0 bc fa 7d 8d bd e8 28 93 bd
       -0.0014282481 -0.019629097 -0.06908794 -0.071855366
000110 71 bd 0e 3e e2 6b 50 bc 1e 6f 13 3c fb 5a f7 3d
       0.13939454 -0.012721034 0.00899866 0.120779

convs.1.weight f4 [72, 72]
000000 5e a1 25 ba 79 c1 ca ba 6d 1d 94 3a d3 fe 89 3a
       -0.0006318296 -0.0015469036 0.0011300273 0.0010528214
000010 ed 02 c0 bb de e1 46 bb 11 4b 04 3b 81 36 35 bc
       -0.005859724 -0.003034703 0.0020186345 -0.011060358
000020 2a 80 b6 3b ab 5d 74 bb c9 b5 a3 3b fa 0d cd bb
       0.0055694776 -0.0037287276 0.0049960357 -0.0062577697
000030 d3 f6 9e 3b 4f e0 b8 3b 20 2f 45 3b fb a5 99 39
       0.004851201 0.005641974 0.0030087903 0.000293061
000040 61 0f 91 bc c1 2f 1e bc 73 8b fb bb 83 70 1d 3c
       -0.017707529 -0.00965494 -0.0076765358 0.009609344
000050 89 97 ff 3a f4 0d a5 3b f3 f5 7e bc c0 fa 11 3c
       0.0019500117 0.0050370637 -0.015561569 0.008909881
000060 0c 28 9d bc 6f 9f c6 3b 2e 50 ab 3b 4f 06 02 3c
       -0.019184135 0.0060614864 0.005228064 0.007936074
000070 6d fa 3f bb ff 54 0b bc dd 86 f1 3b 52 ef 76 bb
       -0.0029293553 -0.008504151 0.0073708133 -0.0037679267
000080 e4 26 a3 bb c9 69 fa 3b 61 5a dd bb 7d 26 f6 3b
       -0.0049790014 0.007642005 -0.006755159 0.0075119124
000090 bf b1 65 bb 3d e3 84 3c 8c 71 3d bb d6 1e 2f bb
       -0.0035048572 0.016221637 -0.002890679 -0.002672126
0000a0 d6 6e 6c b9 30 42 17 bb 74 99 3a bc bc 1b 33 ba
       -0.00022548003 -0.0023080222 -0.011389125 -0.0006832441
0000b0 b0 64 12 bc 95 ae e1 3b 7e 78 17 3b 66 83 6b 3b
       -0.008935139 0.006887267 0.002311259 0.0035936474
0000c0 b7 e2 25 bc f5 47 9d ba c3 c7 6b 3b 0a 63 4d 3a
       -0.010124854 -0.0011999594 0.0035977222 0.00078348874
0000d0 d0 4d 15 3c 7c 9d c1 bb fa 61 c6 39 5d 66 3f bb
       0.00911279 -0.005908666 0.000378385 -0.00292053
0000e0 88 c8 47 3c 94 3b 4f 3b d5 37 9c bb 95 2a 1c bb
       0.0121938065 0.0031621205 -0.004767398 -0.0023829092
0000f0 74 8c 0c bc ec 31 0a 3c 8b 18 8f bc 55 5e d4 bb
       -0.0085784085 0.008434754 -0.017467758 -0.006480972
000100 69 3f 20 bc 76 6c 03 bc c9 62 b3 3b 31 0d 88 3a
       -0.009780743 -0.008021465 0.0054744226 0.0010379908
000110 65 a4 75 bb 4c 4f f0 ba 0e b3 fc bb e6 65 f7 bb
       -0.003748202 -0.0018334179 -0.0077117747 -0.007549989
000120 3b 15 ee bb 79 94 f2 3b f7 3a 2e bb a8 01 af 3b
       -0.0072657145 0.007402953 -0.0026585439 0.0053407736
000130 67 a2 dd 3a 4b 57 9b bb 26 1e b8 3b 66 ef 69 3b
       0.0016909362 -0.0047406307 0.0056188283 0.003569567
000140 08 a7 dc bb 71 0d 1a bc 76 cd 92 bb 4f bd e3 bb
       -0.006733779 -0.009402619 -0.0044800593 -0.0069500576
000150 5d 09 05 bc 37 51 aa bb bc c6 1d 3c 91 3d 6b 3b
       -0.008119908 -0.00519767 0.0096299015 0.003589485
000160 ea a6 c9 bc b7 9c 94 bc 87 14 18 3c 6d e3 25 3c
       -0.024615724 -0.018141134 0.009282238 0.010125023
000170 bc fc 7f bb 6c 63 a5 3b db ba 82 3c e4 68 33 b9
       -0.0039060554 0.0050472524 0.01595824 -0.00017109845
000180 a8 a8 e2 bc 20 a0 c3 39 b7 b6 5d bb 98 66 75 bb
       -0.027668312 0.000373126 -0.003383083 -0.0037445184
000190 33 4c 22 b9 8f a3 2a bc ec 2a 76 3b 94 90 77 bb
       -0.0001547791 -0.010414972 0.0037562205 -0.0037775384
0001a0 26 53 0b bc 51 4d 6a bc 16 4f 08 3c 9c 36 53 bc
       -0.008503711 -0.01430066 0.008319637 -0.012891438
0001b0 53 87 2c 3c 0f cb 45 3b e1 da b6 bb 30 74 8a 3b
       0.010530311 0.0030180847 -0.0055802916 0.0042252764
0001c0 ee 19 75 39 4e 33 f7 bb b4 0a a9 3b 04 90 78 3c
       0.0002337468 -0.007543958 0.0051587466 0.015171055
0001d0 68 9a 51 bc 5d ea 28 3c ae a6 ad b9 dc c6 e4 3a
       -0.012793161 0.010309783 -0.00033121317 0.0017454284
0001e0 72 4e 4f bc 05 e2 59 bb 73 9b 49 3c 4c e5 f1 3b
       -0.01265298 -0.003324629 0.012305128 0.0073820706
0001f0 d8 12 09 3c 92 4d a6 bb 67 b9 09 3a b5 bc ca bb
       0.008366309 -0.005075165 0.00052537624 -0.0061870464
000200 39 11 50 bb 26 40 84 bb 3c bd 41 ba fe e4 0f bb
       -0.0031748547 -0.0040359674 -0.0007390564 -0.0021956558
000210 c6 0a 26 3b fd 7a ff bb 09 dc f6 bb 1f f1 48 bc
       0.0025336011 -0.007796644 -0.0075335545 -0.012264519
000220 94 c3 0d 3c 02 48 2f bc b6 b9 23 3c d6 8a 5b 3a
       0.0086525865 -0.01069832 0.009993007 0.0008374875
000230 ee a3 d5 3b 18 eb 45 bc 90 8b 2c bc b7 7a af 3c
       0.006519786 -0.0120799765 -0.010531321 0.02142082
000240 e3 2b 7f 3b 53 88 14 3c 90 a8 27 3c b3 c2 88 bb
       0.003893607 0.009065705 0.0102330595 -0.0041736006
000250 05 07 11 3b 9f 54 5d 3c 86 c3 24 bc 18 c8 37 39
       0.0022129428 0.013508945 -0.010056382 0.0001752678
000260 68 f0 b6 3b f5 b2 83 bb af f6 8a bb 4d 08 15 3c
       0.005582858 -0.004019136 -0.0042408328 0.009096217
000270 aa 9f 8f ba 67 25 9b bb 82 7d a2 ba 8a 53 7b 3c
       -0.0010957618 -0.0047346833 -0.0012397023 0.0153397415
000280 62 1e 82 ba 24 2b 94 bb 90 22 6e bc 3d a4 cd 3a
       -0.0009927268 -0.0045217443 -0.0145346075 0.0015689206
000290 58 77 23 b9 b1 3d 0f 3c be f9 2b 3b 44 03 75 3c
       -0.0001558935 0.008742736 0.0026241387 0.014954392
0002a0 70 7f a2 ba 13 aa 0e bc 16 ae 8b ba 85 37 2c 3c
       -0.0012397598 -0.008707541 -0.001065674 0.010511284
0002b0 d4 af b8 ba b9 89 0b bc 09 2b 0a bc 8d f1 50 bb
       -0.0014090487 -0.008516722 -0.008433112 -0.0031882257
0002c0 7a ef 13 bc cb 43 73 3c 58 81 74 ba 87 66 9d 3b
       -0.009029264 0.014847706 -0.0009327135 0.004803482
0002d0 1b cc 84 bc 1d ae a5 39 af 4c 27 3b bb 15 a3 3a
       -0.016210606 0.00031600977 0.0025527885 0.0012442389
0002e0 0b 35 09 bb e6 ce 92 bb 4b 59 97 3a 04 5b 21 bc
       -0.0020936157 -0.0044802306 0.0011546997 -0.00984836
0002f0 31 e4 af 3b ca 45 1e ba ab 15 8d 3a 1f 25 32 ba
       0.0053677787 -0.0006037621 0.0010763904 -0.00067956926
000300 5a 61 b5 38 06 d1 0f 3b 4b e7 a3 3b 75 5c 0e 3c
       8.648886e-05 0.0021944656 0.0050019375 0.008689036
000310 19 58 18 bc db d0 cb 3b 84 67 fb bb 60 54 2a 3c
       -0.009298348 0.006219966 -0.007672252 0.010396093
000320 a3 4b fb 3a bf 7c 2f 3c f1 fb 27 3c 31 dd 2f 3c
       0.0019172322 0.010710894 0.010252939 0.0107338885
000330 cb 70 0c ba c1 f0 a3 3a 48 45 a2 3b 4f c9 c3 bb
       -0.00053573836 0.0012507663 0.0049521066 -0.0059749256
000340 cc f5 cc 3a e5 ad 88 ba 00 89 61 bc 82 eb 3a bb
       0.0015637218 -0.0010427801 -0.0137655735 -0.0028521721
000350 95 92 7d ba 5d 14 07 3c 54 53 58 b9 9f 81 24 bc
       -0.00096730265 0.008244601 -0.00020630407 -0.01004067
000360 5c 72 2f 3c b7 4b 0a bb 74 8f b4 3b c3 e4 d2 3b
       0.010708418 -0.0021102258 0.005510265 0.006435962
000370 42 07 9f bb 57 2c 8a ba 1b c2 2d bc 59 a3 5c 3b
       -0.00485316 -0.0010541779 -0.01060536 0.0033666699
000380 ed 03 2c ba 11 a0 2d bc c6 32 0e bc d2 fb e8 3b
       -0.0006561864 -0.010597245 -0.0086790975 0.0071100974
000390 9b 40 d5 3b fa d0 c3 bb 05 30 a7 b6 19 6a d9 3a
       0.0065079457 -0.0059758397 -4.982578e-06 0.0016587406
0003a0 58 fd 2c bc 9c bb 61 bb 85 75 02 3c a6 ca 84 bc
       -0.010558449 -0.00344441 0.007962589 -0.016209912
0003b0 30 2f 9f 3a c3 20 22 bc eb ab 07 bc 59 3c 15 bc
       0.00121448 -0.009895506 -0.0082807345 -0.009108626
0003c0 dc fc af 3b cf 54 99 3b 68 d7 32 3b 64 3e 26 bc
       0.0053707194 0.0046792994 0.0027289037 -0.010146711
0003d0 67 f9 2f bc 77 13 02 3c c9 e1 0c bc 22 02 90 bb
       -0.0107406145 0.007939211 -0.008598753 -0.0043947855
0003e0 4d f4 41 bc 9b ce 8a 3b f5 7e 9a 3a f2 2f 9b 3a
       -0.011838031 0.004236055 0.0011787104 0.001183985
0003f0 cb 45 da 3a f7 f0 39 b9 54 0f d8 37 35 b4 99 39
       0.001665288 -0.00017732741 2.5756344e-05 0.000293167

convs.2.weight f4 [72, 72]
000000 38 0b 3e bc 0d 08 3f 3c 1b ec 6f 3c 1e 4d 25 bc
       -0.011599354 0.011659634 0.014643694 -0.010089187
000010 84 38 a8 3a 0e 2f 7a 3b 4b c2 dd 3b 85 27 e7 bb
       0.0012834226 0.003817502 0.0067675463 -0.0070542716
000020 a7 4a f8 3a 6d a5 5e ba 3f b1 ef bb b3 43 74 ba
       0.0018943147 -0.00084932783 -0.0073148306 -0.00093179493
000030 10 c3 53 bb 36 cc f0 bb a0 f8 de bb a6 83 e8 bb
       -0.0032312311 -0.0073485626 -0.0068045408 -0.007095772
000040 45 f8 8d bb 4e 08 8d ba 38 36 23 3b 2d 70 ec bb
       -0.0043325746 -0.0010759921 0.0024904143 -0.007215521
000050 fb 8c 02 bc a4 de 0b bc 39 db dc bb fd 6a 35 bc
       -0.007968183 -0.008536968 -0.0067400006 -0.011072871
000060 f2 f2 b0 bb 98 ca 75 bb b0 92 43 3c 45 a2 22 3c
       -0.005400055 -0.0037504788 0.0119368285 0.009926383
000070 e5 bb 3c bb 96 67 5a b9 de 45 95 bb 36 e0 7b ba
       -0.0028798517 -0.00020828689 -0.004555448 -0.00096083
000080 f8 7b ea bb a3 58 08 3c 60 fd db ba 87 c7 15 3c
       -0.0071558915 0.008321914 -0.0016783886 0.009141809
000090 65 5f 3a bc be 58 3c bb d0 e4 48 ba 77 8c 7f 3a
       -0.011375283 -0.0028739418 -0.000766349 0.0009748409
0000a0 2c 99 37 bc 1c 29 d3 3b d4 83 25 3c 88 df 4c 3c
       -0.011205953 0.0064441096 0.010102231 0.012504466
0000b0 a2 d3 30 bc ed 4b f4 bb 5b df 4b bc 71 21 d7 bb
       -0.010792645 -0.00745534 -0.012443389 -0.006565266
0000c0 88 2a 0e 3c e8 2a 63 b8 06 15 b4 bb 9e 59 af 3b
       0.008677132 -5.4160977e-05 -0.0054956703 0.0053512594
0000d0 e6 ca 89 3a cf 9c a2 3b bb 73 0c 3b 51 1b 9c 3b
       0.0010512739 0.0049625407 0.0021431285 0.0047639986
0000e0 17 54 18 3c b7 59 80 3b 24 04 8c bb e9 26 68 bb
       0.009297392 0.003916945 -0.0042729545 -0.0035423583
0000f0 18 9a b3 3b 24 4a 14 3c ea 87 84 3b 5f 2d b9 bb
       0.005481016 0.00905088 0.0040445225 -0.0056511606
000100 84 c9 96 3a 03 82 36 bc 8b 74 19 3b f9 18 2d 3b
       0.0011504148 -0.011139396 0.0023415412 0.002641259
000110 55 43 0f 3c b4 8f 3e 3c 26 38 b4 bb 2b 55 32 3c
       0.008744081 0.011630941 -0.0054998575 0.010884563
000120 fe f7 d9 ba 3a 4f a5 ba 94 20 ad bb 67 6e 09 bc
       -0.0016629694 -0.0012612112 -0.0052834246 -0.008388138
000130 6d 9f d6 bb f7 2b 32 3c 3e 04 c1 ba 05 40 5b 3b
       -0.0065497668 0.01087474 -0.0014725996 0.0033454907
000140 33 e0 b6 bb ef 5b a7 bb c0 7a f7 36 e6 27 3a ba
       -0.005580926 -0.005107395 7.3754636e-06 -0.0007101282
000150 aa 24 44 bb 49 8f 7d 3b 87 05 74 3b 34 e1 c2 ba
       -0.002992908 0.003869014 0.003723474 -0.0014868141
000160 75 8d b8 bc c5 8e e3 3b e6 8e 1c bc c9 c2 8e ba
       -0.02252839 0.0069445097 -0.009555554 -0.0010891791
000170 eb 06 db bb fe df 50 bc ab 83 d6 ba 4a 5b e0 bb
       -0.0066841743 -0.012748716 -0.0016366144 -0.00684682
000180 bb 31 ab bc 3b fb 30 3b 49 af 91 bb 2d 50 bf bb
       -0.020897737 0.0027005214 -0.0044459444 -0.005838415
000190 e1 3f 84 bb 9e 57 ae 3b c3 43 ea bb 78 74 28 3b
       -0.0040359353 0.0053205034 -0.007149191 0.0025704186
0001a0 d8 d4 2a bc 6e c7 05 bc a6 74 8f 3a 44 5e 45 bc
       -0.0104267225 -0.0081652235 0.0010944798 -0.0120464
0001b0 40 59 7f bc de 13 6e bb 01 f1 68 ba a6 e7 3a 3c
       -0.015585244 -0.003632776 -0.000888601 0.011407768
0001c0 82 df 60 bb c4 5a c0 b9 d9 7e 04 bc b7 8a a5 3b
       -0.0034312909 -0.0003668872 -0.008086883 0.0050519365
0001d0 85 56 67 bc a9 08 17 bb 31 38 4d bc 99 33 18 3c
       -0.014119749 -0.0023045933 -0.012525604 0.009289646
0001e0 6e 69 ac 3b ae 50 a6 bb 84 42 0f bc c1 ca 4f 3b
       0.0052615916 -0.0050755357 -0.008743886 0.0031706544
0001f0 f1 55 8a 3b 36 e3 32 3c 20 99 23 bc a8 88 09 bc
       0.004221671 0.010918429 -0.009985238 -0.008394398
000200 2a e9 5b ba 0d ee 0c 3c c6 e7 cb bb a8 5a b6 3a
       -0.0008388931 0.008601678 -0.006222698 0.0013912516
000210 01 b0 b7 3b 11 10 ab 3b c2 be ee bb 41 6f 3e b7
       0.005605698 0.005220421 -0.0072859237 -1.1350786e-05
000220 b3 63 58 bc c4 13 ea bb 4f ac e9 3b e7 5c 26 3c
       -0.013207364 -0.0071434695 0.0071311365 0.010153986
000230 b3 d2 92 bb 90 36 ea 3b b9 05 ad 3b bc 74 26 bc
       -0.0044806837 0.0071476176 0.005280223 -0.010159668
000240 a4 0e 84 bc 8b 4e 32 3b 9d 73 48 3b c3 13 78 bc
       -0.016120262 0.002720746 0.003058649 -0.01514143
000250 4c 70 24 3c 35 64 d2 3b 15 ed a2 3a b8 6d 4c bc
       0.010036539 0.006420637 0.0012430275 -0.012477331
000260 87 7d 51 3c bc f0 0e 3c f6 e9 f9 bb 3d 06 8f bb
       0.012786276 0.008724388 -0.0076267673 -0.0043647573
000270 32 fd 2f 3c 15 8c 24 3c a5 11 5d 39 45 bd f1 bb
       0.010741519 0.010043164 0.00021082775 -0.007377299
000280 e8 3c cd 3a 52 4a 4b 3b 67 34 aa bb d4 f7 ec bb
       0.001565841 0.003101964 -0.005194235 -0.007231692
000290 a2 6e 82 bb 53 08 20 3c 30 89 22 3a 36 76 e0 3b
       -0.0039804736 0.00976761 0.0006200252 0.0068500293
0002a0 b2 6c 13 bb 0d 7c 2e 3b 8e d9 2f 3c 04 b6 26 3c
       -0.0022495207 0.0026624233 0.010733021 0.010175232
0002b0 5d 1e 2c bc 9c b3 f1 ba 49 b1 5b 3c f4 1f 2f bc
       -0.010505286 -0.0018440369 0.013408967 -0.010688771
0002c0 a7 00 4b bb 56 5e 84 bc 5f 0f d2 3b cd a7 a1 3b
       -0.003097573 -0.016158264 0.006410524 0.0049333335
0002d0 00 f1 43 bb 5f 57 40 3b 31 f7 ea 3b e1 b2 3e bb
       -0.0029898286 0.0029348952 0.007170581 -0.002909832
0002e0 48 25 0a 3c 9d 97 b5 ba 3c 4b 7f bc ab 79 05 3c
       0.00843174 -0.0013854388 -0.015581902 0.008146684
0002f0 32 b1 b3 bb 2e 65 52 bb 9c 00 0a ba c9 50 1b 3c
       -0.00548377 -0.0032103765 -0.0005264373 0.00947971
000300 64 52 71 3c d3 d9 78 ba b0 47 4a bb 0f 3a 11 3c
       0.014729116 -0.00094929076 -0.0030865483 0.00886394
000310 ee cc 0a bc 96 dd 1e 3b c2 c0 82 ba 7f 41 ef ba
       -0.008471711 0.0024240962 -0.0009975659 -0.0018253772
000320 cf ba 68 3a 92 56 2e bc d3 6c a2 3b 23 5c 3c 3b
       0.00088779343 -0.010640757 0.0049568205 0.0028741441
000330 f5 57 2b bc b4 65 d2 3b a2 73 67 ba b8 e3 8d 3b
       -0.010457982 0.0064208154 -0.00088291813 0.0043301247
000340 4d 0a 6a ba 7e 11 30 bc 65 74 14 bc b6 d7 cc b9
       -0.00089279265 -0.010746358 -0.009060954 -0.0003907063
000350 dc d4 2b 3c 24 08 00 bc 16 1c 0f bb 03 48 74 3c
       0.010487761 -0.007814441 -0.002183681 0.014909747
000360 57 0c 12 bc a6 e7 b1 3b 2d 4a c0 bb 53 57 2b 3c
       -0.008914075 0.005429226 -0.0058682174 0.010457831
000370 9b 8c dc 3a d8 3f 5e bb 91 56 09 bc db 58 03 3b
       0.0016826572 -0.0033912566 -0.008382455 0.0020041976
000380 fb 08 cc bb e1 60 47 3c 27 83 83 ba 8b 97 82 bb
       -0.0062266565 0.012169094 -0.0010033593 -0.0039853505
000390 84 bf 74 bb b2 4e 4a 3b 54 46 d2 3b b5 b4 3b 3c
       -0.0037345598 0.003086966 0.006417075 0.011456658
0003a0 74 35 b2 3b a0 d9 06 b9 05 3c 4e 3b b0 82 fc 3a
       0.005438501 -0.00012860307 0.003146888 0.0019265022
0003b0 11 e0 61 3b 04 68 d0 bb f8 c5 21 3c f3 f3 2d 3c
       0.003446583 -0.006360056 0.00987386 0.010617244
0003c0 87 b9 e0 ba 2d 5c 17 bc 16 0b 0a ba 3d 58 9f 3a
       -0.0017145135 -0.009238285 -0.0005265934 0.0012157034
0003d0 88 f2 07 3c 3a 5a 24 3c bd 2b 2f bc bd 18 a7 bb
       0.00829757 0.010031277 -0.01069158 -0.0050993846
0003e0 72 b0 37 3c 55 3d 2e bc b7 b3 7f 3b 0f f1 06 bb
       0.011211501 -0.01063474 0.003901703 -0.002059046
0003f0 34 61 9d bb 0c 8c 64 39 4a 24 b1 bb 69 41 42 bc
       -0.0048028473 0.00021795946 -0.0054059373 -0.011856415

convs.3.weight f4 [72, 72]
000000 6b 3c 8c bb 63 bf 85 bb c4 68 a7 b9 ab 0c f1 b9
       -0.0042796633 -0.004081653 -0.0003193078 -0.0004597654
000010 cf 78 05 3a a1 ee 08 3c 81 e6 d7 3a 9d 13 5b 3b
       0.0005091549 0.008357675 0.0016471894 0.0033428438
000020 a4 eb fc bb 7a 1e 31 3b 5a 20 f1 b8 70 08 b9 ba
       -0.0077185202 0.0027026222 -0.000114978015 -0.0014116894
000030 e2 b8 2c bc 64 e7 d2 bb 32 e9 75 bc d0 ca b7 bb
       -0.010542126 -0.0064362753 -0.015009211 -0.005608894
000040 98 4e 81 bb 20 7e 14 bb e2 ab 23 3b 46 c9 6c bc
       -0.0039461367 -0.0022658184 0.0024974276 -0.014452284
000050 54 f1 04 3b c9 64 0e bc 94 c3 7a ba 70 4f d3 3b
       0.0020285444 -0.008691021 -0.00095658866 0.0064486787
000060 80 6e 66 bc d4 1b a3 3b 4d 49 da 3b f5 7e 8d bb
       -0.014064431 0.0049776826 0.00666157 -0.004318113
000070 19 94 ff 3b 38 01 13 3b 47 5f 38 ba fa e8 f5 bb
       0.007799637 0.0022431146 -0.00070332404 -0.0075045796
000080 38 7f f7 3a 5d c1 3b 3b d3 eb dd bb c0 3e e4 bb
       0.0018882519 0.002864919 -0.006772497 -0.006965488
000090 fc 56 c4 bb cb 15 5c b9 cb 80 48 3b 99 3f d4 3b
       -0.0059918147 -0.00020988953 0.0030594345 0.006477308
0000a0 6c d9 8a bb 28 f3 51 3c 49 c1 22 bb 27 3e 4b bb
       -0.0042373445 0.012814321 -0.0024834445 -0.0031012387
0000b0 c6 eb 0c 3c 90 35 e8 bb a7 6e 7a 3b 9e ee 09 bb
       0.008601135 -0.0070864633 0.0038212927 -0.0021046768
0000c0 25 69 fc 3b 75 9a 2c 3c 84 4b ba 3a d4 a0 19 bb
       0.007702964 0.010534872 0.0014213179 -0.0023441808
0000d0 a4 b6 71 bb 45 af 1f 3b dd 76 34 bc 5d 3d be bb
       -0.0036882544 0.0024365943 -0.011014667 -0.005805655
0000e0 6e 9f a9 3b bf 1d 3d 3b b0 05 99 3b 84 10 b1 3a
       0.005176476 0.0028856841 0.0046698675 0.001350895
0000f0 ef 78 91 b9 2e 50 8a 3c 57 d9 18 3c e0 1f 31 bc
       -0.00027746658 0.016883936 0.009329162 -0.010810822
000100 ef a4 a8 3a ee ab fd bb f1 99 2b bc 04 bc 58 bb
       0.0012866537 -0.007741443 -0.010473714 -0.003307105
000110 bf c7 0d 3c b6 b6 20 bc 95 3c f3 bb dd 65 2f 3c
       0.00865358 -0.009809187 -0.0074229934 0.010705438
000120 98 90 d9 3b 1a 6f c3 3b a4 a4 89 3c 05 a7 a7 3b
       0.0066395514 0.005964172 0.01680214 0.005116346
000130 a8 ba 85 3c b9 eb 19 bb 26 33 dc 3b 36 ce a1 ba
       0.016324356 -0.002348645 0.0067199646 -0.0012344781
000140 12 72 cf bb fe 7b 2c bc aa 37 4a bb 41 6c 49 3c
       -0.006330737 -0.010527609 -0.0030855932 0.012293876
000150 e9 41 3b bb 49 cc 27 bb c0 c1 47 bb 46 0e 46 3c
       -0.002857322 -0.0025603941 -0.0030480474 0.012088364
000160 5b b4 5a bc ba e6 3d bc 14 52 c4 3b 11 fa 94 bb
       -0.013348664 -0.011590654 0.00599123 -0.004546412
000170 eb 5a 8e 3b e3 05 61 bc e1 db 1f 3c 56 39 ee 3b
       0.0043443344 -0.013734314 0.009757013 0.0072700186
000180 7c 40 82 bc d0 f3 1d bc 69 36 41 3b f2 f0 1d bb
       -0.01589989 -0.009640649 0.0029481894 -0.0024099913
000190 f9 11 89 bb 0d 53 62 bc 19 0b 6f 3b a0 a4 35 3c
       -0.0041830507 -0.013813746 0.003647512 0.011086613
0001a0 97 b5 88 39 07 39 b4 3a 38 b4 35 3b da c5 80 3c
       0.00026075236 0.0013749906 0.0027725827 0.015719343
0001b0 e6 2a c6 ba 3a 70 1d 3c d9 6c a3 3b 4f 56 d4 3a
       -0.0015118986 0.009609276 0.004987341 0.0016200038
0001c0 9d a6 87 bb 74 91 2c 3c f5 ad 35 bc 71 c4 a8 bb
       -0.004139735 0.010532726 -0.011088838 -0.0051503708
0001d0 65 ec 3d 3b 58 42 84 3b 70 32 8e 3b 1b 62 28 3b
       0.0028980013 0.004036229 0.0043395087 0.002569324
0001e0 6e ae bd 37 03 fd 9f bb 98 77 8f bb 85 60 85 3b
       2.261178e-05 -0.0048824563 -0.0043782704 0.004070344
0001f0 ee 47 5d bc 27 22 db ba a3 18 f2 3a d6 f1 5a 3c
       -0.013505919 -0.0016718552 0.0018470477 0.013363322
000200 1e 1a 36 3a 89 3d dd 3b 40 45 89 bc 5c df 75 bb
       0.0006946641 0.0067517203 -0.016756654 -0.0037517166
000210 b9 6c 14 bc cb d4 dc bb ab bc 80 b9 f0 dc a4 bb
       -0.009059125 -0.006739234 -0.0002455463 -0.0050312206
000220 c3 30 f0 bb 48 bf 00 3c f5 35 08 bc 2c f3 0b bc
       -0.0073300316 0.007858105 -0.008313646 -0.008541863
000230 20 9e 96 bb 9f b5 17 bc c4 3e 62 3b ef 83 a7 3b
       -0.0045964867 -0.00925961 0.0034522275 0.0051121633
000240 87 c5 84 3b 8d 98 f1 ba 5d 33 26 3c b0 83 b6 3b
       0.0040518674 -0.0018432304 0.010144082 0.0055698976
000250 54 32 86 3c b7 c4 0c 3a 16 5d aa b9 d9 1c aa ba
       0.01638142 0.0005369889 -0.0003249428 -0.0012978568
000260 dd 1a 04 3c 92 89 8f bb c1 55 62 bc 72 fd 88 bb
       0.008063045 -0.0043804133 -0.013814391 -0.0041806037
000270 09 92 79 bb 1c 2a 0b bc a3 78 09 bb dc d9 2e 3b
       -0.0038081429 -0.008493926 -0.0020976446 0.0026680147
000280 03 15 31 bc b2 de a4 3a 4a 5a f7 bb 73 ff a0 3b
       -0.010808232 0.0012578575 -0.007548605 0.0049132644
000290 27 29 cb 3b 62 15 2f bc 5e 23 89 3c ef 98 80 3b
       0.006199974 -0.01068625 0.016740497 0.003924481
0002a0 ae f6 ac bb 17 5d 18 3c 42 62 7b 3b f1 7a 58 bb
       -0.00527843 0.009299538 0.0038358127 -0.0033032263
0002b0 a3 72 8f b9 23 20 95 3b dc 8f 2c 3c fc 94 7a 3b
       -0.00027360496 0.00455095 0.010532346 0.0038235774
0002c0 b4 21 a4 3b 77 a9 95 3b c4 d5 3d 3c 25 f3 0e bc
       0.0050089005 0.004567321 0.01158661 -0.008724962
0002d0 c3 06 11 ba b7 40 40 3b 01 7c 4a 3a 80 15 de 3b
       -0.00055323186 0.0029335448 0.00077241665 0.0067774653
0002e0 db 12 1e bc 69 bf 25 3b 78 9e ad bb 01 4a 11 bb
       -0.00964805 0.0025291091 -0.005298432 -0.0022169354
0002f0 48 87 2c 3c 19 41 aa bb d0 0c 2e 3c bf c7 af 3b
       0.0105303 -0.0051957485 0.010623172 0.0053643878
000300 0b a0 22 3b c7 34 d1 3b ab 03 09 ba b9 28 38 3c
       0.0024814631 0.0063844654 -0.0005226682 0.011240178
000310 24 ca 51 bb 59 02 09 bb 81 79 d6 bb 48 f1 fe 39
       -0.0032011354 -0.002090594 -0.006545246 0.00048626424
000320 cf c8 26 3b 61 1c f5 b9 76 84 95 ba b7 64 2a bc
       0.002544928 -0.00046751185 -0.0011407274 -0.010399989
000330 8f f7 7f 39 fe ac 70 b9 8d 1a 00 3b 5e 5b 1f 3b
       0.00024410918 -0.00022952628 0.0019547075 0.0024315934
000340 6d 61 39 3a 2b 7e 14 bc b7 4a 59 bb 6f 0e 76 b9
       0.00070717075 -0.009063284 -0.0033156106 -0.00023465765
000350 db ff 13 b9 f9 4d 01 bc b7 50 16 bc f5 14 06 ba
       -0.00014114326 -0.007892125 -0.009174517 -0.0005114817
000360 41 5c 26 3c 70 d9 84 bc e7 87 02 3b 3d 56 e1 b9
       0.010153831 -0.016216964 0.001991743 -0.00042979597
000370 b9 74 0f 3c 9d a3 29 3c 50 a4 db 3b 98 7a 41 3b
       0.008755856 0.01035395 0.006702937 0.0029522534
000380 a9 f9 48 bb e4 92 5d 39 dd 2b 6f bb c6 9d 1d 3c
       -0.0030666387 0.00021130923 -0.003649465 0.009620136
000390 7b 4e 11 3c d4 61 32 bb fc ee 4f 3b 26 93 9c b9
       0.008868809 -0.0027218955 0.003172814 -0.00029864273
0003a0 45 5f 32 bc fe ca 0f 3c 3e de 8d b8 fc a4 0c bc
       -0.010886972 0.008776424 -6.7648e-05 -0.008584257
0003b0 69 87 a0 ba 6b af 38 3b b5 cb 27 3a 77 43 af bb
       -0.0012247387 0.002818073 0.0006400899 -0.0053486186
0003c0 1e 33 81 bc 57 32 13 bb 61 22 21 bc d7 e0 10 3c
       -0.015771445 -0.0022460425 -0.009834857 0.0088426685
0003d0 f3 9d 73 bb b4 39 9f bb 51 5b 16 3c fe 86 9d 3a
       -0.0037173002 -0.0048591737 0.009177045 0.001201838
0003e0 63 01 40 3b a3 7e 8d bc df 45 2e 3c 5d e0 f3 3b
       0.0029297702 -0.0172723 0.010636776 0.0074425177
0003f0 d9 8e 82 3c 0c be db 3b 19 35 f0 ba 2d cc 95 bb
       0.015937256 0.006706005 -0.0018326371 -0.004571459

convs.4.weight f4 [72, 72]
000000 6e f6 86 3c ac 69 14 bc cc e8 39 3c 1a ea eb 3a
       0.016474929 -0.009058397 0.011347007 0.0017998845
000010 a0 e4 3a 3c f5 8a bc bb dd 2e 33 3c 14 10 a4 b9
       0.0114070475 -0.0057538697 0.010936466 -0.00031292497
000020 58 59 f7 bb 4e 83 00 3b e3 d5 41 bb 49 f5 64 3b
       -0.0075484924 0.0019609514 -0.002957695 0.003493624
000030 84 31 6c 3c af b2 0a 3b 16 31 52 3c 0f 9d c8 3b
       0.014416102 0.0021163633 0.012829086 0.0061222385
000040 17 91 11 bc 74 d9 74 bb 5a 8e b2 3b 59 8d 4d ba
       -0.00888469 -0.0037361057 0.0054490985 -0.0007841192
000050 00 e3 30 3c 8e 06 15 bb 25 90 91 bb d4 65 99 bb
       0.0107963085 -0.0022739503 -0.004442232 -0.0046813283
000060 c0 18 4e bc 69 0d 2d ba 59 b2 62 bc da f3 8c bb
       -0.012579143 -0.00066014245 -0.013836467 -0.0043015303
000070 f1 89 16 bb 99 30 5f 3a 97 7a 0a bc 37 bd a7 3b
       -0.0022970403 0.00085140165 -0.008452079 0.0051189917
000080 1e d9 b8 3b 8e 92 41 bc 72 16 de 3a 88 14 3c bb
       0.0056411168 -0.0118147265 0.0016943945 -0.002869876
000090 c6 44 25 3c 99 48 42 bc 9a 8f 04 bc 07 d7 16 bb
       0.010087198 -0.011858129 -0.008090878 -0.002301635
0000a0 68 6a 21 39 69 31 8b 3b 81 d3 0c 3a 9c ff 51 bc
       0.00015393796 0.0042478335 0.0005372093 -0.01281729
0000b0 3b 4c 9b bb 00 c9 40 3c 01 19 eb ba e7 55 4c 3b
       -0.004739312 0.011766672 -0.0017936529 0.0031179131
0000c0 53 1a 12 bc 8d 83 2c 3b eb 73 49 3b 0d 78 31 ba
       -0.008917409 0.0026323528 0.0030739259 -0.0006769903
0000d0 31 62 5c 3c ad 5b 43 bc 8e 57 05 3b e3 e1 15 bc
       0.013451145 -0.011923713 0.0020346376 -0.009148094
0000e0 11 39 8d 3b 18 48 aa ba 9a 09 1d 3c 0f df 4f 3a
       0.0043097814 -0.0012991456 0.009584809 0.00079296617
0000f0 75 f4 22 3c c3 af ec bb ce 02 02 bc de 2d 0e 3c
       0.009945978 -0.007223101 -0.007935239 0.008677928
000100 08 c8 18 3b bd ec 10 bc 15 63 2e bb fa c7 32 ba
       0.0023312587 -0.008845505 -0.002660935 -0.000681996
000110 23 16 48 3c a3 28 2d bb 27 70 d0 bb d8 43 fa 3b
       0.012212309 -0.0026421926 -0.006361026 0.007637482
000120 9c e2 16 3c d2 73 5d 3c 5d 81 16 3c f8 25 77 bc
       0.009209301 0.013516383 0.009186116 -0.015084736
000130 2a 2e f9 ba 64 95 2c bb c9 98 ab 3b 64 6e 51 3b
       -0.001901095 -0.002633416 0.0052367193 0.0031956667
000140 80 4a bf 3b 7f b5 f1 3a 27 66 0e bc 24 7b 1d bc
       0.0058377385 0.0018440931 -0.008691347 -0.009611879
000150 8f 6d 1d 3c ab d0 7e 3b da 46 3d bc d9 4d bc 3b
       0.00960864 0.00388817 -0.011552537 0.005746585
000160 f2 1e 70 bc 3b 05 fd 3b d7 cc 9a bb 77 4c 31 3c
       -0.014655815 0.007721571 -0.004724126 0.010821453
000170 ba d1 86 3b 0d 83 16 3b 8f 83 00 bc 45 30 03 bc
       0.004114357 0.0022966296 -0.007843866 -0.008007114
000180 73 24 7e bc 89 d9 5c bc 2e 85 7e 3b 39 60 0e 3c
       -0.01551162 -0.013479599 0.0038836705 0.008689933
000190 6b 3f f2 bb a5 d3 9f 3b 73 58 1c 3b 58 28 0d bc
       -0.007392814 0.004877525 0.002385643 -0.008615576
0001a0 91 07 2b 3a b0 57 a5 3b f8 98 fd bb 0a 1e c6 bb
       0.000652426 0.0050458536 -0.0077391826 -0.0060460614
0001b0 7c 0d 28 bb 4d 49 74 3b 9b 23 de 3b 6f 74 35 bb
       -0.0025642803 0.0037275136 0.006779147 -0.0027687808
0001c0 b7 7a 98 ba 61 7f 86 3c 51 bd 80 39 73 d0 58 bb
       -0.0011633252 0.01641816 0.00024555114 -0.003308323
0001d0 0d c5 dd 3b cd 3c 9d 38 63 f6 ba 3a 77 32 03 3b
       0.006767875 7.4976684e-05 0.0014264103 0.0020019093
0001e0 39 c3 1a ba 50 46 89 3b d6 aa fe 3b 4c 60 e9 3b
       -0.0005903724 0.00418929 0.00777183 0.007122075
0001f0 1e 8e 32 bb f6 c9 ff 38 4f 2d 3f 3b e2 b0 20 bc
       -0.0027245353 0.00012196966 0.0029171293 -0.009807797
000200 6f 67 d0 bb 35 ca fb ba 6e 05 37 3c 63 46 2e bc
       -0.0063599865 -0.0019210043 0.011170728 -0.010636899
000210 6c 29 0a 3c 68 9b 09 3c e6 07 27 bc 69 76 0d bc
       0.008432727 0.008398868 -0.010194754 -0.008634188
000220 b1 c8 d9 ba 52 9b 29 bc 63 ba 0c 3b 63 42 ae 3a
       -0.0016615597 -0.010351973 0.00214734 0.0013294931
000230 5c 34 d4 bb cf 0a 35 3c f9 a2 94 bb 5a 94 7e bb
       -0.0064759683 0.01104994 -0.0045360294 -0.0038845749
000240 40 64 39 3b 79 ad 9a bb 18 c7 2d bc 68 90 08 39
       0.0028288513 -0.0047203866 -0.01060655 0.00013023766
000250 9c cf 74 b9 67 11 a6 ba 6d 49 2b bc 15 92 f9 b9
       -0.00023346994 -0.0012669981 -0.010454518 -0.0004760182
000260 06 62 2a 3c 4a be 9c 39 54 6a 8c 3c b9 f0 9f bb
       0.010399347 0.00029896415 0.017140545 -0.0048809913
000270 a0 0a dd 3b c7 d0 05 3a 85 f9 fd ba 87 5d 26 3c
       0.0067456514 0.00051046576 -0.0019376731 0.010154135
000280 2e 07 2b 3c d9 65 8e 3c 6f 67 25 bc 74 23 b0 ba
       0.0104387235 0.01738255 -0.010095461 -0.00134383
000290 01 3c 7e 3a 72 4c 9a bb dc 49 8d 3b a0 7a 2f bc
       0.00096982723 -0.00470882 0.0043117832 -0.010710388
0002a0 ae 58 09 38 4c 8b 37 ba 75 78 81 3b 54 f4 ae 3a
       3.2745935e-05 -0.0007001653 0.003951127 0.0013347962
0002b0 a1 b1 2a bc c3 2a 5d bb 6a 72 69 39 bd 06 a2 3b
       -0.010418327 -0.0033747412 0.00022263234 0.004944651
0002c0 1c 05 30 bc e6 26 55 39 b2 a4 ca ba 99 ac 2f bc
       -0.010743406 0.00020327754 -0.001546046 -0.010722303
0002d0 7d 06 18 bc 9d 7d 1a bc 3b e2 24 3c 78 e9 c5 3a
       -0.009278891 -0.009429363 0.010063703 0.0015099486
0002e0 38 d1 b3 3b 77 03 1e bb 71 88 cc b9 04 45 9d ba
       0.0054875873 -0.0024110952 -0.0003901157 -0.0011998718
0002f0 3c 4e 65 3a dd 05 07 bb be 51 f9 b8 0f d3 2f bc
       0.00087473146 -0.002060286 -0.00011888471 -0.010731473
000300 c3 14 9b 3a 4c df 52 bb 7d ab 88 3b a3 39 55 bb
       0.0011831749 -0.0032176552 0.0041708336 -0.0032535575
000310 b6 a2 2f bc 99 ae de 3b e2 65 a8 bb 93 2f 89 bc
       -0.010719946 0.006795716 -0.0051390985 -0.016746318
000320 4d b0 ee 3b 1f 15 2e 3b 56 bb 0b 3c 28 b7 d0 ba
       0.0072842003 0.0026562882 0.008528551 -0.0015923725
000330 f7 f5 2f bc c9 22 c3 3b 01 5c 1e bc 90 f2 16 3c
       -0.010739795 0.0059550744 -0.00966549 0.009213105
000340 25 99 80 3a 38 43 b1 bb 7a 4e 9f bb f2 98 b4 bb
       0.0009811266 -0.0054096244 -0.00486165 -0.0055113966
000350 ca 72 44 bb e0 de eb bb 76 c7 ea ba 60 e5 2e bc
       -0.0029975646 -0.0071981996 -0.0017912227 -0.010674804
000360 57 24 c1 3a 92 8a 5b 3b 76 64 76 3c 32 ae 54 bb
       0.0014735562 0.0033499342 0.0150386 -0.0032452461
000370 6f 2a 1f 3b 13 75 8c bb ba a8 12 3b c6 bf 20 bc
       0.0024286767 -0.0042864173 0.00223784 -0.009811347
000380 68 4a a6 3b 1a ba 02 b8 e3 ef ab 3b 82 c6 8e bc
       0.005074788 -3.1167736e-05 0.0052471026 -0.01742864
000390 21 0b 8e ba 58 74 b1 3a 6d e1 0a bc fb 9d d7 3b
       -0.0010837057 0.0013538701 -0.008476597 0.006580112
0003a0 7a 15 7a 3b 07 63 2f 3c d9 67 d4 ba fa 7f 4a bb
       0.0038159774 0.010704762 -0.0016205265 -0.0030899034
0003b0 1a 7a 85 3b e3 cd c2 ba 7c 52 2b bb 82 d5 84 bb
       0.0040733935 -0.0014862384 -0.0026141694 -0.0040537724
0003c0 ba d3 6f 3a 7a d2 b2 bb 02 7b bc 3a f0 3c bb 3b
       0.0009148676 -0.0054572197 0.0014379921 0.0057140514
0003d0 6e 23 92 bb 7d c1 89 3b f6 ab 55 3b fe 6d 5b bb
       -0.00445979 0.004203974 0.0032603717 -0.0033482308
0003e0 5f 09 7b bc 9e e8 e6 b9 6c 20 24 3c 0d e0 b0 3b
       -0.015322058 -0.00044042332 0.010017496 0.0053978027
0003f0 1b 96 b3 3a 5e b6 7b ba c2 8c 01 3c 7d af f7 3a
       0.0013701351 -0.0009602065 0.007907094 0.0018896904

convs.5.weight f4 [72, 72]
000000 73 43 12 bc fa f3 4f 3c c4 33 2f 3c 7e 40 c5 3b
       -0.008927214 0.012692446 0.010693494 0.006019651
000010 67 de 1b 3c c6 2d 88 bb 65 fc e2 bb 2b 9e a0 bb
       0.009513474 -0.0041558472 -0.0069270604 -0.0049016676
000020 62 bc 1f ba e5 33 36 bc 99 7a 26 3c 2b 5c c6 bb
       -0.000609344 -0.011120771 0.0101610655 -0.0060534677
000030 73 a9 03 39 0b aa 16 3c 7c 8b 2d 3b 9c c4 33 3c
       0.00012556258 0.009195815 0.0026480844 0.010972168
000040 c2 57 c8 3b 78 f3 b5 3a 11 54 ad 3b b6 43 be bb
       0.006113977 0.0013881763 0.0052895625 -0.0058064116
000050 a2 16 cc ba d6 83 62 3c 13 5e 1a bc f4 65 50 3b
       -0.001557071 0.013825377 -0.009421843 0.003179905
000060 64 57 b2 b9 a2 ee 22 3b 4a 35 05 3c 5e 62 1b bc
       -0.00034015917 0.0024861475 0.008130381 -0.009483902
000070 2e 18 1a 3c 10 6f a0 bb 3e 49 e4 bb 35 14 f2 3a
       0.009405179 -0.004896052 -0.006966739 0.0018469157
000080 5e 73 ed 3b 2e fd 9b 3b ec 25 e5 bb 28 ba 1d 3c
       0.007246419 0.004760406 -0.006993046 0.009626903
000090 2a c6 e6 39 70 19 8e ba 8c 9c 1b bc 92 5c 37 3c
       0.00044016662 -0.0010841321 -0.009497773 0.011191504
0000a0 07 f9 9c 3b 51 80 52 3b 99 98 c3 bb e1 f9 46 3c
       0.0047904286 0.003211994 -0.005969119 0.012144537
0000b0 34 9f d5 3b 09 a7 25 3c 72 95 45 bb 24 a4 27 bc
       0.0065192226 0.010110625 -0.003014889 -0.010232005
0000c0 04 9d 90 ba e2 55 58 bb 47 a2 27 3c 54 73 7b ba
       -0.0011033122 -0.0033010175 0.010231561 -0.00095920754
0000d0 ab 74 f4 bb d7 f3 b3 3a 45 22 39 3b ea 54 4a bb
       -0.007460197 0.0013729286 0.0028249186 -0.0030873367
0000e0 b5 56 67 3b f4 3c 48 3b 07 e0 ce 3b 51 c4 a8 bb
       0.0035299484 0.003055391 0.0063133272 -0.005150356
0000f0 59 52 a5 bb 1d 7e cc bb a6 6f 1a ba 08 bf a2 ba
       -0.005045217 -0.00624062 -0.00058912707 -0.0012416551
000100 51 03 23 3c c7 16 18 bb d0 f4 09 bc 96 2c 16 3c
       0.009949521 -0.0023206936 -0.008420184 0.009165904
000110 1c fe 05 bc ae b9 fd bb b8 ae 08 3c 25 fb 8b 3b
       -0.00817826 -0.007743082 0.008342437 0.004271882
000120 b7 94 6b ba 40 fb 21 3b fd d1 35 3a e0 a2 48 3b
       -0.0008986699 0.0024716407 0.0006935893 0.003061466
000130 79 8c 25 3c 43 84 0e bb f9 0e 45 3c 40 07 d4 bb
       0.010104292 -0.0021746315 0.012027496 -0.006470591
000140 f6 90 24 3b 6a c2 26 3b 43 7b 22 3a 9a ba 30 3c
       0.0025110818 0.002544547 0.0006198177 0.010786677
000150 58 83 d6 b9 20 b9 98 b9 8a fc a4 b9 30 c8 82 3b
       -0.0004091512 -0.00029129628 -0.00031468674 0.0039911494
000160 85 0e 6f bc 83 0b 0f bc 1a 12 59 bc 75 36 11 3c
       -0.014590864 -0.008730772 -0.013248945 0.008863081
000170 fe e6 c0 3b 0d 83 6a 3c 14 43 21 bc 84 6b 81 3c
       0.0058869114 0.0143134715 -0.009842653 0.015798338
000180 d4 20 67 bc cc b7 7b 3c 36 7f 1c 3c 64 2e 3b 3a
       -0.014106948 0.015363645 0.009551814 0.00071403966
000190 7d 26 eb bb e5 85 2a 39 53 d4 60 39 12 44 ac bb
       -0.007176219 0.00016262343 0.00021441402 -0.005257138
0001a0 f7 70 0d 3a cb c3 48 bb a4 3b 08 3a d4 aa 38 bc
       0.0005395556 -0.003063428 0.00051968754 -0.011271197
0001b0 33 bd 42 bc 85 f3 2a bc 1b b6 d3 3b 3e 2c a2 3a
       -0.011885929 -0.010434036 0.0064609176 0.0012372804
0001c0 aa 1f a2 bb e7 29 3e 3b 95 8a 7d 3b 6b 04 d3 39
       -0.0049476223 0.0029016675 0.0038687338 0.00040248348
0001d0 28 0d 8b bb ef e1 02 3c 17 fe f6 bb e1 33 c6 3b
       -0.0042435117 0.007988437 -0.007537614 0.006048665
0001e0 9c eb 1f ba 90 fd 05 bb 8f 3e 03 3b 21 27 5c bc
       -0.0006100477 -0.0020445324 0.0020026301 -0.013437063
0001f0 6e c8 37 bc 9c df 84 3c 7a 52 35 3c cf 25 5d ba
       -0.01121722 0.016219907 0.011067027 -0.0008436115
000200 d6 0c 9c 3b 57 ef c1 3b 26 9c bd bb af 9b 1f 3b
       0.0047622724 0.005918424 -0.0057864366 0.002435427
000210 34 cc 7a 3c 56 33 77 bc 59 16 f2 3b 34 bf 2b bc
       0.015307475 -0.015087923 0.007387918 -0.010482598
000220 80 2a f7 bb c4 36 28 bc a6 72 5c 3b 40 7f 78 3b
       -0.007542908 -0.010266963 0.0033637672 0.0037917644
000230 0a 1b 08 bb 41 a4 c0 bb b2 61 18 bb 92 93 3a ba
       -0.002076807 -0.0058789556 -0.002325159 -0.00071173266
000240 82 93 7e 3a 3b 2b 17 3c 75 24 81 bc 91 2b 85 bc
       0.00097113114 0.009226616 -0.015764454 -0.016256126
000250 5d 9f e5 bb 88 15 fe 39 6f 3a 8e ba db 0d 30 bc
       -0.007007523 0.00048462697 -0.0010851155 -0.010745491
000260 b3 a7 a9 b9 2b 6f 2f bc 29 e0 ca 3b 38 1d 26 bb
       -0.00032359138 -0.010707657 0.0061912728 -0.0025347006
000270 29 6b 93 bb a8 20 88 3b 35 b7 c5 3b 38 b0 8d 3c
       -0.0044988585 0.0041542836 0.006033803 0.017295942
000280 15 a6 b6 3a 83 57 4b 3a 8a 84 97 bb 0a d0 89 3c
       0.0013934994 0.0007756876 -0.004623954 0.016822834
000290 27 25 49 3a 79 a7 8a 39 14 f9 c3 ba 11 32 04 bc
       0.00076730776 0.00026446188 -0.001495155 -0.008068577
0002a0 6d b8 46 bc 22 75 c2 3b 78 f2 18 ba 8f 86 22 bc
       -0.0121289315 0.0059343735 -0.00058344705 -0.009919777
0002b0 85 41 24 3c d4 19 2f bc a3 12 02 bb a8 cf 00 bb
       0.010025387 -0.01068731 -0.0019847534 -0.0019655023
0002c0 68 3c 45 3b 89 0c 12 3c e3 ea 6f bb 33 1d dc bb
       0.003009582 0.008914121 -0.003660851 -0.006717348
0002d0 bc a0 e2 bb 20 f2 02 3a f0 1c bf bb c1 ec b8 b9
       -0.0069161337 0.0004995186 -0.005832307 -0.0003527161
0002e0 1e 22 b3 bb 14 0b 4f ba 99 47 7c 3b 6a 88 d9 bb
       -0.0054667136 -0.0007898074 0.0038494824 -0.0066385763
0002f0 d1 be d9 bb 09 25 1a 3c 44 89 12 bb 9b 42 73 bc
       -0.0066450615 0.009408244 -0.0022359649 -0.014847423
000300 db 68 56 bb 70 76 28 3b 54 e8 ed bb e5 20 7d b9
       -0.0032716307 0.002570536 -0.0072603617 -0.00024140214
000310 99 1a 69 b7 df a9 6f bc e0 44 60 3c 26 87 ae 3b
       -1.3894075e-05 -0.014627903 0.013688296 0.0053261695
000320 36 f1 78 bc a8 47 c0 3b 49 16 22 bc 6b 03 30 bc
       -0.015194228 0.005867917 -0.0098930085 -0.010743002
000330 ad c6 ad bb b4 88 6e bc 16 66 1f 3c ed fb 0b bb
       -0.005303225 -0.01455896 0.009728929 -0.0021359876
000340 6b 84 a0 38 2e cb d5 38 80 d0 7f 3b bd b2 06 bc
       7.654059e-05 0.000101944766 0.0039034188 -0.008221325
000350 5d 06 de 39 07 0d a7 bb 43 d4 0b bc af 1b 0b bb
       0.0004234788 -0.0050979885 -0.008534494 -0.0021226218
000360 33 9b 28 bc 84 5d 25 3c 49 67 5f 3b 93 48 03 bb
       -0.010290909 0.010093097 0.0034088662 -0.0020032271
000370 eb 49 ae 3b 1e 9f ed bb 9f bc 64 3b f4 f8 b3 bb
       0.0053188703 -0.0072516343 0.0034902466 -0.005492324
000380 50 ce f9 ba 0b 31 2b bc 63 37 2b 3c da a8 53 3c
       -0.0019058678 -0.0104487045 0.010450217 0.012918675
000390 9a 2a b4 bb 66 ef 0c bb be a5 15 bc 19 a8 a4 3b
       -0.0054982426 -0.0021504997 -0.009133754 0.0050249216
0003a0 bc be 2b 3b 18 81 f0 b8 01 31 87 bb 40 74 24 3b
       0.0026206216 -0.000114681374 -0.004125715 0.0025093704
0003b0 67 90 8d bb 43 63 87 bb 7f 90 46 bc ba d0 9b 3b
       -0.0043201926 -0.004131706 -0.0121194115 0.0047551068
0003c0 27 23 b7 bb 76 f6 2b bc 8b b7 2c bc e3 c4 75 3b
       -0.0055889073 -0.010495773 -0.010541807 0.0037501387
0003d0 ec 40 d7 3a 9a 1c af bb 35 35 f5 ba 01 51 bf ba
       0.0016422546 -0.0053439857 -0.0018707874 -0.0014596285
0003e0 f8 59 81 3c a5 e1 d3 bb eb e0 0e bb 16 f4 dc 3a
       0.01578997 -0.006466108 -0.0021801542 0.0016857411
0003f0 81 e6 98 3b 14 72 6a 3c df ca 8a 3a c6 e0 c2 3b
       0.00466615 0.014309425 0.0010589025 0.0059472052
