checkpoint/NGs/20231108_102852682861.pth (torch, 583559 bytes, 6 tensors)

convs.0.weight f4 [24, 6000]
00000000: aac6 e7bd 0d69 3d3d adc1 4bbd 8f1d c4bb
00000010: 4a5a 1ebd bceb 7dbd f0fb 8bbd def0 31bd
00000020: add6 3f3d deb2 92bd e0db 333e cb0f c33a
00000030: 1340 dbbd 7092 14bd a572 513c f7cd 6dbd
00000040: 2b64 c7bd d1f9 bbbc 0f61 97bc 3a8f 693e
00000050: da26 47bd fdd5 f63c 3b33 5ebb 31da 44bd
00000060: d31e 533d 7de3 ecbb 08fb c63d 41ed 3abd
00000070: afaf b3bd 4106 963c 3a20 003d 539f 913c
00000080: ac73 3cbd ff83 b33c dbbb 0bbd cb4e 8e3d
00000090: f4d0 22bd 91ad c73d 6793 b23d 86b5 d93d
000000a0: c45a 2fbd 3f5f 923e f08f 89bc 05b5 03bd
000000b0: 6daa 0cbd bd42 0ebd e679 5738 1209 023d
000000c0: d6e2 babc 810b f93c c78d 6fbc 4ffb 8e3d
000000d0: 436f 943d bae4 443e 87f9 febd 9cec 67bd
000000e0: dac2 86bd c96e 483e b858 7e3c 806d 71bd
000000f0: 9621 4c3d 95c1 913d 9d54 45bc 03db dfbc
00000100: deaf fcbc 244d 08bd 1bb7 243e 4526 413e
00000110: b2de 463e ad0f 63bd 0243 85bc a1d0 953d
00000120: bf81 323c adca c53b 48c5 6e3d eb9a 703e
00000130: f326 a33d 7536 9dbd c2ae cf3d 294e 82bd
00000140: c164 34bc 8105 cebd 36bd ec3d 5789 f43b
00000150: 0f83 a73d b362 52bd f528 94bc 86a8 07bd
00000160: 67fd 8dbd 2f3b 3dbc 8002 25be 2311 6c3e
00000170: ce34 1dbd 38fa 6ebc cff4 ecbc 00e8 373e
00000180: a49d 5fbd 4a18 f83d ae97 11bc 676b 44bd
00000190: 8cef 9cbc b2f1 b2bd ce89 c3bc f78b 52bd
000001a0: 31d0 973d 6a23 24bd e4f9 7f3e 9f6e 7dbd
000001b0: 37ac a0bc bf82 823d 4dde 2dbd edb0 d9bd
000001c0: 8dae fd3d 9173 f33c ceb4 2abd b901 0abe
000001d0: 05be 67bd b650 a9bc 3d6c aebb 857a 393e
000001e0: abc3 d4bd 3919 263b 496c 52bd 87f7 f93d
000001f0: 6691 ba3c 2cf6 b23e 212e 613c bde5 68bb
00000200: 87c2 8e3e c4b4 8e3e c41d 0c3e 4cc1 8b3e
00000210: 8da4 283e a015 a63e bdc0 a33d e7cf 903e
00000220: a60f 7e3e f5d5 ad3d 0a4c 8e3e cc85 773e
00000230: 2409 933e a338 8d3e ff0c 9f3e 861d 013e
00000240: 47ba 3f3e d16c 1a3c fa4c cc3c 3bde a1bb
00000250: a767 243d b072 b0bb 76b9 62bd 5415 34bc
00000260: 9d52 aebd 48b3 1dbd 8645 053c 83c5 813d
00000270: 7340 173c a62b 02bc b0b4 91bd 8f3c 8fbd
00000280: 2e79 afbd bbe0 9abd d0b0 57bd f1fa ec3d
00000290: ff14 c7bd ab67 cc3c f7f1 93bd e547 223d
000002a0: a7e3 6a3d 1a03 89bd 1b38 a5bc ea05 71bc
000002b0: 62d7 13bc 9192 69bc b7c6 7a3d 4973 1c3c
000002c0: 5e54 6cbd 4f3b ebbc 9839 283e 5b59 9f3d
000002d0: 46df a1bd 73b6 083d 8c6b 793d 4e2c 853c
000002e0: 6a07 063d f868 c2bd 4f31 f93c aaa3 423d
000002f0: cfbc 09bd 2e4d 93bd d1a4 3fbc f061 563e
00000300: a867 85bd 4efc 373e b9ff e9bc f1e6 9e3b
00000310: fac9 763e c908 18bc eb69 ba3b 0c38 2a3e
00000320: 31e5 6e3e a96d 8dbd 8892 9d3c 64ad 8ebb
00000330: 91aa ebbc 65ea 51bb b50f febb 1fea 54bd
00000340: 2503 d13d d558 94bd 6f40 2f3c 5f5f 533b
00000350: fd6a 423c fe38 9abd d843 b1bd 30c4 c2bb
00000360: 7e3c acbd 0ddb 8abc 8a80 9cbd f5ff efbc
00000370: 2d38 c7bc b8a4 3e3e 8f85 8ebb 682a 67bd
00000380: 3e8d 8abd fad3 263b dfb5 57bb 8d4e cabc
00000390: 8a57 93bd 1f48 133e 7d29 e8bc 893b 98bd
000003a0: 8deb 78bd 90ae d1bd f3d0 2f3c e82d e93b
000003b0: 4452 3abd e6a7 143c 286d eebc 1abd 523b
000003c0: 7daa c73d d448 30bd 5f78 ebbc 6cd5 df3b
000003d0: accb 3bbd ea5b 273d b134 103d 3224 183e
000003e0: acb4 46bd 2049 c9bc 6630 84b8 77de 1dbd
000003f0: 3edd c83a e243 0f3d 5e12 22bd 2381 623d
-0.11317189 0.046242762 -0.04974525 -0.005984969 -0.038660325 -0.061992392 -0.06835163 -0.0434426
0.04683559 -0.071630225 0.17564344 0.0014882026 -0.107055806 -0.036272466 0.012783681 -0.05805775
-0.097359024 -0.02294627 -0.018478898 0.22808543 -0.048621036 0.030131334 -0.0033905047 -0.048059646
0.05154307 -0.007229267 0.09715849 -0.04563642 -0.08773743 0.018313529 0.031280734 0.017776167
-0.04600875 0.021913527 -0.0341147 0.06948622 -0.039750054 0.09749902 0.08719521 0.10630326
-0.04281117 0.28588292 -0.016792268 -0.032155056 -0.03434222 -0.034731615 5.137352e-05 0.03174693
-0.022813242 0.030400993 -0.014621205 0.06981527 0.07247784 0.19227877 -0.12449937 -0.056622133
-0.06580134 0.19573511 0.015524082 -0.058942318 0.049836718 0.07117001 -0.012044099 -0.027326113
-0.030845579 -0.033276692 0.16085474 0.18862255 0.19420889 -0.05543487 -0.016267303 0.073151834
0.010895192 0.0060361237 0.05829361 0.23496597 0.07966413 -0.076764025 0.10140754 -0.06362564
-0.01101035 -0.100596435 0.115595266 0.0074626612 0.08179294 -0.05136366 -0.018085936 -0.0331197
-0.06933098 -0.011549755 -0.16114235 0.23053412 -0.038380437 -0.014586024 -0.028925328 0.17959595
-0.054593697 0.12114008 -0.008886261 -0.04795399 -0.019157194 -0.08737506 -0.023869421 -0.051403012
0.07412756 -0.040072836 0.2499767 -0.061873075 -0.019613368 0.06372594 -0.04244833 -0.10629449
0.123868085 0.029718192 -0.041676335 -0.1347722 -0.0565777 -0.020668369 -0.0053229616 0.18113144
-0.10388883 0.0025344624 -0.0513728 0.12205415 0.02277441 0.3495344 0.013743908 -0.0035537325
0.27882788 0.27872288 0.1368323 0.2729591 0.16469021 0.32438374 0.07995746 0.28283617
0.24810657 0.08488075 0.27792388 0.24172133 0.2871791 0.27582273 0.31064603 0.12608919
0.18723403 0.009425358 0.024939049 -0.004939822 0.040137913 -0.0053847656 -0.05535265 -0.010991413
-0.08511851 -0.038501054 0.008134251 0.063365005 0.0092316745 -0.007944977 -0.071145415 -0.069939725
-0.08568035 -0.07562395 -0.052658856 0.11571301 -0.097208016 0.024951776 -0.072238855 0.039619345
0.057346012 -0.06690045 -0.020168355 -0.014710883 -0.009023519 -0.014256136 0.061224665 0.0095489705
-0.057697646 -0.028714804 0.1642822 0.07780715 -0.07903914 0.033377122 0.06089358 0.016256478
0.032721914 -0.094926775 0.03041902 0.047519363 -0.033627328 -0.07192455 -0.01169701 0.20935798
-0.065139115 0.1796734 -0.02856432 0.0048493077 0.24100485 -0.009279438 0.005688896 0.16622943
0.23329617 -0.06905682 0.01923491 -0.004354166 -0.028767856 -0.003203058 -0.0077533373 -0.051981088
0.10205678 -0.07243506 0.0106965145 0.003225289 0.011866328 -0.07530402 -0.08655518 -0.0059437975
-0.084099755 -0.016950155 -0.076417044 -0.029296855 -0.024318779 0.18617523 -0.0043494175 -0.056436926
-0.06765221 0.0025455938 -0.00329148 -0.024695659 -0.07194431 0.14382981 -0.028340096 -0.074332304
-0.060771514 -0.10238373 0.01073097 0.007116068 -0.04548861 0.009073233 -0.029104784 0.003215617
0.09749315 -0.043038204 -0.02874392 0.006830862 -0.045848534 0.04085914 0.0352065 0.14857557
-0.048512146 -0.024571002 -6.3032654e-05 -0.038542237 0.0015324724 0.034976847 -0.039568298 0.055298936

convs.0.bias f4 [24]
00000000: 79c2 6d3d 1aca 013e 1be9 193e feaf a33d
00000010: 68a7 dd3d b15b bd3d 5585 603c f9a2 e83d
00000020: 20d9 693d 30de 3b3d a75b 0a3e f9a0 173d
00000030: d5c9 413e 3691 7c3d 6191 aa3c 9709 65bd
00000040: 9a27 a63d 18eb e93d e073 263e e5c0 5b3d
00000050: 87e5 323e facc 963d d3ac d33d 2b96 c73d
0.05804679 0.12674752 0.15030329 0.07992552 0.10822946 0.092460044 0.013703664 0.113592096
0.057091832 0.04586619 0.13511525 0.03701875 0.18924649 0.06166192 0.020821275 -0.05591735
0.08113022 0.11421794 0.1625514 0.053650755 0.1747037 0.07363315 0.10335698 0.09745439

convs.1.weight f4 [24, 24]
00000000: ec1d 833d 09d0 2abd 559a 593d ff2d 51bc
00000010: 3b17 a7bc b4b8 233d be01 4abd a94c 3cbd
00000020: ab59 393d 5bea 43bd 6c0e a7bd ef0f 573d
00000030: 1862 bd3a 6bbc 3abb 5be9 62bc 5387 acba
00000040: b2ce 5bbc 7fd5 64bb 1054 edbd 98cf a9b9
00000050: d863 14bd 5ea5 93bd cd51 dbbd e948 e6bd
00000060: a23a cdbc ceeb 303c f9c4 e23d ab97 613d
00000070: 7191 82bd a02a 6ebd 60f4 b1bd 09a5 ecbc
00000080: e46d 8abc 3494 2dbd 7aa8 74bd 9903 b6bd
00000090: ba10 d63d 07f7 97bc 9df9 71bd ccef 1f3b
000000a0: 61dd 073c c042 09be 476c 363c 21b0 07bd
000000b0: 58a3 edba bdd8 26bc 378f a5bd 708d adbd
000000c0: 5b4f 5c3b 4357 ce3c 990c 4f3d 6354 e4b8
000000d0: 247d 97bd aea6 17bc 1dbc 4dbd dbb5 31bd
000000e0: 2cf4 c0bd 0d62 06bd 7e55 fdbd 221e 85bd
000000f0: 3386 473d f16d 09bc 564c 7bbd 7a2d 213b
00000100: 5281 613c d16d 1fbe 63d7 8f3d d272 f3bc
00000110: bd99 61bd d1c5 b43c 7eaa 9dbd 7463 62bd
00000120: 8aad be3c 42da 1a3d 4d15 8c3d a0f5 ab3d
00000130: 1eb9 683d 0097 113d 287f 9bbd d6e7 ccbb
00000140: 1a75 083c 6667 e3bc 614b eabd 4435 a4bd
00000150: b1de 383d 848a ba3d 06d8 0ebd 9bed 053b
00000160: e9b6 d23d 0645 d9bd 5d47 ffbd f0c2 6cbc
00000170: 48ae a5bd ad8d c6bd c7ae fbbb f075 8ebd
00000180: d06e d8bb 7d5e 8abc 0fc5 1bbc 9156 e23d
00000190: e98b 353d 9087 09bd 6f55 e2bd 6e1f 9cbc
000001a0: e2e5 0fbc f6cd f7bc 5684 f4bd 1c0f e7bd
000001b0: c749 4d3d 43bb c33d d880 34bd a555 02bb
000001c0: f2e7 a93d 695f 92bd c8d0 d1bd b3b5 2ebd
000001d0: 3e21 37bc d3b6 97bd 9e2c 3fbd 55e0 49bc
000001e0: f3fc c3bd ac8f 9bbd 3105 bbbc 4085 173d
000001f0: 4087 763d 496e e8bc 0f58 59bd be08 3e3c
00000200: 65b5 8ebd ca32 9a3c af8d 36be 36f2 64bd
00000210: e63b 06bd dc61 8f3d 8884 6b3c 3e1b 3ebb
00000220: 7579 043c 8d50 a0bd a8ae 8cbd 3e5f 7a3c
00000230: 1fb7 76bd 97d5 82bd 6f89 fcbb 0fa4 82bb
00000240: 82bb a03c 3437 81bd a246 03be c84b 50bd
00000250: e18b 80bd 116f 88bd 8ab9 8039 1aaa 28bd
00000260: c288 97bd 69e2 b6bc 33f7 3fbd a639 9a3d
00000270: c7a9 09bd d377 d0bd 95f8 f739 5bef 5fbb
00000280: 61ed 00be bcd4 96bd aa00 20bd c6bb b63b
00000290: 657b 09be fea3 eebc e312 42bd e5c5 81bd
000002a0: d9fa dabc 0ae2 50bd 02f2 edbc fe72 a23b
000002b0: 57cc eebc 64af 83bc d384 4abc 31f3 fd3c
000002c0: 85d1 52bd 54cb 0f3d 162c d2bd 9c72 c33b
000002d0: eb56 e03b 68d6 0dbc 3d32 203d e2da 0dba
000002e0: 256e 01bd 1ae2 61bd 68b7 d8b9 ece5 4d3d
000002f0: 85d7 a7bd 98cb 973c 737d f1bc 0e4f f7bc
00000300: 5c04 fc3c 07ba 1abd 2dbe 09bd db1b 02bd
00000310: 2d27 8abb f071 9b3b 6391 acbd 7b48 ddbc
00000320: 18ec d53c c56c 5dbd 77b0 acbd 5c7f d4ba
00000330: addb 99bd 71b3 3ebc f7dc 84bd fbbd 38bc
00000340: 4e39 58bd e5a9 bcbc 269e 2cbe 8bbd b5bc
00000350: 3360 b5bd 68f3 c9bd 17e9 babd 1f7f 0bbe
00000360: de41 bcbc 0cd3 30bd c3c4 f4bb d635 99bc
00000370: a02c f1bc 1ecc 21bd 9089 88bb 2e54 193d
00000380: 1208 7ebd b394 cc3c 76ea 9fbd ed5f 103d
00000390: 7610 98bc 9ad4 3cbd 5101 803d be2a c23a
000003a0: 4007 17bd 3f1a 40bd ef93 f3bb 1efb 2e3d
000003b0: bc60 b8bd 8a54 ad3c 50ae 0ebd 2f29 0ebd
000003c0: 6aa8 01be ae43 05bd 4b25 b0bd b8ca 44ba
000003d0: 1561 3fbd 6e64 febd c2ff 33bd a1b8 c7bd
000003e0: c116 84bd e1cd a4bd 5b56 b8bd 7499 9fbd
000003f0: cc2a 2f3c 9b5c 55bd edf8 0ebe 333a a5bc
0.064021915 -0.041702304 0.053125698 -0.012767314 -0.02039682 0.03997107 -0.049318068 -0.045971546
0.04525153 -0.04783092 -0.08157048 0.05250543 0.001444879 -0.0028493654 -0.013849582 -0.0013162888
-0.013415979 -0.0034917293 -0.11588299 -0.0003238886 -0.03622803 -0.07209276 -0.10708962 -0.11244375
-0.025052372 0.010798408 0.11072726 0.055076282 -0.06375397 -0.05814612 -0.08689189 -0.028887289
-0.016898103 -0.042377666 -0.059730984 -0.08887405 0.10452409 -0.018550409 -0.05907594 0.0024404405
0.008292527 -0.1340437 0.011134214 -0.033126954 -0.0018130345 -0.01018351 -0.08083957 -0.08474243
0.0033616635 0.025188094 0.050549123 -0.000108876055 -0.073969156 -0.009256048 -0.050228227 -0.04338632
-0.09421572 -0.032808352 -0.12369822 -0.06499888 0.048711967 -0.0083880285 -0.061352096 0.0024593757
0.0137637425 -0.15569235 0.07023504 -0.029717837 -0.055078257 0.022066982 -0.076985344 -0.055270627
0.02327611 0.037805803 0.0684 0.083964586 0.056817167 0.035544395 -0.075926125 -0.006253223
0.0083287 -0.027759265 -0.11440159 -0.08017972 0.04513425 0.09108451 -0.034873985 0.0020435813
0.102887936 -0.10608868 -0.12464783 -0.014450774 -0.08089882 -0.09694991 -0.007680747 -0.069560885
-0.0066050068 -0.016890759 -0.009507432 0.110516675 0.04432288 -0.033576548 -0.110514514 -0.019057956
-0.008782836 -0.030249577 -0.119393036 -0.11282179 0.050119188 0.09557202 -0.044068187 -0.0019887474
0.08296193 -0.07147104 -0.102449 -0.04265375 -0.011177359 -0.07407918 -0.04667341 -0.012321551
-0.095697306 -0.075957626 -0.022829624 0.03699231 0.06018758 -0.0283729 -0.053062495 0.011598764
-0.06968192 0.018823046 -0.17827486 -0.055895053 -0.032771967 0.07001087 0.01437486 -0.0029007937
0.008085598 -0.07827864 -0.068692505 0.015281497 -0.06023323 -0.06388395 -0.007706813 -0.0039868425
0.01962066 -0.06309357 -0.12819913 -0.05085352 -0.0627668 -0.06661809 0.000245523 -0.041177846
-0.07399131 -0.022324758 -0.046866607 0.07530527 -0.033609178 -0.10179105 0.0004729672 -0.0034169767
-0.12590553 -0.073647946 -0.039063133 0.0055765836 -0.13425978 -0.029130932 -0.047381293 -0.063365735
-0.026730942 -0.050996818 -0.029046062 0.004957556 -0.029150171 -0.016074844 -0.012360769 0.030999752
-0.051469345 0.03510602 -0.10262315 0.0059645902 0.006846299 -0.008657075 0.03911041 -0.0005411339
-0.031599183 -0.055147268 -0.0004133538 0.0502681 -0.08195404 0.018529698 -0.029478764 -0.030189063
0.030763797 -0.037775066 -0.03362863 -0.031764846 -0.004216096 0.004743807 -0.08426168 -0.0270121
0.026113555 -0.05405881 -0.084320955 -0.0016212272 -0.07512603 -0.011639462 -0.06487458 -0.011275764
-0.052789025 -0.02303023 -0.16857204 -0.022185108 -0.08856239 -0.09860879 -0.091264896 -0.13622712
-0.022980627 -0.04317002 -0.007469745 -0.018702429 -0.029440224 -0.039501302 -0.0041667894 0.037433796
-0.062019415 0.024973249 -0.07808392 0.035247732 -0.018562537 -0.04610119 0.06250251 0.0014813764
-0.03687215 -0.04690003 -0.0074334065 0.042719953 -0.090028256 0.021158475 -0.034834206 -0.034707244
-0.12661901 -0.032535248 -0.08600863 -0.0007507014 -0.046723444 -0.12421499 -0.04394508 -0.09752012
-0.064496525 -0.08047081 -0.09000846 -0.07792941 0.010691356 -0.05209027 -0.13962145 -0.020169353

convs.2.weight f4 [24, 24]
00000000: ef33 3e3e ff57 d4bb a6c8 45bd 3427 bfbc
00000010: 0082 aabd 3525 a6bd d5cb 183d 808d 44bc
00000020: 7220 283e df0d ecbc f3f6 a4bd e8dd 413d
00000030: 8af9 40bd b3e2 93bd e09f 723d 438c 573d
00000040: 0481 4bbd eac9 80bd b639 7fbe f844 bc3d
00000050: 894f 74be ac8a 09be d9ca 13be e7c1 56be
00000060: 4208 ffbc 0aa9 873d 4f55 1b3e 516d 313d
00000070: d23b afbd 77ab 1ebe a618 e5bd 48f2 52bd
00000080: 5011 56bd c33d 0bbd 86b8 a3bd 8cac 3fbc
00000090: bde5 353e b378 5cbd f658 93bd 06a3 c1bd
000000a0: 9b63 0b3d 6a01 30be 5afa 483d 3082 c4bc
000000b0: e263 f03c 6d1a 513d 23be f4bd ebea dabd
000000c0: 76af 2cbd 6bf5 ef3d 2c9a 053e b087 043d
000000d0: 9565 98bd 906f ccbd 7108 fdbd bbdd 4ebd
000000e0: bdfe bdbd 9437 dfbc 71ae b8bd be01 43bd
000000f0: b2c2 383e 2d49 2fbd f29b babd 2925 6ebd
00000100: cd77 853d 5fa4 6dbe dc8a b63d cedb 1cbc
00000110: ecb8 2d3d b73d 983d 1ac3 0cbe 9514 f0bd
00000120: 47ef 543d fa72 243d e367 313d 31f4 da3d
00000130: 5d78 0b3d 83c7 763d 6208 0fbe 6b0f 543d
00000140: 3b21 bf3d b827 933d f0fe 64be a3e0 debd
00000150: 707c 4ebd 50ce fc3d e635 92bd 013b 52bd
00000160: 59af 2f3e 9e84 efbd 4761 b9bd 9c42 143d
00000170: 4f75 fabd ecf6 30be 40fd 84bd 044e 15be
00000180: ea54 82bd 6c15 5cbd a1ec e4bc 961d 043e
00000190: 26c0 8f3d 390c 2e3e 6fa3 f8bd 43fb 28bb
000001a0: fde2 adbc 845e c63c 2041 e7bd 9f4a 02be
000001b0: 6e3e a5bd e913 313e 5685 7fbd 6056 66bd
000001c0: d873 103e dc32 b73a 1cf0 1ebe 2d29 2cbd
000001d0: 7c4c 5fbc a13e 13be 622d 493d e8b2 fa3c
000001e0: da3b 7abd cd74 15be ae3e 21be e237 8f3d
000001f0: bc86 883d f8f9 4a3e ceee c8bd 5a5d 163d
00000200: dd43 b6bd 07e5 863d 7df4 4bbe 8f30 d6bd
00000210: 64a0 18be 1a45 e73d 4885 34bc bf67 c03d
00000220: 39ba 6b3d 5c33 afbc cc24 f2bd 6c91 363d
00000230: 6848 c5bd 2293 d5bd b66b a63d 4e73 843d
00000240: 639e ef3d 081f edbd 8ba9 bfbd b1d9 e7bd
00000250: e18e 11be 5727 18bd b2ee 8d3d 787b 06bd
00000260: cb35 f3bb 74dd 04bd 0757 acbc e334 cb3d
00000270: 9a93 f4bd d879 31be 497c e23d 4966 553e
00000280: 14f1 37be f8b6 273d 907c 2abe 9f02 913d
00000290: 2869 19be 2e17 a1bd 9a4b 43bd d631 85bd
000002a0: b9cc e83c a725 0abe e0ce ddbc 030e 1c3c
000002b0: a968 86bc 7ae4 923d 897f 3fbd bc92 b43d
000002c0: 3f62 50bd 43c5 ca3d 051f 5fbe 5e10 91bb
000002d0: d478 94bb a3f0 b1bc 17a3 9d3d a5e6 283e
000002e0: 242b acbd 6544 15be 1526 5ebc 7182 0a3e
000002f0: 98a5 25be 1716 1a3c 5dbc c238 ce29 b93a
00000300: b95c 1a3e 5af8 253a b1ea e9bc bbfb ac3c
00000310: 0148 a6bd 98ac 7abd ee62 ff3c 466a 17bd
00000320: 84f0 ee3d 37e8 62bd d8d9 eebc 2d2c dc39
00000330: b776 1cbe ad3a b3bd 3793 1c3c 9118 243d
00000340: a591 c2bc 062e 223a d8f6 6cbe 5152 2b3d
00000350: 4528 51be 1447 2cbe 95da babd 9079 20be
00000360: 3b28 2ebb 97ad 12be 4e5d dfbc 480d 01bd
00000370: e789 b2bc 9dc2 9f3d 62dc 66bd 3459 a73d
00000380: cabe 8bbd 7251 9c3d 14da 35be f96c 9abb
00000390: ed63 0cbd dbe1 12bd 8e92 b23d 66c2 133e
000003a0: b1c4 b1bd bda6 dabd 2d9d 1cbc 8852 ce3d
000003b0: 8061 18be c9e6 c83c bf39 593c 4e33 093d
000003c0: f904 32bc 9fcc 8dbd 03ae debd 5ce8 b2bd
000003d0: c11f a8bd a409 11be 1fc7 d83d 57f9 0ebe
000003e0: d961 86bc ce28 28be 8685 e33d 954f abbb
000003f0: 9db7 e1bd 837b 1cbe 839d 27bb 80a6 3cbc
0.18574499 -0.0064802165 -0.048287056 -0.023334123 -0.08325577 -0.081125654 0.037303764 -0.011996627
0.16418627 -0.028815208 -0.08054914 0.047330767 -0.04711298 -0.07220974 0.0592345 0.052624
-0.049683586 -0.06288512 -0.24924359 0.09192842 -0.23858465 -0.13431805 -0.14432849 -0.20972405
-0.031131867 0.066240385 0.15169261 0.043317143 -0.08556332 -0.15495096 -0.11186342 -0.05150059
-0.052262604 -0.033994447 -0.079941794 -0.011698853 0.1776342 -0.053826045 -0.07194702 -0.094549224
0.034030538 -0.1718804 0.04906688 -0.02398786 0.029344503 0.051050592 -0.11950328 -0.10689338
-0.04215952 0.11716732 0.13047093 0.032355964 -0.0744125 -0.09982216 -0.12355126 -0.050504427
-0.09277103 -0.027248181 -0.09017647 -0.047609083 0.1804302 -0.042794395 -0.091117755 -0.058140907
0.06516991 -0.23207234 0.08913204 -0.00957389 0.042412683 0.07433646 -0.137463 -0.11722676
0.051986005 0.040148713 0.043311965 0.10691107 0.034050334 0.060248863 -0.13968042 0.051772516
0.0933251 0.0718531 -0.22362876 -0.1088269 -0.05041164 0.123440385 -0.071391866 -0.0513258
0.17156734 -0.116952166 -0.09051757 0.036196336 -0.12229406 -0.17281693 -0.06493616 -0.14580542
-0.06363852 -0.053731367 -0.027944865 0.12901911 0.07019071 0.1699685 -0.121405475 -0.002578453
-0.0212264 0.02421499 -0.112917185 -0.12723778 -0.08068548 0.17292751 -0.06238302 -0.056234717
0.14106691 0.0013976949 -0.15521282 -0.042031456 -0.013629075 -0.1437936 0.049115546 0.030602887
-0.061092235 -0.14595337 -0.15746567 0.06993081 0.066663235 0.19821918 -0.098111734 0.03671012
-0.08899663 0.06586652 -0.19917484 -0.104584806 -0.14904934 0.11292477 -0.011018105 0.09394788
0.057550643 -0.021386795 -0.11823425 0.04457228 -0.09632951 -0.10428454 0.08126013 0.06467305
0.11700132 -0.11578184 -0.0935851 -0.11320818 -0.1421466 -0.037146892 0.06930293 -0.032832593
-0.007422184 -0.032437757 -0.021037592 0.09922197 -0.11942215 -0.17331636 0.11058862 0.208398
-0.17963058 0.040945977 -0.1664908 0.07080578 -0.1498152 -0.07865749 -0.04767952 -0.06503646
0.028417932 -0.13490926 -0.027076185 0.009524825 -0.016407328 0.07172485 -0.046752486 0.0881705
-0.050874945 0.09900906 -0.21789177 -0.004427 -0.0045310054 -0.02172119 0.076971225 0.16494234
-0.08406666 -0.14576872 -0.013558884 0.13526322 -0.1617645 0.009404681 9.285726e-05 0.0014126839
0.15074433 0.0006331258 -0.028554292 0.021116128 -0.081192024 -0.061199754 0.031175103 -0.036966585
0.116669685 -0.05539724 -0.02915661 0.00041994583 -0.15279661 -0.08751426 0.009556583 0.04006249
-0.02375109 0.00061866676 -0.23141038 0.04182655 -0.20425518 -0.16823989 -0.091237225 -0.15671372
-0.0026574272 -0.14324032 -0.02726617 -0.031506807 -0.021794273 0.078007914 -0.056362517 0.08171311
-0.068234995 0.07632722 -0.17758971 -0.0047126976 -0.034274984 -0.035859924 0.08719359 0.14429626
-0.08680094 -0.10676334 -0.009558958 0.10074335 -0.14880943 0.02452411 0.013258397 0.033496194
-0.010865443 -0.06923794 -0.10873034 -0.08735725 -0.082091816 -0.14163834 0.10584854 -0.13962303
-0.01640408 -0.16421816 0.11109452 -0.005227993 -0.110213496 -0.15281491 -0.0025576062 -0.011514306

convs.3.weight f4 [5, 24]
00000000: 063f 733e 64ab 813e 7de0 773e 3f8a bf3e
00000010: 63c1 473e ee54 473e dc04 a6be 04de 2a3e
00000020: bed6 ac3e c154 713d 9e99 b1be 40cf 6ebe
00000030: 72a8 503e 01f9 cb3e 3f93 34be 7fe6 bebe
00000040: 0372 603e 224b abbe 78d4 03bf 0ff1 883d
00000050: ed8d c5be 2df9 c1be 0e2d 51be 526b aebe
00000060: 5dcf 40be 93e8 4f3e 503a 543e 5daa 57bd
00000070: 337e 0dbd 1f1f 32bf 591b cfbd 4d11 49be
00000080: 5507 2abe c8fb 2bbe 9347 153e e055 c9bd
00000090: 1a1c 813e 04ed 16bc ceb9 fabd cb23 1cbf
000000a0: 61c9 92bd 87d9 71be 9b37 b73e 2d31 43be
000000b0: dae0 a13e f3f4 be3e 948f d5bc 68a5 973c
000000c0: 98ca b2be 03de adbd d5ca b8be dfcb 2c3e
000000d0: 7007 7a3e 82ac a63e acc4 1ebd b487 3abe
000000e0: 47fa 3fbd 052c 75be 3be2 1d3e 5840 91be
000000f0: 4110 a3be c6b1 d03e 43e8 7cbe b364 e5be
00000100: de4f 9d3e 13a8 b63e 4fc7 e1be 9408 12bf
00000110: 6983 873e c004 a4be 2c36 e53e 686e d03e
00000120: 7921 9b3c ec7b 0dbf f47c f4be 90a6 d4be
00000130: 3139 9bbd d944 953e 1a27 d83d fc67 f23e
00000140: 9948 f4be 0375 d43e 67f4 ecbe 496d 293d
00000150: ae17 8ebe 3c11 1ebe bd31 b53e bc7a ca3e
00000160: e1b2 debe fad3 d8be b3ae a53e 09ab d53e
00000170: 19c3 c4be 3b24 a23e 0401 0a3e 81e0 523e
00000180: e0ec e73e 4fca cbbd f41d e1be f148 c7be
00000190: 6b11 e5be 05fc ffbe e97a ab3e 3036 8fbe
000001a0: 2760 dc3e 9bb1 6bbe 5dc4 ac3e daa0 593e
000001b0: 7616 cdbe 385d d0be fbf0 8f3e d9e3 c93d
000001c0: 4b77 06bf 10b4 bd3e 2cbe e6be 6c1c d33c
000001d0: 727d b5be c390 34bd 89c1 14be 81de 0ebe
0.2375451 0.25326073 0.24206729 0.3741016 0.19507365 0.19465992 -0.32425582 0.16686255
0.33757585 0.05891872 -0.34687513 -0.23321247 0.20376757 0.39838412 -0.17634295 -0.3728523
0.21918492 -0.3345576 -0.51496077 0.06686603 -0.38584843 -0.3788542 -0.20427343 -0.34066254
-0.18829103 0.20303564 0.2072537 -0.052652705 -0.03454418 -0.6957874 -0.10112638 -0.19635506
-0.1660436 -0.16795266 0.14578085 -0.098308325 0.25216752 -0.009211782 -0.12242471 -0.60992116
-0.07167316 -0.23618136 0.3578461 -0.19061728 0.3161686 0.37296256 -0.02606944 0.018511489
-0.34920192 -0.08489611 -0.3609225 0.16874646 0.244169 0.32553488 -0.03876178 -0.18215829
-0.046869542 -0.23942573 0.15418331 -0.28369403 -0.31848338 0.4076063 -0.24697976 -0.4480339
0.30724996 0.35675105 -0.44097373 -0.5704434 0.26467445 -0.32034874 0.44767892 0.40709233
0.01893686 -0.55267215 -0.47751582 -0.41533327 -0.07579268 0.2915409 0.10554333 0.4734496
-0.47711638 0.41495523 -0.46280214 0.041363988 -0.2775244 -0.15436262 0.3538951 0.39546764
-0.4349585 -0.42349225 0.32359847 0.41732052 -0.38430098 0.31668267 0.1347695 0.20593454
0.4529791 -0.09950697 -0.43968165 -0.38922837 -0.4473985 -0.49996963 0.3349221 -0.2797103
0.43042108 -0.2301697 0.33743563 0.21252766 -0.400562 -0.4069612 0.2811354 0.098579116
-0.52525777 0.3705144 -0.45066965 0.025770389 -0.3544727 -0.044083368 -0.14526953 -0.13952066

convs.3.bias f4 [5]
00000000: e2e1 73be b263 f83e ae17 003d bcc6 19be
00000010: c5d2 a73e
-0.23816636 0.4851356 0.031272583 -0.15017217 0.32777992
